ThinkMatch/exp_aaai/ngm/CV2/saved_models/model.pt (torch, 207121 bytes, 25 tensors)

affinity_layer.lambda1 f4 [64, 64]
0	0x3eddefd2	0.4334703
1	0x3d8e54d2	0.06949772
2	0x3ca60e18	0.020270392
3	0xbc8fc6d9	-0.017550873
4	0x3e6b1506	0.22957239
5	0x3d2776f3	0.040884923
6	0xbd67cfd2	-0.056594677
7	0xbce5547e	-0.02799439
8	0xbd1ba05a	-0.03799472
9	0x3d3b6d18	0.045758337
10	0xbd16a45b	-0.036777835
11	0x3dd0460d	0.10169611
12	0x3c2d9275	0.010594
13	0x3d3e7700	0.046500206
14	0x3d84fae5	0.06493167
15	0x3c479a68	0.012182809
16	0xbcd02999	-0.02541046
17	0x39c842a8	0.00038196635
18	0xbd886a87	-0.066609435
19	0x3cd4fcb3	0.025999403
20	0x3c4eb1d9	0.012615644
21	0xbcd5bae2	-0.02609009
22	0x3b210c7a	0.0024574087
23	0xbce6ca2c	-0.028172575
24	0xbcd00dcd	-0.025397206
25	0xbd25da70	-0.04049152
26	0xbcb3faec	-0.021970235
27	0x3cc09d22	0.023512427
28	0xbd72eed6	-0.059309803
29	0xbd17e14e	-0.0370801
30	0xbc8916e1	-0.016734542
31	0x3d868207	0.065677695
32	0x3d6932e2	0.05693329
33	0x3dbcd280	0.09219837
34	0x3cbcf9ff	0.023068426
35	0x3d55bbe3	0.052181136
36	0x3b04e808	0.0020279903
37	0x3da19482	0.07889654
38	0x3abd5667	0.0014445306
39	0x3d403957	0.046929684
40	0x3bedec5e	0.007260843
41	0xbdadb27a	-0.08481307
42	0x3df49135	0.119417585
43	0xbd45c1ac	-0.048280403
44	0xbda04123	-0.07824924
45	0xbc56f8b5	-0.01312082
46	0x3bd0a61f	0.0063674594
47	0xbd96e94c	-0.073687166
48	0x3d05ace0	0.03263557
49	0xbc34a5b4	-0.011025835
50	0xbb451d63	-0.003007733
51	0x3d5e2751	0.054236714
52	0xbd47ade9	-0.048749838
53	0xbd9b2ace	-0.07576524
54	0x3cc5e220	0.024155676
55	0xbd4fa444	-0.050693765
56	0x3b46e4c4	0.0030348757
57	0x3a187084	0.0005815106
58	0xbca774c5	-0.020441422
59	0xbd5d73e9	-0.05406562
60	0xbac42297	-0.0014963922
61	0xbda71a02	-0.081592575
62	0xbd8f395b	-0.069933616
63	0xba8efc71	-0.0010908974
64	0xbd8f0252	-0.069828644
65	0x3f0642f3	0.52445906
66	0xbd953021	-0.072845705
67	0xbd89d89c	-0.06730768
68	0xbd98d158	-0.07461804
69	0xbd2539f2	-0.040338464
70	0xbd710b4f	-0.058848675
71	0xbcd4edf0	-0.025992364
72	0xbd819f77	-0.06329244
73	0xbd973c06	-0.073844954
74	0x3d3b7594	0.045766428
75	0x3d47b0ff	0.04875278
76	0x3c27342e	0.010205312
77	0x3da02241	0.078190334
78	0xbd0852fa	-0.033282258
79	0x3c3abed3	0.011398035
80	0xbd8970fd	-0.06711004
81	0x3d9efc0c	0.07762918
82	0x3d15e766	0.036597632
83	0xbd8e6bd1	-0.06954158
84	0xbce9cf1c	-0.02854114
85	0x3da85b84	0.0822058
86	0x3e39a0e6	0.18127784
87	0xbd89d33a	-0.067297414
88	0x3d130fce	0.035903744
89	0x3d5d238c	0.05398898
90	0xbcd903a8	-0.026491001
91	0x3d5d4ba7	0.054027226
92	0xbc87fa89	-0.016598957
93	0xbd46d3be	-0.048541777
94	0x3e71d592	0.23616627
95	0xbb2e6066	-0.002660775
96	0x3cdd19cd	0.026989842
97	0x3d4740d1	0.048645798
98	0xbccf8fbb	-0.02533709
99	0x3d47c9a2	0.048776276
100	0xbcf5b575	-0.029993752
101	0xbd933e75	-0.07189647
102	0x3c9fbe2c	0.01949986
103	0xbcbc7f8d	-0.02301004
104	0xbd270d6e	-0.040784292
105	0xbd930d3b	-0.07180258
106	0x3d6b1311	0.05739123
107	0x3dfa7b0c	0.122305006
108	0xbd4f7555	-0.050649006
109	0x3d4a01ec	0.04931824
110	0xbd3e5cb2	-0.04647512
111	0x3cdea133	0.027176475
112	0xbd846c96	-0.064660236
113	0xbd94fa7e	-0.0727434
114	0xbcedabae	-0.029012527
115	0xbca39f0a	-0.019973297
116	0xbd9d5340	-0.07681894
117	0x3e034692	0.12819889
118	0xbda9f99e	-0.08299564
119	0x3d8a5241	0.0675397
120	0x3c1577ef	0.009122833
121	0x3e8a7914	0.270455
122	0xbd86ffcb	-0.065917574
123	0x3d262146	0.040559076
124	0x3d8c1dd1	0.068416245
125	0x3d61a27d	0.0550866
126	0xbcfb4c38	-0.030675992
127	0xbd0aa043	-0.033844244
128	0x3cf198bd	0.029491777
129	0x3cdecf8a	0.027198572
130	0x3eda06c3	0.42583284
131	0x3db8b588	0.09018999
132	0xbd825abd	-0.06364963
133	0x3bf42e18	0.007451784
134	0x3da66c9a	0.08126183
135	0xbd30e987	-0.04319146
136	0xbd30eaa2	-0.043192513
137	0x3ce6c9f4	0.02817247
138	0xbd08b6cd	-0.033377457
139	0x3d4549ec	0.0481662
140	0xbd461c8c	-0.04836707
141	0xbcf0110c	-0.029305004
142	0x3d035d59	0.032071445
143	0x3d897f03	0.06713679
144	0x3d54f6e7	0.051993277
145	0x3d3e9322	0.046527036
146	0x3d7b9d3a	0.06142924
147	0xbc30271e	-0.010751514
148	0x3d970ac6	0.07375102
149	0xbd4b3093	-0.04960687
150	0xbdb096fe	-0.086225495
151	0xbc74e466	-0.014947033
152	0x3d58f101	0.052964214
153	0xbd246466	-0.04013481
154	0xbcfc8523	-0.030825203
155	0x3cbb6973	0.02287743
156	0x3d2c198a	0.042016543
157	0xbdabd6b1	-0.083905585
158	0x3d660349	0.056155477
159	0x3cb3c7a3	0.02194578
160	0xbdb3a598	-0.08771819
161	0x3c105ae3	0.008810732
162	0xbd8bcdf7	-0.06826394
163	0xbdaa863f	-0.08326387
164	0x3cc6fb3e	0.024289723
165	0x3d4feda1	0.05076373
166	0x3d90349c	0.070412844
167	0x3d9b6e70	0.07589424
168	0x3d8b8c4a	0.068138674
169	0xbc0ecfe5	-0.008716558
170	0xbd263d82	-0.040586002
171	0xbc9dae48	-0.019248143
172	0xbd69fe08	-0.05712703
173	0xba91b23f	-0.0011115744
174	0x3d146533	0.036229324
175	0xbd9d264c	-0.0767332
176	0x3da6fd73	0.0815381
177	0x3d532959	0.051553104
178	0xbd02e151	-0.03195316
179	0xbc7078ae	-0.01467721
180	0xbd95b831	-0.07310522
181	0x3d0d2fff	0.0344696
182	0x3d05c504	0.032658592
183	0x3da3d731	0.08000029
184	0xbc4b70ef	-0.012417062
185	0xbd0f95f9	-0.035055134
186	0xbd2457e1	-0.04012287
187	0x3c3f9c2c	0.011694949
188	0xbdaf3b76	-0.08556263
189	0xbd8ad79a	-0.06779404
190	0xbc442ec9	-0.011974045
191	0xbd97575e	-0.07389711
192	0x3c3b37fb	0.011426921
193	0xbbc52783	-0.006016673
194	0x3d46b7fa	0.048515297
195	0x3f086d10	0.53291416
196	0xbd4ddf9e	-0.050262086
197	0x3d38b7a5	0.045097012
198	0x3dd593da	0.10428591
199	0xbd17d9bc	-0.037072882
200	0xbd3bb1ff	-0.045824047
201	0xbd9465de	-0.07245992
202	0xbd75c2c2	-0.06000019
203	0x3de9e31c	0.11420271
204	0xbd052ed7	-0.032515373
205	0x3d874c58	0.06606358
206	0x3d9d70a6	0.076875016
207	0xbb187f30	-0.002326917
208	0xbd3a8223	-0.045534264
209	0xb9b2c777	-0.0003409942
210	0x3d3ee8f7	0.04660889
211	0x3d0a06ec	0.033698007
212	0x3cb54aa2	0.022130314
213	0xbd48ffc3	-0.04907204
214	0x3cc02cf0	0.023458928
215	0xbce3a6df	-0.027789531
216	0xbd94fe48	-0.07275063
217	0x3d672284	0.0564294
218	0xbc279d5c	-0.0102303885
219	0xbd39db64	-0.045375243
220	0xbda716ea	-0.081586674
221	0xbce2cf08	-0.02768661
222	0x3de30d3a	0.11086507
223	0x3d13365b	0.03594051
224	0x3c575f31	0.013145254
225	0x3db09321	0.086218126
226	0xbd642ff5	-0.055709798
227	0xbc88a257	-0.016678972
228	0xbd98cf84	-0.074614555
229	0xbd3cd005	-0.04609682
230	0xbd8a68a1	-0.06758238
231	0x3d85fc63	0.065422796
232	0xbdb3f0c2	-0.08786155
233	0xbd234db6	-0.039869033
234	0xbbe3829e	-0.006943061
235	0xbd848d97	-0.064723186
236	0x3b406339	0.0029356016
237	0x3e169fac	0.14709347
238	0xbd27840c	-0.040897414
239	0x3a6e0455	0.0009079625
240	0xb894cd42	-7.095422e-05
241	0x3c77fc22	0.015135797
242	0x3cb8602c	0.022506796
243	0x3dda60a3	0.10662963
244	0x3c86f49e	0.016474064
245	0x3c588017	0.013214133
246	0xbc901f21	-0.017592968
247	0x3c8f9ba7	0.017530276
248	0x3d453601	0.048147205
249	0xbd623ac3	-0.05523182
250	0x3bf8cf84	0.007593097
251	0x3c9d9b23	0.019239014
252	0xbc5e7962	-0.013578745
253	0xbdab520f	-0.08365261
254	0x3d42d963	0.047570597
255	0x3d3a01f1	0.045412008

affinity_layer.lambda2 f4 [64, 64]
0	0x3ef23c01	0.47311404
1	0xbd58e433	-0.052952003
2	0x3d8b3160	0.06796527
3	0xbd1dfc31	-0.038570587
4	0x3af4d920	0.0018680431
5	0xbc2c9c79	-0.010535353
6	0xbd2b0120	-0.04174912
7	0xbdaf6eae	-0.08566032
8	0x3ce753a5	0.028238127
9	0xbc309fc4	-0.010780279
10	0xbd7d78b9	-0.06188271
11	0xbca013cc	-0.01954069
12	0x3d7f5d3a	0.062344767
13	0x3c0d7701	0.00863433
14	0x3d860eff	0.06545829
15	0xbd32cbdf	-0.043651458
16	0x3d3bcfa9	0.045852337
17	0x3d05480e	0.03253942
18	0x3d98ec20	0.07466912
19	0xbc3bc3e1	-0.011460275
20	0x3d49771b	0.049185853
21	0x3dcd452f	0.10022961
22	0xbd21380b	-0.039360087
23	0x39d28060	0.00040149968
24	0x3d2087ee	0.039192133
25	0x3d0bff33	0.034178924
26	0xbcc477d7	-0.023982925
27	0x3d31c1f2	0.04339785
28	0xbd9cf45f	-0.076637976
29	0xbd7b636c	-0.061374113
30	0xbd4105b7	-0.04712459
31	0xbbdcc328	-0.0067371316
32	0x3d8eb78d	0.06968603
33	0xbba2ce60	-0.0049684495
34	0x3d221999	0.039575193
35	0x3d99d4ec	0.07511315
36	0x3cecf44a	0.02892508
37	0x3d30128e	0.042986445
38	0xbd98a3f4	-0.074531466
39	0x3cf117a9	0.029430227
40	0x3ceb4574	0.028719641
41	0x3daa4bfa	0.08315273
42	0xbcda34a9	-0.026636438
43	0xbd81c6e6	-0.06336765
44	0xbc8bbeb2	-0.017058704
45	0x3c5aed26	0.013362205
46	0x3d8d3b7e	0.06896113
47	0xbd4882e1	-0.04895294
48	0x3d373121	0.044724587
49	0xbcba6068	-0.022751048
50	0xbd9b6998	-0.075885
51	0xbd06632b	-0.032809418
52	0x3d6f9326	0.05848994
53	0x3cb3cf97	0.021949572
54	0xbcf08777	-0.02936147
55	0xbce480f4	-0.02789352
56	0xbda4ef72	-0.08053483
57	0x3db4dbb1	0.08830965
58	0xbdbdea6d	-0.09273229
59	0xbc1d43eb	-0.009598712
60	0xbd857177	-0.06515782
61	0xbd8643d9	-0.0655591
62	0xbcd18cec	-0.025579892
63	0xbda67793	-0.08128276
64	0x3d3deb0c	0.046366736
65	0x3f0bd438	0.54620695
66	0xbd261dcf	-0.04055577
67	0xbd1aafea	-0.03776542
68	0xbd972059	-0.07379217
69	0x3c988640	0.018618703
70	0xbd835bea	-0.064140156
71	0xbc597525	-0.013272558
72	0x3d2ebb17	0.04265889
73	0xbc9b7137	-0.018974883
74	0x3ca45874	0.020061709
75	0x3cae6063	0.021286195
76	0x3cb02c11	0.021505387
77	0x3c2c9484	0.010533456
78	0xbcb6821d	-0.02227884
79	0xbcde7261	-0.02715415
80	0x3d0b257d	0.0339713
81	0xbdafe061	-0.08587719
82	0x3c76f865	0.01507387
83	0xbd7c1099	-0.061539266
84	0xbdb197bc	-0.08671519
85	0x3d333370	0.043750226
86	0x3ce6d3e5	0.028177211
87	0xbd158f80	-0.036513805
88	0xbd28aa51	-0.04117805
89	0x3d80930d	0.06278048
90	0x3cb2d782	0.021831278
91	0xbd30b867	-0.04314461
92	0xbd89628a	-0.06708248
93	0xbd88a70b	-0.06672486
94	0x3cea72de	0.028619226
95	0xbc1ad9e8	-0.009451367
96	0x3d27b039	0.040939543
97	0xbd0b81f1	-0.03405947
98	0xbc7e89a7	-0.015535749
99	0x3d88ea77	0.066853456
100	0x3d82ef1f	0.06393265
101	0xbd2cdb21	-0.042201165
102	0x3d9b7f85	0.07592682
103	0x3d800609	0.06251151
104	0x39617a8a	0.00021503321
105	0xbd2a461f	-0.04157078
106	0x3d588ca7	0.05286851
107	0x3cff09cc	0.031132601
108	0xbcc1fe9b	-0.023680976
109	0xbd98296e	-0.07429777
110	0x3c80660f	0.015673665
111	0xbce97db4	-0.028502323
112	0xbcf8dc20	-0.030378401
113	0x3dad5fa6	0.08465509
114	0xbd4c8dee	-0.049940042
115	0x3d984046	0.07434134
116	0xbda5f26e	-0.081028804
117	0xbd467904	-0.048455253
118	0x3e0d8e01	0.13823701
119	0x3d24505e	0.040115707
120	0xbda38d0a	-0.079858854
121	0xbcbef9c8	-0.023312464
122	0xbd67f8e4	-0.056633845
123	0xbccee8f7	-0.02525757
124	0xbd9d63d2	-0.07685055
125	0x3cf0d613	0.029398954
126	0xbd157729	-0.036490593
127	0xbc8a6a8e	-0.016896512
128	0xbc97fa01	-0.018551828
129	0xbd12e5fe	-0.03586387
130	0x3eff1904	0.49823773
131	0xbbbadf62	-0.005702899
132	0x3d9cc38a	0.076544836
133	0xbd90c59a	-0.070689395
134	0xbc484cbb	-0.012225325
135	0x3bff0ec5	0.007783743
136	0x3c9ffb3a	0.019528974
137	0xbd555a57	-0.052088108
138	0xbccc34de	-0.024927553
139	0x3cb6a9d2	0.022297774
140	0xbcf7fa8b	-0.030270835
141	0x3d914d26	0.07094793
142	0x3d0126ff	0.03153133
143	0x3c7bc709	0.015367278
144	0xbd94fa14	-0.07274261
145	0xbd6a47f2	-0.05719752
146	0xbc96e927	-0.018421723
147	0x3d0402a0	0.032229066
148	0xbd2e66de	-0.04257857
149	0xbdacb86d	-0.08433614
150	0x3d466c0f	0.048442896
151	0xbda04d7d	-0.0782728
152	0x3d59cff9	0.053176854
153	0xbd14734d	-0.036242772
154	0xbc4d2bb7	-0.012522629
155	0x3cdbadbc	0.026816241
156	0x3cf6b8b8	0.030117378
157	0xbd4e3ca8	-0.050350815
158	0xbcf2c2b0	-0.02963385
159	0xbcc926ad	-0.024554575
160	0xbd0e3a24	-0.034723416
161	0x3b9b0a0c	0.0047314223
162	0x3d405fc4	0.04696633
163	0xbd176998	-0.036965936
164	0xbc9273dd	-0.017877514
165	0xbd482e0d	-0.048872042
166	0xbd9292bf	-0.07156896
167	0x3d8a1af0	0.06743419
168	0xbd3754c7	-0.044758584
169	0x3da9d28d	0.082921125
170	0x3d758e3d	0.059950102
171	0xbc402186	-0.011726743
172	0x3c4ca941	0.012491525
173	0x3c471b49	0.012152501
174	0x3cc637cb	0.024196526
175	0xbd82dccf	-0.06389772
176	0x3d3f59c2	0.04671646
177	0x3d2116c1	0.03932834
178	0xbd9467a7	-0.072463326
179	0x3c87dc52	0.01658455
180	0xbd12120a	-0.035661735
181	0x3d91a7df	0.07112097
182	0x3da03a20	0.078235865
183	0xbdb16293	-0.0866138
184	0x3d9e831a	0.077398494
185	0xbd3641ec	-0.04449646
186	0xbce1cb74	-0.027562834
187	0x3cdc1ede	0.026870187
188	0xbd8c40b9	-0.06848282
189	0xbd9403fd	-0.07227323
190	0xbd9d5022	-0.076813
191	0x3d5d5b2b	0.054042023
192	0x3d0038cb	0.031304162
193	0x3d0ad765	0.033896822
194	0x3c6ec026	0.014572179
195	0x3ee3654c	0.4441322
196	0xbc8d7695	-0.017268458
197	0xbd407193	-0.046983313
198	0xbd832638	-0.06403774
199	0xbca064ac	-0.019579254
200	0xbd45f5c7	-0.048330095
201	0xbcb7a33e	-0.022416707
202	0x3da55bd7	0.08074158
203	0xbc78f695	-0.0151955085
204	0x3b1e6048	0.0024166275
205	0xbd7b7867	-0.06139412
206	0x3d869fde	0.06573461
207	0xbd9aaa81	-0.07552052
208	0x3da1caf2	0.07900037
209	0x3c4edb14	0.0126254745
210	0xbdab4332	-0.08362426
211	0xbb81c58e	-0.003960318
212	0x3c4bd80a	0.012441644
213	0xbb457d40	-0.003013447
214	0xbd287aa1	-0.041132573
215	0xbc1d14ad	-0.009587449
216	0xbc0ba78d	-0.008523834
217	0xbd2276cb	-0.03966407
218	0x3db01516	0.08597772
219	0xbc9c0b2e	-0.0190483
220	0x3d0252ae	0.03181713
221	0x3d1964e4	0.037449732
222	0xbb32dac1	-0.0027291032
223	0x3d3e7882	0.046501644
224	0x3d6cc34d	0.05780344
225	0x3c11185f	0.008855908
226	0xbd927d7c	-0.071528405
227	0x3d5ef308	0.05443099
228	0xbd0f73a5	-0.035022397
229	0xbc6499e2	-0.013952704
230	0x3db0f1ae	0.08639847
231	0xbd15b2d7	-0.036547508
232	0x3e11f44b	0.14253347
233	0x3c9956cd	0.018718148
234	0x3c579b80	0.013159633
235	0xbc1528a0	-0.009103924
236	0x3d8f82ca	0.07007368
237	0xbd9613d6	-0.07328002
238	0xbd7edf26	-0.06222453
239	0xbdae0cf9	-0.08498568
240	0xbd869564	-0.06571463
241	0x3c98f5ce	0.018671896
242	0x3d236555	0.03989156
243	0xbc622803	-0.013803485
244	0xbc937f75	-0.018005112
245	0xbd2a35e8	-0.041555315
246	0xbdae0c4a	-0.08498438
247	0x3ce1ddc7	0.027571572
248	0xbab6c255	-0.0013943414
249	0xbd95f68d	-0.073224165
250	0x3cdb6233	0.026780223
251	0xbd650ee2	-0.055922396
252	0x3c727cf5	0.0148003
253	0x3b198b2e	0.0023428905
254	0x3c060a64	0.008181188
255	0x3d56dc5f	0.052456256

node_layers.mlp_0.weight f4 [64, 121]
0	0x3c2192f6	0.009861698
1	0x3d57ab84	0.052653804
2	0xbdd1b2e4	-0.10239199
3	0xbceb269e	-0.028704938
4	0xbd83c016	-0.06433122
5	0xbda55733	-0.080732726
6	0xbdbaae24	-0.09115246
7	0x3d9c1c0f	0.07622539
8	0x3d6d5940	0.057946444
9	0x3cbda546	0.023150098
10	0xbd9d54be	-0.07682179
11	0x3bd59c71	0.0065188934
12	0x3d8fca81	0.070210464
13	0x3d9f109e	0.07766841
14	0x3c9731ef	0.018456427
15	0x3cabef01	0.02098799
16	0x3d38073c	0.044928774
17	0xbdd15c5f	-0.102226965
18	0xbd418dfc	-0.047254547
19	0x3c924dc2	0.017859343
20	0x3d177673	0.036978196
21	0xbafe867c	-0.0019418742
22	0xbc66b4ca	-0.014081189
23	0x3dbf9f5c	0.09356567
24	0xbd1b8250	-0.037966073
25	0x3d3f15f2	0.046651788
26	0xbd8f2699	-0.06989784
27	0xbd9009c0	-0.0703311
28	0xbd2dc8b6	-0.04242774
29	0xbd9b02e6	-0.07568912
30	0x3c8de1ee	0.017319646
31	0x3d91cc8c	0.07119092
32	0xbd90da8b	-0.07072934
33	0x3dd43a1b	0.10362645
34	0xbce39f00	-0.027785778
35	0xbd27eb16	-0.04099568
36	0x3d582d42	0.052777536
37	0xbc1f69e9	-0.009729841
38	0x3d4d9767	0.050193217
39	0x3c56664b	0.013085912
40	0x3dcf24f6	0.101144716
41	0x3defcfc4	0.1170955
42	0xbda7d620	-0.08195138
43	0x3dbf6c40	0.09346819
44	0x3d9f266f	0.077710025
45	0xbcc8f1cd	-0.024529362
46	0x3e01ff2e	0.12695
47	0x3b9d25a5	0.0047957473
48	0x3da60c0f	0.08107769
49	0x3cfa2c6e	0.030538764
50	0x3cf0aadd	0.029378349
51	0x3db28886	0.08717446
52	0xbd1fc956	-0.03901037
53	0x3d7de495	0.06198557
54	0xbb3740d8	-0.0027962234
55	0x3d193995	0.03740843
56	0xbd2f92e3	-0.04286469
57	0xbd9c7586	-0.07639603
58	0x3d1f6246	0.03891208
59	0x3dfa3794	0.12217632
60	0xbd5c7faf	-0.053832706
61	0x3dff35c4	0.12461427
62	0x3c58112f	0.013187691
63	0x3d3ec5a3	0.0465752
64	0x3caf87d3	0.02142707
65	0x3d95880f	0.07301342
66	0xbc7d46af	-0.015458747
67	0xbe0547a8	-0.13015616
68	0x3c415efb	0.01180243
69	0x3d3c16f8	0.045920342
70	0xbe095230	-0.13410258
71	0x3daf4cf5	0.085596
72	0x3d2fe665	0.04294433
73	0x3c570bb0	0.013125345
74	0xbe1e1057	-0.1543592
75	0xbd9eceda	-0.077542976
76	0xbd37992e	-0.044823818
77	0xbbd2a421	-0.006428257
78	0xbd594ff4	-0.053054765
79	0xbcd25e13	-0.025679624
80	0xbe85b831	-0.2611709
81	0xbb042ed8	-0.0020169523
82	0xbddd3713	-0.1080152
83	0xbddc4d6a	-0.10756953
84	0xbd946441	-0.072456844
85	0x3c15dc01	0.009146691
86	0x3cd017c3	0.025401955
87	0x3d8c674a	0.06855638
88	0xbb4a3936	-0.0030856854
89	0x3d92ced8	0.071683586
90	0x3e453dc0	0.19261837
91	0xbe371f88	-0.17883122
92	0xbc6a9a0d	-0.014318955
93	0x3d8718f4	0.06596556
94	0x3b01e116	0.0019818
95	0x3da96bcc	0.08272514
96	0x3ddf3923	0.1089957
97	0xbc8166f5	-0.015796164
98	0x3ca76ab6	0.020436626
99	0xbea26ee5	-0.3172523
100	0x3c7557a2	0.014974507
101	0xbd297563	-0.041371714
102	0xbdc559f4	-0.09636298
103	0xbcc61401	-0.02417946
104	0xbe1702c8	-0.14747155
105	0xbe230ea7	-0.15923558
106	0x3d4dac36	0.05021306
107	0xbaa8399b	-0.001283455
108	0xbea6fb03	-0.32613382
109	0x3bf817dc	0.0075712036
110	0xbdb1cd1c	-0.086817
111	0xbda14471	-0.07874382
112	0xbdc3fd15	-0.09569756
113	0x3dc8aec7	0.09798961
114	0x3e79ddb9	0.24400987
115	0x3e5c0ef1	0.21490075
116	0x3d9b8936	0.0759453
117	0x3d191e1b	0.037382226
118	0xbd590939	-0.05298731
119	0xbd7a1cd6	-0.061062656
120	0xbdb30bad	-0.08742461
121	0xbdee0820	-0.116226435
122	0xbceaaa10	-0.028645545
123	0xb98562bb	-0.00025441297
124	0x3c927683	0.017878776
125	0xbdce20f6	-0.100648805
126	0x3c5eca88	0.013598092
127	0x3de370c0	0.1110549
128	0xbe57bfb2	-0.2106922
129	0xbded882a	-0.11598237
130	0x3d14e9b1	0.036355678
131	0x3c839abe	0.016064998
132	0x3d02bc8b	0.03191809
133	0xbd693f71	-0.056945268
134	0xbe051c8b	-0.1299917
135	0x3d97f3ea	0.0741957
136	0x3b6818b2	0.003541511
137	0x3dbfb676	0.093609735
138	0xbd8934c7	-0.066995196
139	0x3cbdace5	0.023153732
140	0x3cb5c329	0.022187786
141	0x3c7642db	0.015030588
142	0x3c862bdf	0.016378341
143	0x3d5326ee	0.051550798
144	0xbb8c5678	-0.004282769
145	0x3c099f70	0.008399829
146	0xbd790877	-0.06079909
147	0xbd9c35e4	-0.07627466
148	0x3d5d5ec9	0.054045472
149	0x3c0b00aa	0.008484045
150	0x3d41cb47	0.047313
151	0xbdaaefa8	-0.08346492
152	0x3d9a48cc	0.07533416
153	0xbc9b6b56	-0.01897208
154	0x3c7eb0ee	0.015545113
155	0xbce5926a	-0.028023917
156	0xbd04b7e1	-0.032401923
157	0xbc94dc98	-0.018171594
158	0xbdf81b42	-0.12114574
159	0x3de6d8cd	0.1127182
160	0xbd3429b2	-0.043985076
161	0x3d9924bc	0.0747771
162	0x3aff2efe	0.0019468961
163	0x3d647d6b	0.05578367
164	0xbd289208	-0.04115489
165	0xbcb28ec9	-0.0217966
166	0x3d68ffa7	0.056884434
167	0xbd587794	-0.052848414
168	0x3cc5ee6e	0.024161544
169	0x3dbb3e70	0.091427684
170	0xbe008d14	-0.12553817
171	0xbda4c720	-0.080457926
172	0xbd6bf9b1	-0.05761117
173	0xbd6c5e5d	-0.05770718
174	0xbd67cb5b	-0.05659042
175	0x3d1fa94c	0.038979813
176	0x3b17d255	0.002316614
177	0xbdb94e06	-0.09048085
178	0x3d8b22a8	0.067937195
179	0x3cc8d1a5	0.024514029
180	0xbb873e11	-0.004127272
181	0x3ccc2521	0.024920048
182	0xbdcfa20f	-0.10138332
183	0xbd4e7b19	-0.050410364
184	0xbd95effb	-0.07321163
185	0x3b142161	0.0022602903
186	0x3d827656	0.06370227
187	0xbd7526f5	-0.059851605
188	0x3d5a9e55	0.053373653
189	0x3dc89e29	0.09795792
190	0xbd7a8312	-0.061160155
191	0xbc677318	-0.014126562
192	0xbd9d5c2f	-0.07683598
193	0xbe13369e	-0.14376304
194	0xbaa023e2	-0.0012217725
195	0xbda80017	-0.08203142
196	0x3cc6160a	0.02418043
197	0x3c64c3ab	0.0139626665
198	0xbd30d57d	-0.04317235
199	0xbd72105f	-0.059097644
200	0xbe097cfd	-0.13426585
201	0x3c32a28b	0.010903011
202	0xbde14d6d	-0.11001096
203	0x3e0f6c6e	0.14006206
204	0x3e0abaa4	0.1354776
205	0xbd9f8262	-0.077885404
206	0xbdb87e6c	-0.09008488
207	0x3bc4558e	0.005991644
208	0xbd9ed194	-0.077548176
209	0x3d2c7bed	0.042110372
210	0xbcedb98c	-0.02901914
211	0x3d5ade08	0.0534344
212	0xbe1442f3	-0.14478664
213	0xbcc95906	-0.024578582
214	0xbe201c21	-0.1563573
215	0xbdc78056	-0.09741275
216	0x3d9c7229	0.07638962
217	0x3e041417	0.12898289
218	0xbdc5c8fa	-0.09657474
219	0xbe22fb26	-0.15916118
220	0x3d03987b	0.03212784
221	0x3e0d2895	0.13785012
222	0x3cf61b1f	0.03004223
223	0xbe072dc0	-0.13201046
224	0xbe2d2e40	-0.16912174
225	0x3c9db1aa	0.019249756
226	0xbca69ab3	-0.020337438
227	0x3daff8ac	0.08592352
228	0x3de4dff3	0.111755274
229	0x3db5be5b	0.08874198
230	0x3da04750	0.07826102
231	0x3d839135	0.064241804
232	0xbda255cc	-0.07926521
233	0x3d0f96e5	0.035056014
234	0x3c536d3b	0.012904461
235	0x3e4993b9	0.19685258
236	0x3e17918d	0.14801617
237	0x3ce1b81f	0.027553616
238	0x3d89be93	0.06725802
239	0x3d4e71ed	0.050401617
240	0x3e196c8d	0.14982815
241	0x3cb7f6f5	0.022456625
242	0xbcff2a73	-0.031148171
243	0xbd934064	-0.07190016
244	0x3d2cff5d	0.04223572
245	0xbd5ea8b6	-0.054360114
246	0xbdb29da9	-0.087214775
247	0x3ba9c863	0.0051813587
248	0xbd1272a6	-0.03575387
249	0xbd5c7128	-0.05381885
250	0xbb1648ac	-0.00229315
251	0x3d394a52	0.045236893
252	0x3d00b5f6	0.03142353
253	0xbdb91134	-0.09036484
254	0x3d89a524	0.06720951
255	0x3d3273d4	0.043567494

node_layers.mlp_0.bias f4 [64]
0	0x3da66611	0.08124936
1	0x3d8ca36a	0.06867106
2	0x3bd22f2e	0.0064143157
3	0x3c93bf40	0.018035531
4	0xbd806b4b	-0.062704645
5	0x3c8ee796	0.017444413
6	0x3d8f9a6f	0.07011878
7	0xbd787c7e	-0.0606656
8	0xbd213714	-0.039359167
9	0x3bbc9776	0.0057553602
10	0xbd9212cf	-0.07132494
11	0x3d746b1f	0.05967247
12	0x3cb06463	0.021532243
13	0x3d3254d4	0.04353793
14	0x3b198a19	0.002342826
15	0xbc94c897	-0.018162055
16	0xbdaacc9b	-0.08339807
17	0x3d8cbd60	0.06872058
18	0xbbcdbc9d	-0.006278588
19	0x3d9e2523	0.07721927
20	0xbc2de170	-0.0106128305
21	0xbd84cccb	-0.06484374
22	0x3d7da9b9	0.06192944
23	0x3d8a675a	0.06757994
24	0x3d5c471e	0.05377876
25	0x3d5d5a34	0.054041103
26	0xbd4ab78b	-0.049491446
27	0xbd88d9b1	-0.06682146
28	0x3cf208b8	0.029545173
29	0x3b5b119f	0.003342725
30	0xbdb65f67	-0.08904915
31	0xbda7fa0f	-0.08201992
32	0x3d6e1ed4	0.05813487
33	0xbc26f2f3	-0.01018976
34	0xbd85d128	-0.06534034
35	0x3d5543f6	0.052066766
36	0xbd44e98c	-0.04807429
37	0xbca3760c	-0.01995375
38	0xbdb5fd4c	-0.08886203
39	0x3ce30c1b	0.027715733
40	0xbdcbf5c1	-0.09958983
41	0xbcf15150	-0.029457718
42	0xbc76a6bb	-0.0150544
43	0x3c3e7b69	0.011626103
44	0xbd3c7d9b	-0.046018224
45	0x3d436b40	0.047709703
46	0x3cd1123b	0.025521388
47	0xbd2d5ac0	-0.042322874
48	0x3d926bee	0.07149492
49	0x3d9e06ce	0.07716142
50	0xbda9a0a2	-0.082825914
51	0xbd8823b0	-0.06647432
52	0xbd2adebd	-0.041716326
53	0x3d2a12b2	0.041521735
54	0xbd98cb13	-0.07460608
55	0x3c96651a	0.018358756
56	0xbd0114cd	-0.031513978
57	0x3d6d3b78	0.057918042
58	0x3d9d95ee	0.076946124
59	0xbcdc6c9e	-0.026907261
60	0x3d37f3e5	0.04491033
61	0xbd86ebff	-0.065879814
62	0xbd3567bc	-0.044288382
63	0x3d9ae7a5	0.07563714

edge_layers.mlp_0.weight f4 [64, 121]
0	0xbd19b8bc	-0.037529692
1	0xbd9c47ea	-0.07630904
2	0x3d9eacbe	0.07747792
3	0xbdb38f98	-0.08767623
4	0x3d19c0ee	0.037537508
5	0xbd146502	-0.03622914
6	0x3dbd8610	0.09254086
7	0xbccbdede	-0.024886545
8	0xbcfadca9	-0.030622797
9	0x3d34aa2c	0.0441076
10	0x3d3b4697	0.045721617
11	0xbd338b04	-0.043833748
12	0xbdc77a8c	-0.09740171
13	0x3df860c7	0.12127834
14	0xbd9f17f7	-0.07768243
15	0x3cbca0ec	0.023025952
16	0xbca36ce0	-0.019949377
17	0xbdabf8bb	-0.08397051
18	0xbd9137bd	-0.07090709
19	0xbd70fe93	-0.05883653
20	0xbc9e01d9	-0.01928799
21	0x3d51dff8	0.051238984
22	0xbd234307	-0.039858844
23	0xbd244944	-0.040108934
24	0x3d339cec	0.043850824
25	0x3d8b5d38	0.068048894
26	0x3d31dbd9	0.043422554
27	0x3dcb1e07	0.09917837
28	0x3da59399	0.08084793
29	0x3cccbefc	0.024993412
30	0x3d57141c	0.052509412
31	0xbd0ca394	-0.034335688
32	0x3dab4264	0.083622724
33	0x3d14a9b6	0.03629466
34	0xbcaee1c0	-0.02134788
35	0x3d0b8616	0.03406342
36	0xbd91c7e1	-0.07118202
37	0xbd8de89b	-0.069291316
38	0xbc43b261	-0.011944384
39	0x3d0f3da2	0.034970887
40	0x3c4c04ea	0.0124523435
41	0xbdd0cb85	-0.10195068
42	0xbc5206c7	-0.012818999
43	0x3d53384d	0.051567364
44	0xbd73da74	-0.059534505
45	0x3d006f62	0.031356223
46	0xbcff4446	-0.031160485
47	0x3db53e11	0.08849729
48	0x3cc640d2	0.02420083
49	0x3d4f50b2	0.050614066
50	0x3b913c40	0.004432231
51	0x3e090c46	0.13383588
52	0xbd58a39a	-0.052890398
53	0xbd839a7d	-0.06425951
54	0x3d294f2f	0.04133528
55	0x3cd6a9b7	0.026203973
56	0xbdc9963e	-0.098431095
57	0xbcdc075b	-0.026858976
58	0xbd387f12	-0.04504306
59	0x3cff0af0	0.031133145
60	0xbd6882b0	-0.05676526
61	0x3d82407e	0.06359957
62	0x3c9a2129	0.01881464
63	0xbd5475c8	-0.051870137
64	0xbd9b09e9	-0.075702496
65	0x3da325de	0.07966207
66	0x3c1fddc8	0.009757467
67	0xbc877fee	-0.016540494
68	0x3d92a0e2	0.07159592
69	0xbd504321	-0.05084527
70	0x3d5363ab	0.051608723
71	0xbd01fe7c	-0.031736836
72	0x3d279a9b	0.040918928
73	0x3ab597a3	0.0013854395
74	0xbb2bdb68	-0.0026223306
75	0xbc8d1d88	-0.017225996
76	0x3cbf9bf6	0.023389798
77	0x3cbcaf66	0.023032855
78	0xbd954c33	-0.072899245
79	0xbd60ae2c	-0.054853603
80	0xbdb4a300	-0.08820152
81	0xbd257781	-0.04039717
82	0x3d8b083b	0.06788679
83	0x3cb9beb3	0.02267394
84	0x3e193112	0.14960125
85	0x3de9582a	0.11393769
86	0x3c8154be	0.015787479
87	0x3decbff0	0.11560047
88	0xbd92c30a	-0.07166107
89	0xbd471b6d	-0.04861014
90	0x3dc1b35e	0.0945804
91	0xbe2c25de	-0.1681132
92	0xbd10a7ec	-0.035316393
93	0xbcd94ae5	-0.02652497
94	0x3b4b593f	0.0031028537
95	0x3e049075	0.12945731
96	0x3df2e602	0.11860277
97	0x3e419fad	0.18908568
98	0x3e05d289	0.13068594
99	0x3db527b4	0.088454634
100	0x3d1f3f41	0.038878683
101	0xbd6e4c93	-0.058178496
102	0x3e0e1cf7	0.13878237
103	0x3d93912b	0.07205423
104	0xbd731db8	-0.059354514
105	0x3ddfab30	0.10921323
106	0x3d0040d7	0.031311836
107	0xbd0ec855	-0.03485902
108	0x3e2700f3	0.16308956
109	0x3b5069dc	0.0031801378
110	0xbd9df1d3	-0.0771214
111	0xbcee0fea	-0.029060323
112	0x3d2c6c7e	0.042095654
113	0xbd5c0242	-0.05371309
114	0xbe4dc5ef	-0.20095037
115	0xbc3af9d1	-0.0114121
116	0xbe10804c	-0.14111441
117	0xbde77fcd	-0.11303673
118	0x3db69530	0.08915174
119	0xbc82bb72	-0.015958522
120	0x3d562a6a	0.052286543
121	0xbd63e823	-0.055641305
122	0xbdbf86ac	-0.093518585
123	0xbd2a4201	-0.041566852
124	0xbdd318c0	-0.10307455
125	0x3d825866	0.06364517
126	0xbd94d441	-0.07267047
127	0x3d4bd64f	0.049764927
128	0x3dc37eaa	0.09545644
129	0x3bf77a58	0.0075524263
130	0x3a2c578c	0.0006574325
131	0xbdd701b5	-0.104983725
132	0x3d8c735c	0.068579406
133	0x3d851ff7	0.065002374
134	0xbd0ecb09	-0.0348616
135	0xbd594446	-0.053043626
136	0xbd9b1876	-0.07573025
137	0x3d7a4b17	0.061106768
138	0x3d2c3b05	0.042048473
139	0xbd83bca2	-0.06432463
140	0xbd40d3f0	-0.04707712
141	0x3d92c982	0.07167341
142	0xbc859654	-0.016307034
143	0x3d94cc4c	0.07265529
144	0x3d300385	0.042972106
145	0x3c308558	0.010773979
146	0xbdb15b0b	-0.08659943
147	0xbcd5c4ec	-0.026094876
148	0x3c2873f6	0.0102815535
149	0x3d6a2a05	0.05716898
150	0x3d25095e	0.040292136
151	0x3bfe05a5	0.0077521377
152	0x3bd73962	0.00656812
153	0x3d8c624d	0.06854687
154	0x3d8745b2	0.0660509
155	0xbd98a86b	-0.07453998
156	0x3d82ab93	0.063803814
157	0x3dcbac85	0.09945015
158	0x3d15442f	0.036441978
159	0x3d13a663	0.03604735
160	0x3c7fec5d	0.015620318
161	0x3d83dfaa	0.06439145
162	0x3dc9794f	0.09837591
163	0x3d8ccce2	0.06875016
164	0xbdaeda22	-0.08537699
165	0x3d89ecbc	0.067346066
166	0xbe43821e	-0.19092605
167	0x3dad780c	0.08470163
168	0x3c9d6207	0.019211782
169	0xbe0a5a5c	-0.13511032
170	0x3d46b8fd	0.048516262
171	0x3de72362	0.112860456
172	0x3dbf3f54	0.09338251
173	0x3cedfb54	0.029050507
174	0x3d7898ae	0.06069248
175	0xbc9e321f	-0.019311009
176	0x3db347f7	0.087539606
177	0xbcc18e73	-0.023627495
178	0x3d57730f	0.052599963
179	0x3d9e1622	0.07719065
180	0x3dcbcb88	0.0995093
181	0xbd51668f	-0.051123198
182	0x3cf0da34	0.029400922
183	0x3ae6983e	0.0017592979
184	0x3e1a7168	0.15082324
185	0xbdd61215	-0.104526676
186	0xbd6b3997	-0.05742797
187	0xbd8ababc	-0.06773898
188	0x3d53ca72	0.05170674
189	0x3da984d9	0.08277292
190	0xbd95fd94	-0.07323757
191	0xbdb1bd95	-0.08678738
192	0xbdca2b48	-0.098715365
193	0xbddd16af	-0.10795342
194	0xbe409ec5	-0.18810566
195	0x3b0b516a	0.0021258243
196	0x3d63b989	0.055596862
197	0xbd19924e	-0.037493043
198	0x3dc885c0	0.09791136
199	0x3db563f2	0.08856954
200	0xbbd3cfa2	-0.0064639607
201	0x3da1da72	0.07902993
202	0x3da329c7	0.07966953
203	0x3d1a8b83	0.037730705
204	0xbc15abef	-0.00913523
205	0xbccba626	-0.0248595
206	0xb9c4ef10	-0.0003756215
207	0xbdd7466e	-0.1051148
208	0xbcf68638	-0.030093297
209	0x3e01d5ab	0.12679164
210	0x3dffff3f	0.12499856
211	0xbe5539ae	-0.20822784
212	0xbc474ae6	-0.012163853
213	0xbdc909f7	-0.09816354
214	0x3e057f9e	0.13036963
215	0x3bc5919e	0.006029322
216	0xbd87d395	-0.06632153
217	0xbdb59707	-0.08866697
218	0xbe21fa7f	-0.15818213
219	0xbe315a91	-0.17319705
220	0x3e3fd9ed	0.18735476
221	0x3a6f771a	0.0009134874
222	0xbcc063fd	-0.023485178
223	0xbdab979f	-0.08378529
224	0xbdb391fe	-0.0876808
225	0xbb7e1b43	-0.0038773573
226	0x3d25bcbf	0.040463205
227	0xbd2241f7	-0.03961369
228	0x3d093495	0.03349741
229	0x3d0b61ca	0.034028806
230	0x3b9a7f85	0.0047149085
231	0xbd33b170	-0.04387039
232	0x3c55d306	0.0130508
233	0x3a311352	0.0006754893
234	0x3e090c5f	0.13383625
235	0xbe25fa6c	-0.1620881
236	0x3d9ae012	0.07562269
237	0xbe45290e	-0.19253942
238	0x3d23a8fe	0.039956085
239	0x3b0b5219	0.002125865
240	0x3ca344d2	0.019930277
241	0xbdea2440	-0.114326954
242	0x3d9d17b1	0.076705344
243	0xbd9fd042	-0.07803394
244	0x3d081a5a	0.033228256
245	0xbc49184e	-0.012273861
246	0xbb27c15c	-0.002559743
247	0xbdb23ea8	-0.08703357
248	0x3d16fcca	0.036862172
249	0xbd703b0d	-0.058650065
250	0xbbf96281	-0.0076106195
251	0xbda4e219	-0.08050937
252	0x3d7ae24d	0.061250973
253	0xbc932a52	-0.017964516
254	0xbdbbcfc9	-0.09170491
255	0xbd522361	-0.05130327

edge_layers.mlp_0.bias f4 [64]
0	0x3d9f8162	0.0778835
1	0x3dbc0d29	0.091821976
2	0x3d1c4160	0.038148284
3	0xbd80cfaa	-0.06289609
4	0x3d59cd04	0.053174034
5	0x3c89594e	0.016766217
6	0x3d9a7cc7	0.07543331
7	0xbd7b87f0	-0.061408937
8	0x3d58aca7	0.05289903
9	0xbcfa5d50	-0.030562073
10	0x3d8b61db	0.06805774
11	0x3db24e57	0.087063484
12	0xbdb54d62	-0.0885265
13	0x3da8e80f	0.08247387
14	0xbd9b5679	-0.07584853
15	0xbbdce975	-0.0067416974
16	0xbd89b5c5	-0.06724123
17	0xbcfb5acc	-0.030682944
18	0x3ca98883	0.020694977
19	0xbd9d6005	-0.0768433
20	0xbc30cb35	-0.010790636
21	0xbc37e92f	-0.011225029
22	0xbd2ee33d	-0.04269718
23	0x3d9edb36	0.07756655
24	0xbd828c54	-0.06374422
25	0xbd66eef8	-0.056380242
26	0xbd1ffd18	-0.03905973
27	0x3d522d61	0.051312808
28	0xbdae7ce6	-0.08519916
29	0x3d382cae	0.044964485
30	0x3d04f4dd	0.032460082
31	0x3d43c421	0.047794465
32	0x3d4f3562	0.05058802
33	0x3d887cf8	0.06664461
34	0xbd157109	-0.03648475
35	0xbdb6562d	-0.089031555
36	0xbb322364	-0.002718174
37	0xbda2592d	-0.07927165
38	0xbc5f2046	-0.013618534
39	0xbd99f9a8	-0.07518321
40	0xbca3daa2	-0.020001713
41	0x3a225155	0.0006191929
42	0x3c5c5cd8	0.01344987
43	0xbd2e2b34	-0.04252167
44	0x3d76b9fb	0.06023596
45	0x3d2e44fd	0.04254626
46	0xbb663621	-0.0035127478
47	0xbd89b6c8	-0.06724316
48	0x3da05ceb	0.07830223
49	0x3db76fc9	0.08956868
50	0x3d36ea3d	0.04465698
51	0x3c1eb3f5	0.00968646
52	0xbd4ca111	-0.049958292
53	0x3d90afd8	0.070647895
54	0xbccea699	-0.025225924
55	0xbba41c18	-0.005008232
56	0x3ca6eed1	0.020377548
57	0xbce46174	-0.0278785
58	0x3d77072b	0.06030957
59	0x3d920113	0.07129111
60	0xbabbc500	-0.0014325678
61	0x3d8b6ab4	0.068074614
62	0xbd586e95	-0.052839834
63	0x3d672295	0.056429464

gnn_layer_0.classifier.weight f4 [1, 64]
0	0x3dcf7b48	0.10130936
1	0x3b0fffbc	0.0021972498
2	0x3e297a58	0.16550577
3	0xbd472fb9	-0.048629496
4	0xbd5201df	-0.051271316
5	0x3d7db666	0.061941527
6	0x3d425b35	0.047450263
7	0xbd80c896	-0.06288259
8	0xbd69b92d	-0.057061363
9	0x3de6dbfa	0.11272426
10	0xbcb7a528	-0.02241762
11	0xbb5ffa8b	-0.0034176435
12	0x3d984855	0.07435671
13	0x3cc826f9	0.024432646
14	0xbcf88448	-0.030336514
15	0x3d9f24a0	0.077706575
16	0x3cd23954	0.025662102
17	0x3e0f54c2	0.13997176
18	0xbdad16d5	-0.084516205
19	0xbdd5d015	-0.10440079
20	0x3e0cb4e4	0.1374088
21	0xbcc8eab7	-0.024525983
22	0x3db8edf1	0.09029759
23	0x3cf445ac	0.029818378
24	0x3e1a203f	0.15051363
25	0x3e4a41a3	0.19751601
26	0x3cb088e5	0.021549651
27	0x394383b3	0.00018645711
28	0x3d6b0d7c	0.057385907
29	0xbd2f66a4	-0.042822495
30	0x3d9f69a2	0.0778382
31	0x3d01ee80	0.031721592
32	0x3dd97d42	0.10619594
33	0xbdcdac24	-0.10042599
34	0xbdd8812f	-0.10571515
35	0xbcd900c7	-0.026489628
36	0x3d396484	0.045261875
37	0x3d57d46f	0.052692827
38	0x3d614ec0	0.055006742
39	0x3e0ac65f	0.13552235
40	0xbdc4e13b	-0.09613272
41	0x3c58dd29	0.013236322
42	0x3e29d545	0.16585262
43	0x3cf670d0	0.03008309
44	0xbcbbe16a	-0.022934634
45	0xbcd379c3	-0.025814896
46	0x3e2320f0	0.15930533
47	0xbc592133	-0.013252544
48	0x3d84828b	0.064702116
49	0xbd0ce0f8	-0.034394234
50	0xbcf50697	-0.029910369
51	0xbdc50818	-0.096206844
52	0xbc9f7995	-0.019467155
53	0x3d9a5d7d	0.07537363
54	0xbd1c8989	-0.0382171
55	0xbd9f9a3c	-0.0779309
56	0xbc3df181	-0.011593224
57	0xbcdacf48	-0.026710168
58	0x3db46051	0.088074334
59	0xbd15b91b	-0.036553483
60	0x3dce6352	0.100775376
61	0x3cfc70c3	0.030815488
62	0xbd9d16f0	-0.076703906
63	0x3d83db28	0.06438285

gnn_layer_0.n_func.0.weight f4 [64, 1]
0	0x3efb8324	0.4912349
1	0xbe367cd2	-0.17821053
2	0x3ec8646c	0.39139116
3	0x3ec5dfbf	0.38647267
4	0x3f6c0d1e	0.92207515
5	0xbf1c72a6	-0.6111244
6	0xbf221c8e	-0.6332482
7	0x3d123fe0	0.035705447
8	0x3f536a81	0.8258439
9	0x3f1a898f	0.6036615
10	0x3e8b9229	0.2725995
11	0x3b471000	0.0030374527
12	0x3eb2b447	0.34903166
13	0xbed623a4	-0.41824067
14	0xbf05bdb6	-0.522426
15	0x3f21f1bd	0.6325949
16	0xbe001087	-0.12506305
17	0xbf61cd95	-0.8820432
18	0xbf2a3278	-0.6648326
19	0xbec0f2e4	-0.3768531
20	0x3f37109e	0.7150973
21	0xbf25de2c	-0.6479213
22	0x3f6cbb51	0.9247332
23	0xbf07dace	-0.53068244
24	0x3e9b08bc	0.302801
25	0x3f4fd4f4	0.81184316
26	0xbf7de55e	-0.9917811
27	0xbf1691de	-0.58816326
28	0xbd041300	-0.032244682
29	0x3e072977	0.13199411
30	0x3f1d8965	0.6153777
31	0x3e3c60c8	0.18396294
32	0xbe110e69	-0.14165653
33	0xbe4b4d84	-0.19853789
34	0x3cc6a97d	0.02425074
35	0xbe7d7df8	-0.24755085
36	0xbf25d824	-0.6478293
37	0x3f10c839	0.56555516
38	0x3eac07c1	0.33599666
39	0xbdce5780	-0.10075283
40	0xbd5bd961	-0.053674106
41	0x3f0d83cb	0.55279225
42	0x3f424e88	0.7590108
43	0xbf5f01ac	-0.87111926
44	0xbf46a727	-0.77598804
45	0x3f4aa2c9	0.7915464
46	0x3f7225a1	0.9458867
47	0xbd9fda1d	-0.07805274
48	0x3da5b9a0	0.08092046
49	0x3eb1b7d7	0.3471057
50	0x3f0ec317	0.55766433
51	0x3ec01e8b	0.37523302
52	0x3e1411c8	0.14459908
53	0x3f0e1d2a	0.5551325
54	0xbf103392	-0.5632869
55	0x3cd653c0	0.026162982
56	0x3e4360a8	0.1907984
57	0x3d581195	0.052751143
58	0x3ed9b30b	0.4251941
59	0x3e6a5c10	0.22886682
60	0x3f481c18	0.7816787
61	0x3f4ac5ee	0.79208267
62	0x3f601cc9	0.8754392
63	0xbe1c1529	-0.15242447

gnn_layer_0.n_func.0.bias f4 [64]
0	0x3ede5dc2	0.43430907
1	0x3f463349	0.77422005
2	0xbf6a52c3	-0.91532534
3	0xbe21f376	-0.15815529
4	0xbea177ff	-0.31536862
5	0xbeceee48	-0.4041617
6	0xbf421054	-0.75806165
7	0xbe93a8f8	-0.2883985
8	0xbf28174a	-0.65660536
9	0x3ec5683d	0.3855609
10	0xbdd0ba4c	-0.10191783
11	0xbf1d1dc2	-0.6137353
12	0x3f1239fa	0.57119715
13	0xbe1b0e18	-0.15142095
14	0x3f36e1b3	0.7143814
15	0xbe2d90f7	-0.16949831
16	0x3eb21201	0.3477936
17	0x3f0fd76a	0.5618807
18	0xbe782f60	-0.24236822
19	0x3ebdca13	0.37068233
20	0x3f1f9051	0.62329584
21	0x3d237165	0.039903063
22	0x3f648bad	0.8927563
23	0xbe4337e8	-0.19064295
24	0x3f0c1c3a	0.5473057
25	0xbe525de0	-0.20543623
26	0xbf23ddf2	-0.64010537
27	0x3e5ea603	0.21743016
28	0xbed3510c	-0.4127277
29	0xbd20c355	-0.039248783
30	0x3edfe525	0.4372951
31	0xbf6c9db2	-0.92428124
32	0x3e29929e	0.16559836
33	0x3e888726	0.2666561
34	0xbd927fa2	-0.0715325
35	0xbf389bbe	-0.72112644
36	0x3f15461b	0.583101
37	0x3f6bcf83	0.9211351
38	0xbe140710	-0.14455819
39	0xbe63ffc0	-0.2226553
40	0x3f452326	0.7700676
41	0x3e4b6225	0.19861658
42	0x3e17fb55	0.1484197
43	0xbd1ebf80	-0.038756847
44	0x3e2f5049	0.1712047
45	0xbe284830	-0.16433787
46	0xbd2879c1	-0.04113174
47	0x3dce23c0	0.100654125
48	0xbe9d8098	-0.30762172
49	0xbf3b42ab	-0.731486
50	0x3f154729	0.58311707
51	0x3f1e8f67	0.61937565
52	0x3f560cb7	0.8361315
53	0x3eed9fdd	0.46411029
54	0x3f19d0c3	0.6008417
55	0xbf79daf0	-0.975997
56	0xbe0a73be	-0.13520715
57	0x3e44be1c	0.19213146
58	0x3ecc1f4f	0.39867637
59	0xbf50f8ea	-0.8162981
60	0xbebef945	-0.37299553
61	0x3f3324be	0.6997794
62	0xbeee9412	-0.46597344
63	0x3f139c5e	0.5766047

gnn_layer_0.n_func.2.weight f4 [64, 64]
0	0xbbf5e4c0	-0.0075040758
1	0xbc56bc90	-0.01310648
2	0x3de0a63a	0.10969205
3	0xbbf24d00	-0.007394433
4	0x3de7cc00	0.11318207
5	0x3dbf01fa	0.09326549
6	0x3dadf978	0.08494848
7	0xbc3ab110	-0.011394754
8	0x3ca766c8	0.020434752
9	0xbcd5c5e0	-0.02609533
10	0xbbcde580	-0.006283462
11	0x3dc467f6	0.095901415
12	0xba619300	-0.00086049736
13	0x3d583540	0.05278516
14	0x3a335300	0.0006840676
15	0x3d60763c	0.054800257
16	0x3da91258	0.08255452
17	0xbd9a3b7e	-0.075308785
18	0x3cfb8f98	0.03070812
19	0x3cf41028	0.02979286
20	0xbc2c9e70	-0.010535821
21	0xbcef8cf8	-0.029242024
22	0x3d3758dc	0.044762477
23	0xbd9c9b0a	-0.07646759
24	0xbdb881f8	-0.090091646
25	0x3dbe3d92	0.09289087
26	0x3ad81180	0.0016484708
27	0xbcd4e628	-0.025988653
28	0x3db6ec20	0.08931756
29	0x3d60c148	0.054871827
30	0xbce42698	-0.027850434
31	0x3d926e1a	0.071499065
32	0xbd5367a8	-0.051612526
33	0xbdaf8144	-0.08569577
34	0x3cec6460	0.028856456
35	0x3dc46ba4	0.09590843
36	0x3db6705e	0.08908151
37	0xbd33bb38	-0.043879718
38	0xbdb8108c	-0.08987531
39	0xbd717ad8	-0.058955044
40	0x3d8519b0	0.0649904
41	0xbd045918	-0.03231153
42	0x3d73d678	0.059530705
43	0xbdcef3f2	-0.101051226
44	0xbdc4492e	-0.095842704
45	0xbd9bb2be	-0.07602452
46	0x3cc82b50	0.024434716
47	0xbd1c2fd4	-0.03813155
48	0xbcaa06e8	-0.020755246
49	0x3ca83d10	0.02053693
50	0xbdecb8d8	-0.11558694
51	0x3d1d51d4	0.038408116
52	0xbdd1a59a	-0.10236664
53	0xbde119b0	-0.109912276
54	0xbd91ac3a	-0.07112928
55	0x3c6ba520	0.014382631
56	0xbd0a2b70	-0.03373283
57	0x3d84eb1c	0.06490156
58	0xbdc623d0	-0.096747994
59	0xbd1fb208	-0.038988143
60	0xbd7a8800	-0.061164856
61	0xbd98c380	-0.07459164
62	0xbdda4b6e	-0.10658918
63	0xbbc2c280	-0.0059435964
64	0xbda5b820	-0.0809176
65	0x3dcb99ec	0.09941468
66	0xbdd69587	-0.10477739
67	0x3dc097e9	0.094039746
68	0x3c35f18c	0.011104953
69	0x3db106ec	0.08643898
70	0x3ddf1c92	0.10894121
71	0xbd1a93cc	-0.037738606
72	0xbda8e2b8	-0.08246368
73	0x3dcb95b8	0.09940666
74	0x3cdd180b	0.026989004
75	0x3d5cf300	0.05394268
76	0x3c8a7320	0.016900599
77	0x3d829708	0.06376463
78	0xbdd74944	-0.10512021
79	0x3cd42dd0	0.025900751
80	0x3d11c031	0.03558368
81	0xbc2bab09	-0.01047779
82	0x3d119dd8	0.035550922
83	0xbdf98ea8	-0.12185413
84	0x3ba47468	0.0050187595
85	0x3dfe4302	0.124151245
86	0x3c8f8665	0.017520139
87	0xbd1c1134	-0.038102344
88	0xbd765546	-0.060139917
89	0x3c822b30	0.015889734
90	0xbccd9090	-0.025093347
91	0xbdb359f0	-0.087573886
92	0xbd1e3c84	-0.03863193
93	0xbd3bbe29	-0.045835648
94	0x3ca9a070	0.020706385
95	0x3d831e88	0.06402308
96	0xbaed7a0f	-0.0018118041
97	0xbd58810c	-0.052857444
98	0x3ded5612	0.11588682
99	0xbb8f6f60	-0.0043772906
100	0x3de922a0	0.11383557
101	0xbd8dd9e4	-0.06926325
102	0xbdc9b840	-0.09849596
103	0x3cc7e3a0	0.024400532
104	0xbca6e5be	-0.020373221
105	0xbd0d10e7	-0.034439947
106	0x3d952bc1	0.07283736
107	0xbda25304	-0.0792599
108	0x3caef350	0.021356255
109	0x3dbec664	0.09315184
110	0x3d8720c6	0.06598048
111	0x3da93ede	0.08263944
112	0xbdf006ea	-0.11720069
113	0xbd8b9ebe	-0.06817387
114	0xbd27f6b5	-0.041006763
115	0xbcaa1808	-0.020763412
116	0x3dc24b8f	0.09487068
117	0x3d848614	0.06470886
118	0x3c243b61	0.010023923
119	0xbc5022a0	-0.012703568
120	0xbcd9d179	-0.026589142
121	0x3dafe165	0.085879125
122	0xbdddc7bd	-0.10829113
123	0x3d8a0ffc	0.0674133
124	0xbc67d451	-0.014149741
125	0xbdf94a0e	-0.12172328
126	0x3b1d6b83	0.002402038
127	0xbd7a8923	-0.06116594
128	0x3d48a1f9	0.048982594
129	0xbd5eb7fc	-0.05437468
130	0x3a063d96	0.00051208714
131	0xbdb9d30c	-0.09073457
132	0xbd5d2783	-0.05399276
133	0xbd8869b8	-0.06660789
134	0x3ddc45cc	0.107555
135	0x3d8a78c6	0.06761317
136	0xbdd7a84b	-0.10530146
137	0x3d7c8d6c	0.061658308
138	0xbde4e04f	-0.11175596
139	0xbd9d81aa	-0.07690747
140	0x3db3d3ad	0.08780608
141	0xbd7ef8d0	-0.062249005
142	0xbe0cd56c	-0.13753289
143	0xbd2fca8a	-0.042917766
144	0xbd6851a0	-0.05671847
145	0xbc4bd84b	-0.012441705
146	0x3dd128b8	0.102128446
147	0x3cdd69f1	0.027028056
148	0x3db78236	0.08960383
149	0xbd71d5ad	-0.059041668
150	0x3da78c6e	0.08181082
151	0x3ddfa54e	0.10920201
152	0x3cb0cbce	0.021581557
153	0x3e052ac0	0.13004589
154	0xbd218794	-0.039435938
155	0x3cfab2fa	0.03060292
156	0xba3bda00	-0.00071659684
157	0x3c905af7	0.0176215
158	0xbd1795c3	-0.03700806
159	0xbdf57dd0	-0.119868875
160	0xbe2153db	-0.15754645
161	0xbdecfe13	-0.11571898
162	0xbe250bdf	-0.1611781
163	0xbd9f25e2	-0.077708974
164	0xb678003e	-3.695502e-06
165	0xbcb437a3	-0.021999186
166	0xbd84d540	-0.06485987
167	0x3c5394e0	0.012913913
168	0xbe00196f	-0.12509702
169	0xbdce422e	-0.100712165
170	0x3dd57e75	0.104245104
171	0xbd8a11be	-0.06741665
172	0xbd716640	-0.058935404
173	0x3e09672c	0.13418263
174	0x3dd292d1	0.10281909
175	0xbd213a59	-0.039362285
176	0xbda5c25a	-0.0809371
177	0xbd28808d	-0.04113822
178	0x3d347c3b	0.044063788
179	0x3d1c544a	0.03816632
180	0xbdd97933	-0.1061882
181	0x3d768141	0.06018186
182	0xbc2f79c0	-0.01071018
183	0xbd4fff08	-0.050780326
184	0x3d26bcc2	0.040707357
185	0x3df1dec8	0.1181007
186	0x3dfa5815	0.122238316
187	0x3d8cbfbc	0.06872508
188	0xbdf1955a	-0.11796065
189	0xbda91b78	-0.082571924
190	0xbd4ce5e2	-0.05002392
191	0xbcdcc5d4	-0.0269498
192	0xbcc287dc	-0.023746423
193	0xbcdc42c7	-0.02688731
194	0xbd7cd7bf	-0.06172919
195	0xbd9e6850	-0.0773474
196	0x3d9fbcff	0.0779972
197	0xbdc1b212	-0.09457792
198	0xbcb723d0	-0.022355944
199	0xbd9a49fe	-0.07533644
200	0xbdad3fc6	-0.084594294
201	0x3ca3f543	0.02001441
202	0xbd81ebb1	-0.06343783
203	0xbd9caa9a	-0.07649727
204	0xbdfed6aa	-0.12443288
205	0xbd391abc	-0.04519151
206	0x3d6ea1d7	0.05825981
207	0xbd38165c	-0.0449432
208	0x3dc38fce	0.09548913
209	0xbdb6af2b	-0.089201294
210	0xbdb7a2a4	-0.08966568
211	0x3cad52ff	0.02115774
212	0x3cd52868	0.026020244
213	0xbdce9588	-0.100871146
214	0x3ca2d8a5	0.019878695
215	0x3d89fba8	0.06737453
216	0x3d7a39f2	0.061090417
217	0x3dd49447	0.10379844
218	0xbc2a1fd0	-0.010383561
219	0x3e12de44	0.143426
220	0x3d847f70	0.06469619
221	0xbd9509ec	-0.07277283
222	0xbb0ad7a2	-0.0021185656
223	0xbdc6ff8c	-0.097167104
224	0x3d7b0e1d	0.061292756
225	0x3d18b78a	0.03728441
226	0xbd0c629b	-0.034273725
227	0x3c263560	0.0101445615
228	0x3dc52318	0.09625834
229	0xbb1e062c	-0.0024112565
230	0xbc333235	-0.010937263
231	0xbdb86194	-0.090029866
232	0xbdd63fab	-0.104613625
233	0xbcb2a717	-0.02180819
234	0xbe06c29c	-0.13160175
235	0x3d5d5ee0	0.054045558
236	0xbdf434cd	-0.119241334
237	0xbd07e1e1	-0.0331744
238	0x3d85bbc1	0.06529952
239	0x3ce903ac	0.028444134
240	0xbdfb03e0	-0.122565985
241	0x3dce06ab	0.100598656
242	0x3d89d490	0.06729996
243	0xbd898d47	-0.067164
244	0x3cd74dba	0.02628218
245	0xbddc0b62	-0.107443586
246	0xbc8b1d17	-0.016981645
247	0xbb3e9d00	-0.0029085279
248	0x3d17bf5b	0.037047725
249	0xbcd9a33c	-0.026567094
250	0xbb3d7eb2	-0.0028914628
251	0xbdf97e2c	-0.121822685
252	0xbc7622ed	-0.015022975
253	0x3dc56a30	0.09639394
254	0x3de6f52e	0.11277233
255	0x3cd54bf4	0.026037194

gnn_layer_0.n_func.2.bias f4 [64]
0	0x3d9d8172	0.07690705
1	0xbdb81af5	-0.08989517
2	0x3de1f0ab	0.11032232
3	0xbdb60ab2	-0.08888759
4	0x3d6efd53	0.058347058
5	0xbe117423	-0.14204459
6	0xbdaa1ed3	-0.083066605
7	0xb9390c00	-0.00017647445
8	0xbd5d5f9c	-0.05404626
9	0xbc9a0bac	-0.018804394
10	0xbdaf4f44	-0.085600406
11	0xbddefe06	-0.10888295
12	0xbd8250a8	-0.0636304
13	0x3d4ab310	0.049487174
14	0xbdc9909e	-0.09842037
15	0xbe176ce7	-0.14787637
16	0x3c63d15c	0.013904896
17	0x3d9c8dd4	0.07644239
18	0x3dcd9eea	0.10040076
19	0xbc7fe6da	-0.015619004
20	0x3dba0fd5	0.09085051
21	0x3dc5bbcc	0.0965496
22	0x3d915a7a	0.07097335
23	0xbd9adb76	-0.0756139
24	0x3d27787a	0.04088638
25	0x3df35c61	0.11882854
26	0x3dd17976	0.10228245
27	0x3cb87928	0.02251871
28	0xbca47590	-0.02007559
29	0x3d0bf59a	0.03416977
30	0xbd888bae	-0.06667267
31	0xbd928fd2	-0.07156338
32	0xbd37af44	-0.04484488
33	0xbd884738	-0.06654209
34	0xbb128900	-0.002235949
35	0x3d19f302	0.037585266
36	0x3d5ff484	0.054676548
37	0xbcb01aa6	-0.021497082
38	0xbba60b80	-0.005067289
39	0x3d1c534a	0.03816537
40	0x3d4d6447	0.05014446
41	0xbc533cb0	-0.012892887
42	0x3aef3f1a	0.0018253059
43	0x3c3b6f60	0.011440128
44	0x3c042a30	0.008066699
45	0x3db6ddb7	0.089290075
46	0x3da62300	0.081121445
47	0x3c1d29a9	0.009592452
48	0x3d9d3b4b	0.07677325
49	0x3cc4d460	0.02402705
50	0xbdaf4a74	-0.08559123
51	0x3dece3da	0.11566897
52	0x3d85f237	0.065403394
53	0x3dbdfc32	0.09276618
54	0x3ce488bf	0.027897237
55	0x3d3cba0c	0.046075866
56	0xbc5b47ca	-0.013383815
57	0xbd1979f4	-0.03746982
58	0xbddeb1b8	-0.10873741
59	0x3c965f28	0.01835592
60	0xbd3642a2	-0.04449714
61	0xbcdc943b	-0.02692615
62	0xbd7f10d0	-0.062271893
63	0x3d1e1a42	0.03859926

gnn_layer_0.n_self_func.0.weight f4 [64, 1]
0	0xbf5535c4	-0.83285165
1	0xbf6088a9	-0.87708527
2	0xbe9a616c	-0.30152452
3	0x3e81b2b7	0.2533166
4	0x3f1a158f	0.60189146
5	0x3e99d311	0.30043843
6	0x3e194d66	0.14970931
7	0x3f18e022	0.59717
8	0xbd58cee0	-0.052931666
9	0x3eff8205	0.49903885
10	0xbf42eb12	-0.7613994
11	0xbf7eca04	-0.99527
12	0x3d92bbab	0.07164701
13	0xbebd1a5c	-0.36934173
14	0x3f13fb42	0.57805264
15	0x3f0e677f	0.5562667
16	0xbf06c6df	-0.52647203
17	0x3f45f7e4	0.77331376
18	0xbf61388d	-0.87976915
19	0xbf7a0d1c	-0.97676253
20	0xbec94ddc	-0.39317214
21	0x3e1f08e5	0.15530737
22	0xbea92f19	-0.33043745
23	0x3e390930	0.18069911
24	0x3f143a4e	0.57901466
25	0x3f1bca27	0.60855335
26	0x3e5c5ebc	0.21520513
27	0x3f0e3a4a	0.5555769
28	0x3e9cd404	0.30630505
29	0xbe99af54	-0.30016577
30	0xbeb6fa78	-0.35737967
31	0x3e51aa0d	0.20475025
32	0xbea22108	-0.31665826
33	0xbea94bac	-0.33065546
34	0xbe6f44a8	-0.23366034
35	0x3f3bfc21	0.73431593
36	0xbf0645dc	-0.52450347
37	0x3ee08dc5	0.43858162
38	0x3f2156f1	0.6302329
39	0x3f200e68	0.6252198
40	0x3f8580cf	1.0429934
41	0xbed5a11f	-0.41724488
42	0xbf3fb418	-0.74884176
43	0xbf193130	-0.5984068
44	0x3d2d320a	0.04228405
45	0xbf13a162	-0.57668126
46	0x3f4c4f72	0.79808724
47	0xbd3e23cf	-0.04642087
48	0xbea06738	-0.3132875
49	0x3f18d0d9	0.59693676
50	0xbe5ce4b8	-0.21571624
51	0x3ef6aeff	0.48180386
52	0xbe3f05e0	-0.18654585
53	0x3ead3162	0.3382674
54	0xbf22bf78	-0.6357341
55	0x3f3e0f3a	0.74241984
56	0x3f21f818	0.63269186
57	0xbd19a720	-0.0375129
58	0x3f2d11d4	0.6760533
59	0xbcda6bd6	-0.026662748
60	0xbf01041f	-0.50396913
61	0x3f17203c	0.5903356
62	0x3e4fb13d	0.20282455
63	0x3dba1df0	0.090877414

gnn_layer_0.n_self_func.0.bias f4 [64]
0	0x3ec49fec	0.3840326
1	0x3f3fd8a8	0.74939966
2	0xbf71df9e	-0.9448184
3	0x3f09ce36	0.5383028
4	0xbf5e8f2f	-0.8693723
5	0xbe5243f1	-0.2053373
6	0xbead3313	-0.3382803
7	0xbf72da72	-0.9486457
8	0xbd92fe30	-0.07177389
9	0xbf2f8ccf	-0.6857423
10	0x3f81c7ea	1.0139134
11	0xbea3208c	-0.3186077
12	0x3f4e9d44	0.8070872
13	0x3f396fa0	0.7243595
14	0x3dac34f7	0.0840854
15	0x3f654ff2	0.8957511
16	0x3e9e4e03	0.30918893
17	0xbf3ae4f1	-0.73005587
18	0x3dcf6aeb	0.10127815
19	0xbf21e95c	-0.63246703
20	0xbf21b8c8	-0.6317258
21	0x3f301b3e	0.6879157
22	0x3f35f6fc	0.71079993
23	0xbf5a9c5c	-0.85394835
24	0xbedba6a4	-0.42900574
25	0xbe391f55	-0.18078358
26	0x3f574a1c	0.84097457
27	0x3f6648e8	0.89954996
28	0xbf5f9dc8	-0.8735013
29	0xbea1ef8c	-0.31628072
30	0xbf441c02	-0.76605237
31	0x3f70c4ef	0.94050497
32	0xbf2e1dc8	-0.6801419
33	0xbedcfdd8	-0.43162417
34	0xbf6b36c6	-0.9188045
35	0x3f347b09	0.70500237
36	0xbf062232	-0.5239593
37	0xbf3d6019	-0.7397476
38	0xbee01d7d	-0.43772498
39	0x3ececff5	0.40393034
40	0xbf1aa368	-0.6040559
41	0x3f741e1f	0.9535846
42	0xbe26df40	-0.162961
43	0x3f685cbf	0.9076652
44	0x3f38b7fc	0.7215574
45	0xbf290952	-0.66029847
46	0xbf56f62c	-0.8396938
47	0x3dc1cc55	0.09462801
48	0x3f63fa28	0.89053583
49	0xbe30fe00	-0.17284393
50	0xbf526b18	-0.8219466
51	0xbde5aca9	-0.11214573
52	0xbdb24040	-0.08703661
53	0x3f3b92fd	0.7327116
54	0xbed956dc	-0.4244908
55	0xbe9c50ab	-0.30530295
56	0x3f3b61ca	0.7319609
57	0xbf1d81ba	-0.6152607
58	0xbb3bb7f1	-0.0028643573
59	0x3eae3d4e	0.34031147
60	0x3f625fcb	0.8842742
61	0x3f7ba31d	0.98295766
62	0x3f1bf624	0.60922456
63	0xbeeb3ab8	-0.45943236
