ThinkMatch/exp/ngm/CV4/saved_models/model.pt (torch, 278195 bytes, 34 tensors)

affinity_layer.lambda1 f4 [64, 64]
00000000: 435f 1a3f 41a6 f5bc 75af 77bd df6e 22bd
00000010: fb09 7cbd 6cf3 b3bd 9c7d bf3c fef2 7abd
00000020: f0b2 4bbd 1805 8cbd 4104 81bd daef 88bd
00000030: af7a 4a3c de9b cdbc c445 87bd 020d 8b3d
00000040: b5fd 913c dc9d 803d 3000 3b3b 65ef 5ebd
00000050: ef12 75bc 6e1d 853d 2b67 4e3d 8d34 78bd
00000060: aad4 b0bd ae45 863d 152b 96bd 1cad 923d
00000070: 1300 4dbd ccdf 79bd 10d5 80bd 07df ae3d
00000080: dc7d 5cbc bc3d 4bbd 6281 963d 2fd7 f83c
00000090: ed7d 89bd a99e e13c 9f24 7bbd c499 82bd
000000a0: 28a0 e83c 3aa7 a9bd 047a 483d f6f8 0c3b
000000b0: 613f 9dbd 3238 4e3d 161b 1fbd dc8c 0dbd
000000c0: e9c2 99bd bf78 8dbc 3d3d ab3d 4535 753d
000000d0: 893c 39bd 84f5 5b3d 7a65 2b3c 2029 04bd
000000e0: 4b14 2dbd aaa8 77bd 76f8 52bd ae2d 30bd
000000f0: 75d5 9a3c d96d b3bd 937b 9a3d 9cc5 96bd
00000100: cad5 46bc 79fa f63e 8bcc 04bd e0ab 803d
00000110: 7741 b1bd 601e 99bd 4b66 79bd 6ce8 0c3d
00000120: c617 2f3d 33c6 26bd 7db0 923d 160b 663d
00000130: 1e39 99bd ab0e 423d 0f8d 43bd bcb9 c13d
00000140: b6b1 a63d e9fe 983c fbca 8b3b b9fb 15bc
00000150: 2c69 233c c7d9 f6bc bc01 9cbd 56f6 9abd
00000160: f9ef 72bd b70c 03bd 75f7 8d3c 2791 95bd
00000170: 76bc 893d 839c fdbb a077 1dbd 5078 9abd
00000180: 817f 7e3d ff5a 80bd c9d9 b03d 8564 78bc
00000190: a011 803d 7f73 93bd 78ca 103d fed7 0bbd
000001a0: 0cae 07bc c50a 2f39 5fb1 a23d 00b3 a93d
000001b0: 4ea3 a7bd 1912 a0bd f194 103d 3e94 c23d
000001c0: 3536 78bc 1e6e af3c 7ab4 093d e395 6b3d
000001d0: 1c1e 423d bc67 853d f52a 503d 6459 803d
000001e0: 915d bc3d fdea d5bc 936d a53d 9545 53bc
000001f0: aa1c 34bb 2d65 b63c 8c1b 983d c6af 1dbc
00000200: b311 24bc f5de a23d 364e 073f 1282 8e3c
00000210: 9fd5 94bd df58 3a3c 86cb 963b 366a f43d
00000220: 85d2 bf3d 6ec0 48bd dcf5 1abd 8282 b9bc
00000230: d72c 263d 7083 883d ffb5 be3c d1f8 c1bc
00000240: e035 733d 4ada 353d 83da 0a3d 29ce 943c
00000250: 97cb eabc 833e d73c 9c20 7d3c 1896 b6bc
00000260: 26a3 71bd 7076 23bb 3dc4 903c b585 a7bd
00000270: eb3a 9abd 7068 ae3d 727e 5ebd 12e8 c03c
00000280: 855c 39bc 8ff5 93bd 77be 3a3d a60a 1b3d
00000290: 01b1 e2bc 0559 a8bd 2258 8dbc 81dc 31bd
000002a0: f93f 7cbb 122c 9b3d b0d3 43bd b654 58bd
000002b0: 2d44 96bd ff91 f0bb a3ed adbd d05a 77bd
000002c0: 350d 69bc f025 e83d 7205 22bd 9227 293b
000002d0: 2bf2 2a3c 38f7 813d 3ece b3bc e86c 2d3c
000002e0: 91a5 82bd eaf0 8abd 96eb 13ba 9290 66bd
000002f0: daad 97bc 6c64 013c dbc2 86bd b4cc 90bd
00000300: 6d8f 89bd cc0e a33d d1ce 0dbd d53a e73e
00000310: 8fc8 c23d 9e2d 8abd 3bc2 d33c 75ee acbd
00000320: be34 70bd 1ab8 283d d7ab a33c 2b09 f03b
00000330: e51d 96bb 736c 573d f380 a1bd 50e4 8bbd
00000340: ed54 4bbd 6e5a 9dbc 081e 8f39 afc0 93bd
00000350: d1ca 48bd 3d5c ab3d 704d 74bd 14e3 b3bd
00000360: 912c f5bb a548 413d ae7a a9bd ca35 4d3a
00000370: 1a1f 9c3d 2730 343d 6103 97bd cd45 d7bc
00000380: ef04 313d fe5f c53b 25dc 9abd d734 2c3d
00000390: b2c9 8ebd c469 a23d fe73 be3d 78bc a3bd
000003a0: 17d4 283d 8de2 d13d bb8f 26bd bc2e 723d
000003b0: 005a 933d e65e 763d 2573 533a 1ddd dbbc
000003c0: dd8d bdbc bafc 6b3c 10b8 dcbc 0cd4 80bd
000003d0: 769f 9bbd 520a 8b3c 7396 87bd 56b9 94bd
000003e0: b86d bd3c a1c6 2dbd 174e cabb 0ece 26bd
000003f0: a1a9 953c 42aa f83c edb1 153d 4c4d 69bd
0.6030161 -0.029986503 -0.060470063 -0.039656516 -0.061532956 -0.087866634 0.023375325 -0.06126689
-0.049731195 -0.06836909 -0.062996395 -0.06686373 0.012358352 -0.025098737 -0.066051036 0.067895904
0.017821172 0.06280109 0.0028534047 -0.054427523 -0.014958127 0.06499754 0.050391357 -0.06059699
-0.086343125 0.06556259 -0.07332436 0.07161924 -0.0500489 -0.061004445 -0.062906384 0.08538633
-0.013457742 -0.04961942 0.073488966 0.030376045 -0.067134716 0.027541475 -0.06131422 -0.06376985
0.028396681 -0.08283849 0.04894449 0.0021510697 -0.07678104 0.05034656 -0.03884419 -0.034558162
-0.07507879 -0.01726949 0.0836129 0.059865255 -0.045223746 0.05370094 0.010461206 -0.032265782
-0.04225568 -0.060463585 -0.051506482 -0.043012314 0.018900612 -0.08761186 0.07543101 -0.0736191
-0.012135932 0.4823797 -0.03242163 0.062827826 -0.086550646 -0.07476497 -0.06088857 0.034401342
0.04274728 -0.04071636 0.07162569 0.056162916 -0.07481597 0.04737727 -0.047741946 0.09459254
0.081393644 0.018676238 0.0042661405 -0.009154254 0.009973805 -0.030133141 -0.07617518 -0.07566516
-0.059310887 -0.031994548 0.01732991 -0.07303076 0.06725399 -0.007739605 -0.03844416 -0.07542479
0.062133316 -0.06267356 0.08635289 -0.0151606845 0.06253362 -0.071997635 0.03534934 -0.034141533
-0.008281242 0.00016693313 0.07943987 0.08286095 -0.08185445 -0.07815952 0.03529829 0.09500931
-0.015149643 0.021414813 0.03361938 0.05751599 0.047391996 0.065139264 0.050822217 0.0626705
0.09197534 -0.026113028 0.0807754 -0.012895008 -0.0027482905 0.022265041 0.07427129 -0.009624427
-0.010013985 0.07952682 0.52853715 0.017396007 -0.072673075 0.011373728 0.0046018986 0.11934321
0.09366325 -0.04901164 -0.037832126 -0.022645239 0.040570106 0.06665695 0.023280142 -0.023678215
0.05937755 0.04439763 0.033899795 0.018164711 -0.028661532 0.026274925 0.015449669 -0.022288367
-0.05899348 -0.002494242 0.017671699 -0.081797995 -0.07530769 0.085160136 -0.054319806 0.02354816
-0.011313562 -0.07224571 0.045591798 0.037851952 -0.027672293 -0.08220104 -0.017253939 -0.04342318
-0.003849028 0.07576765 -0.047809303 -0.05281516 -0.07337222 -0.007341623 -0.08492591 -0.06038934
-0.01422434 0.11335361 -0.039555974 0.002581094 0.010433714 0.06345981 -0.02194893 0.010585047
-0.063792355 -0.06784232 -0.000564271 -0.056290217 -0.018515516 0.007897478 -0.065801345 -0.07070294
-0.067168094 0.07961807 -0.034621064 0.45162073 0.0951091 -0.06746982 0.025849452 -0.084439196
-0.05864405 0.041191198 0.0199794 0.0073253117 -0.0045812004 0.05259366 -0.07885923 -0.068306565
-0.04964154 -0.01920816 0.0002729746 -0.07214486 -0.049021546 0.083672024 -0.059644163 -0.08783546
-0.0074821194 0.04718842 -0.082753524 0.00078281446 0.0762312 0.043991234 -0.07373691 -0.0262784
0.043217596 0.006023406 -0.075615205 0.04204258 -0.06972064 0.079303294 0.092994675 -0.07994932
0.04121789 0.10248289 -0.040664416 0.0591266 0.071949005 0.060149096 0.0008066169 -0.026838833
-0.023138935 0.014403516 -0.026943237 -0.06290445 -0.07598774 0.016972695 -0.06620493 -0.072619125
0.023123607 -0.042425755 -0.00617386 -0.040723853 0.018269362 0.030354623 0.036546636 -0.05695848

affinity_layer.lambda2 f4 [64, 64]
00000000: 7374 033f 42ef d0bc 6d5f a43d d081 a9bc
00000010: b8bf ab3d 2018 5bbd 7cdf 71bd 09af d63c
00000020: 0b5c 2f3c 710b 8cbc 6c4b 38bd c323 16bd
00000030: 6a09 ca3c c8d3 61bd 1306 f93c dba3 a3bd
00000040: c5ca 0ebd 4045 b33d 905d dabc 2ae8 193c
00000050: a6b3 a33d 66d3 9f3d ea05 6f3d 42c9 58bc
00000060: 6f2f 393d b908 d83c e60a 9b3d c1d1 853c
00000070: 2b16 4a3c 0a74 a43d 1c5d 7c3b a236 48bd
00000080: 8f76 023d c880 87bd 4ecf 003c ae2d 88bd
00000090: 9406 b6bc 28dc 85bd 6fad ba3b da2d a1bd
000000a0: 1157 4c3d 9a87 d1bc 13f9 ad3d 6465 55bd
000000b0: 3ea7 15bd 01cc 523c 39c4 523d 187c ac3d
000000c0: 8795 7dbb 3157 d1bc 7c9f 9a3b 043d 94bd
000000d0: 9fbc 723d f8b1 98bd 5059 643d 2f93 babc
000000e0: 1464 cebb d10c 7abd 6264 83bd 8daa 893b
000000f0: 3c45 43bd 8e84 99bb c1b2 07bd 3933 a4bc
00000100: 350f 9fbc 4245 053f 7c80 45bd 07a9 993d
00000110: 76b5 a53d ecba dabc 2ce0 c83c c442 22bc
00000120: 5d48 98bc 487f af3c 16a7 90bd 9fe8 a0bd
00000130: 94b5 0d3d 2f9c 693d 2294 25bd cf4c 1ebd
00000140: 7b0b 8dbd 40c3 a83c d4af a53d b50c c13c
00000150: b2c8 5fbd c0e3 223d 96de 30bd 03de 15bd
00000160: 7d4b 55bd fd8a f03c 9c80 17bc fd90 c1bc
00000170: 34a3 073d 2440 7ebd 279a 9ebd 91bb 36bd
00000180: 5113 debc 6d47 ac3c 7f66 c03b 057f 6dbd
00000190: 1f79 8f3d c803 93bd b385 083b 5e3b 723d
000001a0: 7bed 83bd b1e1 2c3d acdf dc3c ad5c 7cbd
000001b0: bc49 e8bc 1ede 83bd 39be 203d 2797 4a3c
000001c0: 5acd 953d 9476 c13d 02cf 93bd 5420 9ebd
000001d0: 7615 1f3c 1f77 3cbd db92 913d a937 01bd
000001e0: 8f5d 8e3d 80f9 b93d 8bf5 2f3d ab7a a8bd
000001f0: 9e23 003e 744f 9dbc 834e 4ebb 43bb 3b3d
00000200: 0474 be3d 1238 453d 5d68 153f f8d2 9239
00000210: 40b2 453d b19e 94bd 2928 033d 4c09 a5bc
00000220: 1627 f23c 274c 77bd 3a9e d93b 2fe7 dabb
00000230: 89b4 17bd fecf 87bd 11ca 8dbd 0b17 8d3d
00000240: a0da 7a3d a0a9 80bd 13c3 e3bc 15a8 923d
00000250: c12b 2c3d 4204 aa3d 1347 1e3d a485 9cbd
00000260: 002d b8bc 6dd7 a8bd 6d2c 0bbd 032e e23c
00000270: 14d7 a7bc 4558 80bc faee e73d a570 c7bc
00000280: 3c79 8a3d 7b14 98bd 5bb8 e33a 22b4 8c3d
00000290: 22b2 883d 69a6 3cbd 6341 21bd fb1e d2bc
000002a0: b2d2 9c38 e2bc c23c d8c9 9dbd 2af5 9c3d
000002b0: d853 05bd bbc1 73bd 7392 963d dcc5 8d3a
000002c0: 8818 06bd 23b4 173d e53e 5c3d 0602 523d
000002d0: 0f16 093d fd90 de3d a01f 683d 5f9a 41bd
000002e0: d86d 0f3c ad3a 513d 2e0a 473d 24e5 8dbd
000002f0: 250c bd3d 2743 ca3d 4f91 853d e7cf 883c
00000300: c520 673d 19f4 68bc 6f03 9cbd 4c4a d33e
00000310: 9132 9cbd 65e0 b3bd 2169 893d 0af2 4c3c
00000320: 7129 543d bf24 5dbd 8491 d03d 06b2 9ebd
00000330: f27c fbbc 8896 34bd a5fa d13c f711 9ebd
00000340: 5908 60bd 3cd0 adbd 28b9 c9bc 2848 c0bc
00000350: a9fa 373d 8677 40bd 22fd 883d fb7e acbd
00000360: 0796 44bc 0316 983b 0eed e93d fea2 1fbd
00000370: b992 87bd c513 b4bd 685c 9b3d 20ed 2ebd
00000380: 60a2 9fbd 16c5 7ebd 00aa bcbc 7e30 bd3d
00000390: 9605 20bc b541 6c3d 68c1 fabc d465 43bd
000003a0: 3562 12bd 94d8 b3bd f92d b1bd bd01 2abd
000003b0: 34e6 a5bd d4f8 433c 656e f53b de09 b3bd
000003c0: 308e 1f3d 1e3f 89bd 4676 8d3c e621 703d
000003d0: a7e9 94bd c438 fa3b 00a2 833d 4e39 913d
000003e0: 4581 853d c6c7 9abb 98a5 03bd 61d4 ac3c
000003f0: 8e5a 0c3d ff8b 743d 099c 143d 8f02 02bd
0.5134956 -0.025504712 0.080260135 -0.020691782 0.08386177 -0.053489804 -0.059051022 0.02620651
0.010703097 -0.0170953 -0.044993803 -0.0366552 0.024662692 -0.05513361 0.030398404 -0.07990237
-0.034861345 0.08753443 -0.026655942 0.009393731 0.079932496 0.07803993 0.05835525 -0.013231577
0.04521125 0.026371347 0.07570438 0.01633537 0.012334387 0.08029945 0.0038507646 -0.048880227
0.031851348 -0.0661636 0.007861925 -0.06649338 -0.022219934 -0.06536132 0.0056969444 -0.078700736
0.04988772 -0.025577355 0.08494773 -0.052098647 -0.036536448 0.012866021 0.051456664 0.084221065
-0.0038693862 -0.025554271 0.004718719 -0.072382 0.059261914 -0.0745582 0.055749238 -0.02277526
-0.0062985513 -0.06104738 -0.06415631 0.0042012394 -0.04767345 -0.004684991 -0.033129457 -0.020043956
-0.019416431 0.52058804 -0.048218235 0.075029425 0.080912516 -0.02670046 0.024520956 -0.0099036135
-0.018589193 0.021422997 -0.07063119 -0.07856869 0.034596995 0.057033714 -0.040424474 -0.03864747
-0.06886955 0.020600915 0.08090177 0.02356563 -0.054634757 0.03976798 -0.043181024 -0.03658868
-0.052073944 0.02936315 -0.009246971 -0.023628706 0.033114627 -0.062072888 -0.07744246 -0.04461247
-0.02710882 0.021030152 0.0058715935 -0.057982463 0.07005524 -0.071784556 0.0020831644 0.05913865
-0.0644178 0.042207424 0.026962124 -0.06161182 -0.028355472 -0.0643885 0.03924391 0.012365139
0.07314558 0.09446445 -0.07217218 -0.0772101 0.0097097065 -0.04601204 0.071080886 -0.031547222
0.06951439 0.090807915 0.042958777 -0.08226522 0.12513587 -0.019202925 -0.0031479902 0.045832884
0.09299472 0.048149176 0.5836237 0.00028004474 0.048265696 -0.072568305 0.03202072 -0.020146035
0.029559653 -0.06037536 0.0066411765 -0.0066803913 -0.037037406 -0.06631468 -0.06923307 0.06889161
0.061243653 -0.062823534 -0.02780298 0.07160965 0.042033914 0.08301593 0.038642 -0.076426774
-0.022482395 -0.08244214 -0.033977915 0.02760983 -0.0204883 -0.01566709 0.11324878 -0.024345705
0.06761405 -0.07425781 0.0017373668 0.06870295 0.06674601 -0.04605714 -0.039369 -0.025649538
7.477905e-05 0.023771707 -0.07704514 0.07663949 -0.032550663 -0.059510928 0.07352152 0.0010816413
-0.03273824 0.037037026 0.05377092 0.05127146 0.033468302 0.10867498 0.056670785 -0.04726636
0.008754216 0.05108135 0.048593692 -0.06928471 0.09230832 0.098760895 0.06521856 0.016700698
0.056427736 -0.014218354 -0.076178424 0.41267622 -0.07626832 -0.08783034 0.06709505 0.0125088785
0.051797334 -0.053990122 0.10184005 -0.07748799 -0.030699227 -0.04408887 0.025632212 -0.0771827
-0.05469546 -0.08486983 -0.024624422 -0.023471907 0.044916783 -0.046988986 0.06688906 -0.08422657
-0.01199866 0.004641296 0.11422168 -0.0389738 -0.06619782 -0.08792833 0.075859845 -0.04270661
-0.077946424 -0.062199675 -0.023030281 0.09237765 -0.009766957 0.05767985 -0.030609801 -0.047704533
-0.03573819 -0.087815434 -0.08651347 -0.041505564 -0.081005484 0.011961181 0.0074899667 -0.087421164
0.03895396 -0.06701492 0.017268311 0.058626078 -0.07271128 0.0076361615 0.064273834 0.07091008
0.06518797 -0.004723522 -0.032140344 0.021097364 0.034266047 0.059703823 0.03628162 -0.03174072

node_layers.mlp_0.weight f4 [64, 121]
00000000: b015 0b3d bdb3 b73d 9cdc bb3d 9e78 8fbd
00000010: c8ce 8dbd 6288 8dbd 5452 8fbd 2a72 263d
00000020: 0227 f6bc f61f 6fbd 0014 693c c2fe 2dbc
00000030: fa1f 373d 798c 4c3d 29e1 86bd 41b1 3cbd
00000040: df02 b13d e5ec 8e3d 1114 46bd 075f 693d
00000050: 560b 8d3c 0cd3 7abd 8aab ea3c 49b7 5a3d
00000060: 15cd 143d 959a 513d 445b 3ebd 0a29 b9bc
00000070: 5bc4 093d 389e bb3d cda9 0fbd 8296 36bc
00000080: 11ef 67bd 0a52 743d 32c2 793b cf40 4c3d
00000090: f17f 99bd 6c8f c23d 0176 cd3c 1f53 643d
000000a0: 2b60 703d 6290 b1bc ac9f 993d a7a3 16bd
000000b0: ccc5 1b3b 4986 923c 4217 a1bc 96af bd3d
000000c0: 2e3c 743c e1c9 c13c 5a91 4a3d d87e 3e3d
000000d0: b255 b3bc 3180 03bd aa2d a2bd 65f9 1dbd
000000e0: 8a41 743d 33c7 1ebb c955 0bbd ed56 b53d
000000f0: a4be 673c 76bf bf3c 5532 de3b 77fe 96bc
00000100: d5de 55bd 6684 3f3d 75ac a4bb 7b7f a1bd
00000110: 4b7e 0fbd 5d63 8a3d 36d5 a9bc bbc9 3e3d
00000120: afb0 d8bc 8d4a 7d3d bc67 87bc 288e 15bd
00000130: 170d ca3d 59cc 893d 01b8 333c 2314 9dbd
00000140: 1f15 8f3d 1865 5bbd b8aa e33c d19e 36bd
00000150: 2858 6cbd 781e 3e3d b86a b23d c690 023d
00000160: 25dd 9fbd d530 11bd 583d 523d a782 8d3c
00000170: eeef 35bc 85d7 953d 3b8e 533c 49c4 533c
00000180: a9a4 83bd 4887 0ebd 0971 8fbd 8203 993d
00000190: aaf4 81bc db57 32bd da20 bfbd a2f2 153d
000001a0: 8d3b 063d 4c6d 833d 9bde 9c3d a04f a1bd
000001b0: c13b 893d a7dd 24bb a031 50bd 07ca 8f3d
000001c0: 0ca1 a7bd e876 7ebd e79b 413d 05fc 923c
000001d0: 3a5d c63d f6c8 70bc 55aa 4b3d 5c3c 833c
000001e0: 538b 59bd 5a18 71bc f918 533d 8a52 b53d
000001f0: fcfd 673d 68f6 cebc 4c22 61bd 2b09 7cbd
00000200: e7d6 823b 0eed 87bd 80af bdbc 5da7 a23d
00000210: e398 373d 6f24 b1bd 5e4b a93d 1fa1 a4bd
00000220: 6d03 0b3d 1f85 e73c 275b 053d bf4f 9c3d
00000230: 8b38 b23c 8514 bebd 1ed2 513d af8a a13d
00000240: 019e b5bc 6afc 113d 1076 0a3d 3a3f 913c
00000250: f535 febc 2a23 b9bd bb39 873d e46d 65bd
00000260: 29dc 44bd d061 0cbd 874b 86bc a1b1 3dbd
00000270: b9d6 913c 588b ae3d 5a19 693b 80d9 4bbb
00000280: 09c6 2a3d d796 8abd c172 1fbd d702 47bd
00000290: 262b 33bd 482b 873d 6733 553c 4435 99bc
000002a0: 368c 363d d3d3 023d 37fb 3cbd 4b4b 9bbd
000002b0: 3232 99bd ddd7 953d d5b6 4bbd bf4d a83d
000002c0: 8cc5 303d 7805 b9bd 7c48 5abd 47e2 c6bc
000002d0: 5afc 1dbd 3199 0c3a c1ec ce3b 2e66 c13b
000002e0: 901e 72bc cb02 9bbd d1c2 4d3b d847 b5bb
000002f0: f96f 043d e6fb 4b3d 7d0b 023d 4b8d 8dbd
00000300: 7640 8dbc fbc5 a33c b112 08bd 634b 113d
00000310: ea63 a03b 11e7 8c3b d684 db3c 473d 3d3d
00000320: 6423 c33d 4f2f ac3d cb86 ea3c ec7c 663b
00000330: 670f 81bd 90f5 70bd 382b 59bc 5c6c 21bd
00000340: 72c9 993d 0d97 26bd 73b9 9e3d 251b bebd
00000350: 3cb7 a03d 50c9 87bb be65 74bd 3d8c 89bd
00000360: 7093 6dbb bdb4 eb3c d877 9e3d 4273 2abd
00000370: a7a9 513d c2aa 9b3d a03b 25bd 59d0 7cbd
00000380: 5572 46bd d12f 70bd 93f4 b63d d47a 743c
00000390: 419c 7bbc 6bb3 783d b37e b5bd 859d 343d
000003a0: d1c4 1f3d 3d50 893d cc52 e4bb 6145 483d
000003b0: 8cf7 90bd f286 b73d edb3 8bbd 91a3 b33d
000003c0: a393 c7bd 394a 25bd d6d9 b8bd 701d 90bd
000003d0: fc93 9cbd 63ed adbd 466a 723d 00ce 5a3c
000003e0: acb2 33bd 43b3 66bd e92a 28bb 2244 97bd
000003f0: c07a 0d3d 82e8 993d 52dc bdbc 9e1c 743d
0.03395623 0.08969829 0.09172937 -0.07005428 -0.06924206 -0.069107786 -0.06998125 0.04063622
-0.030047897 -0.05838009 0.01422596 -0.010619821 0.04470823 0.049938653 -0.06585915 -0.04606748
0.08643126 0.06978778 -0.04835898 0.05697539 0.01721732 -0.061236426 0.02864625 0.05339745
0.036328394 0.05117281 -0.046473756 -0.022602577 0.033634525 0.09161037 -0.035074044 -0.011144282
-0.056624476 0.05964855 0.0038110134 0.049866494 -0.07495106 0.09500012 0.025080683 0.055743333
0.058685463 -0.021675292 0.07501158 -0.036777165 0.002376902 0.017886298 -0.01966441 0.09262006
0.014906926 0.023655834 0.049455024 0.046507686 -0.021891449 -0.032104675 -0.07918866 -0.03856792
0.059632815 -0.0024227619 -0.034017358 0.088544704 0.014144573 0.023406725 0.0067809024 -0.018431885
-0.052214462 0.046757124 -0.0050254413 -0.07885643 -0.03503255 0.06757233 -0.02073155 0.046579104
-0.026451437 0.061838675 -0.016528957 -0.036512524 0.09865778 0.06728429 0.010969163 -0.076698564
0.069864504 -0.053563207 0.027791366 -0.044585053 -0.05770126 0.046415776 0.08711761 0.031876348
-0.07805852 -0.03544696 0.051328033 0.017274214 -0.011104567 0.07316498 0.012912328 0.012925216
-0.06427891 -0.034796983 -0.070039816 0.07471372 -0.015863735 -0.043540817 -0.09332438 0.036608346
0.032771636 0.06417331 0.07659646 -0.078765154 0.0670085 -0.002515653 -0.050828576 0.070209555
-0.08185014 -0.062125117 0.04726782 0.017942438 0.0968575 -0.01469635 0.04972299 0.016019993
-0.053111386 -0.0147152785 0.051537488 0.08853634 0.056638703 -0.02526398 -0.05496435 -0.06153218
0.0039929035 -0.066370115 -0.023154974 0.07942078 0.04482354 -0.08649527 0.08266328 -0.08038544
0.033938814 0.02826172 0.032557633 0.07632398 0.021755477 -0.092812575 0.051225774 0.0788778
-0.022170069 0.03564111 0.033804 0.017730344 -0.031031588 -0.0903991 0.06602808 -0.056013003
-0.048061524 -0.03427297 -0.016393436 -0.04631198 0.017802583 0.085226715 0.003556809 -0.0031104982
0.041692767 -0.06767052 -0.038927797 -0.048586693 -0.04374232 0.06600052 0.013012744 -0.018702157
0.04456731 0.031940293 -0.046138015 -0.0758272 -0.07480277 0.07316563 -0.04973491 0.08217954
0.043157145 -0.09034246 -0.053291783 -0.02427782 -0.03857074 0.00053634035 0.0063148444 0.0059020733
-0.0147777945 -0.07568892 0.0031396637 -0.005532246 0.032333348 0.049800776 0.031749237 -0.06911715
-0.017242651 0.019991865 -0.03322095 0.035472285 0.004894723 0.004300006 0.02679674 0.046201017
0.095282346 0.08407461 0.028628727 0.0035169674 -0.06301766 -0.058827937 -0.013254933 -0.03940998
0.07509126 -0.040671397 0.077502154 -0.09282521 0.07847449 -0.0041438714 -0.05966734 -0.067162015
-0.003625121 0.028772706 0.07737702 -0.041613825 0.051187184 0.07600929 -0.040340066 -0.061722133
-0.04844888 -0.05863935 0.089333676 0.014921863 -0.015357078 0.06071798 -0.088620566 0.044095535
0.039006058 0.06704757 -0.006967878 0.04889429 -0.07078466 0.08961286 -0.068214275 0.08771432
-0.09744956 -0.040353987 -0.09025924 -0.07036865 -0.07645413 -0.084925435 0.05918338 0.013354778
-0.043871567 -0.0563233 -0.0025660342 -0.07386042 0.03454089 0.075150505 -0.023176346 0.059597604

node_layers.mlp_0.bias f4 [64]
00000000: 9d9a 24bc b6d2 5c3d 95ce 2cbd 0bf9 cabb
00000010: 9d23 5abd d24a 3d3c 672f 4d3d 6b3d 8dbc
00000020: 3fa2 743c 7a47 84bc 1a17 ad3d d5e7 b53d
00000030: d30e a13d 75a9 5c3d 722e 0c3d 0574 b93d
00000040: b22d 25bc 9e2c 903d 45e0 96bd 0bf1 20bc
00000050: e491 943c 2fae 923a 9619 fdbc 4cfa aebd
00000060: 5bb6 ac3c 7a22 9a3c 0066 773d 1c04 213d
00000070: 7e3b 3f3d 1242 7abd 98c6 f0bb c163 97bc
00000080: 7b77 b7ba 4e7a 913c 30d1 83bd 428a 1fbd
00000090: e508 adbd 949d 73bc 9e36 b93d 23a9 623d
000000a0: c35d 96bd f174 6e3d cca6 2ebd 2bdd 95bd
000000b0: 3de1 1dbc 4a2a ab3c c2cc ad3d 69a5 38bd
000000c0: c20f ae3d d102 1a3c 6a0d 82bd 1e31 ecbc
000000d0: 0c5d 81bc 533f b4bd bc7f 823c 4fd3 3c3d
000000e0: 18b1 8e3c a0db c5bc 55a3 2abd 6a1a 993d
000000f0: 15fc a2bd 67ef 9a3b 7900 9c3d 936f 963d
-0.010046628 0.053911887 -0.0421892 -0.006194239 -0.05325662 0.011553483 0.050094035 -0.0172412
0.014931261 -0.016147364 0.08451672 0.08882109 0.078641556 0.053872544 0.03422398 0.09055332
-0.010081695 0.0703976 -0.07366995 -0.009823094 0.018135972 0.0011190827 -0.03089599 -0.08543834
0.021083048 0.018815268 0.06040001 0.03931056 0.046687596 -0.061098166 -0.007347893 -0.018480184
-0.00139974 0.017758515 -0.06436384 -0.038950212 -0.08448962 -0.0148691125 0.090436205 0.055337083
-0.073421024 0.058216993 -0.04263954 -0.07317575 -0.0096362205 0.020894188 0.0848632 -0.045079622
0.08499099 0.009400086 -0.06350215 -0.028832015 -0.015791439 -0.08801141 0.01593005 0.046099957
0.01741843 -0.024152577 -0.04165967 0.07475741 -0.07958237 0.004728246 0.07617278 0.073455

edge_layers.mlp_0.weight f4 [64, 121]
00000000: 9f99 14bd feaa 7dbd 819b a63d 7a3f 90bd
00000010: 6a5e a73d 24d8 af3d e79b 52bd f58e 813d
00000020: cbd9 9f3d 264b 0b3c f139 9cbd 4e34 373d
00000030: c27d 933d 6870 96bd bd3f 45bd 10da f33c
00000040: 76b4 533c 123b 323c ba33 d1bc fed5 d3bc
00000050: 0173 b0bc d202 c2bd 0b9d 363c 6853 b73b
00000060: 6f6f 84bd 509a 08bd 63c2 883d 0676 3b3d
00000070: 81b6 9cbd c5df 3e3d 4464 f5ba 335f a33c
00000080: 5f37 8a3d b918 af3c 2d0c 4cbb 81fd 7fbb
00000090: 4cb7 f1bc 0de3 393d ef21 b53c b486 b4bd
000000a0: 94d9 e0bb 9c25 6c3c 74ba 363d 29f4 b23c
000000b0: 6d16 c53c 31b5 10bd a857 3c3d 8b41 ab3d
000000c0: f7ea 67bd 4edb b9bd 38c2 d13c 87b6 cd3c
000000d0: b065 f23c 5410 3cbd 4313 92bb b0a4 8abd
000000e0: da88 bcbc 3e65 6e3c 3f66 ad3d d5c0 5dbd
000000f0: 225e 80bd 1596 5c3c b1c5 653d bf40 983d
00000100: 4c38 f0bc deb8 993b f778 b23d 7fbd b43d
00000110: 6ce0 b03d 44ae 49bd 164a 943c 0f09 74bc
00000120: c858 663c a025 00bd 011d 8cbd 5d25 c73d
00000130: 66ae 243d 18e2 a83d 811a a83d 610d d5bb
00000140: b78c afbd 19fe a3bd dec7 cf3d 569e da3b
00000150: b9ae 69bd 5ba8 2e3c 9323 a1bc 7bd7 443d
00000160: e642 f1bc b637 69bd 1aab 87bd f0cd 12bd
00000170: c00e a7bd 1a81 823d c522 b13b bc21 853d
00000180: 37aa a23d 9d8b 3c3d 43f6 203c 6a80 b13d
00000190: 9e1e 9cbc 8fe0 993d 3b71 99bd e2aa 22bd
000001a0: 082b 9bbc e3bb e8bb bee2 86bd 9193 2fba
000001b0: b9c7 293d 2b2a 9cbd a0d0 f13c f4b6 8ebc
000001c0: e48f 2e3d ae77 05bc 3801 adbc 368c 9e3d
000001d0: 1c45 b83b 0839 313d 0576 023d 2c5c acbd
000001e0: 7c70 8b3d 5e67 e33c e379 46bd 284f 03bd
000001f0: 2c8e 76bc 498e 473d ee86 103d 7865 5bbd
00000200: e605 f5bc 6c4e a8bb 9294 b83d 5996 d4bc
00000210: 6e45 533d 405d dc3c 8e75 6fbd f27e 7fbd
00000220: 4961 553c 83d6 91bd 8267 85bd f02f 873c
00000230: 1e94 b5bb da66 ab3d 068d e3bc 8bb1 fe3c
00000240: b2fb 7bbc d855 88bd 7f6f dfbc 41e7 b03d
00000250: 448b 913d f83d 73bd e86e 22bd c288 aabd
00000260: 99da 6dbd 1b05 74bd a08c 3abd 676c aebd
00000270: b248 a03c cb4d 0c3d 8270 a5bd a4bc a7bd
00000280: e255 b3b9 9735 783d eb45 0dbd 3715 e8bc
00000290: d8b2 98bd 6aeb 6fbd 756f 1b3d ac37 e93c
000002a0: 0b42 f43c 5008 873d a67d adbc dfe3 9fbd
000002b0: a296 983c caa2 823d 76ef 193c 9284 833d
000002c0: 1412 ffbc a1f3 15bd 6e9f 0bbd 8168 c93c
000002d0: 72a7 c33c 3d10 5ebd bfa3 7ebc b275 44bd
000002e0: 5718 83bd c93a 753d 43df 2b3d 2705 883d
000002f0: c018 b73d ffaa b1bd a882 b93d 6439 7f3c
00000300: d8f6 a2bd 5ee8 86bd cc4c 8bbd ff50 623d
00000310: 6096 02bc cac4 563c 8e71 87bd 3825 9dbd
00000320: 0d5c 373c 4adb 72bd 3cf8 1d3c d1e5 5e3d
00000330: 17db a8bd 3107 c33c 4e65 493d 174d 223d
00000340: 9e76 c23d 9040 4837 29af 56bd 6934 bdbd
00000350: 232b 7fbc a8cc bfbc 1f56 703d 1511 533d
00000360: 1dfc 4a3b 262e 793d 04dc bc3d 20b6 8a3d
00000370: ec7b 38bd e0f4 f1bc 60e9 0d3d 9844 b0bb
00000380: f77d 283d 14d5 7dbd ff2b 9f3c 3a81 8e3d
00000390: d9d0 743d dfdd 843d 6ff7 5b3d 1add 84bd
000003a0: 095c cbbd 8791 55bb 6873 ae3d f69b c6bd
000003b0: 14da 9abd 5890 e83c 87e2 06bd 7965 abbd
000003c0: 312e 0fbc ac00 7b3d 430a 8abd 9b33 1fbd
000003d0: 4a3f 9bbd 722b cebc 9f69 4fbd 1e95 ae3b
000003e0: fe62 023d 36e0 cbbd 7055 803b 53f8 53bd
000003f0: 4d8e 693d 8589 a53c fd62 80bd 7e4d a53d
-0.036279317 -0.06193065 0.08135129 -0.07043357 0.08172305 0.085861474 -0.05141821 0.06326095
0.078052126 0.0085018035 -0.07628239 0.044727616 0.07201721 -0.073456585 -0.04815649 0.029767066
0.012921443 0.010878341 -0.02553736 -0.025858875 -0.021539213 -0.09473194 0.01114584 0.0055946596
-0.06466567 -0.03335029 0.06677701 0.045766853 -0.07651997 0.046600122 -0.0018721898 0.019942855
0.067488424 0.021374093 -0.0031135187 -0.0039061012 -0.029506348 0.045382548 0.022110907 -0.08814755
-0.006861875 0.014413264 0.04461141 0.02184494 0.024058545 -0.035329048 0.045982033 0.08362111
-0.056620564 -0.09075032 0.025605306 0.02511145 0.029589504 -0.04591401 -0.0044578626 -0.06769693
-0.023014475 0.014550505 0.084667675 -0.054138977 -0.062679544 0.013463517 0.056096736 0.07434224
-0.02932372 0.0046912273 0.087144785 0.08825206 0.08636555 -0.04923846 0.018101733 -0.014894738
0.014059253 -0.031285882 -0.068414696 0.09723923 0.04020538 0.08246249 0.0820818 -0.006501839
-0.08571761 -0.0800745 0.101455435 0.006671707 -0.057051394 0.010660256 -0.019670283 0.04805706
-0.029450845 -0.056937896 -0.06624432 -0.03584093 -0.0815711 0.063722804 0.005405756 0.06500575
0.07942622 0.046031583 0.009824338 0.08667071 -0.019057568 0.07513534 -0.074923 -0.039713748
-0.018941417 -0.007102476 -0.065862164 -0.00066977093 0.041450236 -0.076252304 0.029518425 -0.017421223
0.042617694 -0.00814621 -0.021118745 0.07741587 0.005623473 0.04326728 0.031850833 -0.08416018
0.06808564 0.02775925 -0.048456084 -0.03205791 -0.015048545 0.048719678 0.03528493 -0.053563565
-0.02991004 -0.0051363017 0.090127125 -0.025950598 0.051579885 0.026899934 -0.05846172 -0.062376924
0.013023683 -0.07120993 -0.06513883 0.01650235 -0.0055413386 0.08369227 -0.027777206 0.031090518
-0.015379833 -0.066569984 -0.027274845 0.08637858 0.07106641 -0.05938527 -0.03965655 -0.08326866
-0.0580698 -0.05957518 -0.045544267 -0.0851677 0.019565914 0.034253877 -0.080781 -0.08190277
-0.00034205528 0.060597982 -0.034490507 -0.028330429 -0.07455987 -0.058574118 0.03794809 0.02846893
0.029816648 0.06593382 -0.021178078 -0.07807135 0.018626515 0.06378706 0.009395471 0.0642177
-0.03113655 -0.036609296 -0.03408759 0.024585964 0.023883555 -0.054214705 -0.01554197 -0.047963805
-0.06401127 0.059870515 0.041960966 0.06641608 0.089402676 -0.08675193 0.09058124 0.015577648
-0.07957238 -0.06587289 -0.06801757 0.055253025 -0.0079704225 0.013108442 -0.06613456 -0.076731145
0.01119138 -0.05929116 0.009641703 0.05441839 -0.08244913 0.02380714 0.049168877 0.0396243
0.09495281 1.1935961e-05 -0.05241314 -0.09238512 -0.015574249 -0.023413017 0.05867588 0.051529963
0.0030973025 0.060835026 0.09221652 0.06773019 -0.045040056 -0.02953571 0.034646392 -0.0053792708
0.041135754 -0.061970785 0.019430159 0.06958242 0.059769485 0.06487631 0.053702768 -0.06487484
-0.09929664 -0.0032587962 0.08518106 -0.09697716 -0.07561126 0.028389141 -0.032930877 -0.08368964
-0.00873904 0.061279938 -0.067402385 -0.038867574 -0.07580431 -0.0251672 -0.050637837 0.0053278347
0.031832688 -0.09954874 0.003916435 -0.051750492 0.057020474 0.020207176 -0.062688805 0.08071421

edge_layers.mlp_0.bias f4 [64]
00000000: 7058 653d 5534 e03c 879a 27bb f17d 863c
00000010: 6a20 92bd 3c58 1b3d 3186 383c 1d34 153c
00000020: 0d04 4d3d 6be5 713d 9daa abbd 506f 3f3d
00000030: 668d b93c cc29 85bb 1fd3 7d3d 43fc 8d3d
00000040: cff6 853d ccae ba3c c13b 05bd 2f2a faba
00000050: 8d34 82bd 29ab b9bc 31ea 9cbd 824f f13b
00000060: 2fea 413c a7c6 b53d abc6 893d b6f8 9dbd
00000070: 4e7f 163d a30c 9bbc 1360 febc 36df 813d
00000080: d213 78bd db10 7fbd 791f d5bb 29fa aabc
00000090: 6fae d5bc 4888 c73d 3394 b33d b44d a23d
000000a0: 4c4f 873d b7e3 9d3d 60f2 903d afaa bebc
000000b0: 465c 34bd 2829 9bbd 9d46 8e3d e953 443d
000000c0: 731b 93bd ad76 b6bc af0b cfbc a2bb 71bd
000000d0: 2ece a5bd a4d6 6c3d 5006 bbbd acf3 87bd
000000e0: 86e2 a4bc 11c2 8bbc 7f53 8d3c 530a ac3d
000000f0: 4022 ea3c 7a74 e53d 9b3e 78bd c94f 7fbc
0.055992544 0.027368704 -0.0025574283 0.016417475 -0.07135089 0.037925944 0.0112624625 0.009106663
0.05005269 0.05905668 -0.08382151 0.046737015 0.022650432 -0.0040638205 0.06196892 0.06932881
0.06541216 0.022788428 -0.03252769 -0.0019086058 -0.063576795 -0.022664623 -0.07661856 0.0073642144
0.011835619 0.088757806 0.06727346 -0.077134535 0.0367425 -0.018926924 -0.031051671 0.06341402
-0.060565777 -0.062271934 -0.006503996 -0.020871239 -0.026084153 0.097427905 0.08768501 0.07924977
0.066069216 0.07709449 0.07077479 -0.023274748 -0.04403331 -0.07576209 0.06947062 0.047931585
-0.0718297 -0.022273386 -0.025274126 -0.05901683 -0.08095966 0.057821885 -0.091320634 -0.066382736
-0.020127546 -0.017060312 0.017251728 0.08400407 0.028580785 0.11203857 -0.06060658 -0.015582987

gnn_layer_0.classifier.weight f4 [1, 64]
00000000: 1af9 8ebc 0abd 2e3d d227 88bd 019e d53d
00000010: c50c ee3d e826 e63c 69f4 89bd cb75 c6bd
00000020: 9bcc 2cbd 3634 04be 6a56 e0bd 03bb 483d
00000030: 08e7 4f3d 5313 70bd 1757 373d 7b5d 37bd
00000040: 7061 c7bd 1812 87bd 75d7 303d 9025 1a3d
00000050: c792 a2bd 140f ebbd 716c 86bd 60b6 d23b
00000060: 8724 e8bd 2939 2d3d d069 ddbc 87d8 58bd
00000070: dcb7 883c c0dc 573d dd2c ffbd 9375 02be
00000080: 7d72 c5bd b96c 00bd 3952 b7bd 88a4 a43d
00000090: 4e40 ad3d 7023 efbc 309a 833d 3113 813d
000000a0: 1d62 8ebd d030 86bd 9c72 1fbc 88f8 71bd
000000b0: b5ca 2a3d 033e bf3d 82ed ab3c ebc3 debd
000000c0: 4a43 c5bd b157 8fbd 8a5b 4e3d 10f7 163d
000000d0: aae4 993d 59be 853c d958 c93d 6adb e8ba
000000e0: 68b2 17bd 8077 d6bc cc55 0bbe e08d d7bd
000000f0: 027b 053d 13cf f4bd 1ada 03be 389e 47bd
-0.017452765 0.04266075 -0.0664822 0.104305275 0.11623529 0.028094724 -0.06736071 -0.09690436
-0.042187314 -0.12910542 -0.10953982 0.049006473 0.050757438 -0.05861218 0.04476079 -0.044766884
-0.097353816 -0.06595248 0.043174226 0.03763348 -0.07938152 -0.11477485 -0.06563652 0.006430432
-0.11335092 0.04229084 -0.027027994 -0.05294087 0.016689233 0.052700758 -0.12459729 -0.12740164
-0.096409775 -0.031353686 -0.089512296 0.08039194 0.08459531 -0.029191703 0.06425893 0.063024886
-0.069523074 -0.06552279 -0.009731915 -0.05907491 0.041697223 0.09338 0.020987276 -0.10877212
-0.09631975 -0.06999148 0.050380267 0.03685671 0.07514317 0.016326116 0.098313995 -0.0017765586
-0.037035376 -0.026180029 -0.13606948 -0.105251074 0.032588013 -0.11953559 -0.12876168 -0.048734874

gnn_layer_0.n_func.0.weight f4 [64, 1]
00000000: b8ab 5c3e 25ab 6a3f 7447 c0be a221 163f
00000010: 274a 133f 9e23 55bf 6647 4d3e bd20 6d3f
00000020: 54f4 4e3f 78af fdbe 1663 5ebf 9e04 5f3f
00000030: c0f8 263f b056 4bbf fd03 653f 0073 dfbd
00000040: 2268 0cbf 0053 7b3d 800f 4ebd 4667 473f
00000050: d478 e3be 3470 4dbf efdb 06bd 988e 323f
00000060: 51e9 f83e 44c9 f9be 63d5 123f 72da 28bf
00000070: a452 8cbe 59d4 673e 7413 4fbe 2764 2b3f
00000080: 8e94 623f a56a 823e 50c5 5cbf 6e6e 703f
00000090: b5a6 e03e 9c27 213f 3d0d 4b3f 78c2 813e
000000a0: fdc4 5a3f 6034 973e 80f3 103c 402b 373d
000000b0: 1dd0 7dbe e85a 3cbf fb6a c6be 57aa 303f
000000c0: 8bc0 273f 4710 aabe b8b1 48bf bcf8 88be
000000d0: e82b 09be a4dd 20bf d81c 533e f6ad 4ebf
000000e0: b2f4 8dbe ae31 fbbd 6e39 5abf f22f f13e
000000f0: 9861 0ebf d06b bfbe f05a c73e 686c fb3e
0.2154988 0.91667396 -0.37554514 0.5864507 0.5753502 -0.8325747 0.20046768 0.9262808
0.80841565 -0.49547935 -0.86869943 0.8711642 0.6522331 -0.7942915 0.8945921 -0.109106064
-0.54846394 0.06135845 -0.05030775 0.7789196 -0.44428122 -0.80249333 -0.03292459 0.6974883
0.48615506 -0.48786366 0.5735685 -0.6595832 -0.274068 0.22639598 -0.20222265 0.66949695
0.88507926 0.25471988 -0.86238575 0.939185 0.43877187 0.62951064 0.79317075 0.2534368
0.8545683 0.29532146 0.008847117 0.04471898 -0.2478642 -0.7357621 -0.38753495 0.6900992
0.6552817 -0.33215544 -0.7839618 -0.2675227 -0.13395655 -0.62838197 0.20616472 -0.80734193
-0.2772575 -0.12265335 -0.8524388 0.47106892 -0.55617666 -0.37386942 0.38936567 0.49106145

gnn_layer_0.n_func.0.bias f4 [64]
00000000: f263 3fbf 22d1 803e 08c9 1c3e 262c 433d
00000010: 5b08 f3be 8079 0b3e 3e8e 7a3f 50cc 42bf
00000020: 996c cf3e 1207 59bf ea59 18bf 49a8 75be
00000030: 37d9 2cbe c250 41bf 5c85 973e 8807 94be
00000040: 40d2 1ebd c854 49be aaa2 43bf 905b f53d
00000050: b89b 3f3f 4812 2dbe 8ee8 bf3e 6198 41bf
00000060: 8c02 f1be a8fc 813e c460 68bf 945c c73e
00000070: c01e 4dbd b632 283f 2327 653f acab 84be
00000080: df92 f53d 7f35 2e3e c0ce cfbe b5cb 023f
00000090: bd08 d5bc 8384 5bbf d636 ec3e dca5 a93e
000000a0: 6cfd 1e3f bb2a 4bbf 4421 5cbf 7277 63bf
000000b0: a8ac d53e 042f 933e 3ef3 673f 86ac 17bf
000000c0: 542c 723f 4750 dd3e 6002 593e 6460 cabe
000000d0: a257 7a3e 8aef 71bf 7ae3 86be ba19 1a3f
000000e0: 50d8 0a3f 4fb8 213f 5c15 333f eecb d0bd
000000f0: ac1b 5abf 0a34 59bf 6059 60bf 23e1 673f
-0.7476188 0.25159556 0.15311062 0.047649525 -0.47467312 0.13620567 0.97873294 -0.76093006
0.4051254 -0.84776413 -0.595122 -0.23989977 -0.16879736 -0.7551385 0.29593933 -0.28911996
-0.03877473 -0.19661248 -0.7642008 0.11980355 0.7484698 -0.16901505 0.37482113 -0.75623137
-0.47072256 0.25388074 -0.9077265 0.3893782 -0.050078154 0.6570238 0.8951284 -0.25912225
0.11990904 0.17012595 -0.40587425 0.5109208 -0.026005143 -0.8574907 0.46135587 0.33134353
0.6210544 -0.79362077 -0.8598826 -0.88854134 0.4173329 0.28746808 0.90605533 -0.59247625
0.9459889 0.4322531 0.21192312 -0.39526665 0.24447492 -0.9450613 -0.26345426 0.60195506
0.54236317 0.6317186 0.69954467 -0.101951465 -0.85198474 -0.8484503 -0.87636375 0.90577906

gnn_layer_0.n_func.2.weight f4 [64, 64]
00000000: 06e7 8f3d 6983 a1bd 62f3 89bd ac2f 823d
00000010: 5d27 313d de2e 873d bf9d 6a3d 44d9 c8bd
00000020: f697 d4bd fef4 84bd e470 bd3d 5fdf d5bc
00000030: f320 a73d 88c0 40bd ca8c 8f3d 38ac dabc
00000040: 40af 663b bc38 893d ac9c 273d 0b27 fc3d
00000050: 9d29 083d b2ba d4bd 9d56 a3bd bc6e ec3c
00000060: 40c6 013d 9cd7 0abd a50c edbd 00d7 9c3b
00000070: 80d1 efba 6413 e1bd 1b91 dabc dabf a93d
00000080: ffeb fc3d eefa 4fbd 6041 c73c 0a7f fa3d
00000090: 7bc5 e2bd b2d5 ed3d 7f56 f23c 285e febd
000000a0: 6708 c2bd 2d1a a7bd ce8e f63d 98e4 b4bd
000000b0: 1bc2 68bc da6e 81bd affc 95bb 1478 d0bd
000000c0: 351d e03d 800e b53d c01b c63b 6847 37bd
000000d0: 9691 f5bc 4035 963d 5919 953c 6ceb ddbd
000000e0: 9e20 dd3d 45f0 c93d d032 c63c 349b e13d
000000f0: b094 14bc 70e9 933d d376 13bb c7a4 b63d
00000100: 2084 d03c 093a 20bd 12a8 dabd de71 c63d
00000110: 982d 9ebc 7014 adbd 3bbf 353c 40fe 4fbd
00000120: 778a c53d 10e8 96bd ee00 e9bd 433b 033d
00000130: a178 80bc 30ce 06bd 0ad5 ad3d 2a2b 953d
00000140: f4fa 82bd 70f0 48bc 5848 14bd 3b83 ca3d
00000150: 2b0b 8a3c dc4a 3e3d c45d f2bc 9e07 843d
00000160: 8a77 cebb 0018 8ebd f0d9 353c 0038 dd3b
00000170: 7664 8f3d 9ae6 b2bd 26cf 9d3d 9fa7 36bb
00000180: 9252 d2bd 60c9 2f3d c8df c13c 182c fb3d
00000190: 68ff cabc 7795 06bd 7b9c 76bd d61f b53d
000001a0: 1a9a d9bd 9964 b0bd c09c 163c b840 ad3d
000001b0: a6fb d13d ca12 8c3d 8a37 bdbd 0b5c 8d3c
000001c0: 5fa5 ea3d daca 293e 06bd dcbd 50e1 febd
000001d0: 4682 8e3c e0b9 2dbc fa7d 9b3d d473 98bd
000001e0: 7bfa a83d 25d5 95bb e0cb 9abc 98b9 bc3d
000001f0: c084 51bd b4fc ab3d 5320 c3bd e1a3 9b3d
00000200: 24e8 ffbd 17c3 bdbd 3057 943d d97d 8f3c
00000210: 6c90 80bd 368d b3bd 303c 723d 141d 9c3c
00000220: 059e e9bd 0444 283d ea43 e33d 2080 76bd
00000230: 1735 95bd b885 713d 608b 713d d48d e73d
00000240: f0cd b9bd 6878 a1bc 2270 813d b51a cf3d
00000250: c38c 01bd 1886 e9bc a345 96bd dcdf 28bd
00000260: 5884 c73d 5aab db3d a0ff 88bd 96d7 d0bd
00000270: d47b 88bd f9d0 84bd 089b b4bc 7f44 ffbd
00000280: adab f0bd 8987 eb3d 1809 c33c 135e e83d
00000290: fbb1 9cbd 38f7 6c3d 9997 883d 9b62 dabd
000002a0: 41cf c9bc a6bb ddbd 1076 6d3d 1623 e63d
000002b0: 9e0f 9fbd 38d5 eb3d f0ff 123d 32ec 533c
000002c0: 04b3 623d 4021 073d a400 f43d 1a21 81bd
000002d0: 0252 9cbb 0099 273a 0207 dd3d 5489 753d
000002e0: 6940 aebd a78b 9d3d f0ec 90bc 5903 733c
000002f0: d06c babd 9033 593c 26bc 883d b9f7 223c
00000300: de30 fa3d a83c adbd ecb6 42bd 422e 903d
00000310: 346c 5d3d 2425 603d 5ca7 35bd e44b 6abd
00000320: 60eb b63c 06a8 913d e20e b7bd 008b 5b3c
00000330: 7c8c d4bd ee59 e5bd 0421 243d 5c94 df3d
00000340: 8083 a9bc e0e6 59bd a4ec be3d 5c07 323d
00000350: 7c85 3cbd 080a b63c b2b3 dcbd 2a74 f6bd
00000360: 345a 71bd ac45 0f3d 6051 dc3b 202c 673d
00000370: 800b b2bd c054 3c3c a053 85bb 8443 973d
00000380: 40b0 e93b 6ea9 b13d 84ff 7e3d 201e c8bd
00000390: 669c febd 6ca3 7c3d a0ea 57bc a2b6 a13d
000003a0: c4ae 8d3d 0000 c6bd 82c8 dbbd 2093 293c
000003b0: d441 823d 0819 14bd 7c1b 73bd 7876 fc3d
000003c0: 90ee 323c ea54 ad3d 0817 cebd 4424 2a3d
000003d0: 48aa 993c 60a1 123d 28af 2bbd 5e23 91bd
000003e0: 7a49 fb3d 0cf4 a53d 8830 b23d 2044 c3bd
000003f0: 00e6 b0ba 540b c43d e6cd c9bd 702c c8bd
0.07026486 -0.078863926 -0.06735875 0.06356749 0.04325043 0.06600736 0.057279345 -0.09807065
-0.10380547 -0.06492041 0.09250048 -0.026107488 0.081605814 -0.047058612 0.07009275 -0.026693448
0.0035199672 0.06700274 0.0409209 0.12312134 0.03324281 -0.10387172 -0.079755045 0.028861396
0.031683207 -0.033897027 -0.115746774 0.004786372 -0.0018296689 -0.109900266 -0.02668052 0.08288546
0.123497 -0.050776415 0.024323165 0.12231262 -0.11072823 0.11613025 0.02958226 -0.12420303
-0.09474259 -0.081592895 0.120389566 -0.08832663 -0.014206435 -0.063199714 -0.0045772414 -0.10179153
0.10943071 0.08840656 0.0060457885 -0.044745833 -0.029976647 0.073343754 0.018200563 -0.10835919
0.10797237 0.09860281 0.024194151 0.11015931 -0.009068653 0.07222259 -0.0022501245 0.089181475
0.025453627 -0.039117847 -0.10676588 0.09689687 -0.01930885 -0.08451164 0.011092956 -0.05077958
0.09645551 -0.07368481 -0.113771304 0.03203894 -0.01568252 -0.03291148 0.084878996 0.072836235
-0.06395522 -0.012264356 -0.036201805 0.098883115 0.016851028 0.04645811 -0.029585727 0.06446765
-0.0063008713 -0.069381714 0.011099324 0.0067510605 0.07001583 -0.0873539 0.07705526 -0.0027870906
-0.10269655 0.042916656 0.023666278 0.122642696 -0.02477999 -0.032857385 -0.060207825 0.08843963
-0.10625096 -0.086129375 0.009192646 0.0845961 0.10253076 0.06839521 -0.09239109 0.017255804
0.11457323 0.16581288 -0.10778241 -0.12445319 0.017396104 -0.010603398 0.075923875 -0.074439675
0.082509 -0.004572528 -0.018896043 0.09215087 -0.05115199 0.08397809 -0.0952765 0.07599617
-0.12495449 -0.09265726 0.07243192 0.017516064 -0.06277546 -0.08767168 0.05913943 0.019056834
-0.11407093 0.04108049 0.11096938 -0.060180783 -0.07285517 0.058965415 0.05897081 0.113063484
-0.090724826 -0.019710734 0.06320216 0.10112516 -0.03162838 -0.028506324 -0.07337501 -0.041229114
0.097420394 0.10726042 -0.066893816 -0.1019737 -0.06664243 -0.06485171 -0.02204658 -0.124642365
-0.117514946 0.11500461 0.023808047 0.11346068 -0.076511346 0.057852954 0.0666954 -0.10663339
-0.02463496 -0.10826807 0.05797392 0.11237161 -0.077666506 0.115152776 0.035888612 0.012934731
0.055346504 0.032990694 0.11914185 -0.06305142 -0.0047705183 0.0006393343 0.10792352 0.05994542
-0.08508379 0.07692652 -0.017691106 0.014832341 -0.091027856 0.013256922 0.066765115 0.009946757
0.12216352 -0.08458835 -0.04753773 0.07040073 0.05405827 0.05472292 -0.04434906 -0.05720128
0.022329032 0.07112126 -0.089383855 0.013399839 -0.10378358 -0.11198793 0.04007055 0.10916969
-0.020692587 -0.053198695 0.09322479 0.04346405 -0.046025738 0.02222158 -0.10776462 -0.12033875
-0.058923915 0.034978554 0.006723568 0.056438565 -0.086936 0.011494815 -0.004068807 0.073859245
0.0071316063 0.08674894 0.062255397 -0.09771371 -0.124321744 0.06167929 -0.013178498 0.078961626
0.069180995 -0.09667969 -0.10731603 0.010350019 0.06360212 -0.036156684 -0.059352383 0.123272836
0.010921136 0.08463462 -0.100629866 0.04153849 0.018757954 0.03579843 -0.04191509 -0.07086824
0.12269874 0.08103189 0.08700663 -0.09534478 -0.001349628 0.09572473 -0.09853725 -0.09774101

gnn_layer_0.n_func.2.bias f4 [64]
00000000: ca28 863d c3c4 e2bc cc3c 5c3d 04f6 9dbd
00000010: d0bc cf3c ed57 e4bd ec69 a83d 18b0 7abd
00000020: bcd2 413d 56f9 063d e70b b3bb 9899 cfbc
00000030: b8b8 b4bc 08b7 ccbd 1434 153b 59cf 01bd
00000040: fcd2 3a3d 44d7 c63d e113 eabd a220 86bd
00000050: 2b01 9cbd ceb5 84bd b2f4 f43c 0061 433c
00000060: 77a5 17bd 684d 5abd 409c ca3d aa90 823d
00000070: 14c7 eebd e697 e5bd d9bc 75bd 047b 5e3d
00000080: e087 a3bc 0844 50bc 441e 9fbd 20a1 653c
00000090: 387b 45bd 48f1 33bd 27d5 153d 30a5 8bbd
000000a0: 97ac 503c 9217 9f3d d353 d83d 4010 4c3d
000000b0: 9a18 ef3c 651d 32bd 1f8f f4bb 3b20 353c
000000c0: 00d5 5cbd 612e ad3d 461b df3d 4296 e6bd
000000d0: 39b3 c9bd a183 59bd a049 473d 6495 57bd
000000e0: 1cdb e83d dc9b dabd 02ef d7bd e41f c33d
000000f0: 0e03 d13d f4ea 1dbd de78 e3bd ec92 b4bd
0.06550749 -0.027681714 0.053768918 -0.077129394 0.025358588 -0.11149583 0.08223328 -0.061203092
0.047320113 0.03295263 -0.0054640654 -0.025341794 -0.022060737 -0.09995848 0.0022766637 -0.031691883
0.045611367 0.097090274 -0.11429573 -0.06549193 -0.0761741 -0.06479989 0.029901836 0.011924982
-0.037023034 -0.053296477 0.098930836 0.06375249 -0.11659065 -0.11210613 -0.059994552 0.054316536
-0.019962251 -0.012711532 -0.077694446 0.014015466 -0.048213214 -0.043931276 0.03658023 -0.068186164
0.012736461 0.077681676 0.10562863 0.049820185 0.029186536 -0.043485064 -0.0074633504 0.011055048
-0.05391407 0.08456112 0.10893874 -0.11259128 -0.09848637 -0.053104047 0.0486542 -0.052632704
0.11369917 -0.10674259 -0.10543634 0.09527567 0.10205661 -0.038554147 -0.11107038 -0.088170856

gnn_layer_0.n_self_func.0.weight f4 [64, 1]
00000000: f065 8e3d 403c 233e 20e2 9dbd cb9d 743f
00000010: f6c3 0bbe 9eea 2d3f 038a 0d3f 5af6 3dbe
00000020: 40a2 6d3d 1c47 b8be eb49 dabe 2157 32bf
00000030: ede8 7a3f f2f2 4e3f 2c2d 41bf 0034 e5ba
00000040: f2fc 01bf 0db7 6d3f a94e 633f b4c0 10be
00000050: e474 603f d025 a7be 4478 4e3f 77af 293f
00000060: be84 623f 201a 883d 21df 1f3f 0064 28bb
00000070: 3c51 633f 08c4 0bbf 24f6 073f c6cc 1ebf
00000080: ae26 2cbf 5c1d 113d 6228 33bf b462 cf3e
00000090: 76a0 79bf 9f82 24bf aa1e 78bf 5eaf 15bf
000000a0: fc6e 49bf 4bb3 473f 0fc9 083f fe1e 7fbf
000000b0: c8bd b7be 405b efbe b748 aebe b226 443f
000000c0: aeaa 5fbe a502 b3be a3bd 8dbc e0c7 5cbf
000000d0: fe57 253f 4c26 a0be 81e5 63be c4da 2dbf
000000e0: 9850 07bf d451 57bf d831 483f e163 0a3f
000000f0: 2049 c9bd d92c 6b3f eb95 5d3e ca92 003f
0.06953037 0.15940952 -0.077091455 0.9555327 -0.13648972 0.6793612 0.55288714 -0.18551007
0.05801606 -0.35991752 -0.4263452 -0.696642 0.98011667 0.80839455 -0.7545955 -0.0017486811
-0.5077659 0.9285744 0.887919 -0.1413601 0.8767836 -0.32646036 0.8065226 0.66283363
0.884838 0.06645608 0.6244984 -0.002569437 0.8879583 -0.54595995 0.53109956 -0.6203121
-0.6724652 0.03542839 -0.69983494 0.40504992 -0.9751047 -0.6426181 -0.9692179 -0.58470714
-0.78684974 0.78007954 0.5343179 -0.99656665 -0.3588698 -0.46749306 -0.34039852 0.76621544
-0.21842453 -0.34962955 -0.01730234 -0.86242485 0.6458739 -0.31279218 -0.22255518 -0.67911935
-0.5285735 -0.84109235 0.78201056 0.54058653 -0.098284006 0.9186531 0.2163922 0.5022398

gnn_layer_0.n_self_func.0.bias f4 [64]
00000000: a061 3abf 5830 53bf 80af 48be 1ae9 68bf
00000010: 0f87 1b3f c9c9 9f3e 989d 15bf ae48 1f3f
00000020: 967f 3dbf 56ad 33bf 6650 533f e085 673f
00000030: c88f 7b3e 84a1 6fbc dc07 5fbf 9029 2ebf
00000040: c02f f1bc e397 cc3d 2d49 8db8 1f84 523f
00000050: 7eb5 033f d06f cbbe 3e45 633e 6d8c 05be
00000060: 1e40 54bf 2057 6abf fbdb 3cbf 70c7 51bf
00000070: 8908 d23d d815 423e 8430 38be 7769 4e3f
00000080: c070 1cbf c910 843c 04c7 f23e 063e 7c3f
00000090: 90e6 8ebd f034 2c3f 50e6 2f3e 1093 13be
000000a0: f0dc 37be 8b81 dabe 92c0 44bf 103c 193f
000000b0: 02de 13bf f873 94be 05d9 e23e 6fc7 433e
000000c0: 959a 723f 31d0 4c3f 2bbe 9f3e a672 123f
000000d0: 2227 c73d 08e4 91be ae15 433f 0c61 3cbf
000000e0: 38c3 2dbf 5884 18be 54dc 753f 6a1c 59bf
000000f0: 0029 6f3d bc39 643d 5953 11be 7a83 44bf
-0.72805214 -0.8249564 -0.19598198 -0.90980685 0.6075296 0.31208637 -0.58443594 0.62220275
-0.74022806 -0.70186365 0.82544553 0.9043865 0.24566567 -0.014625911 -0.8712137 -0.6803217
-0.029441714 0.099899076 -6.737034e-05 0.8223285 0.5144881 -0.39733744 0.22194383 -0.1304185
-0.82910335 -0.9153919 -0.73773164 -0.8194494 0.10255534 0.18953645 -0.17987257 0.80629677
-0.6110954 0.016121285 0.47417462 0.9853214 -0.0697757 0.67268276 0.17177701 -0.14411569
-0.17955375 -0.42676958 -0.7685634 0.59857273 -0.5776063 -0.28994727 0.44306198 0.19119047
0.94767123 0.80005175 0.31199774 0.5720619 0.09724261 -0.28494287 0.76204956 -0.7358558
-0.67876005 -0.14894235 0.9603932 -0.8480898 0.05838871 0.055719122 -0.14191951 -0.7676312
