ThinkMatch/exp_aaai/ngm/CV1/saved_models/model.pt (torch, 207121 bytes, 25 tensors)

affinity_layer.lambda1 f4 [64, 64]
000000 6e b9 f3 3e 60 f4 82 3c f3 43 37 3d fe 7c 24 3d
       0.4760241 0.015985668 0.044742536 0.040158264
000010 c3 e4 d7 3c da be 00 bd 6d a5 6a 3b cd 8e 8a bd
       0.0263542 -0.03143201 0.0035804168 -0.06765518
000020 44 b4 4b 3d 76 ff 51 bd 2f 46 66 3d 24 d4 1f 3b
       0.04973246 -0.051269017 0.056219276 0.002438792
000030 e5 be 1c 3a dd 48 72 bc 0e 5a 0e 3d 77 9b 24 3d
       0.0005979373 -0.01478788 0.03475385 0.040187325
000040 df 4b 45 3d 3e 1d 1b 3d 0e 6c 05 3d 28 31 2e bd
       0.04816806 0.037869684 0.032573752 -0.042527348
000050 19 47 aa 3b a3 72 d7 3c 82 67 34 bd 5d ff f2 3a
       0.005196464 0.02629978 -0.044044025 0.0018539239
000060 ba ac 8a bd 13 2c 83 bd 45 3c 16 3d 5d 2d 95 bd
       -0.06771226 -0.06404891 0.03667857 -0.07284043
000070 45 13 ce 3c ee 39 90 3d 3e 13 10 bd 6c d6 b1 3d
       0.025155673 0.07042299 -0.0351746 0.08683476
000080 14 c9 18 3d 54 60 62 bc 4d 44 ff bc 6d b7 46 3d
       0.037301138 -0.013816912 -0.031160498 0.048514772
000090 da 94 8e bb 66 4a 14 bd 10 5a 4b bd 4f a5 5b 3c
       -0.0043512406 -0.036203764 -0.049646437 0.013406112
0000a0 b2 9d a4 3d e5 71 62 3d 2e 8a 27 3c 2e 9d 8c 3d
       0.080378905 0.0552844 0.010225816 0.06865917
0000b0 7c 79 e5 3c 8c 82 94 bd 19 a3 55 bd 43 10 fd 3b
       0.02801203 -0.07251462 -0.052157495 0.007722886
0000c0 6e 84 9c 3d b0 c5 40 bd 6a 5f a5 3d 1b 3f 14 3d
       0.076424465 -0.04706353 0.080748394 0.036192995
0000d0 3c d1 75 3d 36 c2 34 3d a4 ea 7a 3c c9 4b 60 3d
       0.060013995 0.044130526 0.015314732 0.054759774
0000e0 3e e0 74 bd ce 11 88 bd 2c 41 4b bd 30 9e bb 3d
       -0.059784167 -0.06644021 -0.0496227 0.09161031
0000f0 e1 4d c6 3c c8 df 30 bd 3e 48 d7 3c df 3c 75 bd
       0.024207057 -0.043182164 0.026279565 -0.059872504
000100 ac b1 b7 bc 8a 26 ee 3e b6 89 15 3d 80 aa ad bd
       -0.022423588 0.46513778 0.036508285 -0.08479786
000110 11 21 01 bd 89 24 85 bd 13 db 34 3d f9 d6 ee bc
       -0.031525675 -0.06501109 0.044154238 -0.029155241
000120 22 78 2a 3d f2 7f ef bc f0 f3 a6 bd d2 29 24 3d
       0.041618474 -0.029235814 -0.08151996 0.040078945
000130 fd 33 dd bc bb bd 8d bc b2 dc 6c 3d 59 9f 20 bd
       -0.027002329 -0.017302385 0.05782766 -0.039214466
000140 79 a9 8d 3d b7 b3 37 3d 4a be 81 bd 07 be 9a bd
       0.0691709 0.044849124 -0.06335123 -0.07555776
000150 89 14 37 3d 0c 08 06 bd c0 c3 1d bd f5 71 81 3d
       0.04469732 -0.032722518 -0.03851676 0.06320564
000160 c5 08 12 3c ef 23 eb 3c 8d 13 a2 bd 24 9d af bc
       0.008913224 0.028703658 -0.07913885 -0.021437235
000170 e8 b8 85 3d 57 c3 af 3d 5a eb aa bd 2a fb a7 3d
       0.06529409 0.0858218 -0.08345671 0.082022026
000180 63 86 17 3d c8 c2 9e 3d 26 8e 68 3a 56 ad 5e bd
       0.036993396 0.07751995 0.00088712794 -0.054364525
000190 d5 61 7e 3d ad ca e7 3c fb 5e f7 bc 86 14 8d bd
       0.06210502 0.028294886 -0.030196657 -0.0688868
0001a0 3b 85 12 bd 3e 95 a0 bb 77 f1 8e bd 80 bf 6b bc
       -0.03577159 -0.0049006036 -0.069796495 -0.014388919
0001b0 0f 73 3c 3d 3e 0f a2 bd 9e 9b 70 bd 81 03 0d 3d
       0.046008166 -0.079130635 -0.058742158 0.03442717
0001c0 51 db 7e 3d eb 87 af bc 5a eb 27 bd b3 db b3 bd
       0.062220875 -0.021427115 -0.040995933 -0.08782139
0001d0 8e 1e 9d bc ca b4 7d bd 40 f4 6e bd f4 bd e6 bc
       -0.019179609 -0.061939992 -0.058338404 -0.028166749
0001e0 54 60 3d 3d 69 7e 1a 3d ca 08 a5 bd 26 e6 91 bd
       0.046234444 0.03771821 -0.08058317 -0.071239755
0001f0 a1 62 18 bd 39 c9 99 bd 4e aa ac bb f1 20 02 3d
       -0.037203435 -0.07509083 -0.0052693253 0.031769697
000200 f4 d0 a8 bd b9 a3 24 bd 6b 7b 07 3f e6 68 1f bc
       -0.0824298 -0.0401952 0.52922696 -0.0097296
000210 ee 20 86 bc bd c4 31 bd 0b 90 9b 3d e7 99 7f bd
       -0.016373124 -0.043400515 0.075958334 -0.062402632
000220 62 ea b9 bb bf 6b aa 3d e4 26 8a 3d 58 8b 64 3d
       -0.0056736926 0.08321332 0.06745699 0.05579695
000230 d0 61 9a 3d 66 bc 2d 3c 49 36 89 bd b4 a5 3a bd
       0.075381875 0.010604 -0.06699807 -0.045568183
000240 9e 49 54 3c 1d 37 a0 bd c0 92 4c 3d 78 da 9a bd
       0.012957005 -0.07823012 0.04994464 -0.07561201
000250 83 1d 8d bd fd dd ad bd a8 b9 4d 3d 39 59 a6 bd
       -0.068903945 -0.084896065 0.050225884 -0.081224866
000260 14 5a 0d bd 05 1d 0c 3d 3e 79 77 bd 0a 2a 22 bd
       -0.034509733 0.034207363 -0.06041836 -0.039590873
000270 a3 48 f3 bc 98 fc 82 bd 1f e9 ab bd f0 c9 9d bc
       -0.029697722 -0.06395835 -0.08394074 -0.01926133
000280 57 9a b5 3c b3 06 4f bd c0 c2 92 3c 86 4d 7d 3d
       0.022168322 -0.0505435 0.01791513 0.06184151
000290 10 e4 49 3c e0 19 b4 bd b4 b2 21 bd 67 58 02 bd
       0.012322441 -0.08793998 -0.039477065 -0.03182259
0002a0 3b 1c 69 bc e8 94 d3 b8 7e 10 90 3d 55 c0 df bb
       -0.014227922 -0.00010089 0.07034396 -0.0068283477
0002b0 83 ff 84 bd 02 2e a0 3d 3c 8c 4b bd 84 2e d4 3d
       -0.064940475 0.07821275 -0.049694285 0.10360435
0002c0 45 b0 5a 3d 89 aa 85 3c cb c1 04 3d df 0e d5 3c
       0.05339076 0.016316669 0.032411378 0.026008068
0002d0 2e 31 82 bb bf 07 5d 3c f9 3f f1 3c b4 b4 87 bd
       -0.003973148 0.013490616 0.02944945 -0.06626263
0002e0 18 9b 71 3d 06 75 51 3d 7f d2 37 3d cf d7 8b bb
       0.0589858 0.051136993 0.04487848 -0.0042676697
0002f0 7c aa 50 bc 23 e1 fe 3b 80 22 86 3d eb 0e d0 3a
       -0.012735959 0.007778303 0.06549549 0.0015873587
000300 50 ba 35 bd a0 fa 3b 3d ae 7a 93 bd b2 89 0d 3f
       -0.044367135 0.04589331 -0.07201134 0.5528823
000310 2b b0 5f bd 3b f5 21 3d d7 88 1f bd 47 3e 19 3d
       -0.054611366 0.03954051 -0.03894886 0.037412908
000320 be 57 a3 3d 10 ef 5c 3d 91 ed 30 bd a9 8e a2 3d
       0.0797572 0.053938925 -0.04319531 0.079373665
000330 e6 1c aa bd 64 2d 2e 3d 89 51 fd bc f8 4e 5f 3d
       -0.08306293 0.042523757 -0.030922668 0.05451867
000340 81 c4 60 3d d0 c0 70 bd 9e cb 96 ba 54 27 d9 3c
       0.0548749 -0.05877763 -0.0011504774 0.02650801
000350 c9 06 76 bd f5 7b 2a 3d cf 72 1d 3c 9f ab 19 3d
       -0.060065065 0.04162212 0.009609892 0.037517186
000360 ee 81 82 3c 8b 8e 47 bd 6c 58 c8 bc 39 ef 86 bd
       0.015931096 -0.048719924 -0.024456225 -0.06588597
000370 14 0a 1b 3d e1 a5 87 bc 7f 93 99 3d 4f e6 2e bd
       0.037851408 -0.01655859 0.07498836 -0.04270011
000380 11 c7 9e bd a3 00 01 3d 29 61 db bc 76 3f 8b bc
       -0.07752813 0.031494748 -0.026779728 -0.016998034
000390 1b d5 1b 3c 9d 17 a8 3d ff db 99 bd b5 70 c3 3c
       0.0095112575 0.08207629 -0.07512664 0.023857454
0003a0 c2 f6 a4 3d 83 75 a6 3d 1a 07 ab bc 15 4f 25 3d
       0.08054878 0.08127882 -0.02087741 0.04035862
0003b0 2c 68 95 bc 05 7c a4 3c 5b b0 40 3d b2 61 a1 3d
       -0.01823815 0.020078668 0.047043186 0.07879962
0003c0 cf ab d6 bc 3e a3 a9 bd e3 22 18 bd 49 2b 89 bd
       -0.026204972 -0.08283089 -0.037142646 -0.06697709
0003d0 d8 59 b7 3c 3d 8b 9f 3d 76 a9 ab bd 93 d3 47 bd
       0.022381708 0.077902295 -0.083819315 -0.048785757
0003e0 31 1b 56 3c de 7e 27 bc 8a 1f 94 bd 91 2a 99 3d
       0.013068006 -0.010223119 -0.07232578 0.07478822
0003f0 1e 6b 40 bd 9c 80 3b 3d c5 04 83 bd eb 04 d0 3c
       -0.046977155 0.04577695 -0.06397394 0.02539297

affinity_layer.lambda2 f4 [64, 64]
000000 db 23 ee 3e 50 7f 4e 3b 7c df 08 3d 2b bf 55 bd
       0.4651173 0.003150899 0.033416256 -0.052184265
000010 26 5a 97 bd d4 09 e4 3c 62 6d 04 3d d2 a7 88 3c
       -0.07390241 0.027836718 0.032330878 0.016681585
000020 e5 2f 91 bd da 96 14 3d 1f e7 c0 bc 97 25 24 3d
       -0.07089213 0.036276676 -0.023547707 0.04007491
000030 23 64 3f bd 16 bc 3a 3d 56 6d a0 3c 0c 11 6f 3d
       -0.046726357 0.04558953 0.019583385 0.058365867
000040 3f d8 fb 3c 97 9d 60 bd 2d 43 a8 bc c8 cb 67 3c
       0.030742763 -0.05483779 -0.020539844 0.014147706
000050 5c 37 6c 3d 03 d2 8c bd 60 a7 f2 bc d2 a8 76 3d
       0.057669982 -0.06875994 -0.029620826 0.060219593
000060 3f 28 50 3d f3 ba 84 3d 88 84 35 bd 43 d6 9b 3c
       0.05081963 0.0648097 -0.044315845 0.019023066
000070 15 05 b0 3d 5d b2 73 3d 13 17 89 3d d3 20 0f 3d
       0.08594719 0.059496272 0.06693854 0.034943413
000080 cd 94 99 bd 05 6a 81 3d 67 cd 24 3c 7d 29 d9 3c
       -0.074990846 0.0631905 0.010058737 0.026509041
000090 3d dc b1 bd b0 00 1d bd 6f a5 99 3c 24 49 10 3c
       -0.08684585 -0.038330734 0.018755643 0.008806501
0000a0 5c fb 13 bd c6 8c cd 3b e1 a6 af bd b8 67 25 bd
       -0.036128387 0.006272885 -0.085767515 -0.040382117
0000b0 26 de 92 3d ba d0 db bc 81 3d 09 bd 35 a9 b3 3c
       0.07171278 -0.026832927 -0.03350592 0.02193127
0000c0 d4 6a 93 bd 82 65 15 3d df f3 97 3d 94 04 d2 3c
       -0.0719811 0.03647376 0.074195616 0.025636949
0000d0 80 e2 08 bd 8f 02 0a bc 79 f5 ac bc 19 1a 2d bd
       -0.033419132 -0.008423462 -0.021113144 -0.042261217
0000e0 75 3b 16 3d 20 58 1b 3d 9a 55 aa bd d3 6f 3f bd
       0.036677796 0.03792584 -0.083171085 -0.046737503
0000f0 aa 0a ae bd 96 e1 14 bd 7d 38 77 3c 4f de 70 bd
       -0.08498128 -0.036347948 0.015089151 -0.05880576
000100 06 5c 4d bc a2 7b e4 3e 67 c0 e1 3c 96 8f 26 3d
       -0.012534147 0.44625574 0.027557565 0.040664278
000110 31 1f 4c bb ea 10 3d bd 84 d7 67 bd 13 64 90 bc
       -0.0031146521 -0.04615871 -0.056602016 -0.017625844
000120 f0 98 63 3d 10 48 56 bd ee 39 9d bd cd f4 85 bc
       0.055565774 -0.052314818 -0.07677065 -0.016352082
000130 d7 8c 72 3d 70 c7 19 3d 79 03 ac 3c 55 ac 40 bd
       0.059216347 0.037543714 0.02099775 -0.04703935
000140 a7 b5 b4 bd 7c 9e 33 3c 15 ff 6f bd 8f 83 84 bc
       -0.0882371 0.010963079 -0.058592875 -0.016176013
000150 97 01 8f bd 93 80 3c bd d4 fe 1b 3c f4 da 04 bd
       -0.06982725 -0.046021055 0.009521205 -0.032435372
000160 1f 8f df 3b 8d f1 88 bd 61 7f 9f bd 0e ff 83 3d
       0.0068224813 -0.06686697 -0.077879675 0.06445132
000170 72 fe b4 bd a2 45 92 3c 32 5b a9 3d b9 2c a0 3d
       -0.08837594 0.01785547 0.08269347 0.0782103
000180 b8 bb 44 3d ae ab 93 bd f7 91 56 3d a6 73 7a bd
       0.048030585 -0.0721048 0.052385297 -0.061145447
000190 73 c0 56 3d e3 cf 70 bd 2e 51 fb 3c b5 87 84 3a
       0.052429628 -0.058792006 0.030678358 0.0010111245
0001a0 df 1d a5 bb ae a2 94 bd 63 3e 85 bd 9e 32 36 bc
       -0.0050389613 -0.07257591 -0.0650604 -0.0111204665
0001b0 dc 58 86 bd fc c6 61 ba ec cb 11 bb 42 0b 37 bc
       -0.06559917 -0.000861272 -0.002224679 -0.011172118
0001c0 86 94 d1 3b 5e da 5e bd 24 4f 32 bd c2 ce a2 3d
       0.006395879 -0.05440747 -0.043532506 0.07949592
0001d0 01 80 aa 3c 3e 2e 6d bd 3d ee 9e 3c c7 7e 74 3d
       0.02081299 -0.057905428 0.01940071 0.059691217
0001e0 ed af b7 bc b3 65 d2 ba d1 97 71 bc 6b bf 82 3d
       -0.022422755 -0.0016052037 -0.0147456685 0.06384166
0001f0 8c 36 a5 bd 68 60 16 bd a0 d8 84 bd 3a 94 f8 bc
       -0.080670446 -0.036713034 -0.064866304 -0.030344117
000200 e0 42 4a bd fe cd 39 3c 24 74 e5 3e 94 46 47 bc
       -0.049380183 0.011340616 0.4481517 -0.012162823
000210 f7 d7 ea bb a6 bf 76 3d 0b b5 81 3b 71 6b 53 3d
       -0.0071668583 0.060241364 0.0039583496 0.051616136
000220 fe 05 b0 3d 2f ae fa bb a1 af bd bd 2b 89 70 bd
       0.08594893 -0.007650159 -0.09262014 -0.058724564
000230 b3 c4 aa 3b b7 ae 2c bd f7 d9 63 bd 9c 90 02 3d
       0.0052114367 -0.04215881 -0.05562779 0.03187619
000240 17 e0 5e bc e5 9d 09 3d de 41 48 3d 19 46 94 bd
       -0.013603232 0.033597846 0.04889094 -0.072399326
000250 f6 31 fd bc d0 ff 9f 3d a7 23 5d 3c 1b 4a 01 3d
       -0.030907612 0.07812464 0.01349727 0.031564813
000260 34 de a3 bd a7 26 9f 3d b6 3b 60 bd d6 ae 06 3d
       -0.08001366 0.07771044 -0.054744445 0.03288158
000270 f4 e1 77 3d 5e 28 68 bd 48 95 0c 3d 22 f0 2b 3d
       0.06051822 -0.056679122 0.034322053 0.041977055
000280 c9 2b 8d bc a0 58 4b bc eb 2e a4 bd 6c 92 bd bc
       -0.017232792 -0.012411267 -0.080167614 -0.023141108
000290 74 e3 66 bd 8e 69 6f bc 7d 1c 3a bd 4a 24 31 3c
       -0.05636926 -0.014612569 -0.045437325 0.010811875
0002a0 ed 31 01 3d e3 49 5f bb 88 22 9e bc a1 04 a5 bd
       0.031541754 -0.003407114 -0.019303575 -0.080575235
0002b0 b5 ce bb 3c 66 e7 c2 3b 38 20 8a 3d 21 a0 78 bd
       0.022925714 0.005947995 0.067444265 -0.060699586
0002c0 94 dc a4 bd 30 38 94 bc a3 b8 cf bb c9 a8 c0 bc
       -0.080498844 -0.018093199 -0.006339149 -0.023517983
0002d0 02 3b f7 3c c7 f1 94 bd 34 f6 03 bd dc 1b 3c 3d
       0.030179504 -0.07272678 -0.03221722 0.045925006
0002e0 d3 59 0f 3c 29 2d c7 bc 6d 74 92 3d 76 c5 6a 3d
       0.008749443 -0.024313526 0.07151113 0.05731722
0002f0 1d 90 53 3d f8 05 66 bc c8 8a 00 bd 53 9c de 3c
       0.05165111 -0.014039509 -0.031382352 0.02717415
000300 df 25 5c 3d 11 c4 46 bd 03 d1 5a 3d 4b a3 0e 3f
       0.053747054 -0.048526827 0.053421985 0.55717915
000310 63 da f1 bc b5 49 95 bc 3f 52 8b bd 98 c3 6b 3d
       -0.02952308 -0.018223623 -0.068027966 0.05755958
000320 6c d0 93 bd d1 04 86 bd c3 3e 82 bd e4 a0 e3 3c
       -0.07217488 -0.065438874 -0.06359627 0.02778668
000330 be c8 7a 3c b2 f9 a3 bd 12 91 30 bd 0b de 9a 3d
       0.01530665 -0.0800661 -0.0431071 0.075618826
000340 00 7f 19 3d c5 47 55 bd cb f1 d1 3c ab b9 b2 3b
       0.037474632 -0.052070398 0.025627991 0.0054542623
000350 f9 3d 17 bd 55 d2 13 bd 26 db 3f bd fb ec a7 3d
       -0.036924336 -0.03608926 -0.046839856 0.08199497
000360 62 ea 89 3d c8 41 be bc 3a b9 ff 3c a5 d2 cb 3b
       0.06734158 -0.023224726 0.031216253 0.006220179
000370 7f d0 5b 3d dd a8 af bd 4c 19 9a bd 8d 74 b3 3b
       0.053665634 -0.0857713 -0.07524356 0.0054765404
000380 49 45 1c 3d 27 8e 21 3d fc f8 1d bc 3e a3 94 3d
       0.038152013 0.039442208 -0.009641882 0.072576985
000390 6a de a7 ba 73 29 3c bd 20 81 5c 3d c7 ae dd 3c
       -0.0012807373 -0.045937967 0.05383408 0.02706088
0003a0 65 4e 7b 3d d3 56 3a bd ee 52 4a bd 76 00 2b 3d
       0.06135406 -0.04549296 -0.049395494 0.041748486
0003b0 a7 65 86 bc b0 f1 e1 3a 23 fd d4 bc 4a 17 ad bc
       -0.016405893 0.0017238166 -0.025999611 -0.02112927
0003c0 30 91 61 bd 98 c7 d8 bc 0d 4f 9e bd 25 81 8e bd
       -0.055070102 -0.026462361 -0.077299215 -0.06958226
0003d0 cc 4a d7 3c 78 c0 06 3d 96 6d b8 3c d6 33 2a 3d
       0.026280783 0.032898396 0.022513192 0.04155334
0003e0 da e5 5a 3d d3 d5 95 bd ed 81 a8 bc 08 84 84 3d
       0.05344186 -0.07316174 -0.020569766 0.064704955
0003f0 70 1a 6c bd 1e af ab bd 75 c1 1f 3d 45 44 3c bd
       -0.0576424 -0.0838301 0.039002854 -0.045963544

node_layers.mlp_0.weight f4 [64, 121]
000000 c3 8a a6 bd 59 57 07 3e 51 8a 27 3d fd 6a f3 3b
       -0.081319354 0.13216914 0.040903393 0.0074285255
000010 d7 4f c1 bd 38 54 53 3d 58 05 51 bd 65 c8 f9 bc
       -0.09439056 0.05159399 -0.051030487 -0.030491063
000020 eb b9 97 3d b7 5b 9b 3b 71 7d 52 bd 17 6b 02 bd
       0.07408508 0.004741158 -0.05138916 -0.03184041
000030 bd 43 47 bd 5e fe 0e 3e 6d ae a0 bd 48 4c cc bd
       -0.048648585 0.13964221 -0.07845769 -0.09975487
000040 e8 84 b7 3d 78 ff eb 3c 17 39 58 3d 6f 8d 83 3d
       0.08960897 0.02880834 0.05278882 0.06423461
000050 d6 cd 86 bd 75 3f 7e bd 72 d3 9c 3d 96 ee 96 3d
       -0.06582229 -0.062072236 0.076575175 0.073697254
000060 c8 4c be 3d ce 7a 97 3d eb a1 6b 3d ef 63 e2 bc
       0.092919886 0.0739647 0.057527464 -0.027635543
000070 40 cc 53 3d 07 99 53 bb 86 b8 5a bd 4b 60 88 bd
       0.05170846 -0.0032287256 -0.05339863 -0.066589914
000080 f3 92 ea 3c 74 e9 33 bd 94 b2 41 3c 3e 38 da 3d
       0.028634524 -0.04392381 0.0118223615 0.106552586
000090 f3 a4 29 bd 94 04 98 3c 41 a6 75 bd c6 e7 ac bd
       -0.041417073 0.01855687 -0.059973005 -0.08442645
0000a0 d9 ec c3 bc 5f 0c 9d bd 10 d7 85 bd 37 a0 a4 3d
       -0.023916649 -0.07668375 -0.065351605 0.08038371
0000b0 2e e9 91 3c ca 64 ad 3c 73 8b 00 3d 05 96 64 bd
       0.017811384 0.021166224 0.03138299 -0.055807132
0000c0 e9 d9 e1 bc 24 e6 3e 3c 2d 87 28 3d 35 de ad 3d
       -0.027569728 0.0116515495 0.04114454 0.08489648
0000d0 79 c5 83 bd ec 2e 3b bd 20 f1 c3 3b 82 9b 04 3d
       -0.06434149 -0.045699045 0.005979672 0.032374866
0000e0 fb 8a b9 3d f5 d6 d6 bd 2d b9 47 bd 8b b1 5d 3b
       0.090597115 -0.104902185 -0.04876058 0.0033827748
0000f0 be 26 cb bd 19 ff 1f bb 50 61 aa 3d 19 ff 52 3b
       -0.09919499 -0.0024413525 0.08319342 0.0032195507
000100 16 da b0 bd 02 0d 35 3c bf 0c 97 3c 6b 89 6a 3d
       -0.086353466 0.011050465 0.018438695 0.05725996
000110 6d a8 31 3d 46 d0 ab bd 09 b5 c3 bd fa 63 05 bd
       0.043373514 -0.083893344 -0.09556014 -0.03256605
000120 03 0f dc bc fd 15 f9 3c 70 78 2c 3d 0d 54 f1 3b
       -0.026862627 0.030405993 0.042107046 0.007364756
000130 96 67 b8 3c ee 51 84 bd 3b 2f 07 3d 78 40 3f b9
       0.022510331 -0.06460939 0.033004027 -0.00018239196
000140 e9 c0 53 be 3f 34 cc bc 78 e0 8e bd fe 72 96 3b
       -0.20679058 -0.024927257 -0.06976408 0.004591345
000150 38 ab 26 3d 8b 6f 39 3d fd 6f 16 3d 8e 17 5e 3c
       0.04069063 0.04527239 0.036727894 0.013555421
000160 79 95 a7 bc 42 4c 7f 3d 27 1c 08 be 92 a0 f7 bd
       -0.020457016 0.062328584 -0.1329199 -0.12091173
000170 f0 01 fc 3c 52 17 95 bc 42 8d 4c bd 61 ba 8a 3d
       0.030762643 -0.018199597 -0.0499394 0.0677383
000180 f7 b4 62 bb 79 33 ac 3d 58 ba d5 bc 92 13 24 3d
       -0.0034592727 0.08408255 -0.026089832 0.040057726
000190 b6 b7 d8 bc 69 8f ad 3c ca d3 d6 bd 1f d6 93 3d
       -0.026454788 0.021186547 -0.10489614 0.07218575
0001a0 8e b6 4d 3b be e0 28 bc 82 b8 67 bc e2 b4 f2 3c
       0.0031389329 -0.010307489 -0.014143111 0.029627267
0001b0 ff 40 87 3d 0f 1b 02 be 8f e6 00 be 93 82 80 39
       0.06604194 -0.12705635 -0.12587951 0.00024511348
0001c0 97 bb 60 bd cf 1e bc 3d 35 22 9c bd f1 c1 51 bd
       -0.0548664 0.09185564 -0.07623712 -0.051210348
0001d0 d2 6f 08 3d dc 9b ad bd 24 52 ac 3d 61 c1 65 3d
       0.033309765 -0.084769934 0.084141046 0.056092624
0001e0 27 6c b1 bd e7 6d 5c 3c 2a 1f 09 3e a3 2f a9 bd
       -0.086632065 0.013453937 0.13390794 -0.08261039
0001f0 b4 b0 7a bd 28 96 85 bd c5 d3 1b 3d 51 05 4d bd
       -0.061203673 -0.06522781 0.038043756 -0.0500539
000200 62 af 8b 3b 41 76 95 bd b9 70 ee bd 8d ce 59 bc
       0.0042628506 -0.07297946 -0.11642594 -0.013293874
000210 40 f8 b3 bd 77 30 3c 3d f7 af b3 3c 82 9c 59 3d
       -0.08787584 0.045944657 0.021934493 0.053127773
000220 0b 00 a6 bd 6c 60 aa 3d 56 99 ac 3d 8d dc ce bc
       -0.08105477 0.08319172 0.08427684 -0.025251651
000230 c8 65 52 3d 6c ab 78 bd e2 af c8 3d 45 13 a9 3d
       0.051366597 -0.060710356 0.09799172 0.082556285
000240 85 9d 16 bd c9 e9 ae 3d 0e ff 50 3d 68 1d ce 3d
       -0.036771316 0.08540685 0.05102449 0.100642025
000250 b0 f7 c1 bb a6 6e 93 3d 0c 8a 7c bd 29 09 16 3d
       -0.005919419 0.07198839 -0.06165509 0.03662983
000260 1e 1b 97 bb 00 86 ba 3d 8f 8a 55 3d b2 83 8f bc
       -0.004611387 0.0910759 0.052134093 -0.017518852
000270 3e 47 e3 3b 7f 13 0d 3c 2f 29 10 bb de f3 ce 3d
       0.006935983 0.008610605 -0.0021997204 0.10105108
000280 24 4c a9 3d 1e 99 aa 3d cc 63 47 3d 07 7f e6 3c
       0.08266476 0.08329986 0.048679158 0.028136743
000290 b3 19 b0 3d 52 58 84 bd 62 51 4b 3e 9a 68 bf 3d
       0.08598652 -0.06462158 0.19855264 0.09346123
0002a0 3c 4e 8f 3d cd 0f 89 3d 4c f6 a1 bd 81 f0 0c 3d
       0.06997344 0.06692467 -0.079083055 0.03440905
0002b0 02 05 b5 bc 44 b2 88 3b ed 71 31 bd 05 21 8b bc
       -0.022097114 0.0041716415 -0.04332154 -0.016983518
0002c0 b7 31 89 3b 7c c0 14 3d 4c b1 cb bc e2 ed f4 3c
       0.0041868347 0.03631638 -0.024864815 0.029898588
0002d0 d1 4b e7 3d d0 88 ec bc 0a b6 63 bd 0e 9d 4c 3d
       0.11293758 -0.028873831 -0.055593528 0.049954467
0002e0 38 d0 99 3d b3 de 91 bc 3d 2a 6d 3d 9f 00 20 3d
       0.07510418 -0.017806387 0.05790161 0.039063092
0002f0 0c 5d 76 bc 6d bb 2f bd df 85 03 bd 3b f3 0c 3c
       -0.015036833 -0.042903353 -0.03211009 0.008602913
000300 fa 26 80 bd c0 73 49 3d 23 a8 ab 3d 24 b1 85 3d
       -0.06257434 0.049182653 0.08381679 0.065279275
000310 c8 1b 10 3d 3d 1b ec bd 33 34 d0 3d 1c e5 9d 3d
       0.035182744 -0.11528633 0.10166206 0.07709715
000320 6c 71 fa 3d f7 b8 99 3d 42 35 ba bd 1e a6 d7 bc
       0.12228665 0.07505982 -0.09092189 -0.026324328
000330 83 3a 61 3c 2a f5 58 3d 81 fa 06 bd ad 91 ab 3d
       0.01374686 0.05296818 -0.032953743 0.08377395
000340 58 a8 22 bd 9b cd ef bd 06 95 06 3d 0f 67 8d bd
       -0.039711326 -0.11709138 0.032856964 -0.069044225
000350 e1 e2 9b bd 1e e3 c0 3d 0d db df 3d 2a 6e 11 be
       -0.07611633 0.09418319 0.109304525 -0.1420218
000360 d2 14 39 3e 0f c3 6b 3e da 6a c5 3d 16 74 89 3d
       0.18074349 0.23023628 0.09639521 0.06711595
000370 7a f3 2a be 49 e5 6f 3b df 12 8b bd 02 7d 36 bd
       -0.16694441 0.003660517 -0.06790709 -0.04455281
000380 4c 80 03 bd f0 6a 63 be ca d7 2d be 4c 7d 7e bc
       -0.032104775 -0.22208762 -0.16976848 -0.015532803
000390 f5 a1 2f 3d 46 8a 00 be 92 ec 45 be 9a 5d 69 be
       0.042879064 -0.12552747 -0.19328526 -0.22789612
0003a0 cf 6f 03 bd 0d 5e b2 bd 9b 7d be 3d 5b 54 c8 3d
       -0.03208905 -0.08709345 0.09301301 0.097817145
0003b0 25 6b 81 bd 3c 31 9c 3d 93 7a b2 bd 9b ae bc bd
       -0.06319264 0.07626578 -0.087147854 -0.09212991
0003c0 77 0c 42 be 04 1f 89 bd 6f 3d 7d bc 1e 2f 90 3d
       -0.18950067 -0.06695369 -0.015456541 0.07040237
0003d0 57 90 78 bd 95 5a 20 3d c9 75 8d 3c 86 dd 1d bd
       -0.06068453 0.039148886 0.017268078 -0.03854134
0003e0 52 d4 b7 3c 57 04 c9 bc 30 84 dd 3c 9f e0 9b 3b
       0.02244011 -0.024538202 0.027040571 0.0047570015
0003f0 cb 71 f7 3a 44 ac b0 bd 3e 25 f7 3c 2a 7d 6f bd
       0.0018878517 -0.08626607 0.030169126 -0.058468975

node_layers.mlp_0.bias f4 [64]
000000 1a 8c 53 3d 99 d6 88 bd a5 88 9c bd 3d 00 aa bd
       0.051647283 -0.06681556 -0.076432504 -0.08300827
000010 d6 55 99 3d 7f c4 56 bd d5 a0 62 bd af cb 22 bd
       0.07487075 -0.052433487 -0.055329163 -0.03974503
000020 67 cc e7 3c f8 41 3c bd 9e 26 3c 3d 22 b9 56 bd
       0.028295709 -0.04596135 0.045935266 -0.05242265
000030 c0 cd 60 bd a3 c5 46 3d c1 c6 f5 3c 84 18 a6 bd
       -0.05488372 0.048528325 0.030002 -0.08110145
000040 de d7 1b 3d 33 57 9c 3d fc 45 bf bd 75 e4 2a bb
       0.038047664 0.076338194 -0.0933952 -0.0026076112
000050 97 a0 19 3d e5 11 95 3d 32 2f 06 bd 97 81 f1 bc
       0.037506666 0.07278804 -0.032759853 -0.029480739
000060 0e 65 f7 3c 33 cf ad bd d2 ee 27 bd fe 21 ff bc
       0.030199554 -0.08486786 -0.04099924 -0.031144138
000070 09 7d 5e bd 71 f0 92 bc 31 b4 8d bd de d7 20 3d
       -0.05431846 -0.017936917 -0.069191344 0.039268367
000080 f6 e9 6f 3d 65 22 8e 3d f1 a7 2c bd fd ff f5 bc
       0.058572732 0.06940154 -0.04215235 -0.030029291
000090 28 cf 1a 3c b5 63 90 bc 60 7d 3d 3d 3c 51 90 3b
       0.009448804 -0.017625669 0.046262145 0.004404215
0000a0 f0 90 cc 3b a5 cd d2 bc 12 e2 a0 bc 19 bb db 3c
       0.006242864 -0.025732825 -0.019639049 0.026822614
0000b0 ee de 93 3d a5 61 9f 3d bf 9e ec bc 11 e8 e1 3c
       0.07220255 0.07782296 -0.02888429 0.027576478
0000c0 6d 88 19 3d 39 1c 4c 3d 2c bd 53 3d bc 22 d0 3c
       0.03748362 0.049831603 0.05169408 0.025407188
0000d0 45 fc e0 bc cb 42 da bd f8 78 ec 3c 55 01 6a bd
       -0.027464041 -0.10657271 0.028866276 -0.057130177
0000e0 b9 ee 4b 3d 83 e0 79 3c 83 64 77 3c a8 dd 88 bd
       0.04978821 0.015251282 0.015099647 -0.066829026
0000f0 a3 d5 cd 3c 6c d0 83 3d d0 d7 16 bd dd bf 95 bd
       0.025126284 0.06436238 -0.03682691 -0.07311986

edge_layers.mlp_0.weight f4 [64, 121]
000000 b8 17 67 3d b2 31 9f bd d0 fc 94 bd 9c 16 99 3c
       0.056419104 -0.077731505 -0.07274783 0.018687539
000010 b2 e5 dc bc f6 29 9b bd 4d d1 8c 3d 19 1f 9b bd
       -0.026964996 -0.07576363 0.068758585 -0.07574291
000020 c0 2e 25 bd f8 4e 54 3b 87 de aa 3d 0a b8 55 bd
       -0.040327787 0.0032395702 0.08343225 -0.052177466
000030 55 c1 96 3d fb 48 69 3d 9a f2 b6 bd 86 e3 77 bb
       0.07361094 0.056954365 -0.08932991 -0.0037824824
000040 ba 0a a2 3d 18 9a 0e 3b b3 a7 de bb d3 10 0e 3d
       0.07912202 0.0021759328 -0.0067948936 0.034684014
000050 19 2e 5f 3d 55 b9 8a bd ea ee 91 bd df c6 53 bd
       0.05448732 -0.067736305 -0.07125647 -0.05170333
000060 de 70 8f 3d 93 d1 c4 3c f7 df d5 bc b2 39 a2 bd
       0.070039496 0.024025714 -0.026107771 -0.07921161
000070 e4 c3 85 bd c8 33 31 bd 32 2c 6b bc 2c c5 b2 bc
       -0.06531504 -0.043262273 -0.014353799 -0.021822535
000080 0d 27 02 bd d4 14 a2 bd d9 b7 5c bd 7d f3 f1 bc
       -0.031775523 -0.07914129 -0.05388627 -0.02953505
000090 15 27 7b bd 84 50 32 3c aa a9 b7 3c 2a cd 98 bc
       -0.06131657 0.010883454 0.02241977 -0.018652517
0000a0 95 a8 23 3c 09 a4 30 3d 2a 92 d7 3c 05 01 11 3d
       0.009988924 0.043125186 0.026314814 0.035401363
0000b0 1f c8 c3 bc bc 34 93 bd 5d 8f 3d bd 88 4b 61 3d
       -0.023899136 -0.07187793 -0.0462793 0.055003673
0000c0 5b 91 5f 3d 47 57 bb bd 01 c8 b0 3c 71 1b 43 bd
       0.05458198 -0.09147506 0.021579744 -0.047633592
0000d0 7a 6c f9 3c 8d a2 91 bc 11 52 a6 3d 8c 87 a9 3c
       0.030447233 -0.017777706 0.08121122 0.020694517
0000e0 67 57 2d 3d ce 37 86 3c 9a 12 37 bd 41 75 ab bc
       0.04231968 0.016384032 -0.044695474 -0.020929934
0000f0 15 22 10 bd 84 b0 4d bd 8c c0 86 3c 28 a7 63 bd
       -0.035188753 -0.050217167 0.016449235 -0.055579334
000100 51 30 2b bd 54 62 3d bd 9f 28 10 bb d1 d0 89 3d
       -0.041794125 -0.04623635 -0.0021996868 0.06729282
000110 85 eb ab bc 83 95 60 3d 77 7b 8f 3d 1c 9d 55 3c
       -0.020986328 0.054830085 0.07005971 0.013037946
000120 5c a8 8c bd a5 14 5a 3d 68 a2 9c 3d a3 2d 51 3d
       -0.068680495 0.053242344 0.07648164 0.051068913
000130 31 35 1d 3d 5f 7c e1 3c fe b5 62 bb 3f cc 54 3d
       0.038380805 0.027525125 -0.003459334 0.051952597
000140 7f 15 31 3d cf 90 ae bd 0a 0a a1 3d 3a e0 93 3d
       0.04323339 -0.08523714 0.07863243 0.07220502
000150 28 5a e3 3c 80 a1 27 bd 4c e0 ab 3d 40 20 04 3d
       0.02775295 -0.040925503 0.083923906 0.03225732
000160 bc ab d1 bb d8 07 c3 38 d5 56 46 bd 2b cf e6 3c
       -0.006398646 9.2997856e-05 -0.048422653 0.028174957
000170 0e 2d 1f bd dc fe 4a bd c8 24 49 3c 73 79 97 bd
       -0.038861327 -0.04955946 0.012276836 -0.073962115
000180 68 c9 47 bd de 2e c9 3c 1d 93 c5 bd 5a 40 bd bc
       -0.04877606 0.02455848 -0.096472 -0.023101974
000190 39 ba bb bd 87 cb 28 bb 38 3d 1e bd dc 74 87 3d
       -0.091663785 -0.0025756077 -0.0386326 0.06614086
0001a0 38 c5 a2 3d 54 59 c1 bd 30 06 9b 3c b0 ec 1e bd
       0.07947773 -0.09440866 0.018923849 -0.03879994
0001b0 13 56 94 3d e1 af 36 3b 90 6f 58 bd 65 19 e5 bb
       0.0724298 0.0027875828 -0.05284077 -0.0069915527
0001c0 b7 c2 56 bc 32 d8 99 3c 7f 4d 2a bd 31 02 0a bd
       -0.013107947 0.018779848 -0.041577812 -0.033693496
0001d0 63 f3 9a bd c4 84 21 3d 37 90 ea bc 69 36 aa 3d
       -0.075659536 0.039433256 -0.02863322 0.08311159
0001e0 e8 0d 66 bc a0 d9 38 bb f3 32 5f 3b 7f 18 51 3d
       -0.014041401 -0.0028205886 0.0034057468 0.051048752
0001f0 6f 4b b0 3c d0 10 4c bb 48 3d 98 3d e5 e8 ca 3b
       0.021520345 -0.003113795 0.074335635 0.006192314
000200 0e 67 c6 bb ca 1c 80 bd d9 83 13 3d 90 8f b4 bc
       -0.0060547655 -0.06255491 0.03601441 -0.022041112
000210 55 d1 8b 3d 64 b2 8f 3d 75 40 7d 3d 69 6d 65 bc
       0.06827036 0.07016447 0.06182905 -0.014003136
000220 85 21 40 3d f4 e9 87 3d e9 36 d4 3c 58 8f b0 3d
       0.046906967 0.0663642 0.02590509 0.08621091
000230 c3 c7 46 3c ad 55 28 bc ec 7b a8 3c 70 1d 95 3d
       0.012132588 -0.010274333 0.020566903 0.072810054
000240 25 8c 89 bd d3 d7 ed bc 78 f9 84 bd 99 15 15 3d
       -0.067161836 -0.029033577 -0.06492895 0.03639755
000250 81 a0 28 bc 6f 8f c6 3d 2b 12 cf 3d 26 17 68 3c
       -0.010292173 0.096953265 0.10110887 0.014165675
000260 2b 4b 4d bd ce e2 11 3d 0d 1e 70 3d 98 a8 91 3d
       -0.050120514 0.03561669 0.05862241 0.07112235
000270 05 c0 11 bd 69 4c 21 3d f4 1b 98 bc ec 26 b8 3d
       -0.035583515 0.03937951 -0.018568017 0.08991799
000280 f8 6e 93 3d ec ce 93 3d a1 91 f2 bc 23 57 a8 3d
       0.071989 0.072172016 -0.029610457 0.08219745
000290 e6 a0 36 3d 30 b3 3c 3c 37 b5 b5 3c 4a 0b 16 bc
       0.04458704 0.011517331 0.022181137 -0.009157965
0002a0 f6 f9 51 bc 5c e6 84 ba 3d 48 4b bd a4 2e 63 3d
       -0.012815943 -0.0010139453 -0.04962944 0.0554644
0002b0 3d 91 9b bc da 2d 9b bc 7e 1c 8c bc 17 bf b5 bc
       -0.018990153 -0.018942762 -0.01710343 -0.022185845
0002c0 ef e0 fe 3c ee 16 98 bc ee 17 fa 3c 06 6b 28 3d
       0.031113116 -0.018565621 0.030528989 0.04111769
0002d0 99 47 e7 3d e7 6f b4 3d 16 e8 79 bb 0f c5 24 3d
       0.11292953 0.08810406 -0.0038132719 0.040226992
0002e0 e1 4e 84 3c 83 27 84 3c f4 26 9f 3d 9a ed a9 bb
       0.016150894 0.016132122 0.077711016 -0.005185795
0002f0 e8 47 92 3d a8 25 2d bb 9b 6e 54 bd 01 1a 3b 3d
       0.07142621 -0.002642015 -0.051863294 0.045679096
000300 3b 61 aa 3d 26 c3 80 3d 23 98 84 3d a0 2b 0f 3d
       0.083193265 0.062872216 0.0647433 0.034953713
000310 97 c7 a3 3d ef b1 44 bd a1 77 95 3c b8 52 c4 bd
       0.07997053 -0.048021253 0.01824552 -0.0958609
000320 9a 32 a8 bd 56 9f be bc 27 28 a0 bd 26 0f 0e bc
       -0.082127765 -0.023269337 -0.078201585 -0.008670604
000330 b0 3f 84 3d b1 d8 a2 bd 7c f7 18 3b 28 20 e9 bb
       0.0645746 -0.07951487 0.0023340872 -0.007114429
000340 9a 60 48 3d 7e a7 96 3d 09 b8 0e bd 26 9c 0f 3d
       0.04892025 0.07356165 -0.03484348 0.035061024
000350 23 de df bd 79 dc b1 bd db a8 8c bd 72 2e c6 3d
       -0.10931041 -0.0868463 -0.06868144 0.096768275
000360 67 35 a0 3d b4 97 08 bd 12 1a 2a 3d ea 20 ed 3c
       0.07822686 -0.0333478 0.04152877 0.028946359
000370 7f b9 14 3e e1 f0 2c 3d 4f 2f c2 bd d8 de a4 bb
       0.14523886 0.042221908 -0.0948168 -0.005031448
000380 a3 67 31 bc e5 6c 27 3d 6a 4e ae 3c f5 c9 6b bc
       -0.010827932 0.040875334 0.021277625 -0.014391412
000390 03 c6 77 bc 55 8b b1 3c ae da 00 3d ba 9a 1d 3d
       -0.015122893 0.021672884 0.03145855 0.038477637
0003a0 ea b7 74 3d 17 ce dc bc 48 23 20 bd 9c 3c 15 be
       0.059745707 -0.02695374 -0.039096147 -0.14573902
0003b0 b4 70 1f 3d e4 59 21 39 7d 4d 90 3d cd 1d 37 bc
       0.03892584 0.00015387643 0.0704603 -0.011176539
0003c0 55 6d 95 bd 8c 5a 11 bd c0 25 4b bd d0 fd 07 3d
       -0.07296244 -0.035486743 -0.049596548 0.03320104
0003d0 1a b9 1d bd f2 14 0c bd 5f d1 6d bb 03 e2 96 bc
       -0.038506605 -0.034199663 -0.0036288125 -0.018418318
0003e0 93 23 ce bd a3 c2 83 bb e8 0a 97 bd be f5 4c 3d
       -0.10065379 -0.0040210052 -0.07375127 0.050039046
0003f0 db b1 13 3b e8 9e 9f 3c 82 b5 4b bc 60 bf 20 3d
       0.002253643 0.019484952 -0.012433412 0.03924501

edge_layers.mlp_0.bias f4 [64]
000000 98 7c 54 3d ed 98 63 bd 6b 38 9f 3c 89 52 c9 bd
       0.051876634 -0.055565763 0.019436082 -0.098301955
000010 65 b5 9e 3d c7 2d a7 bd bd 95 be bc 83 55 8d bd
       0.07749442 -0.08163028 -0.02326476 -0.06901076
000020 b0 ba dd 3c 86 84 f7 3c 5a a7 23 bd 45 f3 17 bd
       0.027066559 0.03021456 -0.03995452 -0.037097234
000030 be 75 cf 3c 4c aa 66 3b d4 2c af bc c6 f0 4c 3d
       0.025324699 0.003519672 -0.02138368 0.050034307
000040 51 fe 07 bc 30 c2 b5 bd 4e 83 71 3c e8 51 2c 3d
       -0.00830038 -0.08874929 0.014740778 0.0420703
000050 3f e5 b4 bd d2 d2 88 bd d9 b3 61 bd 6c 75 62 3c
       -0.08832788 -0.06680836 -0.055103157 0.013821941
000060 77 6d c2 3d 80 66 59 bd a3 68 60 3d 65 b2 76 bc
       0.09493535 -0.053076267 0.05478729 -0.015057181
000070 07 67 13 3d e0 a6 8a bd ec c6 bf bd 40 ad 32 3d
       0.035986926 -0.0677011 -0.09364113 0.043622255
000080 4a 1a 04 3d b5 ad 9c bd 3e e8 22 3d 84 8f 1d 3d
       0.032251634 -0.076503195 0.039772265 0.038466945
000090 0f 8d 91 3d 25 7b 77 bc 35 a9 53 3d 3f 37 25 3d
       0.07106983 -0.015105044 0.05167504 0.04033589
0000a0 9c 1b 96 3d 6a 4e d9 bc 7f fd 84 3d 61 c6 62 bc
       0.07329485 -0.026526649 0.06493663 -0.0138412425
0000b0 f1 ef 9e 3d 8b de 89 3c 70 48 98 bc b5 f9 a4 3d
       0.07760609 0.01682975 -0.018589228 0.0805544
0000c0 ab ff 4e bd 22 b7 14 3d 8c 3c 46 bc e2 5c 81 3d
       -0.050536793 0.03630746 -0.012099396 0.06316544
0000d0 04 9d e0 3c 11 6f 8d 3d 72 d1 3e 3d ee 3e a8 3c
       0.02741862 0.0690595 0.04658646 0.02053782
0000e0 1a 53 30 3d bb 88 30 bd 59 ca 23 bd 88 8a 99 bd
       0.043048 -0.043099146 -0.039987896 -0.07497126
0000f0 ca 29 61 bd a8 8f 25 3d e0 34 9c 3d 91 da 38 3d
       -0.054971494 0.040420204 0.076272726 0.045130316

gnn_layer_0.classifier.weight f4 [1, 64]
000000 f3 b9 50 3c 3f d6 fd 3d 5a a2 78 bd 83 e1 c8 bc
       0.012739646 0.1239438 -0.060701706 -0.024521595
000010 62 54 9d 3d 82 59 eb bd 80 af 35 3b f4 6e 03 bd
       0.0768211 -0.11491682 0.0027723014 -0.032088235
000020 c8 03 05 bd 80 e8 a0 bb 2f a3 11 3c cd 1b fd bb
       -0.03247431 -0.0049105287 0.008889004 -0.0077242614
000030 ac 10 f1 bd 97 2a 2e bd 21 d6 6e bc 92 49 86 bc
       -0.11770758 -0.042521086 -0.0145774195 -0.016392503
000040 4b ad b1 bd c2 92 26 be 25 3c 39 be e9 92 c4 bc
       -0.08675631 -0.16266921 -0.1808935 -0.023995833
000050 b6 35 84 bc 45 ba d1 bb c7 65 21 be cc 7e 0e 3d
       -0.016138893 -0.006400379 -0.15761481 0.03478889
000060 cd 66 e8 bd 67 44 89 bd 60 30 12 bd 36 38 ae 3d
       -0.11347733 -0.067025 -0.035690665 0.08506815
000070 ab 32 ca 3d f4 c6 2e 3d bb 83 8c 3d 3f 80 e4 bd
       0.098729454 0.042670205 0.06861063 -0.111572735
000080 40 0f 1f bd a0 f8 1f 3c 62 49 a3 3d 95 5e eb bd
       -0.038832903 0.009763867 0.07972981 -0.114926495
000090 a6 60 fe 3d 02 b3 84 bd 51 80 41 bd e6 02 99 3d
       0.12420778 -0.064794555 -0.047241513 0.07471256
0000a0 08 88 91 3c 98 f2 8d bd b9 62 e2 bd 59 92 08 be
       0.01776506 -0.06931037 -0.11053986 -0.13337077
0000b0 6c e5 cc 3c 11 0b f8 bd e7 ae a5 3c 93 d8 89 bc
       0.02501174 -0.12111486 0.020225001 -0.016826903
0000c0 c2 6b 29 bc b3 44 4f bd 51 7a 94 3d 4b 72 6f 3d
       -0.010340633 -0.050602626 0.072498925 0.058458608
0000d0 71 f8 7e bd 64 6b ba 3c af 74 99 bd 92 8f 78 3e
       -0.06224865 0.022756286 -0.07492959 0.24273518
0000e0 de 97 a0 bd c3 11 b2 bc 04 4c 1e be 94 ae 07 bd
       -0.07841466 -0.021736985 -0.15458685 -0.033125475
0000f0 b6 77 37 bd 04 7d 1d bd 9f ca 90 3d a7 a6 80 3c
       -0.0447919 -0.038449302 0.07069897 0.015704466

gnn_layer_0.n_func.0.weight f4 [64, 1]
000000 ac 2b 2c bf c7 a5 15 3f 32 64 d6 3e 34 a7 0a bf
       -0.6725414 0.5845608 0.41873318 -0.5416138
000010 cc 23 2a 3f b3 32 57 3f a1 01 7b bf 7a 54 59 bf
       0.6646087 0.84061736 -0.9804936 -0.84894526
000020 af dd 0e 3f 8c 6a 4f 3f 39 e7 3b bf f1 d5 80 3f
       0.5580701 0.8102195 -0.7339969 1.006529
000030 b1 19 41 3f d6 0b 1f 3e d8 eb 6c bf 0c 51 39 bf
       0.75429827 0.15531859 -0.9254737 -0.7238929
000040 98 36 c0 be c8 b7 0b bf e0 db 54 bf 54 65 54 3f
       -0.37541652 -0.545773 -0.83148 0.82967114
000050 6a d5 28 be 72 0b ef 3e a8 80 0e be 1e 1a e5 3e
       -0.16487661 0.4668842 -0.13916266 0.44746488
000060 c2 81 cb 3e 10 b8 1b 3f 71 02 05 bf 0d cd 2d 3f
       0.39747435 0.6082773 -0.5195685 0.6789101
000070 b3 5c 39 3f 0a 74 aa be 74 aa 4b bf 08 83 0d 3e
       0.7240707 -0.33291656 -0.79556966 0.13819516
000080 c9 c6 b7 3e c8 9f e1 be 90 15 7b 3e b4 b2 49 3f
       0.3589385 -0.44067216 0.24519944 0.78788304
000090 11 82 8e be 0c e6 6b 3f 58 a8 61 3f 60 cb 78 bd
       -0.27833608 0.921479 0.881475 -0.06074083
0000a0 bf 6e 62 3f c0 1e 8c bc b6 10 8b 3e c0 50 3e bf
       0.88450235 -0.017104506 0.27161187 -0.74341965
0000b0 90 aa 47 3f f6 85 a4 be 50 79 39 be 20 07 0b 3d
       0.7799463 -0.32133454 -0.18112683 0.03394234
0000c0 6a ec 9c 3e 72 e3 58 bf ac 59 a8 3e 9b 73 58 3f
       0.3064912 -0.84722054 0.32880914 0.845514
0000d0 63 06 7e 3e f9 4b 24 bf 16 ea 7f bf d5 7d bb 3e
       0.24807124 -0.64178425 -0.9996656 0.3661944
0000e0 b1 10 69 3f 1a 31 73 bf 20 24 f1 be 3f ae 21 bd
       0.91041094 -0.949968 -0.47097874 -0.039472815
0000f0 32 a4 34 3f 7c 54 e4 be 2a 77 2a bf f2 04 75 bf
       0.7056304 -0.44595706 -0.6658808 -0.9571067

gnn_layer_0.n_func.0.bias f4 [64]
000000 4e 50 6c bf e7 74 3d bf dd 0d 4a 3f 00 b7 ce bc
       -0.92310035 -0.74006504 0.78927404 -0.025233746
000010 ad 74 13 3f af 79 88 bd ab dd 49 3f e0 d7 87 be
       0.5759991 -0.06663834 0.78853863 -0.26531887
000020 25 c3 11 be 91 b3 65 3e cc 3c 4f 3f 62 b0 05 3f
       -0.14234598 0.2243178 0.80952144 0.52222264
000030 2b 2b 4c 3f ef 90 0c 3f 60 7d 78 bd 8d af 64 3f
       0.7975337 0.5490865 -0.060666442 0.8933037
000040 30 2c 62 be 82 00 b7 3e 40 2f 8e be 8d 38 67 3e
       -0.22087169 0.35742575 -0.27770424 0.22580166
000050 af e3 06 3f 9d 7d 6d 3f 6c 47 d0 be 93 e6 c0 be
       0.5269117 0.92769796 -0.4067949 -0.37675914
000060 09 99 1b 3f c0 08 33 bd e2 e7 42 3f 01 37 13 bf
       0.6078039 -0.043709517 0.76135075 -0.57505804
000070 b4 b5 57 bf 99 35 0d 3f 9a a8 71 3f a2 52 20 bf
       -0.8426163 0.5515991 0.9439789 -0.6262609
000080 be 59 77 3f 68 23 c9 be 45 de e8 3e 0e f4 e9 3e
       0.9662131 -0.39284825 0.45482078 0.4569401
000090 08 d3 24 3f 59 7d 1e bf f6 b1 6e be 2c 0a ec be
       0.6438451 -0.61910015 -0.23310074 -0.4610151
0000a0 a1 97 64 3f 0c bb c3 be 56 cc 1b 3f d4 48 77 bf
       0.8929387 -0.38228643 0.60858667 -0.965955
0000b0 f5 1d 2b bf 40 ac 23 3f 28 6c 65 be ea a8 78 bf
       -0.66842586 0.6393471 -0.2240454 -0.9713274
0000c0 b7 ab 40 be 80 8f 9f 3c 23 ed aa be 59 97 1d bf
       -0.18815504 0.019477606 -0.33384046 -0.61559063
0000d0 4f 11 ff 3e 82 1b 55 3f 06 6b 13 3f c9 a1 2d 3e
       0.49817893 0.832451 0.5758518 0.16956247
0000e0 f7 25 97 bd a0 80 9d be 5c b8 12 bf 0c ae 6b 3f
       -0.07380288 -0.30762196 -0.5731256 0.9206245
0000f0 40 dc 42 bf e6 b8 39 3f 03 f9 1f 3f a0 b4 c4 be
       -0.76117325 0.7254776 0.62489337 -0.38419056

gnn_layer_0.n_func.2.weight f4 [64, 64]
000000 c0 dd 19 3b dc 03 92 bd 13 f0 78 3c 0e ea c2 3d
       0.002347812 -0.07129642 0.015193957 0.09517299
000010 48 b9 83 3d a5 6c c3 bd 94 15 f8 bd 00 df 4e ba
       0.06431824 -0.09542207 -0.12113491 -0.0007891506
000020 1e 75 0c be db eb a8 bd c3 e4 c5 bd 20 f2 20 3b
       -0.13716552 -0.08248111 -0.096627735 0.002455838
000030 b5 70 53 bc 7d 01 df 3b f2 47 95 bd 91 f6 be 3d
       -0.012905289 0.0068055973 -0.07289113 0.093243726
000040 4c b8 51 bd ab 65 f8 bb 00 95 be 3a f2 6f ac 3c
       -0.05120115 -0.007580479 0.0014540255 0.021049473
000050 08 0b c0 3d 30 59 b7 3d 5a 39 dd 3d ab d3 a4 bd
       0.09377104 0.08952558 0.108019546 -0.08048185
000060 dd 76 66 bd 88 11 1a 3d 92 5a 2e 3d 4d 89 56 bc
       -0.0562657 0.037614375 0.042566843 -0.0130942585
000070 cc 7e 34 3d f8 29 e1 3a 84 14 be bd 2e 05 f3 bd
       0.044066235 0.0017178645 -0.09281257 -0.11866222
000080 f6 77 a7 3d fe cb 8c 3d 56 0c b3 bd af ae cc bd
       0.081771776 0.06874846 -0.08742587 -0.09994256
000090 1e ca d1 bd 6d 18 14 3c 79 bf 59 3d 90 d6 5f 3d
       -0.10243629 0.009039027 0.05316112 0.054647982
0000a0 95 d7 c9 3d c0 e6 08 3d fc 71 16 be 0c 31 3d 3d
       0.09855572 0.033423185 -0.14691919 0.046189353
0000b0 88 7e c9 bd b1 55 f3 bd de 8a f3 3d 82 f4 d6 3d
       -0.09838587 -0.11881579 0.11891721 0.10495855
0000c0 46 74 12 3c 08 f7 19 bd c9 89 81 bd 94 31 b9 bc
       0.008938855 -0.037589103 -0.063251086 -0.022606649
0000d0 20 b8 cc 3c 20 87 c1 bd d8 40 aa bd 63 4c d7 bd
       0.024990141 -0.09449601 -0.08313149 -0.105126165
0000e0 9c ab bd bd 34 0d d4 bd 88 7c 0c 3d b3 4c 2f bc
       -0.092612475 -0.10354081 0.03429845 -0.010699439
0000f0 e1 ff 35 bd f6 1e 51 3d 0b 0a 9c bd fc eb de bd
       -0.04443348 0.051054917 -0.07619103 -0.10884854
000100 4c 21 e3 bd 4d 36 ce 3d 37 31 81 bd 3e 57 cc bd
       -0.11090335 0.10068951 -0.06308215 -0.099775776
000110 48 f0 02 3d eb de cb 3d ab c4 5a ba b4 59 c2 bd
       0.03196743 0.099546276 -0.0008345346 -0.09489766
000120 67 e7 14 3d 3d 90 9e 3d fa 4c ab 3c 06 b7 45 bd
       0.036353495 0.07742355 0.020910729 -0.048270248
000130 74 14 39 3d 31 c1 fa bc 60 1a ab bb 72 44 10 3d
       0.04518552 -0.030609699 -0.00522165 0.035221525
000140 04 4b 91 3d 0e a0 eb bd 02 95 b7 3d fe 03 fb bd
       0.07094386 -0.115051374 0.08963968 -0.12256621
000150 a1 1b dc bd c8 ce 72 3c 80 91 59 bb ba 8e 56 bd
       -0.10747457 0.014819808 -0.0033198297 -0.05238221
000160 e4 7e 11 3d 6d ca 1d 3d 88 48 e9 3d c1 68 e0 bd
       0.035521403 0.038523126 0.11390787 -0.1095748
000170 ab 0d 92 3c c3 6c c6 3d 87 5a 47 bd d0 33 9d bd
       0.017828783 0.096887134 -0.048670318 -0.07675898
000180 d0 c5 a2 3c 08 3b 90 3d 8e 03 7e 3d 29 93 a9 3d
       0.019869715 0.07042509 0.06201511 0.08280022
000190 80 99 ec 3d 91 34 5a bd ea 00 4a 3d fa a0 9d bd
       0.11552715 -0.053272787 0.049317278 -0.076967195
0001a0 84 61 80 bd 18 05 68 bd 3d d4 66 bd 9a 2f d6 3d
       -0.062686 -0.056645483 -0.05635475 0.10458298
0001b0 05 2b 55 3d f4 90 b4 bc 64 d1 06 bd 18 ac ba 3d
       0.05204298 -0.022041775 -0.032914534 0.091148555
0001c0 52 55 f1 3d f8 9b 83 bc 9b 10 ce bc 4b a7 08 3d
       0.11783852 -0.016065583 -0.025154402 0.033362668
0001d0 4e c7 bf 3b 74 f0 aa 3a f8 d9 bc 3c 58 02 17 bd
       0.0058526164 0.0013041631 0.023053154 -0.03686747
0001e0 01 da c2 bc f8 ed 98 bd 40 75 83 3c ae 65 5a bd
       -0.023785593 -0.07467264 0.01604712 -0.053319626
0001f0 ab 26 c2 3d 9c f9 cf bd fc d8 65 3c 4a 63 da 3d
       0.094800316 -0.10155031 0.014028784 0.10663469
000200 80 8b 3f bd 15 fc f5 3d 98 89 2c bd d8 70 c2 3d
       -0.046763897 0.120109715 -0.042123407 0.094941795
000210 2a e2 b5 bc 18 19 95 3d c4 a2 b7 3d 34 5f 20 3d
       -0.02220257 0.07280177 0.08966592 0.039153293
000220 ef 31 0e bc fb 35 a0 bc 0c 4b 5f bd c4 cf 09 bd
       -0.008678897 -0.01955699 -0.05451493 -0.033645406
000230 22 ce c7 bb b0 cc 44 3c f0 b3 3e bc e1 b2 0a bc
       -0.006097571 0.012011692 -0.01163958 -0.0084655
000240 44 88 d1 bd f8 7b 91 bd c4 8f c0 3d 07 4c 90 3c
       -0.10231069 -0.07103723 0.09402421 0.017614378
000250 ff ff 54 bd 9e 0c cf bd d0 18 23 3d 52 f8 d5 3d
       -0.05200195 -0.101098284 0.039818585 0.10447754
000260 9c 5b 22 3c ef 88 6a bd 12 b3 58 b9 ca 46 f8 3d
       0.009909537 -0.057259496 -0.00020666074 0.12122877
000270 7f 0c ac 3b 1e 90 b0 bd 3a fa a6 bd 98 b2 62 bd
       0.005250513 -0.08621238 -0.08153196 -0.0553461
000280 41 54 00 3e 1e aa f4 3d ca 9f bb 3c 97 38 da 3d
       0.1253214 0.1194651 0.022903342 0.10655325
000290 f8 8e 73 bd b7 fd d8 3d 7a f5 b0 3d d0 57 86 3d
       -0.059462517 0.10595267 0.08640571 0.06559718
0002a0 0f 9e ad bc ae 04 ee 3d 18 06 e7 bb a4 2f a1 3d
       -0.021193532 0.11621986 -0.007050287 0.07870415
0002b0 68 19 94 bd 0c 04 82 3d 30 b9 ad 3c 74 06 65 3d
       -0.07231408 0.06348428 0.021206468 0.055914357
0002c0 8b 3e bd 3d de a7 c9 bd 57 f7 00 3e 24 ec 36 bd
       0.09240445 -0.09846471 0.12594353 -0.044658795
0002d0 f9 2c b2 bd 45 3a 5b 3d f4 bf 9b bd 10 be 26 bd
       -0.08699984 0.053522367 -0.076049715 -0.0407086
0002e0 6c 5c 44 3d 88 70 9b bc 14 3a 5f 3d 2b a0 29 bd
       0.047939703 -0.018974558 0.054498747 -0.041412514
0002f0 10 08 b6 bb e6 50 09 bd 10 ba 36 bd ba d8 b8 3d
       -0.0055551603 -0.033524416 -0.044611037 0.09025712
000300 6c 99 95 3d 1e 1e ee 3d 37 52 a8 3d b0 f9 6c bc
       0.073046535 0.11626838 0.08218806 -0.014463827
000310 8b 78 9d bc d0 68 ba 3d 44 c5 34 3d b0 cf 4e 3c
       -0.019222518 0.09102023 0.04413344 0.012622759
000320 4f 47 84 3d 2d ea 55 3d 60 a8 30 3d de 3f 20 bd
       0.064589135 0.05222528 0.043129325 -0.03912341
000330 e2 a8 8f bd 10 21 d3 bd f8 18 d3 bd 40 c2 94 bb
       -0.07014634 -0.103090405 -0.10307497 -0.004539758
000340 e0 e9 af 3c e0 13 fd 3d 72 69 fc bd 17 23 84 3d
       0.021473825 0.123573065 -0.123247996 0.06452005
000350 55 f6 67 bd f9 44 6f bd d0 53 7b bc 44 39 91 bd
       -0.056631405 -0.058415387 -0.015339807 -0.07091001
000360 2c 7d 0b 3d 19 e5 ba 3d 78 62 37 bd 56 6d 02 3c
       0.03405492 0.09125728 -0.04477164 0.007960638
000370 9e 8f 48 3d 72 7a 95 bd 20 5c bc 3c 70 3f d0 3c
       0.04896509 -0.07298745 0.022993147 0.025420874
000380 0e dd 92 3d 46 86 e4 bd ab 47 16 bd dc 18 08 3d
       0.07171069 -0.11158423 -0.03668944 0.033226833
000390 8a 47 f0 bc 84 09 63 bc 3f c8 92 bd 72 19 e4 bd
       -0.029330987 -0.013857249 -0.071671 -0.11137666
0003a0 ee c8 a7 bd 9c b1 ea 3d 5e 23 a2 bd a4 26 af bd
       -0.08192621 0.114596575 -0.07916902 -0.08552292
0003b0 e7 ba 01 bd 33 ff d1 bd 20 f6 99 bc 12 80 fb bd
       -0.031672385 -0.102537535 -0.01879412 -0.12280287
0003c0 95 c1 eb bd a0 c9 db 3d ff 2b 53 3c 59 9d 89 bd
       -0.11511532 0.10731816 0.012888907 -0.06719465
0003d0 27 b0 cc bb a2 6b a3 bd 40 ab a6 bc 3d 70 e3 3d
       -0.006246585 -0.07979514 -0.02034533 0.11105392
0003e0 d1 e5 a7 3d a8 08 15 bd 36 46 c7 3d cd 38 98 bd
       0.08198131 -0.03638521 0.097301885 -0.07432709
0003f0 44 6a ae bd 18 e8 08 3d d0 21 27 bd 94 c2 71 bd
       -0.08516362 0.033424467 -0.04080373 -0.059023455

gnn_layer_0.n_func.2.bias f4 [64]
000000 1d f8 bc 3d a5 90 3b bd dd 4d e2 bd 3f f3 00 be
       0.09227011 -0.04579224 -0.110500075 -0.12592791
000010 88 64 5d bd 25 f8 cc 3d 70 4b a1 bc b0 65 64 bd
       -0.054050952 0.10008267 -0.019689292 -0.05576104
000020 f1 d7 59 bc 2c 15 b6 bd a4 85 9d 3c e6 96 fb 3d
       -0.013296113 -0.08890757 0.019228764 0.12284641
000030 11 12 e9 bd b0 04 25 bd 10 b6 1f 3d 63 e3 99 3d
       -0.11380399 -0.040287673 0.038991988 0.07514074
000040 12 f7 89 3d 06 27 c5 bd 0e 28 a1 3d fa 78 de bd
       0.06736578 -0.09626584 0.07868968 -0.10862918
000050 ca d6 f2 bc 7d a0 26 3d 74 af 62 3d 2c 1d b8 3d
       -0.029643435 0.040680397 0.055343106 0.08989939
000060 06 e0 73 3d dd 9b ae 3d 80 1f f1 bd 9c d6 96 bd
       0.059539817 0.08525822 -0.11773586 -0.07365152
000070 a9 32 db bb 4c 6e e6 bd ed 7d 8c bd 20 d2 a8 3b
       -0.006689389 -0.11251506 -0.06859956 0.005152002
000080 00 f7 1a bd 72 c6 a6 bd b6 14 ad bc e0 51 84 3d
       -0.037833214 -0.08143319 -0.02112804 0.06460929
000090 8c 3b 93 bd 7c cb d5 3d fb 22 f4 bd 97 f0 57 3d
       -0.07189092 0.10439202 -0.119207345 0.05271968
0000a0 5e b9 b7 bd bc 4b 09 3d 6c 7d d8 3d 6d e7 9b 3d
       -0.08970903 0.03351949 0.10570797 0.076125
0000b0 6f 5a 87 bd 49 11 a7 bd 21 63 bb bc 4e 41 2b bc
       -0.06609046 -0.08157594 -0.022874417 -0.010452582
0000c0 24 ca f6 3d 7d 24 fa 3d 70 61 04 3d f0 7f 83 3d
       0.12050274 0.12213991 0.032319486 0.064208865
0000d0 33 13 bf 3c 1c db fb 3d cc 2f 2b ba a0 5c d6 bc
       0.023324585 0.12297651 -0.00065302546 -0.026167214
0000e0 e7 bb a6 bd 90 b3 c1 bd 60 cd a8 3c f2 f9 85 bd
       -0.08141308 -0.09458077 0.020605743 -0.06541814
0000f0 c0 7e e2 3d 73 b5 f6 bb d6 36 b6 3d 89 4e 75 3d
       0.11059332 -0.0075289547 0.08897178 0.05988935

gnn_layer_0.n_self_func.0.weight f4 [64, 1]
000000 b8 e4 94 be 43 13 1a bf 71 4b 19 bf 74 db 9f bc
       -0.2908075 -0.6018564 -0.5988074 -0.019513823
000010 fc ef 99 be e8 da 0a 3e cd 60 8f bf ec 93 30 bf
       -0.30065906 0.13560069 -1.1201416 -0.6897571
000020 fe 23 4c 3f 58 1f 76 3e 3a cb 1d bf a1 ff 9f 3e
       0.7974242 0.24035394 -0.61638224 0.31249717
000030 2c c3 4c bf d0 70 00 bf d0 b3 51 3e d6 61 4d 3f
       -0.7998531 -0.5017214 0.2047875 0.8022741
000040 0d d1 30 bf 35 ce fb 3e b5 ae 72 3f 2f 6a 56 3f
       -0.69068986 0.4918076 0.9479783 0.83755773
000050 a7 37 90 be d0 ba 22 bf 2a 2c 12 3f 93 11 41 3f
       -0.2816746 -0.63566303 0.5709864 0.7541744
000060 30 07 9b bd aa 9d 6a bf 56 94 16 3f f9 1c 6b bf
       -0.0756973 -0.91646826 0.5882009 -0.91841084
000070 a7 50 61 3f fa 96 75 3f 96 05 7c bf 20 36 3b bf
       0.8801369 0.95933497 -0.98446023 -0.73129463
000080 6c bb 2c 3f ec 23 36 3f 59 12 90 3e e0 ad d5 be
       0.67473483 0.7114856 0.28138998 -0.4173422
000090 ae df 1a 3f 62 7c 1a 3e 88 41 0b 3f 62 ab 1e bf
       0.6049756 0.15086511 0.5439687 -0.6198026
0000a0 d2 38 68 3e 94 c2 73 3f 65 7b 6e 3f 00 eb 75 3e
       0.22677925 0.9521878 0.93157035 0.24015427
0000b0 fc a9 ea 3e 2e 1b 9e be 94 7b 0b bf 9f a7 14 3f
       0.45832813 -0.3088011 -0.5448544 0.5806827
0000c0 2e 6b 41 bf 0b d3 57 3f 9c ec cd 3e ad 12 cc 3e
       -0.7555417 0.843064 0.4021958 0.39857998
0000d0 3c bb a2 be 4e 23 c3 be a2 97 1d bf 2f 3c 47 bf
       -0.31783473 -0.38112873 -0.615595 -0.7782621
0000e0 09 93 99 3d bd 6c 83 bf 74 32 80 3f 71 c0 53 3e
       0.07498748 -1.0267559 1.0015397 0.2067888
0000f0 be be 60 3f 6e d9 20 3e a9 e7 67 3e 1f ff 1c 3e
       0.8779105 0.15707943 0.22646965 0.15331696

gnn_layer_0.n_self_func.0.bias f4 [64]
000000 1c a2 9b be 66 fb 60 3f 01 d9 18 3f ac c7 dd 3c
       -0.30397117 0.87883604 0.5970612 0.02707275
000010 04 68 37 bf 58 4d 35 bf a1 c1 47 3e c8 4a cf be
       -0.7164309 -0.7082114 0.19507457 -0.4048674
000020 42 41 e3 be be c4 70 bf c8 fa 1f bf a8 66 be be
       -0.44385725 -0.94050205 -0.62492037 -0.37187696
000030 6c 98 f6 be c6 aa 5b bf 1a 8a 53 bf 98 36 4a 3e
       -0.48163164 -0.85807455 -0.826326 0.19747388
000040 d5 57 05 3f 2f fe 2a 3f d3 d9 2f bf 3a e4 4c 3f
       0.52087146 0.66794103 -0.6869175 0.80035746
000050 71 e1 6f 3f 10 33 8b be 62 90 1c 3f bd 98 a9 3e
       0.9370337 -0.27187395 0.6115781 0.33124343
000060 b0 aa 51 bf 40 1d 4b be a6 aa 17 3f f5 71 62 3e
       -0.81901073 -0.19835377 0.59244764 0.22113784
000070 c2 cb ea be ad b8 fe 3e 88 27 8f be 64 4a b4 be
       -0.4585858 0.4975027 -0.27959847 -0.35213006
000080 aa b7 3e bf 43 b8 a0 3e d9 58 13 bf 7c 2a f2 be
       -0.74499 0.3139058 -0.57557446 -0.47298038
000090 cf 19 05 3f c9 24 70 3f 62 39 ac 3e 04 78 e1 be
       0.51992506 0.9380613 0.3363753 -0.44036877
0000a0 14 4f c6 3e 1f da 63 3f 01 58 5e 3f c6 b2 30 3f
       0.38732207 0.890047 0.86853033 0.69022787
0000b0 71 d5 07 bd e6 e1 5f 3e 20 a7 04 be f6 7e 57 bf
       -0.033162538 0.21863517 -0.12954378 -0.841781
0000c0 04 2c 62 bf 64 08 81 bf 2a 41 e9 bc 30 d6 66 3e
       -0.8834841 -1.0080686 -0.028473455 0.22542644
0000d0 f0 dc 7c be bb ce f7 3e ac ae 68 bf 3c 8c 32 3f
       -0.24693656 0.4839991 -0.9089153 0.6974523
0000e0 06 c3 9c 3d cc 39 7e 3d c5 fd 1f 3f a6 f7 64 3f
       0.07654385 0.06206684 0.62496597 0.8944038
0000f0 83 6b 2b bf 81 21 44 3f 6e 1c 95 bb e7 7a 28 3f
       -0.66960925 0.7661362 -0.004550508 0.65812534
