ThinkMatch/exp/ngm/CV0/saved_models/model.pt (torch, 278195 bytes, 34 tensors)

affinity_layer.lambda1 f4 [64, 64]
0.4920884 0.047134496 0.06561656 -0.052762426 0.05151527 -0.056556646 0.023061953 0.011886918
-0.08010742 -0.06864863 -0.029371379 0.033789244 -0.03918655 0.020040205 -0.02835956 0.024229629
0.037986796 0.039832503 -0.049351756 0.05111658 -0.0066222977 0.009068558 -0.0340795 -0.08199978
-0.06509316 -0.033657935 0.010375205 -0.015443382 -0.019325383 0.032884236 0.010067955 0.040401172
-0.019510683 0.057184268 0.04381384 0.09660467 0.034219112 0.055450365 -0.07967646 0.020173473
-0.076450855 0.07002088 0.0067398604 -0.065439336 -0.048509948 -0.011293342 -0.028842455 0.039947264
0.047293596 -0.07256058 -0.011585146 0.08833703 0.041319028 0.027044976 -0.066748455 -0.016388781
0.023672061 0.0065424656 -0.052478198 0.018808885 -0.07460959 0.028297678 0.06403356 0.01386621
-0.015809238 0.4147703 -0.0026427654 -0.07863292 0.07062764 0.07456309 -0.057318594 -0.022741174
-0.013582149 -0.00032218668 0.05403874 0.023446808 0.07493621 0.045523666 -0.08075528 -0.0013675144
-0.08773658 0.08690875 -0.0061338977 -0.030411575 0.03659418 -0.0031343978 -0.0783283 0.00080740644
0.027013874 -0.083323464 0.048026342 0.060720213 0.052537963 0.056875262 -0.029315356 0.01767721
0.057648722 0.044222802 0.08594344 0.06286863 0.03242948 -0.06782399 -0.034292057 0.007284356
0.02457509 0.00835537 0.06278843 -0.045965783 0.005474102 0.090579554 0.06747624 0.0060776174
0.02310868 0.07492037 -0.06482326 0.036044817 0.07148887 -0.0366804 -0.067672 -0.07695544
-0.01787597 -0.010687271 0.053839564 -0.022360697 0.06743324 -0.05470747 0.08232118 0.020410072
-0.08638483 -0.0031165802 0.57793355 0.0226555 -0.04397892 0.014047091 -0.031335928 0.02040393
0.020829193 -0.015700376 -0.052906223 0.0032981173 0.010854488 0.06142388 0.04830155 0.08073522
-0.03886699 0.010489982 -0.04021906 -0.06169468 -0.08284276 -0.03939532 0.08229324 -0.007431217
-0.007068671 0.0401194 -0.0015302623 -0.06457568 -0.058756806 0.009423193 -0.0027203683 -0.068468854
-0.057502516 0.017687118 0.0042951433 0.008430808 -0.0078113596 -0.01959329 0.023939673 -0.05234587
0.07484906 -0.054555975 -0.02623833 0.007923441 0.06420069 -0.06166225 0.018423958 -0.04157343
0.043452576 -0.006273769 -0.07601871 -0.06396339 -0.055676993 0.045224518 0.011828468 -0.050507855
0.06890706 0.061979063 0.03326207 0.030402144 0.025216617 -0.0018256223 -0.05291266 0.02374822
-0.059398007 -0.05877715 -0.03521856 0.56098807 -0.0040911874 -0.07280868 0.031986002 -0.018776063
0.051885247 0.07052006 -0.046276007 -0.056061134 0.017141817 0.07681712 -0.0689776 -0.057998188
-0.034536786 0.030699827 0.055126086 -0.04010376 0.063169785 -0.073024556 0.032879096 -0.07461561
0.06117263 -0.050790355 0.072132714 -0.08740156 0.028845187 -0.043830972 0.04741886 0.016525168
0.024094194 0.008312175 -0.0070887203 -0.027538044 -0.060976572 0.13022423 -0.07163646 -0.042512883
-0.08485744 0.0598064 -0.08257754 0.059854023 0.027051365 0.08198222 -0.060485438 -0.0024186075
-0.048219968 -0.01734526 -0.046655864 -0.07428562 -0.0053182137 -0.05536003 0.08295502 0.029553158
-0.037970718 0.04748343 -0.05105268 0.061861537 0.01093537 0.038939904 -0.062067494 0.08377753
00000000: 03f3 fb3e 1a10 413d fa61 863d 6a1d 58bd
00000010: ad01 533d f1a7 67bd 6cec bc3c 59c1 423c
00000020: 5c0f a4bd a797 8cbd 3f9c f0bc 9766 0a3d
00000030: 1382 20bd 5b2b a43c 4f52 e8bc 377d c63c
00000040: 0b98 1b3d 6827 233d 1125 4abd 9e5f 513d
00000050: dcff d8bb 4a94 143c f296 0bbd 80ef a7bd
00000060: 904f 85bd e7dc 09bd c4fc 293c 3d06 7dbc
00000070: 4450 9ebc 9fb1 063d 10f4 243c b37b 253d
00000080: ded4 9fbc 0d3a 6a3d 2476 333d abd8 c53d
00000090: 5729 0c3d ec1f 633d 692d a3bd d742 a53c
000000a0: 4492 9cbd 1b67 8f3d 0cda dc3b 0f05 86bd
000000b0: 5eb2 46bd b607 39bc 0347 ecbc be9f 233d
000000c0: eeb6 413d a49a 94bd a0cf 3dbc 0bea b43d
000000d0: 243e 293d 6d8d dd3c 6ab3 88bd c441 86bc
000000e0: e9eb c13c 2e62 d63b 61f3 56bd 1715 9a3c
000000f0: eacc 98bd 88d0 e73c 0724 833d 1a2f 633c
00000100: 6082 81bc c65c d43e 3f32 2dbb 4c0a a1bd
00000110: 39a5 903d 89b4 983d e7c6 6abd b34b babc
00000120: a987 5ebc 2aeb a8b9 ba57 5d3d 8513 c03c
00000130: 2878 993d 0677 3a3d 0663 a5bd 2b3e b3ba
00000140: 3caf b3bd 37fd b13d ddfe c8bb b221 f9bc
00000150: c7e3 153d 786a 4dbb 966a a0bd 21a8 533a
00000160: 334c dd3c 7ea5 aabd 45b7 443d c2b5 783d
00000170: 0c32 573d 09f6 683d c226 f0bc cccf 903c
00000180: 1121 6c3d f822 353d 1d03 b03d 45c1 803d
00000190: c6d4 043d 4ee7 8abd d475 0cbd 9bb1 ee3b
000001a0: b351 c93c f6e4 083c 3897 803d 9e46 3cbd
000001b0: 1960 b33b c681 b93d fc30 8a3d c026 c73b
000001c0: 6a4e bd3c da6f 993d 0fc2 84bd bba3 133d
000001d0: c268 923d 303e 16bd 9e97 8abd d09a 9dbd
000001e0: a070 92bc aa19 2fbc e086 5c3d c82d b7bc
000001f0: 701a 8a3d f114 60bd 0298 a83d 0633 a73c
00000200: 88ea b0bd 8a3f 4cbb 74f3 133f 0798 b93c
00000210: 3d23 34bd c525 663c 1a5a 00bd 2526 a73c
00000220: fca1 aa3c 139e 80bc 32b4 58bd 3a25 583b
00000230: 06d7 313c 9b97 7b3d d9d7 453d 8258 a53d
00000240: fe32 1fbd 2cde 2b3c bebc 24bd 90b3 7cbd
00000250: 77a9 a9bd fd5c 21bd 5c89 a83d 9181 f3bb
00000260: 4fa0 e7bb 3d54 243d 1593 c8ba 4140 84bd
00000270: faaa 70bd bc63 1a3c 3548 32bb 6639 8cbd
00000280: c287 6bbd 93e4 903c 46be 8c3b 5f21 0a3c
00000290: 6ff6 ffbb 1b82 a0bc 221d c43c 9f68 56bd
000002a0: 774a 993d 1676 5fbd c4f1 d6bc 52d1 013c
000002b0: a77b 833d 8e91 7cbd d7ed 963c e748 2abd
000002c0: 54fb 313d 3094 cdbb b3af 9bbd 3dff 82bd
000002d0: 8f0d 64bd 583d 393d 31cc 413c 53e1 4ebd
000002e0: 251f 8d3d c2dd 7d3d cf3d 083d eb0d f93c
000002f0: 1493 ce3c b849 efba f2ba 58bd a18b c23c
00000300: 534b 73bd 4fc0 70bd 5641 10bd ea9c 0f3f
00000310: 5e0f 86bb b81c 95bd c103 033d 42d0 99bc
00000320: a085 543d d26c 903d e98b 3dbd 5ca0 65bd
00000330: ff6c 8c3c 4b52 9d3d 2144 8dbd 828f 6dbd
00000340: 7276 0dbd 347e fb3c e4cb 613d d743 24bd
00000350: 295f 813d e68d 95bd 3bac 063d 12d0 98bd
00000360: 2790 7a3d 8c09 50bd 51ba 933d 97ff b2bd
00000370: be4c ec3c 1b88 33bd 473a 423d ca5f 873c
00000380: 3061 c53c ca2f 083c 7f48 e8bb 7797 e1bc
00000390: 92c2 79bd 8059 053e 23b6 92bd fd21 2ebd
000003a0: bdc9 adbd 8ef7 743d 6a1e a9bd 7e29 753d
000003b0: d39a dd3c 4be6 a73d 94bf 77bd 8081 1ebb
000003c0: 4d82 45bd a617 8ebc 381a 3fbd 0f23 98bd
000003d0: 6944 aebb 33c1 62bd 52e4 a93d 7719 f23c
000003e0: 2f87 1bbd fc7d 423d 9d1c 51bd 8662 7d3d
000003f0: 442a 333c 737f 1f3d 7c3a 7ebd 8e93 ab3d

affinity_layer.lambda2 f4 [64, 64]
0.56056327 0.004577208 0.07411761 -0.08567772 0.06177083 -0.015601774 -0.055536374 0.015571161
-0.05074196 0.05380802 -0.028828096 0.003320571 0.04700329 -0.039427206 -0.08676976 -0.0023994488
0.009850762 -0.028097143 -0.012228373 0.042357333 0.019652728 0.015158612 0.008463266 0.058661956
0.021878723 -0.052610837 0.040552087 0.0009475244 0.005320049 -0.06828948 0.011888836 0.027040917
0.044648096 -0.01601916 -0.05021938 -0.017945664 0.020572633 -0.04996161 0.016494676 -0.0101352725
-0.052969873 -0.045890458 -0.026861893 -0.0020204778 0.036775142 -0.074592784 -0.043422457 0.07603122
-0.07191977 0.012382691 -0.010129268 0.04630279 0.0018897856 0.043133266 0.03571606 -0.04783268
-0.030972896 0.025672395 -0.020993736 0.023698553 -0.026605112 -0.0118324645 0.010069419 -0.017193595
0.00344962 0.430127 0.026881343 -0.033871494 0.07471098 0.055120833 0.05486653 -0.08398594
-0.03077822 -0.025384618 0.015444544 0.08430495 -0.029989917 0.03947921 0.07395813 0.006315313
-0.028633114 0.005429473 -0.022883547 0.03506015 -0.004761182 -0.06800493 0.05189903 -0.07180507
0.07949288 0.07352155 -0.08371139 0.058622565 -0.05203553 -0.05673307 0.042103153 -0.0070477114
-0.046106596 -0.04784202 -0.064011075 0.079470955 -0.03392526 0.028176865 0.05438405 -0.065322764
-0.07843665 0.0114732 -0.052267317 0.008225895 -0.05075961 -0.07956588 0.024684852 -0.020027634
0.0041668797 0.0130476 -0.05760338 0.0046802387 0.031436276 -0.03521127 -0.020713627 -0.045715917
-0.004830778 0.07273804 -0.06694654 -0.058946855 0.025240555 -0.050950892 0.065155126 -0.045252122
-0.04403038 0.050100572 0.4458523 -0.051771417 -0.06975599 -0.079788305 0.031751905 -0.01079937
-0.03782766 -0.02348903 -0.032718945 -0.049978122 -0.0540792 -0.086927876 0.0018333562 0.03403257
0.046815794 0.03565581 0.0433463 0.06982165 -0.057048507 -0.008235789 -0.066860735 0.009152656
0.04714427 0.001131537 -0.043760817 -0.06309956 0.063045785 0.03191667 0.0717016 0.07002702
-0.05537487 -0.039188012 0.043654326 -0.054215968 0.048249103 -0.05725486 0.021013891 0.041912284
0.07221426 -0.057933643 0.06888261 -0.071143605 -0.012513326 -0.07963016 0.04542931 -0.0014997534
0.005952083 -0.057611536 -0.07117428 0.034669828 0.03374513 0.042279705 -0.02342406 0.039370876
-0.01287347 -0.05612175 0.033521615 -0.053143166 -0.0857862 -0.0024911317 0.060754016 0.044102795
-0.05445907 -0.052724063 -0.019692494 0.5356243 0.16539267 0.0629782 0.09989311 0.02639634
0.006848873 -0.055833068 0.023912055 0.031276945 0.143364 -0.062431853 -0.03248976 0.111644514
-0.087747104 -0.083428465 0.07846977 -0.08827013 0.03413614 0.098937936 -0.08175254 0.043528657
0.014904059 -0.023756687 -0.019778589 0.0071809283 0.046413563 0.009053817 0.015620369 -0.059086803
-0.017376218 0.028652912 -0.083607264 0.069385596 -0.0355407 -0.038152706 -0.062433623 0.047310293
0.008796089 -0.058790162 -0.050725047 0.064946316 0.111797445 -0.05819936 -0.0064043864 0.08752897
-0.008129821 -0.06731149 -0.07087 0.07012424 -0.03470755 -0.065896176 -0.086864725 0.034524806
-0.05765811 0.017403023 -0.027899528 -0.031878654 0.048994634 0.00046726104 0.119187534 -0.06240919
00000000: 1381 0f3f 67fc 953b f9ca 973d cd77 afbd
00000010: 6903 7d3d 959e 7fbc 1c7a 63bd 2f1e 7f3c
00000020: cdd6 4fbd cc65 5c3d e628 ecbc f09d 593b
00000030: 8686 403d 6c7e 21bd 58b4 b1bd 1240 1dbb
00000040: 1765 213c fb2b e6bc 8459 48bc e27e 2d3d
00000050: c2fe a03c d45b 783c 83a9 0a3c 8547 703d
00000060: 023b b33c 767e 57bd f219 263d 4963 783a
00000070: ce53 ae3b 5bdb 8bbd 64c9 423c ea84 dd3c
00000080: ece0 363d 9d3a 83bc d6b2 4dbd c902 93bc
00000090: f087 a83c 8ca4 4cbd d81f 873c 6a0e 26bc
000000a0: f0f6 58bd a2f7 3bbd 790d dcbc fe69 04bb
000000b0: 88a1 163d 1ac4 98bd bfdb 31bd 42b6 9b3d
000000c0: ac4a 93bd c5e0 4a3c 3bf5 25bc ffa7 3d3d
000000d0: afb2 f73a 82ac 303d 014b 123d 33ec 43bd
000000e0: dfba fdbc ea4e d23c 0efb abbc 7823 c23c
000000f0: f7f2 d9bc f4dc 41bc 34fa 243c 95d9 8cbc
00000100: 0513 623b 9b39 dc3e 4336 dc3c d6bc 0abd
00000110: 1202 993d 62c6 613d babb 603d d200 acbd
00000120: 9b22 fcbc 67f3 cfbc 1d0b 7d3c 13a8 ac3d
00000130: 6aad f5bc f4b4 213d 5c77 973d aff0 ce3b
00000140: fe8f eabc b8e9 b13b 4776 bbbc 3b9b 0f3d
00000150: b003 9cbb 2b46 8bbd 1494 543d 890e 93bd
00000160: 2acd a23d 7792 963d e170 abbd 371e 703d
00000170: 3523 55bd f060 68bd 5b74 2c3d 7df0 e6bb
00000180: 45da 3cbd fef5 43bd 3d18 83bd abc1 a23d
00000190: 37f5 0abd 2bd3 e63c cfc1 5e3d f1c7 85bd
000001a0: 65a3 a0bd 17fa 3b3c 4116 56bd e8c5 063c
000001b0: 4fe9 4fbd 70f3 a2bd e337 ca3c fe10 a4bc
000001c0: 528a 883b 9ac5 553c 86f1 6bbd b05c 993b
000001d0: 53c3 003d b139 10bd a0af a9bc 9d40 3bbd
000001e0: 814b 9ebb aef7 943d 441b 89bd 4272 71bd
000001f0: 48c5 ce3c e2b1 50bd 0d70 853d 4a5a 39bd
00000200: 3359 34bd 4236 4d3d c146 e43e 440e 54bd
00000210: 3adc 8ebd 0d68 a3bd 490e 023d d7ef 30bc
00000220: 2df1 1abd 116c c0bc 4d04 06bd dcb5 4cbd
00000230: 2782 5dbd 3e07 b2bd 3a4d f03a bc65 0b3d
00000240: ebc1 3f3d d40b 123d e48b 313d a7fe 8e3d
00000250: b2ab 69bd 67ef 06bc 48ee 88bd 06f5 153c
00000260: 5a1a 413d 1550 943a 8b3e 33bd 583a 81bd
00000270: 261e 813d 0ebb 023d 4ad8 923d 546a 8f3d
00000280: c2d0 62bd 9c83 20bd e1ce 323d 9011 5ebd
00000290: daa0 453d 1284 6abd 5325 ac3c 37ac 2b3d
000002a0: 12e5 933d d44b 6dbd 5312 8d3d bdb3 91bd
000002b0: b104 4dbc 2315 a3bd 1614 3a3d 6093 c4ba
000002c0: b109 c33b 13fa 6bbd d2c3 91bd f301 0e3d
000002d0: 5538 0a3d 7c2d 2d3d d0e3 bfbc 5b43 213d
000002e0: 3feb 52bc ecdf 65bd f64d 093d a6ac 59bd
000002f0: adb0 afbd 4142 23bb 34d9 783d 22a5 343d
00000300: 7910 5fbd 30f5 57bd 2752 a1bc ad1e 093f
00000310: b25c 293e b7fa 803d c294 cc3d 233d d83c
00000320: 836c e03b 37b1 64bd 37e3 c33c 411c 003d
00000330: 03ce 123e 8bb8 7fbd fc13 05bd e1a5 e43d
00000340: c1b4 b3bd 8bdc aabd c2b4 a03d f8c6 b4bd
00000350: 56d2 0b3d f99f ca3d e06d a7bd 1b4b 323d
00000360: 2730 743c 629d c2bc b506 a2bc fe4d eb3b
00000370: 261c 3e3d 7656 143c 94ec 7f3c 0105 72bd
00000380: 9258 8ebc 83b9 ea3c 493a abbd 091a 8e3d
00000390: 2093 11bd 0346 1cbd 66ba 7fbd 70c8 413d
000003a0: 791d 103c f4cd 70bd 11c5 4fbd 9302 853d
000003b0: 0ff6 e43d 7462 6ebd e3db d1bb 6342 b33d
000003c0: f132 05bc 9bda 89bd 4a24 91bd 4c9d 8f3d
000003d0: 8129 0ebd 93f4 86bd 22e6 b1bd e269 0d3d
000003e0: e92a 6cbd c990 8e3c 8d8d e4bc 3193 02bd
000003f0: 99ae 483d b7fa f439 9818 f43d c7a0 7fbd

node_layers.mlp_0.weight f4 [64, 121]
0.032481927 0.099538356 0.07595182 -0.05082811 0.11665077 -0.025852073 0.00028366942 -0.048887517
-0.030114474 0.012446626 0.015756294 0.07510851 -0.056005 0.024418049 0.0730286 -0.06620205
-0.07706651 0.026486216 -0.050098076 -0.060084324 0.06664059 -0.018447485 0.01361017 -0.07272713
-0.023314515 -0.08800149 0.018776204 0.070058554 0.07765919 -0.03455215 0.044205923 0.031075852
0.05739211 0.085966505 -0.008621157 0.06118738 -0.0055012307 -0.0027616965 -0.037150353 -0.086887926
0.017403541 -0.026229808 0.034354266 -0.07385076 -0.04483778 0.07216658 -0.09437932 0.0064074174
0.07632986 -0.08800572 -0.081353694 0.06577585 0.013436815 -0.022705626 0.038855985 0.029225294
-0.06018299 0.07127464 -0.0355212 0.013412283 -0.10097836 -0.07523565 -0.03296216 0.10615747
0.047388162 0.06341707 -0.016722897 -0.028959 -0.106488496 -0.0063706893 -0.05997952 -0.012880543
-0.034218267 0.008840308 0.08268667 -0.09837721 0.08183025 0.07357967 0.019883314 0.024824679
-0.04433569 -0.0072350143 0.19589981 -0.081446074 -0.032955796 -0.030317133 0.030961944 -0.07419033
0.057936143 -0.07861351 0.11958541 0.07827731 0.088751115 0.050088376 0.020290283 0.035027288
-0.049074575 0.042039685 -0.09516399 0.08220344 -0.053079642 -0.06873971 -0.053089734 -0.071851805
0.05439494 -0.070068195 -0.06973699 0.08705196 0.11227985 -0.05656688 -0.10886127 0.0152821075
-0.095815666 -0.05685812 0.057368487 0.036893737 -0.031686634 -0.109874405 0.044886053 0.02210943
-0.05293325 0.015442176 0.028726105 -0.10901923 -0.11308623 -0.028328795 0.0018745456 -0.07997067
0.043549843 -0.12944286 -0.12871023 -0.12010536 0.0033650103 -0.07061038 0.03783376 -0.12929927
-0.0701903 0.041945864 -0.117461026 -0.058706895 -0.016319826 0.02932783 -0.0186453 -0.01921085
0.04345071 0.03132105 0.051868804 0.024883144 0.015367233 0.02988549 0.093293935 0.01968354
-0.08562888 0.034461316 0.047324076 0.04713469 0.001480047 0.06676375 -0.050874826 0.059867997
0.060209233 0.05545855 0.027133837 -0.041270353 -0.0381661 -0.028488794 0.024679698 0.06843369
0.07205538 0.03993229 -0.031988315 -0.04384649 -0.025040545 -0.02773327 0.056949433 -0.006583751
-0.04529103 0.049965445 0.08697285 -0.014052282 0.07719281 -0.01644725 0.048321687 0.10977098
0.0013679132 0.09508184 0.03616033 -0.06521023 0.043456122 0.0400056 0.03694033 0.069183916
-0.023290318 0.11534499 -0.026638648 -0.088769086 0.16035026 -0.17693332 0.036800534 0.14955266
-0.044239223 0.06995976 0.014569036 -0.057130735 -0.06620632 -0.10059458 0.0127420565 -0.1564032
0.06098509 0.009805916 0.090834685 -0.016677985 -0.080514796 0.1349728 0.09836563 0.062556505
-0.07192664 -0.11632329 -0.11182055 -0.09491846 -0.044908244 -0.050930355 -0.11948852 -0.13328344
-0.17578803 -0.007746711 -0.022915514 0.018141294 0.11418648 0.04180055 0.0036779426 -0.021810805
-0.13527386 -0.08860471 0.15594156 0.028384112 -0.061569374 -0.029118314 -0.01971107 -0.01918922
-0.07245518 -0.101827145 -0.06011935 -0.08005371 -0.10030931 0.03628545 -0.056723125 0.03880194
0.07723642 0.051460113 -0.102338284 -0.09570907 -0.05049536 -0.059493378 -0.032274637 0.002678667
00000000: c50b 053d c4da cb3d a18c 9b3d 2331 50bd
00000010: 99e6 ee3d bac7 d3bc 77b9 9439 473e 48bd
00000020: a1b2 f6bc efec 4b3c 5813 813c 7ed2 993d
00000030: 8065 65bd 5c08 c83c 0590 953d f194 87bd
00000040: 0cd5 9dbd 9ff9 d83c a433 4dbd fb1a 76bd
00000050: dd7a 883d 2e1f 97bc 31fd 5e3c f6f1 94bd
00000060: 15fe bebc 203a b4bd 8ed0 993c dc7a 8f3d
00000070: c80b 9f3d 8e86 0dbd 4511 353d c992 fe3c
00000080: fd13 6b3d 350f b03d c13f 0dbc 9e9f 7a3d
00000090: ab43 b4bb 94fd 34bb f82a 18bd 4cf2 b1bd
000000a0: df91 8e3c e5df d6bc 0fb7 0c3d 113f 97bd
000000b0: d2a7 37bd 12cc 933d f249 c1bd 50f5 d13b
000000c0: d452 9c3d 583c b4bd c49c a6bd 7db5 863d
000000d0: 1626 5c3c 2601 babc 7427 1f3d e269 ef3c
000000e0: 7082 76bd 70f8 913d ae7e 11bd 31bf 5b3c
000000f0: becd cebd 2615 9abd 5403 07bd 1669 d93d
00000100: 171a 423d cfe0 813d 75fe 88bc 6d3b edbc
00000110: a416 dabd 37c1 d0bb 16ad 75bd ea08 53bc
00000120: 7428 0cbd f0d6 103c a157 a93d fe79 c9bd
00000130: 9e96 a73d f0b0 963d 55e2 a23c 205d cb3c
00000140: 5799 35bd b313 edbb f699 483e 33cd a6bd
00000150: a8fc 06bd a35b f8bc e7a3 fd3c 1af1 97bd
00000160: 734e 6d3d 1f00 a1bd 32e9 f43d db4f a03d
00000170: 25c3 b53d 7829 4d3d cf37 a63c c678 0f3d
00000180: 6c02 49bd ce31 2c3d 57e5 c2bd 475a a83d
00000190: 0a6a 59bd 68c7 8cbd 9f74 59bd 0a27 93bd
000001a0: 3bcd 5e3d ea7f 8fbd 44d2 8ebd 4c48 b23d
000001b0: faf2 e53d acb2 67bd a8f2 debd ce61 7a3c
000001c0: 013b c4bd 0fe4 68bd 38fb 6a3d e31d 173d
000001d0: d8c9 01bd d505 e1bd 70da 373d d61e b53c
000001e0: 89d0 58bd 2e01 7d3c 0253 eb3c 7945 dfbd
000001f0: c199 e7bd ca11 e8bc 50b3 f53a aac7 a3bd
00000200: 5261 323d ab8c 04be 9dcc 03be cdf9 f5bd
00000210: 8187 5c3b 2d9c 90bd 93f7 1a3d 0767 04be
00000220: efbf 8fbd 6dcf 2b3d 688f f0bd a476 70bd
00000230: 28b1 85bc eb40 f03c 07be 98bc 1360 9dbc
00000240: 5ff9 313d 804a 003d 6274 543d bcd7 cb3c
00000250: d9c6 7b3c 6ad2 f43c e410 bf3d 603f a13c
00000260: 325e afbd 4f27 0d3d e4d6 413d 4e10 413d
00000270: 23fe c13a 6fbb 883d 1f62 50bd 2538 753d
00000280: f59d 763d 8128 633d c847 de3c 1a0b 29bd
00000290: 0e54 1cbd 5561 e9bc 142d ca3c f626 8c3d
000002a0: c591 933d 0a90 233d 2e06 03bd 6198 33bd
000002b0: d421 cdbc e230 e3bc cf43 693d 82bc d7bb
000002c0: 1683 39bd 91a8 4c3d d21e b23d 8b3b 66bc
000002d0: 4417 9e3d 62bc 86bc f6ec 453d 9ccf e03d
000002e0: 8d4b b33a 45ba c23d db1c 143d f18c 85bd
000002f0: 0cff 313d e9dc 233d be4e 173d 4cb0 8d3d
00000300: 56cb bebc fe39 ec3d 4b39 dabc 91cc b5bd
00000310: dc32 243e 022e 35be 28bc 163d 5524 193e
00000320: 3034 35bd 1047 8f3d f7b2 6e3c eb01 6abd
00000330: 2e97 87bd 8804 cebd 0fc4 503c 2928 20be
00000340: 80cb 793d fea8 203c 8907 ba3d 45a0 88bc
00000350: f1e4 a4bd 4f36 0a3e eb73 c93d a01d 803d
00000360: 464e 93bd e83a eebd 2c02 e5bd 9c64 c2bd
00000370: b5f1 37bd 599c 50bd 66b6 f4bd 747b 08be
00000380: c701 34be 1fd8 fdbb 51b9 bbbc 0d9d 943c
00000390: 9ada e93d 0e37 2b3d a309 713b 93ac b2bc
000003a0: 3b85 0abe 6376 b5bd 25af 1f3e cc85 e83c
000003b0: 2b30 7cbd 8889 eebc 1c79 a1bc b632 9dbc
000003c0: 6263 94bd c08a d0bd b53f 76bd 33f3 a3bd
000003d0: f86e cdbd 0da0 143d 8256 68bd c8ee 1e3d
000003e0: 212e 9e3d d7c7 523d bc96 d1bd 1e03 c4bd
000003f0: 39d4 4ebd 54af 73bd 6932 04bd 938c 2f3b

node_layers.mlp_0.bias f4 [64]
-0.044024155 -0.0765195 0.06504074 -0.01071103 0.07274788 0.05580554 -0.064253524 0.06111231
-0.03732981 0.07477388 -0.07643952 0.028687274 -0.010290817 0.021104911 0.005054759 -0.04231041
-0.053063408 0.0618455 -0.020444795 -0.016406968 -0.061857317 -0.08785687 0.07328023 0.05871736
0.027733471 0.09628108 0.048827313 0.10110353 0.0010237125 0.038123045 0.07820198 0.070954576
0.013037804 0.05255674 -0.071129374 0.02786565 -0.060203906 0.075306326 -0.00041374294 -0.042739976
0.072642595 0.045597974 0.07103988 -0.037756667 -0.04637248 -0.05457673 -0.07360052 0.067984805
0.03181415 0.067647986 0.019625003 -0.02811726 0.06836747 -0.08654339 -0.060068406 -0.030851489
-0.014577281 -0.001945723 0.056934867 0.017302027 -0.031724557 -0.060577326 0.07509446 0.05666427
00000000: ac52 34bd 41b6 9cbd 1434 853d 517d 2fbc
00000010: d7fc 943d 5a94 643d 5a97 83bd e750 7a3d
00000020: 25e7 18bd 0c23 993d 538c 9cbd 9301 eb3c
00000030: d19a 28bc 35e4 ac3c 64a2 a53b ae4d 2dbd
00000040: 0459 59bd b551 7d3d d87b a7bc e867 86bc
00000050: 195e 7dbd 4dee b3bd f213 963d 9d81 703d
00000060: 4e31 e33c 042f c53d 26ff 473d 5e0f cf3d
00000070: 172e 863a e926 1c3d 5c28 a03d a250 913d
00000080: 839c 553c bc45 573d 47ac 91bd 8146 e43c
00000090: 5f98 76bd 343a 9a3d a3eb d8b9 1d10 2fbd
000000a0: a4c5 943d f1c4 3a3d 5b7d 913d bca6 1abd
000000b0: 12f1 3dbd d98b 5fbd dfbb 96bd 9e3b 8b3d
000000c0: 8e4f 023d 078b 8a3d 9dc4 a03c 2b56 e6bc
000000d0: 3e04 8c3d a93d b1bd 4a0a 76bd 43bc fcbc
000000e0: 8cd5 6ebc a107 ffba 8934 693d fbbc 8d3c
000000f0: 9cf1 01bd ee1f 78bd 20cb 993d cb18 683d

edge_layers.mlp_0.weight f4 [64, 121]
-0.034010224 -0.0112994155 0.028782405 0.03737475 -0.06488356 0.06252632 -0.0067316187 0.019145494
-0.06484942 -0.083496675 0.044297848 0.025954368 -0.045380782 0.072710015 -0.045114968 -0.09250428
0.07269174 -0.014095309 -0.07443061 0.035491884 0.021020686 -0.07844906 -0.06408474 0.021144152
-0.011453645 -0.019775199 0.032888073 0.053706247 -0.004847248 0.06838244 0.035327286 -0.051022135
0.019785909 0.040066633 -0.022776894 0.072544605 0.023949722 -0.022659121 0.037619937 0.005283793
-0.06428759 -0.07408101 -0.061583564 0.03697608 0.03424277 -0.050885085 -0.07457863 -0.0781731
-0.03604262 -0.08665396 0.039046887 -0.0077190604 0.018257443 0.0014038931 -0.025573106 -0.0593031
0.039546274 0.07576643 -0.069856554 0.013194652 0.0056632976 -0.027790774 0.044772387 0.04657646
0.06033569 -0.0014105119 0.035407633 0.007249828 -0.062942706 -0.0013828076 -0.0140991025 -0.049992517
-0.08879268 -0.057735834 -0.038023736 0.06969301 0.030649588 0.07119038 -0.01737061 -0.050775524
-0.015821962 -0.053858463 -0.020326767 -0.07149709 0.003352638 -0.06960816 0.018703248 0.07254863
-0.06639908 0.08229369 0.06386032 -0.080615446 0.056102745 0.074177876 -0.008123981 0.050509285
-0.07174344 -0.09200868 -0.0655303 -0.04779368 0.01449105 0.014691743 0.05734292 0.019399853
0.06430068 0.04450611 0.049421806 0.018677143 -0.050342567 -0.041628584 -0.014377836 0.076678246
-0.00703314 0.04662571 0.055505868 0.02510614 0.030984575 -0.04661059 -0.09546357 -0.0281474
-0.092203304 0.02673689 -0.08087264 0.077563524 -0.020987602 -0.09290216 0.037154157 -0.060742974
-0.06523374 -0.017092245 0.030175414 0.025185721 0.017650368 0.00011862521 -0.0036715476 0.0687062
-0.041091803 -0.013795116 -0.030888546 0.07306143 0.049583286 0.006644284 -0.08456857 -0.05976539
0.03429975 0.08660201 -0.043944333 -0.06761295 0.08335399 -0.074235335 -0.06985797 -0.027815124
0.079180524 0.061736744 0.042028777 0.05422167 -0.059088945 -0.0025232236 0.014537159 0.05999609
-0.027341912 -0.025746081 -0.04858939 0.034006286 -0.033734445 -0.075114325 0.014710578 -0.060058888
-0.0752482 -0.036998976 -0.01670569 -0.003339763 -0.059713725 -0.07104767 -0.090563655 -0.053886417
-0.067275554 0.070404686 -0.055139534 -0.07191059 -0.037469532 -0.08173375 0.06924671 0.022087146
-0.095634215 -0.09423166 -0.004437078 -0.0038821413 0.07435321 0.042243376 -0.09748271 0.034393474
-0.081046395 -0.08433225 -0.081304446 0.012154583 0.027932668 0.038780194 -0.08900297 0.03149261
-0.0559964 0.00070599833 -0.049845353 0.054207016 0.066012524 -0.020700695 -0.07650017 -0.009118228
-0.08242973 -0.022763088 0.02340719 0.0852056 0.04551273 0.02632516 0.08355394 -0.0054909443
-0.04087299 0.078801066 -0.088500276 -0.0368954 0.026069256 0.052059766 -0.058908224 -0.0725341
0.052407403 -0.02944162 -0.05603089 -0.08072843 0.074099615 0.040292464 -0.053800534 0.032545466
0.07030715 0.058009237 0.016114432 -0.00824158 -0.08527915 0.04908259 -0.054151095 0.043445706
-0.028469406 0.07807694 -0.09600406 0.037004344 0.0026225515 -0.055755537 -0.010143742 -0.04524215
0.05282212 -0.025604358 -0.023858152 -0.031461507 0.026650209 -0.058067665 -0.06669425 0.07363533
00000000: 4e4e 0bbd 2f21 39bc 14c9 eb3c 4416 193d
00000010: ace1 84bd cd0d 803d e994 dcbb 03d7 9c3c
00000020: c6cf 84bd 4e00 abbd a971 353d 419e d43c
00000030: 33e1 39bd fde8 943d 79ca 38bd e272 bdbd
00000040: 68df 943d 03f0 66bc 136f 98bd f05f 113d
00000050: 9333 ac3c e7a9 a0bd dc3e 83bd 8036 ad3c
00000060: 12a8 3bbc 99ff a1bc a5b5 063d 15fb 5b3d
00000070: aad5 9ebb 180c 8c3d 58b3 103d 96fc 50bd
00000080: 0f16 a23c e91c 243d 9c96 babc 4492 943d
00000090: 3532 c43c 9f9f b9bc 5d17 1a3d ab23 ad3b
000000a0: 36a9 83bd c9b7 97bd 0c3f 7cbd 3b74 173d
000000b0: 2642 0c3d e16c 50bd aebc 98bd 3819 a0bd
000000c0: 6da1 13bd a277 b1bd a1ef 1f3d 2cf0 fcbb
000000d0: a290 953c d602 b83a b17e d1bc cfe7 72bd
000000e0: 46fb 213d 6e2b 9b3d f410 8fbd 622e 583c
000000f0: 2f93 b93b 7aa9 e3bc 4063 373d f5c6 3e3d
00000100: 8e22 773d ede0 b8ba 9807 113d f78f ed3b
00000110: 1be8 80bd 533f b5ba ecff 66bc f4c4 4cbd
00000120: f0d8 b5bd 697c 6cbd c7be 1bbd 35bb 8e3d
00000130: d814 fb3c 43cc 913d cf4c 8ebc fff9 4fbd
00000140: 0f9d 81bc b19a 5cbd 5284 a6bc 116d 92bd
00000150: efb7 5b3b b98e 8ebd 8e37 993c 6094 943d
00000160: 3efc 87bd 9889 a83d 33c9 823d b619 a5bd
00000170: fecb 653d 92ea 973d 721a 05bc d3e2 4e3d
00000180: 3aee 92bd 0c6f bcbd c034 86bd 4ec3 43bd
00000190: de6b 6d3c a3b5 703c 69e0 6a3d 71ec 9e3c
000001a0: 13b0 833d 0a4c 363d 856e 4a3d cf00 993c
000001b0: 0234 4ebd bc82 2abd 0491 6bbc 7c09 9d3d
000001c0: 4176 e6bb 9afa 3e3d 1f5a 633d 64ab cd3c
000001d0: 5dd3 fd3c bfea 3ebd 6782 c3bd 6095 e6bc
000001e0: 16d5 bcbd 5307 db3c 8ea0 a5bd a0d9 9e3d
000001f0: 31ee abbc 7d43 bebd f52e 183d a0cd 78bd
00000200: 4499 85bd 0905 8cbc 6e32 f73c 4952 ce3c
00000210: 8197 903c 6dc6 f838 599e 70bb d6b5 8c3d
00000220: e14f 28bd e904 62bc fa09 fdbc 3ba1 953d
00000230: d817 4b3d 4bb8 d93b 4932 adbd 8ecc 74bd
00000240: e57d 0c3d 655c b13d f9fe 33bd a978 8abd
00000250: 7fb5 aa3d b208 98bd b211 8fbd 8bdc e3bc
00000260: 6629 a23d abdf 7c3d 5e26 2c3d 8b17 5e3d
00000270: 4007 72bd ab5c 25bb 442d 6e3c 76be 753d
00000280: 25fc dfbc 72e9 d2bc ab05 47bd 2d4a 0b3d
00000290: 212d 0abd 8ad5 99bd a304 713c 4f00 76bd
000002a0: ba1b 9abd 3d8c 17bd 5fda 88bc eddf 5abb
000002b0: 6196 74bd 7181 91bd 7079 b9bd 01b8 5cbd
000002c0: c4c7 89bd 5530 903d fed9 61bd dc45 93bd
000002d0: a779 19bd 0664 a7bd 38d1 8d3d 1af0 b43c
000002e0: dfdb c3bd 87fc c0bd e864 91bb 866b 7ebb
000002f0: 7f46 983d 6407 2d3d 04a5 c7bd 2ce0 0c3d
00000300: a7fb a5bd 63b6 acbd f282 a6bd 0424 473c
00000310: 0dd3 e43c fbd7 1e3d 3047 b6bd 65fe 003d
00000320: 7b5c 65bd bf12 393a a42a 4cbd 2d08 5e3d
00000330: 9331 873d 8194 a9bc 1fac 9cbd 9f64 15bc
00000340: ebd0 a8bd a879 babc 6fc0 bf3c 4680 ae3d
00000350: 8e6b 3a3d dda7 d73c 541e ab3d 61ed b3bb
00000360: 706a 27bd 7462 a13d a23f b5bd a21f 17bd
00000370: 318f d53c 9f3c 553d c049 71bd c28c 94bd
00000380: 25a9 563d 8d2f f1bc a680 65bd f254 a5bd
00000390: 8ac1 973d b609 253d f35d 5cbd 654e 053d
000003a0: 32fd 8f3d 189b 6d3d 6a02 843c b107 07bc
000003b0: d6a6 aebd d30a 493d 8acd 5dbd 20f4 313d
000003c0: ac38 e9bc cde6 9f3d c79d c4bd de91 173d
000003d0: 1ddf 2b3b eb5f 64bd f031 26bc d54f 39bd
000003e0: 025c 583d 3bc0 d1bc 2c72 c3bc c8dd 00bd
000003f0: 8a51 da3c 5cd8 6dbd ff96 88bd 1fce 963d

edge_layers.mlp_0.bias f4 [64]
-0.0723871 -0.067984164 -0.061045457 0.019681465 -0.05154616 -0.013378278 0.01304937 -0.08165244
-0.030908791 0.0021511111 -0.055938765 0.037286855 -0.046257794 0.021048257 0.044456337 -0.048486922
0.03401537 0.019987887 0.005107083 -0.08551925 -0.018513981 0.0104592675 -0.082336724 -0.10236837
-0.07167564 -0.03308297 0.0814351 0.032706454 -0.065154836 -0.0760777 -0.05581274 -0.033762474
0.047348153 0.030409966 0.078929305 -0.093891576 0.045432106 -0.04723054 -0.0042074337 0.055532932
0.042315174 -0.006376253 0.07176384 -0.09684816 0.034729425 0.011723381 0.04250717 -0.051349305
-0.0152241 0.028248506 0.04362159 -0.07736728 0.062602244 0.07147166 0.04463453 0.051395208
0.056675445 0.037582155 -0.04020353 -0.05819722 -0.008381867 -0.07208645 -0.057683565 -0.080833785
00000000: b03f 94bd 483b 8bbd cd0a 7abd 063b a13c
00000010: 1122 53bd 9130 5bbc 06cd 553c 6539 a7bd
00000020: 6f34 fdbc a8f9 0c3b 0c20 65bd 1aba 183d
00000030: d078 3dbd 656d ac3c d917 363d 399a 46bd
00000040: b353 0b3d a3bd a33c 5159 a73b b724 afbd
00000050: a2aa 97bc 595d 2b3c 28a0 a8bd 82a6 d1bd
00000060: aeca 92bd 0282 07bd 72c7 a63d 34f7 053d
00000070: e66f 85bd a0ce 9bbd e69b 64bd 854a 0abd
00000080: 23f0 413d 521e f93c b0a5 a13d 3a4a c0bd
00000090: 0417 3a3d d074 41bd 83de 89bb 8076 633d
000000a0: ad52 2d3d e3ef d0bb ecf8 923d 5458 c6bd
000000b0: 7140 0e3d 6c13 403c 001c 2e3d a653 52bd
000000c0: 816e 79bc 6969 e73c 8dac 323d bd72 9ebd
000000d0: 9b35 803d bc5f 923d b2d2 363d c883 523d
000000e0: 8324 683d bfef 193d 75ac 24bd 3560 6ebd
000000f0: 1954 09bc 10a2 93bd 9a45 6cbd 2f8c a5bd

gnn_layer_0.classifier.weight f4 [1, 64]
-0.04013926 0.24189065 0.028859625 0.11812801 0.05211869 0.1659262 -0.028345536 0.06101529
0.022269055 0.13550016 0.079893254 -0.02863866 0.077735685 0.031068966 -0.0560172 -0.051332302
-0.006244821 0.024717834 0.01597725 -0.05821888 0.08294579 -0.002814392 0.030274272 0.10769275
0.012482666 0.009054132 0.10855636 0.0038493513 0.02479319 0.20505933 0.099755906 0.16569959
0.04983105 -0.054501947 0.20886816 -0.039143283 0.12803096 0.102202594 0.06711364 0.060844023
-0.024149816 0.05052134 -0.010275423 0.008436659 0.111906946 0.020993346 0.009262609 0.049015358
0.11021854 0.25674728 0.06232469 0.15572898 -0.10242902 -0.0042277873 0.046620976 -0.046859518
-0.018558826 -0.074314944 0.0035060407 0.07941095 -0.0565549 0.011104052 -0.01796383 0.010001047
00000000: 1169 24bd 2fb2 773e 056b ec3c 19ed f13d
00000010: 687a 553d 8fe8 293e e634 e8bc 2beb 793d
00000020: 986d b63c 8ec0 0a3e 139f a33d a09b eabc
00000030: e333 9f3d 5884 fe3c 4b72 65bd d241 52bd
00000040: 5ba1 ccbb 0e7d ca3c b9e2 823c ec76 6ebd
00000050: 7bdf a93d aa71 38bb c001 f83c 048e dc3d
00000060: 1984 4c3c c857 143c cc52 de3d 6645 7c3b
00000070: 171b cb3c 13fb 513e d34c cc3d 27ad 293e
00000080: a51b 4c3d 6f3d 5fbd 89e1 553e b554 20bd
00000090: 8c1a 033e 984f d13d e072 893d 9537 793d
000000a0: d6d5 c5bc 77ef 4e3d 3f5a 28bc ea39 0a3c
000000b0: 782f e53d 3dfa ab3c 33c2 173c 54c4 483d
000000c0: 42ba e13d 6174 833e 2d48 7f3d 6b77 1f3e
000000d0: 4ec6 d1bd 4089 8abb a3f5 3e3d c4ef 3fbd
000000e0: ae08 98bc 6f32 98bd 9ac5 653b 35a2 a23d
000000f0: 1ca6 67bd c5ed 353c e228 93bc 6edb 233c

gnn_layer_0.n_func.0.weight f4 [64, 1]
-0.37271175 -0.33496988 -0.38264894 0.6713617 0.61045986 0.17316717 0.25191718 -0.95573115
0.012879267 -0.8510469 -0.9528929 0.030471401 -0.28639257 0.43733022 0.6105355 -0.75646985
0.5916383 0.57884604 0.67269295 -0.8385447 -0.31738222 0.42904007 -0.8658484 -0.36426926
0.06642924 -0.78483343 0.22218275 -0.84651583 0.59366494 -0.48972237 -0.07455182 0.72206575
0.70774746 0.90806425 0.10540232 -0.3121102 0.517313 0.024862621 0.2220722 0.4135224
-0.51761854 -0.5024029 -0.9261451 -0.30620956 -0.6600332 -0.01188055 0.5118434 -0.30308914
0.31990063 0.2577073 0.82703245 -1.0692194 0.13347083 -0.6199287 -0.3144405 0.47711453
0.009232812 0.38467178 -0.007052416 -0.29020622 0.28282693 0.12221563 0.94519204 0.64979
00000000: 13d4 bebe 2c81 abbe 90ea c3be 5cde 2b3f
00000010: 1947 1c3f bc52 313e 4afb 803e ccaa 74bf
00000020: 9003 533c 36de 59bf caf0 73bf 299f f93c
00000030: 0ca2 92be bfe9 df3e 0e4c 1c3f 02a8 41bf
00000040: 9c75 173f 412f 143f 9b35 2c3f deaa 56bf
00000050: ec7f a2be 24ab db3e 3ea8 5dbf 8081 babe
00000060: 0e0c 883d d8ea 48bf e083 633e 43b5 58bf
00000070: 6dfa 173f e4bc fabe a0ae 98bd 4dd9 383f
00000080: f02e 353f e676 683f 2cdd d73d e8cc 9fbe
00000090: a06e 043f b2ac cb3c e566 633e 35b9 d33e
000000a0: a682 04bf 7a9d 00bf d817 6dbf 80c7 9cbe
000000b0: f0f7 28bf a3a6 42bc 2b08 033f 802e 9bbe
000000c0: 04ca a33e 36f2 833e 66b8 533f 2edc 88bf
000000d0: 94ac 083e a6b3 1ebf 58fe a0be 5b48 f43e
000000e0: 3845 173c b3f3 c43e f417 e7bb e995 94be
000000f0: b1ce 903e 304c fa3d 1bf8 713f a358 263f

gnn_layer_0.n_func.0.bias f4 [64]
0.31530708 0.00093225157 -0.8222152 0.6770031 -0.20241018 -0.28248924 -0.5799907 -0.91139615
0.6838079 -0.17231691 -0.34702468 0.14263003 -0.7098161 0.7097166 -0.87091607 -0.3969326
0.5735214 -0.9436279 -0.1860943 -0.99615085 -0.93536854 0.3026205 -0.8289641 -0.49270916
0.638827 -0.5622344 -0.7588801 0.6144106 -0.3398698 0.28783458 -0.04962206 0.012982886
0.17176434 -0.7170796 -0.35604253 0.4599593 -0.031968713 -0.04053427 0.24710973 0.7847169
-0.13094258 -0.9472115 -0.4713099 -0.8830775 0.85288465 -0.0005285911 -0.30706787 -0.10617542
0.76204586 -0.2047186 -0.9007991 0.00022306884 -0.4707856 0.47161233 -0.6793288 0.44060218
-0.04325122 -0.53327507 0.3691822 0.24061202 -0.110450506 -0.21175417 -0.2295825 0.75793177
00000000: ee6f a13e 5862 743a b27c 52bf 1350 2d3f
00000010: 9d44 4fbe 6ea2 90be 457a 14bf 4251 69bf
00000020: 090e 2f3f d873 30be 38ad b1be 9b0d 123e
00000030: 82b6 35bf fdaf 353f 5bf4 5ebf c03a cbbe
00000040: 4cd2 123f 9991 71bf 818f 3ebe be03 7fbf
00000050: 5074 6fbf 13f1 9a3e fe36 54bf 6044 fcbe
00000060: 2b8a 233f 98ee 0fbf f745 42bf 034a 1d3f
00000070: 6a03 aebe 0e5f 933e 8040 4bbd 2cb6 543c
00000080: fee2 2f3e 8792 37bf 354b b6be c97f eb3e
00000090: a0f1 02bd 4307 26bd 550a 7d3e 35e3 483f
000000a0: d015 06be 747c 72bf 884f f1be 5e11 62bf
000000b0: a656 5a3f 2691 0aba 0038 9dbe 8072 d9bd
000000c0: 7015 433f c1a1 51be c59a 66bf 96e7 6939
000000d0: cf0a f1be 2c77 f13e 7ee8 2dbf 9c96 e13e
000000e0: 3128 31bd b784 08bf 7305 bd3e ff62 763e
000000f0: e033 e2bd 16d6 58be ad17 6bbe d107 423f

gnn_layer_0.n_func.2.weight f4 [64, 64]
0.05712673 0.046567842 -0.08690281 0.018638536 -0.061709955 -0.0065373033 0.025016114 0.05054617
-0.1024611 0.11660798 -0.03237249 -0.010882899 0.019215748 -0.09441586 0.019202814 0.09721881
-0.12095678 0.06723155 -0.041768715 -0.038922533 0.08724888 0.11608745 -0.041573375 0.053141877
-0.10769677 0.09360753 0.08215365 0.0817471 -0.106092274 0.05091235 -0.037235796 -0.09031689
-0.055395573 0.03414178 -0.12472734 0.033056244 -0.025901511 -0.054956555 0.032222077 -0.116399676
0.103552744 0.02938734 -0.04709339 0.0923277 -0.121267304 -0.09178242 -0.109493315 -0.0014336109
0.09228265 -0.061599955 0.039120167 0.09899126 0.07807225 -0.08642499 -0.109723896 -0.05748315
0.048334867 0.060679853 0.034726292 -0.08913706 -0.07312517 0.09171939 -0.10504976 0.008153811
0.12779753 0.0934413 0.0503252 0.07519803 -0.1572564 0.12095766 -0.054992292 -0.013083518
-0.124574415 -0.022810638 -0.10509968 -0.048523914 -0.098940134 0.041538604 0.37830272 -0.014887586
0.025842046 0.28600168 -0.1075738 -0.049933 0.07442084 0.052451696 -0.04274586 0.025027081
0.01964714 0.03803751 0.13458148 0.05664173 0.07405291 0.113061994 -0.03673479 0.06918176
0.08200551 0.19604936 -0.08837187 -0.10435375 0.048758622 0.065293245 0.10564019 0.07149658
-0.0018846095 -0.07924667 -0.023871705 0.021048412 0.09499866 0.07434699 -0.035228446 0.060042426
-0.011530681 0.08514402 0.11837282 0.023075558 0.08292572 0.12509307 0.08475606 -0.006481183
-0.06917052 0.19622648 0.08089684 0.13705815 -0.056756943 0.06250619 -0.02504209 0.020824526
-0.10313445 0.05139208 0.03981574 0.010970905 -0.02756314 -0.065364614 -0.08140527 0.09379175
0.023745403 -0.09655471 0.09626435 0.07231566 0.030453116 -0.024650738 0.021960765 -0.0047464967
-0.114911914 -0.11911951 0.05587904 -0.093362466 0.093779474 0.114470735 0.11629629 -0.108364
0.03358923 0.008178428 -0.024954334 0.053222254 0.07616475 0.031603232 0.089084655 -0.036049396
-0.0160615 0.121588305 -0.054207787 0.0227824 0.034602493 0.093005046 -0.08341119 -0.11911252
0.118608996 0.04267955 0.10521087 0.04820928 -0.11642496 0.09223372 0.040016934 -0.036859587
-0.086867064 -0.101167604 -0.11270864 -0.09282969 0.06407629 -0.11133933 0.007856071 0.040871754
0.11128619 -0.118586615 -0.1236777 -0.060241595 0.051772177 0.08613464 -0.07015969 -0.023232222
-0.05734477 0.038995434 0.06952408 0.09901604 0.16444352 -0.0978651 0.009201982 0.03546308
0.019857204 0.039897382 -0.09210731 -0.093886435 -0.024695411 0.021704491 0.24636808 -0.09704439
0.11963631 0.24979714 0.079671204 0.11468613 0.11831346 0.023985382 -0.06866637 -0.011621609
-0.0039880564 -0.0170829 0.040664237 -0.027827179 0.13541992 -0.024582712 -0.05398275 -0.09004767
0.11250883 0.05447028 0.062322013 -0.091238305 -0.08349934 0.043832343 0.075935416 -0.033139233
0.03436981 0.0881051 0.00044505298 -0.010565072 -0.114230596 0.05274441 0.09654814 0.027490333
0.026154594 0.1758284 0.15515184 -0.077457085 0.07406344 -0.07661341 0.12367013 -0.016482621
-0.07739593 0.1911621 0.08844099 0.03968413 0.12657867 0.06809792 0.15705024 -0.09351166
00000000: b8fd 693d ecbd 3e3d 1afa b1bd d8af 983c
00000010: 94c3 7cbd e036 d6bb 98ee cc3c 8009 4f3d
00000020: 20d7 d1bd 2ad0 ee3d 0499 04bd 304e 32bc
00000030: 586a 9d3c 1a5d c1bd 384f 9d3c a81a c73d
00000040: 30b8 f7bd b2b0 893d ac15 2bbd 3c6d 1fbd
00000050: 8aaf b23d 42bf ed3d d848 2abd 4cab 593d
00000060: 2090 dcbd 4eb5 bf3d 2c40 a83d 066b a73d
00000070: e846 d9bd 7889 503d 9084 18bd 10f8 b8bd
00000080: 78e6 62bd 40d8 0b3d 0c71 ffbd fc65 073d
00000090: 682f d4bc 201a 61bd 4cfb 033d f462 eebd
000000a0: 7613 d43d b8bd f03c 00e5 40bd 4e16 bd3d
000000b0: fe5a f8bd 6cf8 bbbd 083e e0bd 00e8 bbba
000000c0: b0fe bc3d 3c50 7cbd 783c 203d eebb ca3d
000000d0: 58e4 9f3d 96ff b0bd ecb6 e0bd 7473 6bbd
000000e0: c8fa 453d 708b 783d 283d 0e3d 7e8d b6bd
000000f0: a6c2 95bd 60d7 bb3d 5424 d7bd 9097 053c
00000100: 5bdd 023e 275e bf3d cc21 4e3d 6d01 9a3d
00000110: d207 21be a6b8 f73d 993f 61bd 405c 56bc
00000120: df20 ffbd 60dd babc 803e d7bd 03c1 46bd
00000130: 20a1 cabd 6224 2a3d e5b0 c13e 10eb 73bc
00000140: b3b2 d33c d06e 923e a74f dcbd 8c86 4cbd
00000150: f469 983d 97d7 563d 4816 2fbd 9805 cd3c
00000160: 0af3 a03c 38cd 1b3d bacf 093e 2901 683d
00000170: 0da9 973d 0c8d e73d 3877 16bd 2baf 8d3d
00000180: 81f2 a73d 2ac1 483e 50fc b4bd 6bb7 d5bd
00000190: 1fb7 473d 77b8 853d e259 d83d cd6c 923d
000001a0: 0005 f7ba 144c a2bd 988e c3bc b86d ac3c
000001b0: a88e c23d 3c43 983d b44b 10bd 0cef 753d
000001c0: 2eeb 3cbc fd5f ae3d 736d f23d f408 bd3c
000001d0: f6d4 a93d 6618 003e 9694 ad3d 1b60 d4bb
000001e0: 46a9 8dbd 98ef 483e 3ead a53d f958 0c3e
000001f0: f879 68bd 3f03 803d 1225 cdbc 3298 aa3c
00000200: 2838 d3bd 8080 523d d415 233d 50bf 333c
00000210: 18cc e1bc e2dd 85bd ceb7 a6bd e415 c03d
00000220: b885 c23c 7abe c5bd 3e26 c53d 3c1a 943d
00000230: d078 f93c 58f0 c9bc 10e7 b33c 8088 9bbb
00000240: f056 ebbd eef4 f3bd 6ce1 643d d234 bfbd
00000250: 740f c03d a26f ea3d c02c ee3d f2ed ddbd
00000260: dc94 093d d0fe 053c 086d ccbc 94ff 593d
00000270: 44fc 9b3d 6472 013d 0472 b63d 88a8 13bd
00000280: 6893 83bc 4a03 f93d fc08 5ebd 28a2 ba3c
00000290: 58bb 0d3d 6e79 be3d 7cd3 aabd 44f1 f3bd
000002a0: 46e9 f23d c0d0 2e3d cc78 d73d 1877 453d
000002b0: 3670 eebd 08e5 bc3d cce8 233d 14fa 16bd
000002c0: 5ce7 b1bd f630 cfbd cad3 e6bd 7e1d bebd
000002d0: 6e3a 833d e005 e4bd c0b6 003c 2469 273d
000002e0: 04ea e33d 8add f2bd bc4a fdbd e4bf 76bd
000002f0: 100f 543d 5c67 b03d e2af 8fbd 8051 bebc
00000300: 59e2 6abd adb9 1f3d a462 8e3d ecc8 ca3d
00000310: e263 283e 7f6d c8bd e9c3 163c bc41 113d
00000320: 93ab a23c 706b 233d c2a2 bcbd 8847 c0bd
00000330: 084e cabc 9ecd b13c ea47 7c3e 36bf c6bd
00000340: e203 f53d d2ca 7f3e a82a a33d 90e0 ea3d
00000350: 544e f23d fe7c c43c f4a0 8cbd 9068 3ebc
00000360: 3eae 82bb 70f1 8bbc 8b8f 263d d3f5 e3bc
00000370: 85ab 0a3e af61 c9bc 041d 5dbd ea6a b8bd
00000380: 086b e63d 3a1c 5f3d 5e45 7f3d 26db babd
00000390: b401 abbd 8b89 333d 0784 9b3d 01bd 07bd
000003a0: 5cc7 0c3d 7270 b43d 0056 e939 2019 2dbc
000003b0: bbf1 e9bd 860a 583d 08bb c53d 6833 e13c
000003c0: 2942 d63c 5c0c 343e 20e0 1e3e d2a1 9ebd
000003d0: 93ae 973d 7ee7 9cbd c446 fd3d 9006 87bc
000003e0: c281 9ebd ffbf 433e 8d20 b53d d48b 223d
000003f0: d79d 013e ec76 8b3d c7d1 203e 0b83 bfbd

gnn_layer_0.n_func.2.bias f4 [64]
0.029982373 0.049050506 0.015316218 0.09224845 -0.019380322 0.08911173 -0.12075561 -0.055198655
-0.12039703 -0.127727 -0.03928839 -0.049944267 -0.05277455 0.07120445 0.11458762 0.057984084
-0.09019278 -0.024440212 -0.06022641 -0.07489975 0.06353267 -0.06902547 0.011224751 0.038612634
-0.09558403 -0.008131452 -0.044115126 -0.0041775405 -0.028819984 0.028902177 0.042944282 -0.058042757
-0.029269924 -0.10688892 -0.073063016 -0.08726056 -0.13887323 0.039760623 -0.07313968 -0.124577194
-0.111392885 -0.0066368966 -0.118931144 -0.10789697 -0.07514116 0.07863106 -0.12615481 0.0010718405
-0.14024785 0.058212675 -0.08251479 -0.13065098 0.060961485 0.008193389 0.042418286 -0.13769004
-0.052365437 0.055848695 0.03220319 0.028762046 -0.055009678 -0.16056909 -0.10411566 -0.028685018
00000000: 989d f53c 2fe9 483d e0f0 7a3c c1ec bc3d
00000010: 7bc3 9ebc 3680 b63d b84e f7bd fc17 62bd
00000020: b892 f6bd deca 02be ddec 20bd 5c92 4cbd
00000030: 202a 58bd a4d3 913d eaac ea3d b880 6d3d
00000040: feb6 b8bd d736 c8bc f8af 76bd 0a65 99bd
00000050: 6b1d 823d 3a5d 8dbd 05e8 373c 4828 1e3d
00000060: 8fc1 c3bd c839 05bc 10b2 34bd c0e3 88bb
00000070: e317 ecbc 42c4 ec3c 58e6 2f3d 3ebe 6dbd
00000080: 7bc7 efbc 94e8 dabd 10a2 95bd aab5 b2bd
00000090: c934 0ebe 09dc 223d 42ca 95bd 5422 ffbd
000000a0: f421 e4bd 537a d9bb 2c92 f3bd 16f9 dcbd
000000b0: 9ce3 99bd 5209 a13d ba2e 01be 007d 8c3a
000000c0: 229d 0fbe 6a70 6e3d 84fd a8bd 5fc9 05be
000000d0: c0b2 793d 903d 063c ccbe 2d3d 9efe 0cbe
000000e0: 247d 56bd 9ac1 643d 7ee7 033d 629e eb3c
000000f0: d451 61bd 396c 24be 973a d5bd d8fc eabc

gnn_layer_0.n_self_func.0.weight f4 [64, 1]
-0.10774863 -0.95218503 -0.075008914 -0.15525681 -0.34846264 0.6647219 -0.5881066 -0.029538441
0.416875 0.3111068 -0.5175157 0.23744789 0.64618057 -0.5483604 0.8655866 -0.2757938
-0.6785879 -0.1919347 0.8969804 0.9084759 -0.70683944 -0.17375442 0.48126218 0.52577776
0.7647569 0.70353514 -0.67223275 1.0286355 0.7521891 -0.19698519 -0.92254794 -0.20660166
0.7136691 -0.07651935 -0.11024192 -0.36768055 -0.26317254 -0.28650954 -0.0038559616 0.77557063
-0.82783073 0.5607866 -0.09997702 -0.39335144 0.62860286 -0.73995966 -0.6887 -0.94547784
0.023772454 -0.34520507 0.34697995 -0.41946495 -0.9254118 1.121268 -0.63599926 0.7543962
0.0068740845 -0.3947569 -0.21157615 0.43278408 -0.29515767 -0.91392183 0.14373688 0.78562015
00000000: 50ab dcbd 66c2 73bf 469e 99bd a4fb 1ebe
00000010: b269 b2be 372b 2a3f 278e 16bf 9afa f1bc
00000020: a470 d53e 6449 9f3e e97b 04bf 8a25 733e
00000030: 176c 253f 5961 0cbf 1597 5d3f d834 8dbe
00000040: f0b7 2dbf 888a 44be 82a0 653f e091 683f
00000050: 6ef3 34bf aeec 31be ff67 f63e 5f99 063f
00000060: 1cc7 433f e11a 343f 7217 2cbf 54aa 833f
00000070: 778f 403f 7cb6 49be 1a2c 6cbf 638f 53be
00000080: 05b3 363f 2db6 9cbd 84c6 e1bd a040 bcbe
00000090: 8dbe 86be 61b1 92be 4db4 7cbb cc8b 463f
000000a0: b7ec 53bf b68f 0f3f c0c0 ccbd 5c65 c9be
000000b0: 1eec 203f ff6d 3dbf a54e 30bf d60a 72bf
000000c0: 73be c23c b8be b0be 5ba7 b13e 1cc4 d6be
000000d0: cae7 6cbf b685 8f3f d9d0 22bf 1c20 413f
000000e0: 0040 e13b 941d cabe 6ba7 58be e095 dd3e
000000f0: e81e 97be c8f6 69bf c32f 133e 671e 493f

gnn_layer_0.n_self_func.0.bias f4 [64]
-0.07719684 -0.8680254 0.84865266 0.2754143 0.6017571 0.38663742 0.72277063 0.5811946
0.04843332 -0.41590285 0.866952 0.3818035 0.7669744 0.9175554 0.35134873 -0.026780367
-0.8212974 -0.29824686 0.5489487 0.24256073 -0.571924 0.46122786 0.17875203 0.38979945
0.38519132 -0.31987405 0.5198668 -0.2069299 -0.30171132 0.86359036 -0.51598024 0.40103087
-0.25411662 0.14380826 0.51597196 0.54038423 0.70549995 0.67437536 0.6053197 0.6228289
0.16196172 -0.5078664 -0.09908831 -0.9273077 0.45945683 0.8399621 0.8224182 -0.27270806
0.78861207 -0.89245784 -0.84537524 -0.70425975 -0.18423963 -0.18736354 0.230185 -0.8427858
-0.9812168 -0.3451426 0.39822027 -0.023051303 -0.6397371 -0.078543544 -0.22813737 -0.71726936
00000000: 6019 9ebd ea36 5ebf 4d41 593f 1a03 8d3e
00000010: c10c 1a3f 57f5 c53e 7f07 393f 2bc9 143f
00000020: 0462 463d 38f1 d4be 91f0 5d3f c07b c33e
00000030: 6f58 443f e9e4 6a3f fbe3 b33e 8062 dbbc
00000040: 8c40 52bf d0b3 98be e787 0c3f d761 783e
00000050: 9c69 12bf 0f26 ec3e c60a 373e cb93 c73e
00000060: cc37 c53e 88c6 a3be fe15 053f 6fe5 53be
00000070: e879 9abe 4214 5d3f 4817 04bf eb53 cd3e
00000080: 931b 82be 7942 133e bd16 043f 9f56 0a3f
00000090: a59b 343f dda3 2c3f 3bf6 1a3f b771 1f3f
000000a0: 4bd9 253e 8803 02bf d0ee cabd 0a64 6dbf
000000b0: ed3d eb3e c207 573f 008a 523f 64a0 8bbe
000000c0: 7be2 493f 1e78 64bf 836a 58bf 5e4a 34bf
000000d0: 50a9 3cbe 3adc 3fbe 9eb5 6b3e cfc0 57bf
000000e0: 0631 7bbf 88b6 b0be 87e3 cb3e 16d6 bcbc
000000f0: d0c5 23bf 70db a0bd d89c 69be f79e 37bf
