ThinkMatch/exp/pca/CV1/saved_models/model.pt (torch, 216498 bytes, 17 tensors)

gnn_layer_0.gconv.a_fc.weight f4 [64, 121]
0	0x3c2997f4	0.01035117
1	0xbc700bb1	-0.014651225
2	0x3da371cd	0.0798069
3	0xbc8d179c	-0.017223172
4	0x3ce2dd62	0.027693454
5	0xbc808473	-0.015688157
6	0x3ca4543e	0.020059701
7	0x3cfad7f3	0.03062055
8	0xbd71ec0e	-0.05906301
9	0xbd914690	-0.07093537
10	0xbda350b5	-0.07974378
11	0x3c512031	0.012764023
12	0x3a2e4698	0.00066480925
13	0x3d371a94	0.04470308
14	0x3c37930a	0.01120449
15	0xbca4e0d6	-0.020126741
16	0x3c7417f0	0.014898285
17	0xbd279ab9	-0.04091904
18	0x3c82062c	0.015872084
19	0x3c169b25	0.009192263
20	0x3c94dde1	0.018172206
21	0x3d5815aa	0.052755035
22	0xbcfd0450	-0.030885845
23	0x3b57a63d	0.0032905482
24	0xbd80e217	-0.06293123
25	0xbcb287c6	-0.021793257
26	0x3cc1c80c	0.02365496
27	0x3bc0f240	0.0058882535
28	0xbdad7820	-0.08470178
29	0x3db1579d	0.08659289
30	0xbda1f0b0	-0.079072356
31	0xbd05a8b7	-0.032631602
32	0xbc06c157	-0.008224807
33	0xbd96ccc9	-0.073632784
34	0x3d082538	0.03323862
35	0xbd887042	-0.066620365
36	0xbd16d91f	-0.036828157
37	0x3cd7262b	0.026263317
38	0x3d866fd2	0.06564297
39	0x3d679ed4	0.056547955
40	0x3d954db0	0.07290208
41	0xbda4a0a7	-0.080384545
42	0xbd6a5d7c	-0.05721806
43	0xbd767aa6	-0.06017556
44	0x3d12e8fc	0.035866722
45	0x3c4279c0	0.011869848
46	0x3da1f35c	0.07907745
47	0x3da8d640	0.0824399
48	0x3c9c5833	0.019085025
49	0xbd95bbbf	-0.073112
50	0xbb19b3b7	-0.0023453066
51	0x3d8c6d37	0.068567686
52	0xbd836da5	-0.064173974
53	0x3db443e3	0.08802011
54	0xbd2efa74	-0.04271932
55	0xbd954144	-0.07287839
56	0x3d369e32	0.04458446
57	0x3cc310d5	0.023811737
58	0xbbd89f7c	-0.006610809
59	0x3d06d7a7	0.032920506
60	0xbcebf478	-0.028803095
61	0x3af21300	0.0018468797
62	0xbdac6a94	-0.08418766
63	0xbd709eed	-0.058745313
64	0xbd2f0823	-0.04273237
65	0xbd557de7	-0.052122023
66	0xbc1209fe	-0.008913515
67	0x3d3926f5	0.045203168
68	0xbc0c019b	-0.008545305
69	0xbce15899	-0.027508067
70	0x3daf0ce6	0.08547382
71	0xbd0d7b1b	-0.03454123
72	0x3c515a47	0.012777871
73	0xbb659659	-0.003503224
74	0xbadd1c89	-0.0016869466
75	0xbd5cc995	-0.05390318
76	0x3d6424ce	0.055699162
77	0x3d9bf911	0.07615865
78	0x3d4d01e7	0.050050642
79	0x3cf2d020	0.029640257
80	0xbbb169e8	-0.0054142363
81	0xbd9db673	-0.07700815
82	0x3d321dc5	0.04348542
83	0xbcd8e979	-0.026478516
84	0xbd7bcef3	-0.06147666
85	0xbda1d6d8	-0.07902306
86	0x3bcdb917	0.006278168
87	0x3cb60a21	0.022221627
88	0xbd733c1d	-0.0593835
89	0x3b3015d7	0.0026868486
90	0x3cd90637	0.026492221
91	0xbd9b5292	-0.075841084
92	0x3d5df1c9	0.054185662
93	0x3d6b28a1	0.057411794
94	0xbd829821	-0.063766725
95	0xbda005e4	-0.078136235
96	0xbd8dd5fd	-0.06925581
97	0xbb55a4f3	-0.0032599538
98	0x3c449ea7	0.012000716
99	0xbd0242af	-0.031801876
100	0x3d9af1f7	0.075656824
101	0x3d9fda5b	0.0780532
102	0xbcdac5fe	-0.026705738
103	0xbd033d2f	-0.03204077
104	0xbdb52ac1	-0.08846045
105	0xbd6d13a7	-0.05788007
106	0xbd85d0af	-0.06533944
107	0x3d2bc6fb	0.04193781
108	0x3cfffb9c	0.031247906
109	0x3ba6008e	0.005065984
110	0x3d1e9a9b	0.038721662
111	0x3c1c700f	0.009548201
112	0x3a0da083	0.0005402641
113	0xbdad28d5	-0.08455054
114	0xbdbbcf26	-0.0917037
115	0x3db499e2	0.08818413
116	0x3c8a2e17	0.01686768
117	0xbd42218c	-0.047395274
118	0xbda19a02	-0.07890703
119	0x3d164cbb	0.03669427
120	0x3cb8cc53	0.022558367
121	0x3cf1a7d9	0.029498981
122	0xbd01624e	-0.03158789
123	0x3d0c44c3	0.034245264
124	0x3d64c5b6	0.055852614
125	0x3d0f9871	0.03505749
126	0x3db0c83e	0.08631943
127	0xbd93010c	-0.07177934
128	0x3d401267	0.04689255
129	0x3daa7764	0.08323553
130	0xbda90528	-0.082529366
131	0xbd6c266d	-0.057653833
132	0xbd0053be	-0.031329863
133	0x3dc1f8f6	0.09471314
134	0x3d87330a	0.06601532
135	0x3cf962f4	0.030442692
136	0x3dc1438e	0.09436713
137	0xbb75d3c4	-0.0037510255
138	0x3d962016	0.07330339
139	0xbc7ea4c3	-0.015542212
140	0xbd82669f	-0.0636723
141	0x3d24e99b	0.040261846
142	0xbd6ab0df	-0.057297584
143	0xbcb90aa0	-0.022588074
144	0x3b028ba6	0.0019919663
145	0xbd8793f8	-0.0662002
146	0xbd2eb1b3	-0.042649936
147	0xbd197c9b	-0.03747235
148	0x3d35a89f	0.044350263
149	0x3bcd6f86	0.006269398
150	0x3d9ec88a	0.077530935
151	0x3d750c42	0.059826143
152	0x3d76fefb	0.060301762
153	0xbbe7c119	-0.0070725796
154	0x3d8d3191	0.0689422
155	0xbcff5ff1	-0.031173678
156	0x3d2c9013	0.042129587
157	0xbd9b0f29	-0.07571251
158	0x3c9b3d6e	0.01895019
159	0xbce912ce	-0.02845135
160	0xbd98199e	-0.07426761
161	0xbc8a2c5c	-0.016866855
162	0x3da515cf	0.080608
163	0x3d7c1ef7	0.061552968
164	0xbd712af3	-0.05887885
165	0x3d9e58f0	0.07731807
166	0x3d0798bd	0.033104647
167	0xbd1ce51c	-0.038304433
168	0xbd7953a7	-0.060870793
169	0x3d6669ce	0.056253247
170	0xbd78bea5	-0.060728688
171	0x3b8f5ad9	0.0043748436
172	0x3cafe996	0.021473687
173	0x3d8f37f6	0.069930956
174	0x3ce817fe	0.028331753
175	0xba0ad6b9	-0.00052962784
176	0x3c8a20b4	0.016861297
177	0x3d88a96f	0.06672942
178	0x3d81aee0	0.06332183
179	0x3baa2966	0.0051929234
180	0x3cd2d0e1	0.025734367
181	0xbcaeaddf	-0.021323143
182	0xbd808573	-0.062754534
183	0x3d50c9f2	0.05097384
184	0x3a30b14a	0.00067402853
185	0x3d92ad3e	0.071619496
186	0xbb8f02b1	-0.0043643345
187	0x3d159300	0.036517143
188	0xbc99328d	-0.018700862
189	0xbd73dc0c	-0.059536025
190	0x3daed0d2	0.08535923
191	0xbd92bb13	-0.07164588
192	0xbd07ebb5	-0.033183772
193	0xbbc25931	-0.0059310426
194	0xbd227f81	-0.03967238
195	0x3d5f39c0	0.054498434
196	0xbc590c03	-0.013247493
197	0x3d12395b	0.03569923
198	0x3d859d06	0.065240905
199	0x3da91dd3	0.08257642
200	0xbcfce3c8	-0.030870333
201	0x3d74a66e	0.059729032
202	0xbd97fab2	-0.07420863
203	0xbb521b3e	-0.0032059695
204	0x3d3271cb	0.043565553
205	0x3cb9a75e	0.022662815
206	0x3d3c2f38	0.04594347
207	0x3db3ca8c	0.08778867
208	0x3daa0bcc	0.08303031
209	0xbd358981	-0.044320587
210	0x3d5b5a93	0.053553175
211	0x3cbb89df	0.02289289
212	0xbd8bba8d	-0.06822691
213	0xba099800	-0.0005248785
214	0xbda98d86	-0.082789466
215	0x3af4a743	0.001866557
216	0xbd76c2bd	-0.06024431
217	0x3c60c258	0.01371821
218	0xbd17cb5c	-0.037059173
219	0xbd7b9593	-0.061421942
220	0xbc03ca6d	-0.008043868
221	0x3dee7769	0.116438694
222	0x3da44c64	0.08022383
223	0xbd6d55b4	-0.05794306
224	0x3c18a238	0.00931602
225	0xbcd6d573	-0.026224827
226	0xbd644763	-0.055732142
227	0x3c1a2d40	0.0094102025
228	0x3c565ba0	0.013083369
229	0xbd9b4e80	-0.07583332
230	0x3d71c4ac	0.05902545
231	0x3d243080	0.040085316
232	0x3d25bd9f	0.04046404
233	0xbd2afa9a	-0.0417429
234	0xbd1733cd	-0.036914635
235	0x3c0c5d56	0.008567175
236	0xbccb292a	-0.024799902
237	0x3d94d6f8	0.072675645
238	0x3bdf6096	0.006816934
239	0xbda9576f	-0.0826863
240	0xbb7fe7d4	-0.0039048092
241	0x3bf684c6	0.007523152
242	0xbd8b3e75	-0.06799022
243	0x3d8195e3	0.06327417
244	0xbd5a07d9	-0.05323014
245	0xbcb406bf	-0.021975873
246	0x3cbfc850	0.023410946
247	0x3db9f620	0.09080148
248	0x3b0a97a9	0.0021147525
249	0x3d86c466	0.06580429
250	0xbd2a286f	-0.041542467
251	0x3d4fbb09	0.05071548
252	0xbca5199c	-0.020153813
253	0x3c856314	0.016282596
254	0xbccc7532	-0.024958227
255	0x3daf184e	0.085495576

gnn_layer_0.gconv.a_fc.bias f4 [64]
0	0x3d94ea58	0.0727126
1	0x3dccfe98	0.100094974
2	0x3d790cc2	0.060803182
3	0xbd048b06	-0.032359146
4	0x3c7e48ca	0.015520284
5	0xbcd74469	-0.026277738
6	0xbd9e7f9f	-0.077391855
7	0xbd84075e	-0.06446718
8	0xbc972070	-0.018448085
9	0xbd8fbe8e	-0.07018767
10	0x3d19971b	0.03749762
11	0x3da43a41	0.080189236
12	0xbd7e1506	-0.06203177
13	0x3d9a630d	0.07538424
14	0xbd9f66f5	-0.07783309
15	0xbd1e7bdd	-0.038692344
16	0x3d523227	0.05131736
17	0xbda93d5c	-0.082636565
18	0xbd1ac98d	-0.03778987
19	0x3d74621d	0.05966388
20	0xbdb6eb21	-0.08931566
21	0x3d81e16f	0.06341826
22	0x3d818823	0.06324794
23	0x3d3d9583	0.046285164
24	0x3d8b73f4	0.06809226
25	0xbdaadf06	-0.083433196
26	0x3d66e410	0.05636984
27	0xbc13ef17	-0.009029171
28	0x3d94b47c	0.07260987
29	0x3dc5aab1	0.096516974
30	0xbcb5ccca	-0.022192378
31	0xbcbd6ace	-0.023122218
32	0xbd971644	-0.07377294
33	0x3d6ceacf	0.05784112
34	0xbd5a6840	-0.053322077
35	0x3daa9512	0.08329214
36	0x3cc7495f	0.024326978
37	0xbd8e9ed6	-0.06963889
38	0xbd5982de	-0.05310332
39	0xbca0ddcb	-0.01963701
40	0x3daad57f	0.083415024
41	0x3b247c83	0.0025098629
42	0xbcdf2881	-0.027240993
43	0x3a1d9a41	0.00060120603
44	0xbbb29a8c	-0.0054505523
45	0x3d3f7f96	0.046752535
46	0x3dbd8b05	0.092550315
47	0x3dd9940b	0.1062394
48	0x3c79bebb	0.015243228
49	0xbd77fa9b	-0.06054173
50	0x3da8a25b	0.08234092
51	0xbd17ecc3	-0.037091028
52	0xbd75cafc	-0.060008034
53	0xbd378633	-0.044805717
54	0x3dd55e3e	0.10418366
55	0x3d98e53d	0.07465599
56	0xbcc46baa	-0.02397712
57	0x3a9225fe	0.0011150239
58	0xbbaded24	-0.0053078104
59	0x3d6d4cb7	0.05793449
60	0xbd076c6a	-0.033062376
61	0xbdb1000f	-0.08642589
62	0x3daf0db8	0.085475385
63	0xbd65e9c1	-0.05613113

gnn_layer_0.gconv.u_fc.weight f4 [64, 121]
0	0xbd36ccf1	-0.04462904
1	0xbbf89f4b	-0.0075873486
2	0x3cde1c84	0.027113207
3	0xbc779c91	-0.015113012
4	0xbd8a4301	-0.06751061
5	0x3d2deb08	0.04246047
6	0xbc86e0f0	-0.01646468
7	0x3d8c0b56	0.068381
8	0xbd0ee669	-0.034887705
9	0x3da713e6	0.08158092
10	0xbcb3af65	-0.02193422
11	0xbd093079	-0.033493493
12	0xbcfb07a4	-0.030643292
13	0xbb89e6df	-0.00420843
14	0x3d879fbd	0.066222645
15	0x3bc87ad8	0.0061181597
16	0x3b0220b5	0.001985592
17	0x3d53cc9c	0.051708803
18	0x3bd5462a	0.0065086083
19	0x3cdc822c	0.02691754
20	0xbd536c66	-0.05161705
21	0xbd10b134	-0.035325244
22	0x3d8baa7b	0.06819626
23	0x3ac29674	0.0014845864
24	0xbbf80c15	-0.0075697997
25	0x3d96ffdc	0.0737302
26	0xbd063f5e	-0.032775275
27	0x3cd2e320	0.025743067
28	0xbc47cedb	-0.012195314
29	0x3cca7338	0.024713144
30	0xbd953038	-0.072845876
31	0xbd075170	-0.03303665
32	0xbb9f414b	-0.0048600785
33	0xbbc5ee23	-0.006040351
34	0x3bb07353	0.0053848415
35	0x3d902c01	0.07039643
36	0xbca9d5e2	-0.02073187
37	0x3ccd1605	0.025034914
38	0xbd6ec0ca	-0.058289327
39	0xbd4ad273	-0.049517106
40	0x3d97c2ef	0.074102275
41	0x3d16bc6b	0.036800783
42	0xbd86853e	-0.06568383
43	0x3d41cc68	0.047314078
44	0xbcdd7900	-0.027035236
45	0x3d079957	0.03310522
46	0xbd6485bd	-0.055791605
47	0x3c8128aa	0.01576646
48	0x3d907eff	0.070554726
49	0xbbf9259f	-0.0076033617
50	0x3d13b0f6	0.036057435
51	0xbd583a68	-0.052790076
52	0x3d5abda4	0.05340351
53	0x3d9428a4	0.07234314
54	0xbd88b0c5	-0.06674341
55	0x3d42baad	0.04754131
56	0x3d44d488	0.048054248
57	0xbc3b7c72	-0.011443244
58	0xbd4f9844	-0.05068232
59	0xbd99dbeb	-0.07512649
60	0x3db5bfaa	0.08874448
61	0x3c9a4e48	0.018836156
62	0xbd5a36a5	-0.05327477
63	0x3c3f96c0	0.011693656
64	0x3d5a266f	0.05325931
65	0x3da86302	0.08222009
66	0x3c3c4845	0.01149184
67	0x3cd580ee	0.026062455
68	0xbd67e6e6	-0.056616686
69	0x3d71d3ff	0.059040066
70	0xbd63dc7a	-0.055630185
71	0xbb3e9d1a	-0.002908534
72	0x3b7b06ba	0.003830357
73	0x3d96996c	0.07353482
74	0xbd921855	-0.07133547
75	0xbc96a626	-0.018389773
76	0x3da60fdb	0.08108493
77	0x3d897914	0.06712547
78	0xbd286f69	-0.041121874
79	0xbdb9c7ca	-0.0907131
80	0x3d92db71	0.071707614
81	0xbd72d524	-0.059285298
82	0xbd99a4d0	-0.075021386
83	0xbaa33f31	-0.0012454746
84	0xbcdc0e2c	-0.026862226
85	0x3d8f523d	0.069981076
86	0x3d9189c3	0.07106354
87	0x3d5fc355	0.054629643
88	0x3d9ab8fb	0.075548135
89	0xbd856cd8	-0.06514901
90	0xbda88460	-0.082283735
91	0x3d0ffcb2	0.0351531
92	0x3d94acf0	0.07259548
93	0x3cddf6c2	0.027095202
94	0x3bd3b0b2	0.0064602727
95	0x3db662df	0.08905577
96	0xbcb73173	-0.022362446
97	0xbd996aa7	-0.074910454
98	0x3ceda4cb	0.029009243
99	0xbd2fc079	-0.042908166
100	0xbd858903	-0.065202735
101	0xbcbfc70d	-0.023410344
102	0xbd1e27b0	-0.038612068
103	0xbd64416f	-0.055726465
104	0xbd8fe896	-0.07026784
105	0xbb0da6a0	-0.0021614209
106	0x3db6e3c9	0.08930165
107	0xbd61fdc1	-0.05517364
108	0x3d5811f3	0.052751493
109	0xbb61b0d4	-0.0034437673
110	0xbd7d3f67	-0.061828043
111	0x3c254e35	0.010089447
112	0xbd9d1599	-0.07670135
113	0x3cf37325	0.029717991
114	0x3c97a2de	0.018510278
115	0x3d02a6ac	0.031897232
116	0xbd30b868	-0.043144614
117	0xbd9a831b	-0.07544538
118	0x3cbf181d	0.023326928
119	0xbce1b352	-0.027551327
120	0x3dbd6f35	0.09249727
121	0x3dbd7c55	0.0925223
122	0x3b13ab03	0.002253235
123	0x3d6121f8	0.054964036
124	0xbd9007a5	-0.07032708
125	0xbd9c5985	-0.07634262
126	0xbd9eb882	-0.07750036
127	0x3d9a74b0	0.075417876
128	0xbdc1b2dc	-0.09457943
129	0x3d9abc60	0.07555461
130	0x3d013941	0.031548742
131	0x3cd22ed9	0.025657104
132	0xbd171941	-0.03688932
133	0x3d91076a	0.07081492
134	0xbd2b5a8d	-0.041834403
135	0x3c4920a6	0.01227585
136	0xbbf58399	-0.0074924943
137	0x3c139ab9	0.009009057
138	0x3dbce5e0	0.09223533
139	0x3c9b237c	0.018937819
140	0xbcb4eecb	-0.022086522
141	0xbd8d9ee3	-0.06915071
142	0xbcbadd0a	-0.022810478
143	0x3d9cc93e	0.076555714
144	0x3d288041	0.041137937
145	0xbc0c8289	-0.008576044
146	0x3de92b19	0.11385173
147	0x3d37a830	0.04483813
148	0xbcc5b79a	-0.0241354
149	0x3c28c14a	0.01029999
150	0xbc238260	-0.009979814
151	0x3d793581	0.06084204
152	0xbd28ca13	-0.041208338
153	0xbc09ea1a	-0.008417631
154	0xbd6ae355	-0.057345707
155	0xbd3076de	-0.04308211
156	0x3d626a8a	0.055277385
157	0xbbbf47d5	-0.0058374205
158	0x3c212bf9	0.009837144
159	0xbda16d83	-0.07882216
160	0x3d904187	0.07043748
161	0x3d7288d5	0.059212524
162	0x3d50cd5d	0.0509771
163	0x3d77cca8	0.06049791
164	0x3c382a6c	0.011240583
165	0xbd08ccee	-0.03339856
166	0x3d648013	0.055786204
167	0x3c3c04d5	0.011475761
168	0xbd8c2e3d	-0.06844757
169	0xbceef1b9	-0.029167997
170	0xbd333850	-0.043754876
171	0x3db81bfc	0.089897126
172	0xbc4ad5bf	-0.012380063
173	0xbc5e4abe	-0.013567625
174	0xbc514ee5	-0.012775158
175	0x3d03d6b1	0.032187168
176	0x3db08e1f	0.086208574
177	0xbc9990a2	-0.018745724
178	0x3bfda3f1	0.0077404906
179	0x3d5a90c6	0.053360723
180	0xbc233d4e	-0.009963347
181	0x3d63b671	0.05559391
182	0xbd2afaa9	-0.041742954
183	0xbda25de4	-0.079280645
184	0xbc1c3755	-0.009534677
185	0x3dcd3057	0.10018986
186	0x3d3b2260	0.04568708
187	0x3c33c561	0.010972352
188	0x3c4e4d54	0.012591679
189	0x3d99a5f8	0.07502359
190	0xbd82c9ef	-0.06386172
191	0x3d078746	0.03308799
192	0xbd293924	-0.04131426
193	0x3d03c9f3	0.032175016
194	0xbdb0c878	-0.086319864
195	0x3d52645c	0.05136524
196	0x3a6341b6	0.00086691545
197	0xbd80ccc7	-0.06289058
198	0xbd8437d2	-0.064559594
199	0x3dab79f3	0.08372869
200	0x3d4be1d1	0.049775902
201	0x3d5f4892	0.054512568
202	0x3d3125ab	0.043248814
203	0xbd03570f	-0.032065447
204	0x3cb837f5	0.02248762
205	0x3d84b7c7	0.06480365
206	0x3b2a5d7a	0.0025995658
207	0x3d7593d1	0.05995542
208	0xbd1c40e4	-0.038147822
209	0xbd421d36	-0.04739114
210	0xbd5cbe19	-0.05389223
211	0xbc1c247a	-0.009530181
212	0xbcb6d8ac	-0.022320114
213	0x3d5b7098	0.053574175
214	0x3d549092	0.051895685
215	0x3d061340	0.032733202
216	0xbdcfc47b	-0.101448976
217	0xbd8c0a14	-0.0683786
218	0x3ddecc94	0.10878864
219	0xbd0b2eee	-0.033980303
220	0x3d9595bc	0.0730395
221	0x3d1e21a9	0.03860632
222	0x3de44843	0.11146595
223	0x3d15c898	0.036568254
224	0x3d7cd14b	0.061723035
225	0x3d8e62ff	0.06952476
226	0x3c076b77	0.008265368
227	0x3c3a4b41	0.011370481
228	0x3d46162b	0.048360985
229	0xbdde7b6a	-0.10863383
230	0x3d368a31	0.044565383
231	0xbcd35fbc	-0.025802486
232	0x3d253f01	0.04034329
233	0xbd2f1fa2	-0.042754777
234	0xbd751689	-0.059835944
235	0xbb9baabb	-0.0047505773
236	0xbe0456a0	-0.1292367
237	0xbd51c028	-0.051208645
238	0x3dc8e6b3	0.098096274
239	0x3dbd32c4	0.092381984
240	0x3e070331	0.13184811
241	0x3dc5f117	0.09665125
242	0x3d57d52f	0.052693542
243	0xbce90509	-0.028444784
244	0xbd6e2e32	-0.058149524
245	0x3dbd59a4	0.09245613
246	0x3d6263cb	0.05527095
247	0x3d54449c	0.051823243
248	0x3d1c9e02	0.038236625
249	0x3aaf6413	0.0013381265
250	0x3ab51c12	0.001381757
251	0x3c9ee38f	0.019395618
252	0xbda6eba2	-0.08150412
253	0xbcdb3c03	-0.026762014
254	0x3d92323d	0.071384884
255	0x3d86dd72	0.06585206

gnn_layer_0.gconv.u_fc.bias f4 [64]
0	0xbd891107	-0.06692701
1	0x3db8fc23	0.09032466
2	0xbca7f6de	-0.020503458
3	0x3c4f36e1	0.0126473615
4	0xbc8ae803	-0.016956335
5	0xbc0d31ae	-0.008617802
6	0xbc704c23	-0.01466659
7	0xbdb61212	-0.088901654
8	0xbcdc27c7	-0.026874436
9	0xbdb5592c	-0.08854899
10	0xbd3071aa	-0.04307715
11	0xbd4ec1f2	-0.05047793
12	0xbd3d1ced	-0.046170164
13	0xbd09d79e	-0.033652894
14	0xbc4f4718	-0.012651227
15	0x3cc226ab	0.023700079
16	0xbadec2e5	-0.0016995339
17	0xbd64b4aa	-0.055836357
18	0xbc75a2a8	-0.014992394
19	0xbc1c29aa	-0.009531418
20	0xbd64de5d	-0.055876125
21	0xbdb7b1a2	-0.08969428
22	0xbd9e451e	-0.07728027
23	0x3d93e893	0.072220944
24	0xbbe3a7f4	-0.006947512
25	0x3d32f5f0	0.043691576
26	0x3d6ea3f6	0.058261834
27	0xbd2a147e	-0.04152345
28	0x3bfdd7ff	0.007746696
29	0xb8fd53e1	-0.00012079604
30	0x3cdc7de8	0.026915506
31	0xbcdcd620	-0.026957572
32	0xbce00b49	-0.027349131
33	0x3cc9cca0	0.024633706
34	0xbca8a77e	-0.020587679
35	0xbd96f9ea	-0.07371886
36	0xbd595419	-0.053058717
37	0xbb037ab9	-0.0020062162
38	0xbb984a29	-0.0046475125
39	0x3c9b29e0	0.018940866
40	0xbd34a7ed	-0.04410546
41	0x3d388124	0.045045033
42	0x3d0c378d	0.034232665
43	0xbd9bd9c3	-0.07609894
44	0xbda6a92d	-0.081377365
45	0x3cca4d01	0.024694921
46	0xbc2f4365	-0.01069722
47	0xbc459d71	-0.012061463
48	0x3db19f6b	0.08672985
49	0xbd1cea04	-0.038309112
50	0xbd748458	-0.059696525
51	0xbd9127dc	-0.07087681
52	0x3d90a444	0.07062581
53	0x3cf19909	0.029491918
54	0xbd91d34f	-0.07120382
55	0xbdbe9633	-0.09305992
56	0x3d5f8640	0.05457139
57	0xbc86404f	-0.016388087
58	0x3d383b10	0.0449782
59	0x3d8e0822	0.06935145
60	0xbca927d9	-0.020648884
61	0x3d1a0124	0.037598744
62	0xbda11cb2	-0.07866801
63	0xbd1d8060	-0.038452506

affinity_0.A f4 [64, 64]
0	0x3f685ca4	0.9076636
1	0xbd485e7c	-0.048918232
2	0x3de8e3e8	0.11371595
3	0x3cc347b8	0.02383791
4	0xbc0ae1b0	-0.00847666
5	0x3d955090	0.07290757
6	0x3d438efc	0.047743782
7	0xbd3bc304	-0.04584028
8	0xbd420d80	-0.047376156
9	0x3da52e3c	0.08065459
10	0x3de19144	0.11014035
11	0xbd8d43fe	-0.06897734
12	0xbdf579d0	-0.119861245
13	0x3dba67f2	0.09101857
14	0x3da57914	0.080797344
15	0xbde30122	-0.110842004
16	0xbbf306a0	-0.0074165612
17	0x3ce9e408	0.028551117
18	0x3d3e0854	0.04639466
19	0xbd0bef0c	-0.03416352
20	0x3d1fdf28	0.039031178
21	0x3cdc59e8	0.02689834
22	0x3cc975a0	0.02459222
23	0xbd774afc	-0.060374245
24	0xbddf1fe4	-0.108947545
25	0x3db26cf4	0.087121874
26	0xbdeab18c	-0.11459646
27	0x3cd6ff48	0.026244774
28	0xbdf47826	-0.11936979
29	0x3d0f211c	0.034943685
30	0xbd99da06	-0.07512288
31	0xbd41f760	-0.047355056
32	0x3c8ced88	0.017203107
33	0x3d341d2c	0.043973133
34	0xbd234b1c	-0.03986655
35	0xbdf4534a	-0.11929949
36	0x3c2f26a0	0.010690361
37	0x3cdc8c18	0.02692227
38	0xbcbf58f8	-0.023357853
39	0xbd85fcd2	-0.06542362
40	0xbded008e	-0.115723714
41	0xbd991d96	-0.07476346
42	0xbd21cb50	-0.039500535
43	0x3c7f4c60	0.015582174
44	0x3dc7b2f6	0.09750931
45	0x3dfea9a4	0.124347
46	0xbde2963e	-0.11063813
47	0xbdce89ba	-0.10084863
48	0xbd1e1f4c	-0.038604066
49	0x3cdd2108	0.02699329
50	0xbdc59c1c	-0.09648916
51	0xbc971cb0	-0.018446296
52	0xbd4d5494	-0.050129488
53	0xbdb6817a	-0.089114144
54	0xbd89b24a	-0.06723459
55	0x3c09e480	0.008416295
56	0xbdad7776	-0.08470051
57	0xbd52011c	-0.05127059
58	0x3d9b7220	0.07590127
59	0xbdccac74	-0.0999383
60	0x3d4e2e28	0.050336987
61	0x3dbc2c42	0.09188129
62	0xbdecf426	-0.11570005
63	0xbdd89cca	-0.1057678
64	0x3dc99390	0.098425984
65	0x3f6439ab	0.89150494
66	0xbd0498b0	-0.032372177
67	0x3d94cc80	0.07265568
68	0xbc667400	-0.0140657425
69	0x3dcd55b8	0.10026115
70	0xbdadf61e	-0.08494209
71	0x3d953ba6	0.07286768
72	0xbd97e1b2	-0.07416095
73	0x3dacecd8	0.08443612
74	0xbddd7e4c	-0.10815105
75	0xbdb953f4	-0.09049216
76	0x3dece360	0.11566806
77	0x3d3d77ac	0.046256706
78	0xbdedd67c	-0.11613175
79	0xbd723a40	-0.059137583
80	0x3b2cf6c0	0.0026392192
81	0x3d337550	0.04381305
82	0x39d04c00	0.00039729476
83	0xbd98ee56	-0.07467334
84	0x3d7bcc7c	0.06147431
85	0xbc94f1a8	-0.018181637
86	0xbd341e50	-0.04397422
87	0x3d46ba8c	0.04851775
88	0xbdd670ec	-0.10470757
89	0x3db48cb4	0.088158995
90	0xbd2ab8b8	-0.041680068
91	0xbdc28b5a	-0.094992355
92	0xbc0a9780	-0.008458972
93	0x3db1261c	0.08649847
94	0xbdf2adc2	-0.11849548
95	0x3d7beb10	0.06150347
96	0x3d866f76	0.06564228
97	0x3cf09e38	0.02937232
98	0x3d907a46	0.07054572
99	0x3d2a65c4	0.041600958
100	0xbc459e00	-0.012061596
101	0xbd2c880c	-0.042121932
102	0x3d45267c	0.048132405
103	0xbd8e4782	-0.06947233
104	0xbd8b0d66	-0.06789665
105	0xbdf1b046	-0.118011996
106	0x3d1864c0	0.037205458
107	0xbd07f560	-0.033192992
108	0xbdce1f08	-0.100645125
109	0x3d192240	0.03738618
110	0x3d04fa34	0.032465175
111	0xbd80ed1c	-0.06295225
112	0x3def52fc	0.1168575
113	0xbdda7f80	-0.1066885
114	0x3ca29358	0.01984565
115	0x3dd35a82	0.10319997
116	0xbd854256	-0.06506793
117	0xbd5598fc	-0.05214785
118	0x3dba2438	0.090889394
119	0x3dd940ce	0.10608064
120	0xbd48c5f0	-0.049016893
121	0x3ddbd038	0.10733074
122	0x3d453ca0	0.04815352
123	0xbde4adea	-0.11165984
124	0xbdb42dfa	-0.08797832
125	0xbd76d18c	-0.060258433
126	0x3da735d4	0.08164564
127	0x3d6c1ad0	0.057642758
128	0xbc92ed40	-0.017935395
129	0x3dc3a52c	0.095529884
130	0x3f875a23	1.0574383
131	0xbd7d93f4	-0.061908677
132	0x3dd1a246	0.10236029
133	0xbdba5f1e	-0.091001734
134	0xbd940908	-0.07228285
135	0x3df9a6ec	0.12190041
136	0x3d3c8ae8	0.04603091
137	0x3c85e4a0	0.016344368
138	0x3b8cd0a0	0.004297331
139	0xbdc70a1e	-0.097187266
140	0xbca442a8	-0.020051315
141	0x3d93eac8	0.07222515
142	0x3c3b6d10	0.011439577
143	0x3d662e6c	0.056196615
144	0xbda7dfe6	-0.08197002
145	0xbdcdbe7a	-0.10046096
146	0xbcfdd428	-0.030984953
147	0xbdd98550	-0.106211305
148	0xbd8293d6	-0.06375854
149	0x3cb52110	0.022110492
150	0x3de50954	0.1118342
151	0xbd999d04	-0.075006515
152	0x3d005528	0.03133121
153	0x3d8955d6	0.06705825
154	0x3c0429c0	0.008066595
155	0xbdbea32e	-0.09308468
156	0xbd5fc194	-0.05462797
157	0x3c033510	0.008008257
158	0xbdd8cbc4	-0.1058574
159	0x3d091a18	0.03347215
160	0x3d107134	0.03526421
161	0xbd7973b4	-0.06090136
162	0x3c8905c8	0.01672639
163	0xbd685758	-0.056723922
164	0xbd01f21c	-0.031725034
165	0xbdab0c32	-0.083519354
166	0x3db6e690	0.08930695
167	0xbda3dd96	-0.080012485
168	0x3d7e12d0	0.06202966
169	0xbc1a7270	-0.009426698
170	0x3dd97d8a	0.10619648
171	0xbdfffd9a	-0.124995425
172	0x3d041f94	0.032256678
173	0x3de67132	0.11252059
174	0x3d34757c	0.044057354
175	0x3df1c13e	0.11804436
176	0x3d571f24	0.052519932
177	0xbd9fd612	-0.078045025
178	0x3de5cdaa	0.11220868
179	0xbcf8eb60	-0.030385673
180	0xbd55dbac	-0.05221145
181	0xbd2aa950	-0.041665375
182	0xbdc95f2e	-0.09832607
183	0xbc2f6010	-0.010704055
184	0xbd8c8406	-0.06861119
185	0xbd3ca0a4	-0.046051636
186	0x3dd9b772	0.106306925
187	0xbd57c28c	-0.05267577
188	0xbc8c9c40	-0.01716435
189	0x3d8db818	0.06919879
190	0x3d68182c	0.056663677
191	0x3d9c7a26	0.076404855
192	0xbdf2f9f4	-0.11864081
193	0x3c2a8730	0.010408208
194	0xbd3d1a98	-0.04616794
195	0x3f7a9b5a	0.978933
196	0x3cc4a2b0	0.024003357
197	0x3d807cdc	0.06273815
198	0x3cfd8068	0.030945018
199	0xbd67a244	-0.056551233
200	0xbded1f1c	-0.11578199
201	0x3ddb881e	0.10719322
202	0xbca1b5e0	-0.019740045
203	0xbd26f284	-0.040758625
204	0x3dc3cfc2	0.09561111
205	0x3d6be558	0.057591766
206	0x3cf0cb18	0.029393718
207	0xbda8e896	-0.08247487
208	0xbcad74d0	-0.021173865
209	0xbbe36d00	-0.006940484
210	0xbd4a7340	-0.049426317
211	0x3c1c84b0	0.00955312
212	0xbdc2a642	-0.095043674
213	0x3ddfcb9e	0.10927509
214	0x3dbd6280	0.09247303
215	0x3afc6180	0.0019255131
216	0xbc4d8000	-0.012542725
217	0x3d0143c4	0.031558767
218	0x3d8ec4e2	0.06971146
219	0xbd16c9d8	-0.036813587
220	0xbc624880	-0.013811231
221	0x3d7c24e0	0.061558604
222	0x3c10bf80	0.00883472
223	0xbd094eb8	-0.033522338
224	0xbdf488fa	-0.11940189
225	0xbdef8f18	-0.11697215
226	0x3dc14cb0	0.09438455
227	0x3d23d52c	0.03999822
228	0x3d82cbd2	0.06386532
229	0x3d3b0784	0.045661464
230	0x3ddf1c1a	0.10894032
231	0x3db71220	0.08939004
232	0x3dcde396	0.10053174
233	0x3d9976c6	0.07493357
234	0xbd3a3e5c	-0.045469627
235	0xbacf3700	-0.0015809238
236	0xbdc5ac88	-0.09652048
237	0x3dece7a4	0.115676194
238	0xbdef5646	-0.11686377
239	0x3dea87dc	0.11451694
240	0x3db20824	0.08692959
241	0x3dfaafb8	0.12240547
242	0x3d5a2058	0.0532535
243	0x3d56d570	0.052449644
244	0xbd2c6b68	-0.042094618
245	0xbdd0bb16	-0.10191934
246	0x3d3c0810	0.045906126
247	0x3dfdf3ac	0.12399992
248	0xbdebef48	-0.11520249
249	0xbd25be5c	-0.040464744
250	0x3d4243bc	0.047427878
251	0x3dba67d6	0.091018364
252	0x3de40066	0.111328885
253	0xbcc17678	-0.02361606
254	0x3ddcd5e0	0.10782981
255	0xbd3f1cf8	-0.046658486

gnn_layer_1.gconv.a_fc.weight f4 [64, 64]
0	0x3d0b13ad	0.03395431
1	0xbdb3d382	-0.08780576
2	0xbda02171	-0.078188784
3	0xbdef4193	-0.11682429
4	0x3cfc94ee	0.030832734
5	0x3dd5908a	0.10427959
6	0x3dd560bd	0.10418842
7	0xbdeb8ede	-0.11501859
8	0xbcaa7ef9	-0.020812498
9	0xbd8017dd	-0.062545516
10	0xbb148915	-0.0022664715
11	0x3dc6200a	0.0967408
12	0xbd8b0e9b	-0.06789895
13	0x3bae5c52	0.005321064
14	0x3a3ad38b	0.0007126859
15	0x3e0a742b	0.13520877
16	0x3d80d05f	0.06289744
17	0xbd8252ea	-0.06363471
18	0x3d9516ec	0.072797626
19	0x3d175997	0.036950674
20	0xbe0c9769	-0.13729633
21	0xbcb3a0ed	-0.021927321
22	0x3cb7260b	0.022357007
23	0x3dec6d53	0.115442894
24	0xbbdd5c63	-0.006755398
25	0x3d1558d7	0.036461677
26	0xbd44d1a8	-0.048051506
27	0x3d391190	0.045182765
28	0x3e002e74	0.1251772
29	0x3d92cc8a	0.07167919
30	0x3d6582b7	0.056032863
31	0x3a47dd90	0.0007624263
32	0x3d8f99a7	0.07011729
33	0x3c826cda	0.015921045
34	0xbc86de8c	-0.01646354
35	0xbcb06a6a	-0.021535117
36	0x3db77bfa	0.089591935
37	0xbc8320f3	-0.016006922
38	0x3da44d40	0.08022547
39	0xbd105567	-0.035237696
40	0x3d8f9018	0.070099056
41	0x3d9429fe	0.07234572
42	0xbde7aa0d	-0.113117315
43	0xbd93cccf	-0.072167985
44	0x3d1049d3	0.035226654
45	0x3de11a49	0.109913416
46	0xbc4523f7	-0.0120325005
47	0x3dbeed64	0.093226224
48	0xbdc1156e	-0.094279155
49	0x3cd76bde	0.026296552
50	0xbdce4b98	-0.10073012
51	0xbd1a7386	-0.037707828
52	0x3e016215	0.12635072
53	0x3d4dc0cc	0.050232694
54	0x3d973654	0.07383409
55	0xbd28d525	-0.041218895
56	0xbd9d5751	-0.0768267
57	0x3cbd1b14	0.0230842
58	0xbd735c58	-0.059414238
59	0xbd9d0dab	-0.076686226
60	0x3c90a791	0.017658027
61	0xbddabc1a	-0.10680409
62	0xbd7b1f42	-0.061309107
63	0x3d2282a1	0.03967536
64	0xbdef10c0	-0.11673117
65	0x3df1742c	0.11789736
66	0x3af5dafc	0.0018757279
67	0x3df95585	0.12174515
68	0x3ca1154d	0.019663477
69	0xbdd88d5c	-0.10573837
70	0xbde350f3	-0.11099424
71	0x3cdb1d8d	0.02674749
72	0x3c8b072e	0.016971197
73	0x3dea4be1	0.11440254
74	0x3e006892	0.1253989
75	0x3d960f35	0.07327119
76	0xbc7d88f7	-0.0154745495
77	0xbcfa7275	-0.030572155
78	0xbb1d5800	-0.002400875
79	0xbd535c67	-0.051601794
80	0x3d25b872	0.040459104
81	0xbd07884b	-0.033088963
82	0xbd384dd3	-0.044996094
83	0xbd839d74	-0.06426516
84	0xbdff68a6	-0.12471132
85	0xbd3aa33b	-0.045565825
86	0x3d3c5ffe	0.045989983
87	0x3de996a2	0.11405684
88	0x3ce92daf	0.028464166
89	0xbd9bcc41	-0.07607318
90	0x3d0347b0	0.03205079
91	0xbe0aa71f	-0.13540314
92	0x3d4cfa17	0.05004319
93	0xbde6e97a	-0.11275001
94	0x3e05bc37	0.1306008
95	0x3c264910	0.010149255
96	0x3dedbd7d	0.11608408
97	0xbda9b850	-0.08287108
98	0xbd9c4025	-0.07629422
99	0xbb80452b	-0.0039144955
100	0x3de678be	0.112534985
101	0x3b72bcee	0.003703888
102	0xbd215132	-0.039384075
103	0x3dd50855	0.1040198
104	0xbd0d6ac8	-0.034525663
105	0xbe097768	-0.13424456
106	0x3dfd0524	0.12354496
107	0xbc832a24	-0.016011305
108	0x3cd96f39	0.026542293
109	0xbb1547e6	-0.002277845
110	0x3d2e2e91	0.042524878
111	0x3db03125	0.086031236
112	0x3d8f7469	0.07004625
113	0xbdf5b463	-0.11997297
114	0xbd2e8a12	-0.042612143
115	0x3def7201	0.116916664
116	0x3dda2485	0.10651497
117	0x3d255a85	0.04036953
118	0x3c759415	0.014988919
119	0xbd89781d	-0.06712363
120	0xbdcaecd8	-0.099084556
121	0xbd47c46a	-0.0487713
122	0x3b9bb225	0.004751461
123	0x3c5471a2	0.012966545
124	0x3a4fff98	0.000793451
125	0xbdaff0cd	-0.08590851
126	0x3de178d4	0.11009374
127	0xbd6dd10c	-0.05806069
128	0x3da0210e	0.07818805
129	0x3d7ce03b	0.06173728
130	0x3c73d597	0.014882467
131	0xbbd0725f	-0.0063612903
132	0x3d57c0ba	0.052674033
133	0x3c46dcc5	0.0121375965
134	0xbc56e90e	-0.013117088
135	0x3e01f7f0	0.12692237
136	0xbda76f9e	-0.08175586
137	0xbd5078ff	-0.05089664
138	0x3e010b41	0.1260195
139	0x3d9fc3cd	0.07801018
140	0x3c5c6bb1	0.01345341
141	0x3da75e75	0.08172313
142	0x3dd97330	0.106176734
143	0xbd71028b	-0.058840316
144	0xbd3c9386	-0.046039127
145	0xbdea7827	-0.114486985
146	0xbbdc027d	-0.006714164
147	0x3d82c189	0.0638457
148	0xbda40033	-0.080078505
149	0xbd8171c9	-0.06320531
150	0x3d0991ca	0.0335863
151	0x3d6939d8	0.05693993
152	0xbc96ae67	-0.018393708
153	0xbb9daa8f	-0.004811592
154	0xbdf22725	-0.118238725
155	0xbac2326b	-0.0014816051
156	0x3de2124c	0.11038646
157	0xbde34fb1	-0.11099184
158	0x3de94bf9	0.11391444
159	0x3de18d3e	0.11013268
160	0xbb6d0b0a	-0.003616991
161	0xbdcf8984	-0.10133651
162	0xbc2a9810	-0.010412231
163	0xbd98637a	-0.07440849
164	0x3db60c1f	0.08889031
165	0xbc8c257f	-0.017107723
166	0x3de6241a	0.112373546
167	0xbde32851	-0.11091674
168	0xbdaa4ef2	-0.08315839
169	0xbde8e70f	-0.11372196
170	0xbcbb0fe6	-0.02283473
171	0xbcffd920	-0.031231463
172	0x3de79e12	0.113094464
173	0x3c45ecfe	0.012080429
174	0x3d281def	0.041044172
175	0xbb155730	-0.0022787564
176	0xbd7c766a	-0.061636366
177	0x3db69d5e	0.08916734
178	0xbdb9b794	-0.09068218
179	0x3dabd0a9	0.08389408
180	0x3d2566f6	0.040381394
181	0x3c2d47d9	0.010576212
182	0x3d85115f	0.06497454
183	0xbc22ffc4	-0.009948675
184	0x3c457b8e	0.0120533835
185	0xbd893ae1	-0.067006834
186	0xbd8be49d	-0.06830714
187	0xbda0ca6c	-0.07851109
188	0xbd5c44a8	-0.053776413
189	0x3b29e25c	0.0025922274
190	0x3d48c395	0.049014647
191	0x3db174c7	0.08664852
192	0x3d15dd0d	0.036587764
193	0x3e0acfb3	0.13555793
194	0xbda0a434	-0.07843819
195	0xbdee2693	-0.11628451
196	0x3dc3bba2	0.095572725
197	0xbdb9867c	-0.09058854
198	0x3d5409dc	0.051767215
199	0x3dc4491f	0.09584259
200	0x3cb9a3ee	0.022661176
201	0x3d387017	0.045028772
202	0x3d535fea	0.051605143
203	0xbd5e133d	-0.054217566
204	0xbd84e448	-0.06488854
205	0x3d380401	0.044925693
206	0xbd20feef	-0.039305624
207	0x3d36bfaa	0.04461638
208	0xbc341d15	-0.010993262
209	0x3c87f3db	0.016595772
210	0x3d1b39ed	0.03789704
211	0x3ca8ed8e	0.020621087
212	0x3daa1b6f	0.08306014
213	0xbcf1ddf3	-0.029524779
214	0x3decd52d	0.115640976
215	0x3dd2d946	0.10295348
216	0x39ed1db1	0.00045226284
217	0xbde1d795	-0.11027447
218	0xbdaa46a0	-0.08314252
219	0x3d4bbcd8	0.049740642
220	0xbde8afc6	-0.11361651
221	0xba5c464c	-0.0008402809
222	0x3d52218b	0.05130152
223	0xbc936614	-0.01799301
224	0x3d9e046f	0.077156894
225	0x3dfc12e2	0.12308289
226	0x3df25ac8	0.118337214
227	0xbd3442c0	-0.04400897
228	0x3d35446b	0.0442547
229	0x3d2fe2ca	0.042940892
230	0xbd8b76db	-0.06809779
231	0x3dc8c0bf	0.098023884
232	0x3a74b8b8	0.00093353866
233	0x3e0600a9	0.1308619
234	0x3d17e09d	0.037079442
235	0xbcf46694	-0.02983407
236	0xbba82d30	-0.00513234
237	0xbd2facd9	-0.04288945
238	0x3d516794	0.05112417
239	0xbcfb2140	-0.030655503
240	0xbdcb844d	-0.09937344
241	0xbcec3738	-0.028834924
242	0xbd0c0472	-0.034183927
243	0x3dd2c240	0.102909565
244	0xbd8b02c7	-0.06787639
245	0x3da143db	0.078742705
246	0x3d03c1e5	0.032167334
247	0xbcfa6e21	-0.030570092
248	0x3dad5cbf	0.084649555
249	0xbdc5a6f2	-0.09650983
250	0x3dd6706c	0.104706615
251	0x3d7d8655	0.061895687
252	0x3d1b69aa	0.037942566
253	0x3d8086cd	0.06275711
254	0xbd695b80	-0.056972027
255	0xbd0b19b2	-0.03396005

gnn_layer_1.gconv.a_fc.bias f4 [64]
0	0x3dc9c389	0.098517485
1	0x3d401e71	0.04690403
2	0xbe07fa63	-0.13279109
3	0xbbf52f6a	-0.007482459
4	0xbce6d1a0	-0.028176129
5	0x3dfb78aa	0.12278874
6	0x3c2c961d	0.010533837
7	0x3d6d22bc	0.057894453
8	0x3dde3ad4	0.10851064
9	0xbcdff698	-0.027339265
10	0x3e007b84	0.12547117
11	0xbdc6ad4a	-0.09701021
12	0x3cccce6c	0.025000773
13	0x3dee5aa7	0.11638384
14	0xbb7cbec3	-0.0038565851
15	0x3d5406c1	0.051764254
16	0xbdbd67d6	-0.09248321
17	0x3bbed820	0.005824104
18	0xbc91b880	-0.017788172
19	0x3d82e99e	0.06392215
20	0x3e1d4a3f	0.15360354
21	0xbdc9a007	-0.09844976
22	0x3d5b296c	0.0535063
23	0x3e08a6a1	0.13344814
24	0xbd3d1580	-0.046163082
25	0xbd2271e6	-0.039659403
26	0x3dd5d576	0.10441105
27	0x3d28c878	0.041206807
28	0xbc972508	-0.018450275
29	0x3d876489	0.066109724
30	0x3dc3099d	0.09523318
31	0x3cfb5df5	0.03068445
32	0xbda2c2c1	-0.079473026
33	0xbd4d31fc	-0.050096497
34	0x3de0a4d9	0.10968942
35	0xbc38a728	-0.011270322
36	0x3d626f3c	0.055281863
37	0x3de7c176	0.113161966
38	0xbd73fb40	-0.059565783
39	0xbd4d7fc4	-0.050170675
40	0x3d8a31f0	0.06747806
41	0x3d2fad1a	0.042889692
42	0x3e02ad57	0.12761436
43	0x3d17d818	0.037071317
44	0xbd2daed3	-0.042403053
45	0xbb27a117	-0.0025578195
46	0x3c70b02e	0.014690442
47	0x3dd0d797	0.101973705
48	0x3de7a2e9	0.113103695
49	0xbdeeed5d	-0.11666367
50	0xbc983d5d	-0.018583948
51	0xbdbff0e1	-0.09372116
52	0x3dbedd5c	0.09319565
53	0xbdf663ec	-0.12030777
54	0xbdb3fab6	-0.08788054
55	0x3dbdb53a	0.09263082
56	0xbde79da0	-0.113093615
57	0x3e256072	0.16150072
58	0xbdf16c72	-0.117882624
59	0xbcab53a1	-0.0209139
60	0x3dd785cc	0.105235666
61	0xbdf79452	-0.12088837
62	0x3d8de1c0	0.06927824
63	0xbe04612f	-0.12927698

gnn_layer_1.gconv.u_fc.weight f4 [64, 64]
0	0x3c7f9c42	0.01560122
1	0xbe02ffec	-0.12792939
2	0x3d6ef68a	0.058340587
3	0xbc6d1725	-0.01447085
4	0x3d83816a	0.06421168
5	0xbd550828	-0.05200973
6	0xbd605ebd	-0.05477785
7	0xbd28d2ae	-0.041216545
8	0x3d4b72b3	0.049669933
9	0xbdee040b	-0.11621865
10	0x3d40f215	0.047105867
11	0x3c187ccf	0.0093071
12	0x3dba68cb	0.09102019
13	0xbda29d09	-0.07940108
14	0x3cd3e6a9	0.025866823
15	0xbca4a7ae	-0.020099487
16	0xbcb35f8a	-0.021896143
17	0xbdbdf5f2	-0.09275426
18	0xbd6d34bf	-0.05791163
19	0xbdc1f950	-0.09471381
20	0xbd4c0a88	-0.04981473
21	0x3d9e40ba	0.07727189
22	0x3db6d124	0.08926609
23	0xbd50e981	-0.051003937
24	0x3d83359a	0.06406708
25	0x3da87c1b	0.08226796
26	0x3da040da	0.078248695
27	0x3c607154	0.0136988945
28	0x3c8d4e48	0.017249241
29	0xbd017169	-0.031602297
30	0xbd8e0cc2	-0.06936027
31	0x3dbdfa3f	0.09276246
32	0xbd032984	-0.032022014
33	0x3daa42b7	0.08313506
34	0xbdfddc2f	-0.12395512
35	0x3dd3cc8b	0.10341748
36	0x3ca90681	0.020632984
37	0xbd6d35df	-0.057912704
38	0xbdaa550f	-0.08317005
39	0x3cec0804	0.028812416
40	0x3db8a609	0.09016044
41	0x3d6b156c	0.057393476
42	0xbd7b3e40	-0.061338663
43	0xbd0766e0	-0.033057094
44	0xbd3fcd19	-0.046826456
45	0x3d8fd26a	0.07022555
46	0x3c85ff3d	0.016357059
47	0x3de780f4	0.11303893
48	0x3c407634	0.011746932
49	0xbdb04261	-0.08606411
50	0x3de7e18c	0.113223165
51	0xbdaa3702	-0.08311273
52	0xbddd0bb5	-0.107932486
53	0x3d432f46	0.047652505
54	0x3dc6fddc	0.097163886
55	0x3c777349	0.01510317
56	0xbdb8f367	-0.090308
57	0x3c40fd53	0.011779147
58	0xbcfedf88	-0.031112447
59	0xbd758688	-0.059942752
60	0x3d7dc79a	0.061957933
61	0x3d1dff71	0.038573686
62	0xbda8d6f5	-0.08244125
63	0xbb987628	-0.004652757
64	0xbd33010d	-0.043702174
65	0xbc95c677	-0.018283112
66	0x3d689343	0.056781065
67	0xbd42f597	-0.047597494
68	0xbdf6bc29	-0.120476075
69	0x3dc392f0	0.095495105
70	0xbddd01f6	-0.1079139
71	0x3de91f0e	0.11382876
72	0xbb692cf5	-0.0035579775
73	0xbdcdca2c	-0.10048327
74	0xbdca3a52	-0.09874405
75	0xbdb9a5ba	-0.09064813
76	0x3cdcc5be	0.02694976
77	0x3dfc2fb4	0.12313786
78	0x3e2e7964	0.17038494
79	0xbdd0da58	-0.10197896
80	0x3ca8d2f0	0.020608395
81	0xbd2c6285	-0.042086143
82	0x3e078a39	0.13236322
83	0xbde6568c	-0.11246976
84	0xbcb399e8	-0.021923974
85	0xbd1db76b	-0.038505
86	0x3debfe2a	0.11523087
87	0x3daa5341	0.08316661
88	0x3d693203	0.05693246
89	0xbd9b2b26	-0.07576589
90	0xbd65c4c1	-0.056095842
91	0xbe0cd807	-0.13754283
92	0xbe05847b	-0.13038819
93	0xbdae06bd	-0.08497379
94	0xbd38addb	-0.045087676
95	0x3d9a7b06	0.07542996
96	0x3dcc8157	0.09985607
97	0x3e0fc5bb	0.14040272
98	0x3de50a6f	0.11183631
99	0x3dc88fcc	0.09793052
100	0x3dd76ced	0.10518823
101	0xbd7ebd5e	-0.062192313
102	0x3c9fde95	0.019515315
103	0xbdc4c65f	-0.09608149
104	0xbbbaa9d5	-0.005696515
105	0xbdb7cc89	-0.08974559
106	0x3d50e96c	0.05100386
107	0x3c834d9b	0.016028216
108	0x3dfeef5f	0.12448
109	0x3dd0d9ff	0.101978295
110	0x3ce1936a	0.027536113
111	0xbda40ad8	-0.08009881
112	0x3d277fb0	0.040893257
113	0x3e057f3a	0.13036814
114	0xbd8d5d09	-0.06902511
115	0xbde942f4	-0.113897234
116	0x3d9e9ce8	0.07744771
117	0x3d50b60e	0.05095487
118	0x3d37d270	0.044878423
119	0x3de258b8	0.11052078
120	0x3e0e3bfb	0.13890068
121	0xbcd3561b	-0.025797894
122	0x3da24879	0.07923979
123	0xbd65ad4e	-0.05607348
124	0x3d0e0c4f	0.034679707
125	0x3d354f03	0.044264805
126	0xbdbed89c	-0.09318659
127	0xbe17c63a	-0.14821711
128	0x3d1db042	0.03849817
129	0x3db50755	0.08839289
130	0x3dc094bf	0.09403371
131	0x3c0af1a0	0.008480459
132	0xbdacee5e	-0.084439024
133	0xbd97cef4	-0.0741252
134	0x3c99f41e	0.018793162
135	0xbc609d12	-0.0137093235
136	0xbaff45b3	-0.0019475728
137	0x3cc08771	0.023502083
138	0xbd0fb581	-0.035085205
139	0x3d953eaa	0.07287343
140	0xbdd4338a	-0.10361393
141	0xbd7bc66b	-0.061468523
142	0xbd48731a	-0.048937894
143	0x3cde65b2	0.027148101
144	0xbd8d14d8	-0.06888741
145	0x3db5277d	0.088454224
146	0x3d8859f6	0.06657784
147	0x3df53a3f	0.11974
148	0xbdf89c5b	-0.121391974
149	0xbd5167b6	-0.051124297
150	0xbded95d8	-0.11600846
151	0x3c65462a	0.013993779
152	0xbd869fae	-0.06573425
153	0xbd3c6b94	-0.046001032
154	0x3d3eed03	0.04661275
155	0xbda57ad8	-0.08080071
156	0x3dcb4ed2	0.09927143
157	0x3cd1c431	0.025606247
158	0x3dc2d3ac	0.095130295
159	0xbd41cf7c	-0.047317013
160	0x3d8a8fa9	0.06765682
161	0xbbc90d93	-0.0061356514
162	0xbcae0b70	-0.021245688
163	0xbc715905	-0.014730697
164	0x3ce06355	0.027391115
165	0xbda9c371	-0.082892306
166	0xbd198842	-0.03748346
167	0xbdf1316a	-0.11777003
168	0x3d8ce318	0.06879252
169	0xbc86e3c4	-0.016466029
170	0x3d14793a	0.036248423
171	0x3dcf1e00	0.10113144
172	0x3dc0ec36	0.09420054
173	0xbd763b61	-0.060115222
174	0x3d737214	0.059434965
175	0xbd1a9c8f	-0.037746962
176	0xbddc21f6	-0.10748665
177	0xbdc76b1d	-0.09737227
178	0x3daa24e2	0.08307816
179	0xbcd05cb7	-0.025434835
180	0xbd02cee2	-0.03193558
181	0xba8c8682	-0.0010721239
182	0xbcd007f0	-0.02539441
183	0xbdd607e0	-0.10450721
184	0x3d3802e8	0.044924647
185	0xbd410895	-0.047127325
186	0x3dcd4d63	0.10024526
187	0x3d0f2558	0.034947723
188	0xbde02ff3	-0.109466456
189	0xbd9c80cc	-0.076417536
190	0xbceff223	-0.029290264
191	0x3d9057a1	0.07047964
192	0xbc7067f4	-0.014673222
193	0x3c899832	0.016796205
194	0x3ddadec4	0.106870204
195	0xbcc7e329	-0.02440031
196	0x3c33d194	0.01097526
197	0xba7411e1	-0.00093105255
198	0xbd45ed88	-0.04832223
199	0x3d7ebbfa	0.062190987
200	0xbda1f421	-0.07907892
201	0xbd19d184	-0.037553325
202	0xbc7210ef	-0.014774545
203	0xbe023dc6	-0.12718877
204	0x3ca249e1	0.019810619
205	0x3bccff52	0.0062560225
206	0x3d383986	0.044976734
207	0x3b940c23	0.0045180484
208	0x3d6ad854	0.057335213
209	0xbcf7e59a	-0.03026085
210	0x3e05a0c6	0.13049611
211	0x3bf6672a	0.0075196223
212	0x3c86f89d	0.01647597
213	0x3dd374f2	0.1032504
214	0xbdba2bf0	-0.09090412
215	0x3d5ed749	0.05440453
216	0xbdd93c2b	-0.10607179
217	0xbc89a21b	-0.01680093
218	0xbe0dff6d	-0.13866968
219	0x3bbdbbac	0.0057901945
220	0x3d3c14d8	0.045918316
221	0x3b4663ae	0.0030271816
222	0xbd21dad0	-0.039515316
223	0x3c6a819c	0.014313128
224	0x3df59142	0.11990596
225	0xbd725dbb	-0.05917142
226	0xbd6c0d7e	-0.057630055
227	0xbe0817a9	-0.13290276
228	0x3d3d13d3	0.046161484
229	0x3dbb43eb	0.09143814
230	0xbdd8af28	-0.105802834
231	0xbd3360cf	-0.043793496
232	0x3d67957c	0.056539044
233	0x3e0110b5	0.1260403
234	0x3d3a3945	0.045464773
235	0x3dd0adfe	0.101894364
236	0x3c808d20	0.015692294
237	0xbdb1eda3	-0.08687904
238	0x3d9c567a	0.076336816
239	0x3d913acd	0.070912935
240	0xbddd4df9	-0.10805888
241	0x3d998a03	0.07497027
242	0x3da6dd3a	0.08147664
243	0xbdbd23ae	-0.09235321
244	0xbca68754	-0.020328201
245	0x3d539bd4	0.05166228
246	0x3dc6ded4	0.0971047
247	0xbcaa98f4	-0.020824887
248	0xbe047535	-0.12935336
249	0xbdcf45e3	-0.10120752
250	0x3d33800b	0.043823283
251	0xbbdd8f8f	-0.0067614983
252	0x3ddafaa4	0.10692337
253	0x3d4cf87a	0.050041653
254	0x3df41a4a	0.11919077
255	0x3bfb3921	0.0076667224

gnn_layer_1.gconv.u_fc.bias f4 [64]
0	0x3dcd6129	0.100282975
1	0x3c82cef8	0.015967831
2	0x3c2c2254	0.010506231
3	0xbd2c2e8d	-0.04203658
4	0x3de32f8c	0.11093053
5	0x3e01c436	0.12672505
6	0x3e0ab016	0.13543734
7	0x3b93b0f2	0.0045071775
8	0x3d1dc13c	0.03851436
9	0x3d40f20e	0.04710584
10	0x3d75865a	0.05994258
11	0x3dda0c7b	0.10646912
12	0xbd69adb3	-0.057050418
13	0xbc2eb700	-0.010663748
14	0x3d880c8a	0.06643017
15	0xbc871f95	-0.016494552
16	0xbdf52548	-0.119700015
17	0x3e149db6	0.14513287
18	0x3d3df8cd	0.046379853
19	0xbd75a471	-0.059971277
20	0x3ca6256c	0.020281516
21	0xbd0f6cfb	-0.03501604
22	0xbcb24bcb	-0.021764657
23	0xbd6a3149	-0.05717591
24	0x3e16a277	0.14710413
25	0x3c93b46c	0.018030368
26	0x3d88b1b7	0.066745214
27	0x3dae83d7	0.0852124
28	0x3dee027a	0.11621566
29	0xbc9f48b8	-0.019443855
30	0xbcf037ca	-0.029323477
31	0x3d1f1be4	0.038844958
32	0xbd0e6dfd	-0.03477286
33	0x3d89fca5	0.06737641
34	0x3d7368d9	0.059426162
35	0x3ce46af6	0.027883034
36	0x3db8eddc	0.09029743
37	0x3d1bcc0a	0.038036384
38	0xbd13983e	-0.03603386
39	0xbd8c7711	-0.068586476
40	0xbcccf8d7	-0.025021
41	0x3ce367b0	0.027759403
42	0xbe03ba3d	-0.12864013
43	0xbbb3a4c0	-0.005482286
44	0x3daaafcc	0.08334312
45	0xbde52d30	-0.111902595
46	0xbcbaaa0f	-0.022786168
47	0x3db8faee	0.09032236
48	0x3d49950a	0.0492144
49	0xbd5dae08	-0.054121047
50	0xbd892d23	-0.06698062
51	0xbb1eb5a1	-0.0024217146
52	0xbda0e6de	-0.078565344
53	0xbdf91027	-0.12161284
54	0x3cb2c7ee	0.02182385
55	0x3c946d92	0.018118653
56	0xbd0fd287	-0.035112884
57	0xbe1c5b6b	-0.15269248
58	0xbd2a13f4	-0.041522935
59	0x3c96a6ae	0.018390026
60	0x3dc004d9	0.093759246
61	0xbd084fca	-0.033279218
62	0xbda0d232	-0.078525916
63	0x3d2901ab	0.041261356

affinity_1.A f4 [64, 64]
0	0x3f6cf190	0.92556095
1	0xbda4e354	-0.08051172
2	0x3db1a264	0.08673552
3	0x3dcc90bc	0.099885434
4	0x3bf013e0	0.007326588
5	0xbde75286	-0.11295037
6	0x3d82b348	0.063818514
7	0x3d314f24	0.043288365
8	0x3df3a81a	0.11897297
9	0x3d25bee4	0.04046525
10	0x3d50b6c4	0.05095555
11	0xbda4e730	-0.08051908
12	0x3de7e93c	0.11323783
13	0x3dd3645e	0.10321878
14	0xbd3a8d70	-0.04554504
15	0xb97ce800	-0.0002411902
16	0xbd5e259c	-0.054235086
17	0x3d8933ec	0.066993564
18	0xbb86ea80	-0.00411731
19	0x3cb339e8	0.021878198
20	0x3df09844	0.11747792
21	0xbdfef972	-0.12449922
22	0x3cac7928	0.021053866
23	0x3cc20390	0.02368334
24	0xbd9eb468	-0.077492535
25	0x3da9dcc8	0.08294064
26	0xbb5cef00	-0.003371179
27	0x3df5ab44	0.11995557
28	0xbc511270	-0.0127607435
29	0xbdb443a0	-0.08801961
30	0x3ddd44c2	0.1080413
31	0x3dcdfa16	0.10057466
32	0xbd8eb802	-0.069686905
33	0x3db460b0	0.08807504
34	0x3d9f44f2	0.07776822
35	0xbd96edda	-0.07369585
36	0xbc764b50	-0.015032604
37	0x3dcc6a96	0.09981267
38	0xbd007b60	-0.03136766
39	0x3bd6dc60	0.0065570325
40	0xbc77b130	-0.015117928
41	0x3d344448	0.04401043
42	0xbdd91a68	-0.1060074
43	0x3dffba8e	0.12486754
44	0xbd950c6c	-0.0727776
45	0x3d8e21ee	0.06940065
46	0xbdbb6112	-0.09149374
47	0x3be0b240	0.0068571866
48	0x3b1adec0	0.0023631305
49	0x3cae5440	0.021280408
50	0x3d3c81cc	0.04602222
51	0x3d3b3454	0.0457042
52	0xbdd8feda	-0.10595484
53	0x3b820640	0.00396803
54	0xbdfca5f2	-0.12336339
55	0xbdb87892	-0.09007372
56	0x3d8e234a	0.069403246
57	0x3dba18bc	0.09086749
58	0xbdd43784	-0.10362151
59	0x3d826938	0.06367725
60	0x3d6302c8	0.055422574
61	0x3d64ec38	0.05588934
62	0xbda966ec	-0.08271584
63	0x3d5e3d74	0.054257825
64	0xbce0c5d0	-0.027438074
65	0x3f8f62df	1.1202048
66	0x3dcaf468	0.09909898
67	0x3d337df0	0.043821275
68	0x3a8eb280	0.0010886937
69	0xbd9399c8	-0.07207066
70	0x3d09ba1c	0.033624753
71	0x3d39f580	0.045400143
72	0xbccb4fb0	-0.024818271
73	0xbdcc9722	-0.09989764
74	0xbd720fe4	-0.059097186
75	0xbd88d98c	-0.06682119
76	0x3c5f90d0	0.013645366
77	0xbd7145b8	-0.05890438
78	0x3d3d30dc	0.046189174
79	0x3cb496b8	0.022044525
80	0xbccb0238	-0.024781331
81	0xbdc257d4	-0.09489408
82	0xbddeca86	-0.10878472
83	0x3cb6e098	0.022323892
84	0x3dac2a3a	0.084064916
85	0x3de00380	0.109381676
86	0x3a499b00	0.00076906383
87	0x3db1a5ee	0.08674227
88	0x3dba45f4	0.09095374
89	0xbdf02f4e	-0.11727773
90	0xbd3a5a0c	-0.04549603
91	0xbcd34690	-0.025790483
92	0x3d563d28	0.052304417
93	0xbcebee50	-0.02880016
94	0x3de1b3f2	0.1102065
95	0xbd86b924	-0.065782815
96	0x3de8df6e	0.11370741
97	0xbdc375ce	-0.09543954
98	0xbd5964b4	-0.053074554
99	0x3daf8850	0.085709214
100	0x3dfd3f4c	0.123655885
101	0xbdc283ce	-0.09497796
102	0xbd9d43e6	-0.07678966
103	0xbdb9f7d6	-0.09080474
104	0xbde31160	-0.110872984
105	0x3db6f98c	0.08934316
106	0x3cdc99b0	0.026928753
107	0xbdf6ed9e	-0.12057041
108	0xbcc23af8	-0.02370976
109	0x3dbb266a	0.09138186
110	0x3d8da55a	0.06916304
111	0xbc8e2370	-0.017350882
112	0xbcbbab20	-0.022908747
113	0xbd130b58	-0.03589949
114	0xbcfe9b88	-0.031080022
115	0xbd96428c	-0.073369116
116	0xbde97892	-0.1139995
117	0x3d92584a	0.07145746
118	0x3d9ead5c	0.077479094
119	0x3bef6820	0.007306114
120	0x3cf3d158	0.029762909
121	0xbce42358	-0.027848884
122	0xbd482a20	-0.0488683
123	0xbde30ac2	-0.11086036
124	0x3ddd84a0	0.10816312
125	0xbbc94bc0	-0.0061430633
126	0x3de4a6be	0.11164616
127	0xbd5686c0	-0.0523746
128	0xbdad5394	-0.08463207
129	0x3dde18a4	0.108445436
130	0x3f65c23c	0.89749503
131	0x3bb2ce60	0.0054567307
132	0x3d9f5936	0.077806875
133	0xbdf50b3a	-0.11965032
134	0x3defcff0	0.11709583
135	0xbdff8792	-0.1247703
136	0x3c842e10	0.016135246
137	0x3df602ac	0.12012228
138	0xbcb801d0	-0.022461802
139	0xbcd88110	-0.02642873
140	0x3dec1178	0.115267694
141	0xbd060d44	-0.032727495
142	0xbde213f4	-0.11038962
143	0xbb43d580	-0.0029881895
144	0x3a8fe300	0.0010977685
145	0xbd7da7a8	-0.061927468
146	0xbb9b3a00	-0.0047371387
147	0xbde6ac22	-0.112633005
148	0x3cd540c8	0.026031867
149	0xbd5043a0	-0.050845742
150	0xbdb59c4c	-0.08867702
151	0x3ddb7e38	0.10717434
152	0xbd51f5b8	-0.051259726
153	0xbc25b220	-0.010113269
154	0x3da0e5fc	0.07856366
155	0x3ce9f928	0.02856119
156	0xbdd9ac54	-0.10628572
157	0xbdc22088	-0.09478861
158	0xbda4c43c	-0.08045241
159	0x3d0ee194	0.034883097
160	0x3cef7c70	0.029234141
161	0x3d0a91b4	0.03383036
162	0xbcb4d140	-0.022072434
163	0x3d6abaf4	0.0573072
164	0x3de56d3a	0.11202474
165	0x3d213a90	0.03936249
166	0xbd146164	-0.03622569
167	0x3d51e4c8	0.051243573
168	0x3cc972c0	0.02459085
169	0xbdbdd968	-0.092699826
170	0x3df45dd2	0.11931957
171	0xbd337688	-0.043814212
172	0xbbc0e5e0	-0.0058867782
173	0xbd94f492	-0.072732106
174	0xbcd5c7a0	-0.026096165
175	0x3c401cd0	0.011725619
176	0xbd488744	-0.048957124
177	0xbde5c1a8	-0.112185776
178	0xbd400158	-0.04687628
179	0x3d291160	0.041276336
180	0x3d32107c	0.043472752
181	0xbda39434	-0.07987252
182	0xbd88beea	-0.06677039
183	0x3d5420d8	0.051789135
184	0xbcf9e990	-0.03050688
185	0xbc82bb18	-0.015958354
186	0xbde694ac	-0.11258826
187	0x3c97c1b8	0.01852499
188	0xbd16ff54	-0.036864594
189	0x3df2653a	0.11835714
190	0x3dfcf374	0.123511225
191	0xbd44143c	-0.04787086
192	0x3dfd2b66	0.12361793
193	0x3d1f4078	0.03887984
194	0xbccaa7b0	-0.024738163
195	0x3f652264	0.895056
196	0x3dc74f7a	0.09731956
197	0xbd03eb90	-0.03220707
198	0x3d948f1c	0.072538584
199	0xbd23b910	-0.03997141
200	0xbdbd9bac	-0.09258208
201	0x3df2901c	0.11843893
202	0xbd380a04	-0.044931427
203	0x3c9539e0	0.018216074
204	0xbdc18a42	-0.09450199
205	0x3dbaad7c	0.09115121
206	0x3dd6ed36	0.10494463
207	0xbd764184	-0.060121074
208	0x3d0cbbb8	0.03435871
209	0xbcb9df40	-0.022689462
210	0xbd30e8c8	-0.043190747
211	0xbdec0300	-0.1152401
212	0xbdd718d4	-0.105027825
213	0x3d534c08	0.05158618
214	0xbd085f70	-0.03329414
215	0x3d469058	0.0484775
216	0xbd36998c	-0.044580027
217	0xbd47399c	-0.048638925
218	0x3d9a06b4	0.0752081
219	0x3cf79338	0.030221567
220	0x3d7b574c	0.06136255
221	0xbdb1442c	-0.08655581
222	0xbd52e68c	-0.051489398
223	0xbdeca284	-0.11554435
224	0x3c880c30	0.016607374
225	0xbd1650e8	-0.036698252
226	0xbb65ac80	-0.0035045445
227	0x3da85d52	0.082209244
228	0x3cb440f8	0.022003636
229	0xbd9cc4f4	-0.07654753
230	0xbb108ac0	-0.0022055358
231	0x3de16460	0.11005473
232	0xbbe68240	-0.00703457
233	0xbda2037e	-0.07910822
234	0xbd0a6154	-0.033784226
235	0x3da95444	0.082680255
236	0x3de53c02	0.11193086
237	0x3ba97b00	0.0051721334
238	0x3d0a402c	0.033752605
239	0x3dd865bc	0.10566279
240	0xbc927258	-0.017876789
241	0xbd586028	-0.052826077
242	0xbda74816	-0.08168046
243	0x3c721150	0.014774635
244	0xbad64f00	-0.0016350448
245	0x3d539f78	0.051665753
246	0x3d14207c	0.036163792
247	0xbc91cde0	-0.017798364
248	0x3d59a060	0.05313146
249	0x3d05c3e4	0.03265752
250	0xbc8e0490	-0.01733616
251	0x3ccca210	0.024979621
252	0xbd38e984	-0.045144573
253	0xbdcc7e06	-0.099849746
254	0x3dd43ee4	0.10363558
255	0x3dcca22c	0.09991869
