ThinkMatch/exp_aaai/pca/CV1/saved_models/model.pt (torch, 216498 bytes, 17 tensors)

gnn_layer_0.gconv.a_fc.weight f4 [64, 121]
00000000: 51e8 263c f2a7 c7bd 6310 853d d250 c93d
00000010: cba7 a9bd dd7e cfbc d948 803d b80b 15bd
00000020: 86dd 883d c799 453c e1ce 9c3d 02d0 2a3d
00000030: 375e 0b3d 047a d33c 75a0 283d 5586 343d
00000040: ae34 853b 33b7 463d 9a66 0f3d fb00 553d
00000050: 25d6 29bd ca65 b33d 35b5 b8bc 65f2 56bc
00000060: 59c1 523c 25ce 6cbc 1e80 feb9 44b3 3d3d
00000070: 7444 e9bc 82d3 4e3d 5fd4 383d 6876 f83c
00000080: c3ec 50bd 95eb c43c 95e9 c73d 032e 413d
00000090: b99f b6bc 035f 8c3c c887 8d3b 7d4b 963d
000000a0: 901a ed3b 85ae b1bc 404c a4bc 503a e93c
000000b0: 8544 5e3d d93e 413d a532 a9bd f053 013d
000000c0: efeb 6a3d 7272 aabd 1667 a8bc ae6b 423d
000000d0: 5d2a 903b f3e4 333d 66ec fa3c affa cd3c
000000e0: 80c9 86bd 3428 75bd d113 eabc 6ee3 533c
000000f0: dd16 823b 7c1f 453d 7d13 4d3d 2104 94bc
00000100: 2db3 82ba 4726 b43d ebe5 443d 3278 be3c
00000110: ece3 12bc 77c0 913d 062e f63c 7c7b 7b3d
00000120: 3975 88bd 5423 1f3d a653 b6bd 95a0 0cbc
00000130: 73ef a73d 2e34 933d 5337 b23d 81cd cabc
00000140: de8d 88bd aace 84bd 4b77 af3d 6241 ae3d
00000150: 6c53 6c3a 1b9b 9cbd 9d48 5f3d a519 c93d
00000160: a48d 28bd 1a7f aabd 805b 8239 5a83 82bd
00000170: c3aa 8d3d 7bbe 4ebc a009 87ba 2464 f73b
00000180: e4e4 863c 62cc 863d 2e3d 033d d02c 163d
00000190: 9cdd 93bd 3ddc 9f3d d106 f63c 24ae 09bd
000001a0: 84ed 13bd 9237 283d 72c2 59bd b7d9 6cbd
000001b0: 1d0a 9bbc 8d78 5a3d 44c3 fdbc 8661 6ebc
000001c0: e83d 573d 9cc0 a53d c925 733c f1aa 2e3d
000001d0: 3d37 a03d cdf4 e2bd d944 3abd 2588 9f3b
000001e0: dd5e a13d abf3 553d e6ad c0bc c164 b73d
000001f0: fd32 873d 6b35 bbbc f3f3 7f3d 8ad5 b23d
00000200: 4df6 0dbd da17 da3c d451 64bd 7205 90bd
00000210: 32ca 74bd 9817 b3bd f81e 95bc 32a1 583d
00000220: 74af ad3d 6871 583c 5690 9bbd 146e 803d
00000230: 8144 043d 0988 babd 98d5 a6bc d83b f13c
00000240: bc5d b43a 4e2f 75bc 618c 2bbc accb 8dbc
00000250: e3b4 adbd 95ad 8ebd 48db 59bb 2477 89bd
00000260: 0522 443d dd1a a53d 0865 8ebd 8b05 64bd
00000270: 7660 a93d 72f3 8dbd d4d1 763a ca9a 9c3d
00000280: b853 013c ba8f 81bd 5c3e 8e3c 7ef7 8c3c
00000290: 11c5 ffbc dc22 debc 8e65 b33d a1f0 903d
000002a0: 4514 3ebd a13c b03d 2500 5cbd d762 60bd
000002b0: 3694 babd b894 b8bc 91cd 9bbd ea00 92bd
000002c0: 74a6 09bd 1f95 883c 9675 93bd d805 f73c
000002d0: b947 1e3d d2ad 5e3d 8741 adbb 3056 5fbd
000002e0: 546b 5bbc 812a f8bc 1cc5 293d 3c3c 0abd
000002f0: 6e4c e0bb 5f2f 2cbd 9bc9 9d3d 1b5f 1d3d
00000300: 139a 81bd 85c9 633d 8aba 5abc c6b1 823d
00000310: b803 8f3c 572b b63d 389f b23d 905a 1ebd
00000320: 1f48 b6bd 8e4a 243c 6619 853b 691b 883d
00000330: 3cbb 953c 7b9a 12bc a652 37bd dc73 06bd
00000340: cecb 1f3d 4ac9 c83c 3b4b 893c 58a9 b2bc
00000350: bb34 e9bc b1d2 6a3c 2075 b7bc ff49 a73d
00000360: 0c8c 49bd e514 b8bd 0625 b6bb 98e7 883d
00000370: c4c6 6cbd c3cf 10bd a2e3 d2bc 8386 833c
00000380: 0717 68bd 0ecb 87bd 249a a7bc 63f3 a43d
00000390: 039f 4abc be8d b73c b135 5bbc 63b8 a3bc
000003a0: 7a39 133d eb17 73bd c09a 6b3d 789e a5bc
000003b0: 2244 873c 2b16 633d fb87 983c 57e1 8dbc
000003c0: cdc9 863d 139b 9dbd 1454 8ebd 6284 df3c
000003d0: 6344 933d 9a73 723d 4334 01bd 8848 90bd
000003e0: a57d 9fbd d377 34bc 59f7 a33d 68d4 80bd
000003f0: 2839 8d3c 44a2 683d d53d 6c3d 6dc8 963d
0.0101872245 -0.0974883 0.06497266 0.098298684 -0.08283957 -0.025329048 0.062638946 -0.03638813
0.06682877 0.012060589 0.076566465 0.041702278 0.034025397 0.025815018 0.04116865 0.04407342
0.004065118 0.048514556 0.035009958 0.05200289 -0.04146399 0.08759649 -0.022547344 -0.013119315
0.0128634805 -0.014453446 -0.0004854211 0.04631354 -0.028475024 0.05049468 0.045124408 0.030329898
-0.051007044 0.024038116 0.09761349 0.04716302 -0.022292959 0.017135149 0.004319165 0.07338617
0.0072358325 -0.021689663 -0.02005589 0.028470188 0.054264564 0.047179077 -0.08261613 0.03157419
0.05735391 -0.0832261 -0.020556968 0.047465973 0.0043995813 0.043919515 0.030630302 0.02514395
-0.06581402 -0.059852794 -0.028573902 0.012932641 0.0039700107 0.04812573 0.050067414 -0.018068375
-0.0009971611 0.08796363 0.04807083 0.023250673 -0.008965474 0.07116788 0.030051243 0.06139706
-0.066629834 0.03885205 -0.089026734 -0.008583208 0.08199968 0.07187687 0.087019585 -0.024756195
-0.06667684 -0.064847305 0.08567675 0.085085645 0.00090151164 -0.076467715 0.05451261 0.098193444
-0.041150704 -0.08325024 0.00024863705 -0.063727096 0.06917336 -0.012618656 -0.0010302551 0.0075497795
0.016466565 0.06581952 0.032040767 0.03666383 -0.07220003 0.07805679 0.030032547 -0.03361334
-0.036115184 0.04106862 -0.053163953 -0.057824817 -0.01892572 0.053337622 -0.030976899 -0.014549619
0.052549273 0.08093378 0.014840552 0.04264349 0.07823036 -0.11081848 -0.045475814 0.0048685246
0.07879422 0.052234333 -0.023520421 0.08954764 0.06601522 -0.02285262 0.062488507 0.087321356
-0.03465872 0.026622701 -0.0557421 -0.070322886 -0.05976314 -0.087447345 -0.018203244 0.052888103
0.08480731 0.013210632 -0.07595889 0.06270996 0.032291893 -0.09107978 -0.020365521 0.029447481
0.0013760845 -0.014964892 -0.010470481 -0.017309032 -0.08481767 -0.06966702 -0.0033242274 -0.067121774
0.047884006 0.080617644 -0.06952864 -0.05566935 0.082703516 -0.06931199 0.0009415422 0.07646711
0.007893495 -0.06326242 0.01736372 0.017207857 -0.031221898 -0.027116232 0.087596044 0.07077146
-0.04640605 0.08605314 -0.053711075 -0.05478176 -0.091103 -0.022531852 -0.07607568 -0.071290806
-0.033606008 0.016672669 -0.07200162 0.030154154 0.03864262 0.054364987 -0.0052873525 -0.054525554
-0.013392288 -0.030293705 0.041447744 -0.03374885 -0.0068450486 -0.042037364 0.07704469 0.038420778
-0.063282155 0.055612106 -0.013350138 0.06381564 0.017457828 0.08894985 0.08721775 -0.038660586
-0.08900475 0.010027541 0.0040618656 0.06645853 0.018277757 -0.008947964 -0.044756554 -0.032825336
0.039012723 0.024510045 0.016759505 -0.021809265 -0.028467527 0.014332459 -0.022394717 0.081684105
-0.049205825 -0.0898836 -0.0055586128 0.06684798 -0.057806745 -0.035354387 -0.02574331 0.016055351
-0.056662586 -0.066305265 -0.020459242 0.08054235 -0.012367013 0.022406455 -0.0133795 -0.019985383
0.035943486 -0.05934898 0.057520628 -0.020217165 0.01651198 0.055441063 0.018619528 -0.017319364
0.06581459 -0.07695594 -0.069496304 0.027284805 0.07190778 0.059192277 -0.03154398 -0.07045084
-0.07787637 -0.011014896 0.08006162 -0.06290513 0.017239168 0.056795374 0.057676155 0.07362447

gnn_layer_0.gconv.a_fc.bias f4 [64]
00000000: bf9f 8dbd 8c25 19bd c09f 0cbd 0921 a73d
00000010: 3ae3 8cbd eb8e 203d d1a5 ba3d 888b 6fbc
00000020: 2a82 b7bd 335e b63d 85f0 753d 8ca3 2ebc
00000030: 3e18 9d3c 1f2c 85bc 58ac be3d 6f85 9fbd
00000040: fe3f f3bc c3e0 83bd e333 013d 69b3 81bd
00000050: 4d12 65bd d332 8db9 07e7 b6bb b0b8 eeba
00000060: 2c9d 023d 6418 7ebc c4df 283d ddca bebd
00000070: a911 62bc 08a6 073c e3d3 d9bc 8c7a 883c
00000080: 3b7a 4f3d 401c 18bd 3701 453d 4c7b 4ebd
00000090: 39eb 743c 4af6 95bd 1b7e a63d 59a6 94bd
000000a0: 4a25 a7bd 877e 87bd 6f0d 96bd 7a4d a6bd
000000b0: 9319 cb3d 2248 93bd 9865 523d 38be 49bd
000000c0: 0eb3 093d f253 b7bd c778 d93d 0249 9c3c
000000d0: 0136 86bd cd8b b2bd e2ac 213d 9772 0ebd
000000e0: 14dd 0cbd 985b b03d a3e3 0e3b d334 4e3d
000000f0: e8a6 86bc b638 fcbc 2ff9 1abd 10a6 99bd
-0.06915235 -0.037389323 -0.034332037 0.08160598 -0.068792775 0.039198797 0.09113658 -0.014620669
-0.08960374 0.08904686 0.06004383 -0.01065911 0.019176599 -0.01625639 0.09310216 -0.07789122
-0.0296936 -0.06439354 0.031543624 -0.06333048 -0.055925656 -0.00026931483 -0.00558174 -0.0018213
0.031888172 -0.015508745 0.041229025 -0.09316037 -0.013798156 0.008279331 -0.026590293 0.016659997
0.050653677 -0.037136316 0.04809686 -0.050410554 0.01494866 -0.073223665 0.081295215 -0.07258291
-0.08161409 -0.0661593 -0.07326781 -0.08120246 0.09916987 -0.071914926 0.05136642 -0.049253672
0.033618025 -0.08951558 0.106187396 0.019077782 -0.06553269 -0.08718071 0.039471515 -0.03477725
-0.034390524 0.0861122 0.0021803163 0.050343346 -0.016437009 -0.03078876 -0.037835296 -0.07502377

gnn_layer_0.gconv.u_fc.weight f4 [64, 121]
00000000: 35af 843d 60ff 24bd 3b8a 54bc c236 a9bd
00000010: 40d1 e23c 3e0b 7fbd 5dde 8ebc 952e ad3d
00000020: e383 9f3d a32d d0bc 2c45 643d f52f a3bc
00000030: 751b 2dbb 4c5c 5ebd 40a1 a7bd 18db 3d3b
00000040: c9c2 61bd 8c43 fabc fbb7 a53c 6906 1cbd
00000050: 9297 743d 85f4 963d d89a babc fadc 8bbd
00000060: 0c73 993c 3a51 81bc bbe7 34bd 6f49 d53c
00000070: bbac dabb 483f b03d 9892 15bc c9b3 513d
00000080: 6d57 b7bd c666 743c e557 a3bd 7b06 dabc
00000090: bb78 f4bb 8c3c 68bb 293c b7bc a647 8ebd
000000a0: a84b 83bd 528c 0d3c 6f87 b0bd 1b2b 3b3d
000000b0: fb92 d7bc 46b5 933c 333f 9e3d 3209 3cbd
000000c0: 5d33 44bd c9c4 6a3d db85 b23d 8372 4ebd
000000d0: a2c2 85bd 7674 b1bd 8618 8dbd cfa1 66bd
000000e0: 005e ac3c dd20 b23c 12f5 043d a2a8 873d
000000f0: fb6f d3bc 43d8 0c3d 238e 1b3d a2bd b43d
00000100: e996 25bb 7820 903d 16e2 9dbd fbbb b8bd
00000110: 1569 1f3d 2c7a 9b3d 821f 863d f55a 64bc
00000120: f56f ae3d c8aa 99bd 8ccd 223d 9ac4 9e3d
00000130: 6d48 86bd 95ed 883d 399b a9bd 46cf 4dba
00000140: 8da0 883d a394 723c d227 34bd d8d8 4b3d
00000150: 8093 5e3c 728a 113d 091c 583d dea3 7fbc
00000160: d8fa d33c 282d 853d 8c91 8d3b 5805 e43c
00000170: ecae 63bd c6e6 5a3d 5bf2 60bd 1e01 6ebd
00000180: 1ddf b8bc fac1 86bc 6920 7ebd 5201 46bc
00000190: e91b b13c fa83 043d 78ff 01bd fdaa aebd
000001a0: e94e 27bd 9d8b 83bc c837 9d3d 0607 893d
000001b0: fb2c b93c 1e5e 77bd 18c6 6cbd 7b65 d7bc
000001c0: afc3 393d 0c44 033c d5a4 1a3d 5f9f 8bbd
000001d0: bbfd 37bd b6e0 b4bd 78a1 193d c0a7 72bd
000001e0: c5d6 97bd 4c85 913d 7817 a7bd a692 59bd
000001f0: b620 353c e9f4 843c 6cad a2bb 5ad5 3e3c
00000200: 5638 a7bd dac3 0cbd 8511 80bd c3e5 003b
00000210: 983e 0ebd cd87 a6bd 2a27 94bd 060b c53b
00000220: dcd4 36bc f3ea 903c 23cb 453d 61a9 c03c
00000230: 3a5f 223d 430d 73bd 23d9 bb3c b98c 343d
00000240: 65a6 aabd afbb 2e3d dc60 52bd c9f3 43bd
00000250: c54c 81bc a6fb 443d 428f 843d c13d 95bd
00000260: 6e26 a1bd fc3d 84bd 957b abbd b215 9f3d
00000270: 1ba4 b7bd a682 873d 4534 2abd 515c 9d3c
00000280: d14a f1bc af13 ff3c 202c 96bd 91e6 0abc
00000290: f860 a63d 062a 9e3d a538 89bd 4d71 d7bb
000002a0: 685a 943d e0d5 64bd 0c50 d3bc 186f 71bc
000002b0: 32fc 223d 695a 59bc a0c6 8dbd 2a93 b23c
000002c0: 4694 49bd 0005 0fbc d5f8 c83b 23ac b4bd
000002d0: c6be 8a3d ef68 15bc 1f89 acbd eff8 6bbc
000002e0: a979 51bd 0c25 163d 4ffc 063d 77e9 603d
000002f0: 5da5 b03b 2fb7 63bd 9013 a53c 1f65 8f3d
00000300: 98d7 54bd b903 a4bd 9ea4 edbc ef28 733c
00000310: 539c a63d 5d00 323d fab9 963d 3a05 093c
00000320: 5243 60bd f539 363d 0cb0 b3bd 75e0 b8bd
00000330: 485c b53d c7a6 263d 2ac4 94bd 86fd 9ebd
00000340: 6226 423d b9b1 993d c0f6 383d e60f 83bd
00000350: e928 8d3d e05f 0f3d fb21 bbbc 6f6d 713d
00000360: df82 673d 1295 95bd 8997 4abd 0b49 a33c
00000370: 5260 0dbd d20d cc3c f55a 0ebd f6a8 ad3d
00000380: bed5 31bc 49cb b5bd a111 243c d676 0bbd
00000390: 8b8d a53b 4948 513d d0ba 5c3d 7fb6 763d
000003a0: 56a7 293c cc44 b93d e027 9e3d bd8e 17bd
000003b0: 2360 b3bc 280d b2bd 6dfa 9c3d d827 7dbd
000003c0: a5a7 7fbd 8d97 afbc e00a e5bb 5479 9dbd
000003d0: 499d 803d fb3f ae3d 4386 a73d 31b5 f5bc
000003e0: 3650 51bd 2a7e d53c 8ca5 7f3d d4d5 653c
000003f0: 3bbe cbbc f193 843d 1d6d e8bc b7e3 9d3d
0.064787306 -0.040282607 -0.01297241 -0.08262397 0.027687669 -0.06226658 -0.017440015 0.084561504
0.07788827 -0.025412386 0.05573003 -0.019920329 -0.002641407 -0.05428724 -0.08185053 0.0028969701
-0.055117402 -0.030549787 0.02022933 -0.03809205 0.05971486 0.07370857 -0.022778913 -0.06829257
0.018731616 -0.015785802 -0.044166308 0.026035992 -0.006673423 0.0860582 -0.009129189 0.051196847
-0.08952222 0.014917081 -0.07975749 -0.026614418 -0.0074606813 -0.003543648 -0.022367554 -0.069472596
-0.06410915 0.008639412 -0.08619582 0.045695405 -0.026315203 0.018030774 0.07726898 -0.045907207
-0.047900546 0.057316575 0.08716937 -0.050402176 -0.06531264 -0.08664791 -0.06889443 -0.056306656
0.021040916 0.021744186 0.03246028 0.06623961 -0.025810232 0.03438593 0.03797735 0.08825232
-0.0025266951 0.07037443 -0.07709138 -0.090202294 0.038918573 0.07591662 0.065489784 -0.0139377015
0.08517448 -0.07503277 0.039746806 0.077523425 -0.06556783 0.0668594 -0.082815595 -0.00078510155
0.06671248 0.014805946 -0.043983288 0.049767345 0.013584971 0.035532422 0.05276111 -0.015603034
0.025876448 0.065027535 0.004320329 0.02783458 -0.05558674 0.05344274 -0.05491863 -0.058106534
-0.022567326 -0.016449917 -0.062042627 -0.012085276 0.021619754 0.032352425 -0.031737775 -0.08528707
-0.04084674 -0.016057784 0.07676655 0.06690793 0.022604456 -0.06039249 -0.057806104 -0.026293507
0.045352634 0.008011829 0.037754852 -0.06817507 -0.04491971 -0.08831923 0.037507504 -0.05924201
-0.07414011 0.071055025 -0.08158773 -0.05311837 0.011055162 0.016230064 -0.004964521 0.011647547
-0.08165042 -0.034366466 -0.062533416 0.0019668199 -0.034727663 -0.08131371 -0.072340325 0.006013277
-0.011159148 0.017690158 0.04828943 0.023518266 0.039641596 -0.05933882 0.022930687 0.044079516
-0.083325185 0.042659458 -0.051361904 -0.047839914 -0.015783677 0.048091553 0.06472637 -0.07287169
-0.07868658 -0.06457135 -0.08373181 0.0776781 -0.089668475 0.06616716 -0.041553754 0.019209059
-0.02945462 0.031137316 -0.07332635 -0.008477823 0.08123964 0.07722859 -0.06700257 -0.006574786
0.07243806 -0.05586803 -0.025795005 -0.0147359595 0.039791293 -0.013266184 -0.0692265 0.021798689
-0.04921367 -0.008729219 0.0061331787 -0.08821895 0.067746684 -0.009119256 -0.08424591 -0.014402612
-0.051141415 0.036656424 0.032955464 0.05491015 0.0053908066 -0.05559462 0.02015093 0.07001709
-0.05196342 -0.080085225 -0.02900916 0.014841302 0.08135285 0.043457378 0.07359691 0.0083630625
-0.0547517 0.044488866 -0.08773813 -0.09027187 0.08855492 0.040686395 -0.07263978 -0.077631995
0.047399886 0.07504601 0.045157194 -0.06399517 0.068925686 0.035003543 -0.022843352 0.058942255
0.056521293 -0.073038235 -0.04946092 0.01993229 -0.034515686 0.024908934 -0.034754712 0.08479492
-0.010854183 -0.08876664 0.010013969 -0.034048878 0.0050522736 0.051094327 0.053889096 0.060232636
0.010354837 0.09046325 0.07722449 -0.03700136 -0.021896427 -0.086939156 0.076649524 -0.061805576
-0.062415738 -0.02143457 -0.006989822 -0.07689157 0.0628 0.08508297 0.08179905 -0.029993625
-0.051101886 0.026061136 0.062413737 0.014028031 -0.024870982 0.0647353 -0.028372342 0.07709449

gnn_layer_0.gconv.u_fc.bias f4 [64]
00000000: 754d 2dbd 7f3b 37bd 3961 d23c 123f 933d
00000010: 6727 aa3c ad31 843d 60a7 9abd 9b67 81bc
00000020: cc0e d43c 5409 aabc 377e bc3d e9a5 2b3d
00000030: 8321 e63b 0ab9 a43d 5c04 ad3b 89c2 633b
00000040: f797 82bc 5af4 94ba 6d54 06bc 1f49 da3d
00000050: f837 e13b 37fe d8bc 86b3 093d 8c41 3d3c
00000060: 81ce 23bd 8c00 75bc f463 a83c 462a 68bc
00000070: b22f a93d 5e2b 93bd d2e4 a63d 912f 943d
00000080: 3e72 483b bc14 babd 9783 2a3d b798 863d
00000090: bddd b83d 3f9e 1dbd a23e d1bc 854a 5abd
000000a0: 8bb8 f4bc 00fd 923c 4538 643b 4093 113d
000000b0: f19c 023d 5290 98bd c2a1 573d 41f9 453d
000000c0: 0d86 df3c b54f 2a3c e3e5 bb3c b4a0 2a3b
000000d0: 9f46 843d 6460 5f3d 213e aabd 6542 793d
000000e0: 94ed 5c3d 5ae7 0bbd 1858 173d 8220 a83d
000000f0: 4cb9 82bc 3689 9f3b 857e 293b 236f 9abc
-0.042310197 -0.044734474 0.025681125 0.07189764 0.020770742 0.064547874 -0.075514555 -0.015796473
0.025885962 -0.020756401 0.09203761 0.04190627 0.007023038 0.08043106 0.0052800607 0.0034753403
-0.015941603 -0.0011364326 -0.00819884 0.10658478 0.006873127 -0.026488407 0.033618473 0.011551272
-0.03999186 -0.014953744 0.020555474 -0.014170235 0.0826105 -0.07186006 0.08149113 0.07235635
0.0030585672 -0.09085986 0.0416294 0.06572097 0.09026668 -0.038480993 -0.025542561 -0.053293724
-0.029873153 0.017942905 0.0034823578 0.03554082 0.031887952 -0.07449402 0.0526445 0.04833341
0.0272856 0.01039498 0.022936767 0.0026035728 0.064587824 0.054535285 -0.083126314 0.060854334
0.05393751 -0.03415618 0.036949247 0.082093254 -0.015957497 0.0048686517 0.0025862765 -0.018851822

affinity_0.A f4 [64, 64]
00000000: 1ee3 843f bcb0 f1bd c0b1 19bb 9ce4 8ebd
00000010: 0021 1bbd 1c0b 6c3d ac92 c9bd ec2c a73d
00000020: f052 53bc b092 063d 14d6 dd3d 9895 1d3d
00000030: a6f6 d03d d40e efbd 7a2c 8f3d 0e4b e83d
00000040: dc49 89bd da13 ccbd 3cb6 38bd 9ac5 eebd
00000050: 54cf 153d 5c21 873d d45a b1bd 20de eabd
00000060: c0ef b73b ec5d 943d b492 a83d 90a2 683c
00000070: 7cb4 593d 9cd9 6d3d d636 f7bd 0edd 84bd
00000080: 0c85 773d f4a5 03bd b6e8 b5bd c0f0 353b
00000090: 40a3 403c 4450 0b3d 20d7 633c 8c60 793d
000000a0: 8a0b 80bd 60e3 2dbc c0b4 d9bc 30e5 9c3c
000000b0: d0d0 bc3d c626 e6bd 90f4 313c 107a 413c
000000c0: 0040 d3bd 043b f4bd a24b a9bd a08d 9fbd
000000d0: 78bf 903d 988c 8dbc 8a45 a3bd 58ea c5bc
000000e0: c456 b43d 3461 7d3d b433 303d f4f6 57bd
000000f0: 2a79 ea3d d824 793d 08ea a93d f478 963d
00000100: dc72 c3bd 3ebe 6a3f a2ec b53d 0e66 e3bd
00000110: 287e 9c3c 2293 95bd 7479 23bd 38a5 86bd
00000120: 00cf 7eba 30f6 5dbc de47 983d a239 bc3d
00000130: 1627 b8bd b416 1fbd 127d b9bd 52aa b0bd
00000140: b082 dbbc 00d5 50bc 30c0 7f3c 90e1 bf3c
00000150: 2017 afbb d04b 5d3d 902b 023d ccf8 223d
00000160: 3256 81bd 00a1 05bd 809e 723c ea2e d1bd
00000170: 0067 0bbd 9eac 94bd f084 e4bd 203c dc3d
00000180: bc83 7ebd acc4 bd3d bc7d de3d 0026 c3ba
00000190: 6c98 a53d 80f3 133d c0d0 b83c b43d 63bd
000001a0: 84e5 4abd 38d7 babd 7ce8 8d3d 9e26 cd3d
000001b0: 40c4 aa3d e095 acbd ec8b 7a3d eaf0 d7bd
000001c0: 7ebd dbbd 8e38 d13d 288a 653d a0f3 de3c
000001d0: 260e 9e3d 6442 7dbd b05c a2bd d0ab 12bd
000001e0: b092 893c c44f 7dbd a043 ef3c b09b 84bd
000001f0: acbd 213d 1e09 aebd 6ae7 f03d 1650 8b3d
00000200: ce5e e93d a67e b63d fb9c 873f 52de c6bd
00000210: 880f 42bd 04ed 5f3d bcd4 d73d 2e05 b13d
00000220: f861 0abd 0a7f b0bd dade a0bd 18ad c23d
00000230: 04ae e4bd 28a5 133d 766b 843d eaff 90bd
00000240: c060 00bc 6e4c 8ebd 609a f63c 9c23 1c3d
00000250: e883 bc3c daf7 ebbd 90f5 143d ec1c ccbd
00000260: 18bc d53c 48d6 a13c 4e8d b3bd 7040 f0bd
00000270: 9813 06bd f49a 323d 5a4b f2bd a88c f3bc
00000280: f061 de3c a83d 0b3d cadf f03d ee9f bebd
00000290: 7a91 dcbd 4449 11bd 9867 2c3d c2ed d8bd
000002a0: 8a73 b3bd a4cd 93bd 9c3d 253d b013 a13d
000002b0: f8bd aebc 3062 6b3d ec9d 163d b65f 9c3d
000002c0: c00c aebc c2e7 8abd a4c4 2dbd b0dd 0fbc
000002d0: 9aba cabd 6096 e6bc 306e a33c 10ee 4bbc
000002e0: ac74 7c3d 3c1c a2bd 1000 b5bc 1297 de3d
000002f0: 18c1 d63d 64be da3d 58e9 20bd e8f7 ab3d
00000300: 3cd0 66bd acf9 ba3d 34fb d8bd d30b 8a3f
00000310: 00be bf3b d018 2bbd 00c5 ddbb f835 e23d
00000320: b0c0 97bc 2812 813c 0027 943b 8ccc 07bd
00000330: b258 953d 1821 c23d 1623 8d3d c4bc 6d3d
00000340: b2dd bb3d 80b9 afba c0a9 6abd 7821 c1bd
00000350: 90d6 c13d 2271 e0bd 6a1c bcbd 68b5 3b3d
00000360: a80c c7bd 4058 133b e034 303d b03b 17bd
00000370: 009b 883c a842 11bd 3609 953d f064 873c
00000380: ec58 1c3d b016 313d 8039 0abd cafe ba3d
00000390: 4097 c03d 003d 4d3b 6c26 38bd f63f f83d
000003a0: 3eca aa3d 505e 5fbd ae6a ad3d 3a32 f63d
000003b0: 402b 373c bcb8 693d 06c2 e23d dc28 6a3d
000003c0: e446 7f3d 1ec7 9d3d 1c61 2bbd 7c04 803d
000003d0: b061 013d ec59 ea3d 941d 63bd b803 cf3c
000003e0: b0ec 063d dcdc 1abd 10d7 a0bd 68e0 88bc
000003f0: 402e c4bb 78c8 6c3d 3a16 dd3d ec99 9d3d
1.0381811 -0.118012875 -0.0023451895 -0.069771975 -0.037873268 0.057627782 -0.098424286 0.08162865
-0.012898192 0.032854736 0.10831848 0.03847274 0.102032945 -0.1167275 0.06990905 0.113424405
-0.06703541 -0.09964724 -0.045095667 -0.11658783 0.036574677 0.0659816 -0.08659902 -0.11468148
0.005613297 0.07244477 0.082311064 0.014198914 0.05315064 0.058068857 -0.12071006 -0.06487475
0.060429618 -0.032140687 -0.08882277 0.0027761906 0.011757672 0.034012094 0.01390627 0.06088309
-0.06252201 -0.010613292 -0.026575446 0.019152254 0.09219515 -0.11237864 0.010861531 0.011808887
-0.103149414 -0.11925319 -0.08266379 -0.07790685 0.0706777 -0.017278954 -0.07972248 -0.024159595
0.08805612 0.06186028 0.043018058 -0.052725747 0.114488915 0.060826153 0.08296591 0.07347289
-0.09543392 0.91696537 0.08883025 -0.1110345 0.019103125 -0.07303454 -0.03991075 -0.06574482
-0.00097201765 -0.013547465 0.074355826 0.0919068 -0.0899183 -0.03884001 -0.090570584 -0.08626236
-0.026795715 -0.012746096 0.015609786 0.023422986 -0.005343333 0.05402738 0.031779826 0.039788052
-0.063152686 -0.032624245 0.014808297 -0.10214026 -0.034033775 -0.072594866 -0.11158168 0.107536554
-0.06213735 0.09266028 0.10863826 -0.0014888644 0.08085713 0.03612089 0.022560477 -0.055478767
-0.04953529 -0.09123081 0.069291085 0.10017131 0.08338213 -0.08427024 0.061168596 -0.105439976
-0.10729502 0.10215865 0.05603996 0.027215779 0.07717542 -0.061830893 -0.07927835 -0.035808384
0.016793579 -0.06184365 0.02920705 -0.064750075 0.039487526 -0.08497833 0.11762889 0.068023846
0.11395036 0.08910875 1.0594782 -0.09710373 -0.047378093 0.054669395 0.10538623 0.08643566
-0.033784837 -0.08617981 -0.078550056 0.09505671 -0.11166003 0.036046177 0.06465809 -0.07080062
-0.007835567 -0.069481716 0.030102909 0.038119897 0.023012117 -0.11521883 0.036367 -0.09966454
0.026090667 0.019755498 -0.08767186 -0.117310405 -0.03273353 0.043604806 -0.118307784 -0.029730156
0.02714631 0.033994347 0.117614344 -0.09307848 -0.10769935 -0.035470262 0.042090982 -0.10592224
-0.08762272 -0.07216957 0.04034196 0.07865083 -0.021330819 0.057466686 0.0367717 0.07635443
-0.021246314 -0.067824855 -0.04242386 -0.008780882 -0.09898873 -0.028147876 0.019950002 -0.012446895
0.061634704 -0.079155415 -0.022094756 0.10868658 0.104860485 0.106808454 -0.039285034 0.08396894
-0.05635093 0.091296524 -0.10594788 1.0784858 0.005851507 -0.04177171 -0.006767869 0.1104545
-0.018524498 0.015755728 0.0045212507 -0.033154055 0.07292308 0.094789684 0.06891458 0.05804135
0.091731444 -0.0013406724 -0.057290792 -0.09430212 0.09464753 -0.10959078 -0.09185107 0.0458273
-0.09719211 0.002248302 0.043019176 -0.036922157 0.016675472 -0.03546396 0.072771475 0.016527623
0.03817074 0.043234527 -0.033746243 0.091306284 0.09403849 0.0031316876 -0.044958517 0.121215746
0.08339356 -0.054533303 0.08467613 0.12021299 0.011179745 0.057060942 0.11072163 0.057167873
0.062323466 0.07703994 -0.041840658 0.06250855 0.031587303 0.114429325 -0.05544813 0.025270328
0.032940567 -0.037808284 -0.0785352 -0.016708568 -0.0059869587 0.05780837 0.10795255 0.07695374

gnn_layer_1.gconv.a_fc.weight f4 [64, 64]
00000000: 3436 59bd e536 96bc 75e7 fd3d 9514 c43d
00000010: 9875 f5bc 5f75 adbd f69d c7bd 393f a83d
00000020: 1ef6 0ebd 1f0f ebbd 1976 583d bdea 743d
00000030: 6a8e 17bc 7733 be3d 1085 f13d ba70 903d
00000040: 492c 50bc 19ca 2d3d 4c21 8cb8 6b5c cbbd
00000050: 904e b93d 70a3 b7bd 5eb8 da3c 4a09 ba3c
00000060: 6f86 46ba 05b7 153d a823 a23d f680 d63d
00000070: 2aed ff3d 29ee 92bc cf14 e6bb e1a6 b23d
00000080: aa15 e1bd 1b20 ab3d 7e5d b7bd bf4a 303c
00000090: fa00 c7bd 9d02 83bd b2c9 22bd 0fa5 bebd
000000a0: 9241 fcbc ceb2 c43c bed8 4c3d 806f cdbd
000000b0: b63b 853d e95a 603d 32d8 fe3d 5f5c fb3d
000000c0: 16b7 a8bb b5fc 95bb b1d0 b9bc 55ab f8bb
000000d0: 1403 a1bd 3acf df3d 0be8 e4bd f741 9abc
000000e0: fca9 013e d4a3 86bd 9740 86bd 672d c63d
000000f0: 61aa e3bd a328 d33d 52a2 b1bc 2297 c0bd
00000100: 80ae 813c d0fc 833c 1fcf 23bd 2ed1 a23d
00000110: d6cd 20bc fac6 debd 3a7a fcbd e870 a13d
00000120: 793b 8b3c d44b 8cbd 7c8d e13d 3824 edbd
00000130: cdc5 5ebd c098 fd3d ba74 c7bd 8875 7dbd
00000140: c2d8 af3d 88a0 6dbd a34a b6bd f1ff 01bd
00000150: 98d0 ebbd f182 7bbd f866 2ebd 69a9 7bbc
00000160: 48c9 82bc 4c7c b7bd 4eea 803d 8cc8 2b3d
00000170: 2b7d 79bd 62bc c13b 4729 a1bc 3a06 b6bd
00000180: f4a5 ad3d e086 e2bb 10a1 ce3d c6f9 cd3d
00000190: 3451 543d acef 38bc 40d5 6fbd fc68 f93d
000001a0: aa00 803c f8d8 17bd 4455 8dbd 3dbc 83bd
000001b0: 5c7c 88bc 7031 ab3c b1cb 7fbd 600f a6bb
000001c0: 196b 28bc 0a19 fb3d 3844 f4bd b0ad 23bd
000001d0: b266 ae3d 9bd6 543c c86e e23d 2c73 ac3d
000001e0: 1a99 cbbd 12da 99bd 2e05 babd dd41 49bd
000001f0: 2388 10bd b860 c33d ea50 b1bd de6c cbbd
00000200: 7492 003e 50ac 833c 4f72 9abd 393e f93d
00000210: b30f 4cbd 71f2 ca3d 7a2d 943d e9a9 b3bd
00000220: 9a09 26bd fc71 d33d cc9e 8d3d 3b2b df3c
00000230: e8ba cabd 2e8c 8d3d 7bee d4bd 2d53 493d
00000240: 476f 88bd c13d 3cbd 719b f1bd 9a85 2f3d
00000250: 155e 99bd 57c2 903c c3c7 d8bd 1cd5 ef3d
00000260: f05b b7bd b414 a33d bd86 853d 8ed5 e83d
00000270: 2dc9 b53c bbb3 253d 6e88 e73d 5026 7b3b
00000280: ccac 56bc d0d7 93bb c18b 1b3d 952c ddbd
00000290: 1e0f d0bd 3912 8ebd 7d84 e0bb af9b 263b
000002a0: 33ab be3d 60f9 7d3d 3926 97bd 7b9b 7cbc
000002b0: 557d 82bd 1d3c 8dbc 00f1 92bd 9a73 89bd
000002c0: bcef 45bd 12a6 d3bd 0900 fe3d d419 4fbc
000002d0: e5da 79bd 75e0 ca3d 0ddd 0abd bdee aa3d
000002e0: c7fa 5cbc cfce 05bd cc57 b23d 29d9 e3bd
000002f0: 7feb 40bd aaae 353d d4a1 f6bd 21d3 933d
00000300: e4aa c23d d010 0ebc 97ab 7bbd fa81 8dbd
00000310: 9481 b73d f832 c7bd d679 67bc 5faa 11bc
00000320: 281e ea3d 0ef7 debd 6697 a4bd 84dc 8dbd
00000330: fa78 75bd 4c8d 5a3d 6413 aabd 6652 2bbc
00000340: 1298 a5bd 6280 87bd b23a 8a3d 103b ad3c
00000350: ca82 5bbd c414 e83d 415c e03c 4426 ac3d
00000360: 0256 9ebc ec31 c23c ce1b e33d 7ae5 fb3d
00000370: eb0d eb3d 076b cb3d a77c 8c3c e2df 93bd
00000380: 4d46 473d aaeb fbbd e0c4 e6bd 62a2 7abd
00000390: 7f47 b0bd f04e 54bc 3293 fb3d ece5 c1bd
000003a0: a242 a7bd 8213 9ebd eba9 8abc 154f a7bd
000003b0: f8cb ebbd 2a67 80bd 9fb3 fcbc 807f 29bb
000003c0: 4431 293c a408 91bd 1e27 a6bd b17a c33d
000003d0: e5db 1fbd ff10 283d b613 c4bd 2e43 1e3c
000003e0: 6a43 863c e4a8 4b3c c062 3abd f9c8 6cbd
000003f0: f218 7dbd 9cb0 fabd 607e 09bd dd3d 4bbd
-0.053030208 -0.018336723 0.123976626 0.09574238 -0.0299633 -0.084696524 -0.097469255 0.08215184
-0.034902684 -0.114774935 0.052847 0.059794176 -0.009250263 0.0928716 0.11792958 0.07052751
-0.012705871 0.042429063 -6.681922e-05 -0.09929737 0.09048188 -0.0896672 0.026699241 0.022709507
-0.0007573133 0.036551494 0.07916957 0.10473816 0.12496407 -0.01793583 -0.0070215235 0.08723236
-0.1099046 0.08355733 -0.08953379 0.010760008 -0.09716983 -0.06396983 -0.039743133 -0.09308826
-0.030792985 0.024011042 0.05001139 -0.100310326 0.065055296 0.0547742 0.1244358 0.12273478
-0.0051487787 -0.004577244 -0.02268252 -0.0075887837 -0.07861915 0.10928197 -0.11177071 -0.018830283
0.126625 -0.065742165 -0.06555288 0.096766286 -0.111164816 0.10310485 -0.021683846 -0.09403826
0.015830278 0.016111761 -0.039992448 0.07950054 -0.0098147 -0.108777955 -0.12328 0.07882863
0.016996132 -0.068504006 0.11013314 -0.11579174 -0.054387856 0.123826504 -0.09739061 -0.061879665
0.08586265 -0.058014423 -0.089009546 -0.031738225 -0.115143955 -0.061404172 -0.042578667 -0.015360215
-0.015965119 -0.089592546 0.0629469 0.041939303 -0.060910385 0.0059123496 -0.019673003 -0.088879064
0.08478919 -0.006913051 0.10089314 0.10057406 0.051835254 -0.011287611 -0.05855298 0.12178227
0.015625317 -0.037072152 -0.06901029 -0.06432388 -0.016660862 0.020897597 -0.062450115 -0.005067751
-0.01027944 0.12260635 -0.11927074 -0.039960563 0.08515681 0.012990619 0.11056286 0.08420405
-0.09941311 -0.07512297 -0.09083019 -0.049135078 -0.03528608 0.09539932 -0.08658011 -0.09932874
0.12555867 0.016073376 -0.07541334 0.12170071 -0.04981966 0.09909523 0.072352365 -0.08772642
-0.0405365 0.10324475 0.06915054 0.027242294 -0.09898931 0.06911503 -0.10397049 0.04915159
-0.066618495 -0.04595733 -0.11797226 0.04285202 -0.07488648 0.017670793 -0.105849765 0.11710569
-0.089530826 0.07962933 0.0651984 0.11368857 0.022190655 0.040454607 0.11305319 0.0038322397
-0.013102721 -0.004511811 0.037975077 -0.10799519 -0.101591334 -0.069370694 -0.0068517313 0.0025422384
0.093099974 0.0620054 -0.07380337 -0.015417929 -0.063715614 -0.017240578 -0.07174873 -0.067115024
-0.04832433 -0.1033441 0.124023505 -0.012640435 -0.06099977 0.09906093 -0.033902217 0.08346317
-0.013487524 -0.03266793 0.08708152 -0.111254044 -0.047099587 0.044356026 -0.12042585 0.07218004
0.09505251 -0.008671001 -0.061442938 -0.06909557 0.08960262 -0.097265184 -0.014128169 -0.008890717
0.11431533 -0.10886966 -0.080366895 -0.06926826 -0.059929825 0.053357407 -0.0830448 -0.010456657
-0.08085646 -0.06616284 0.067494765 0.021146327 -0.053591527 0.11332086 0.02738774 0.08405736
-0.019328121 0.023705445 0.11089288 0.122996286 0.11477264 0.09932523 0.017149283 -0.07220437
0.04865103 -0.12300809 -0.1126802 -0.061190017 -0.08607387 -0.012958273 0.12283935 -0.09467682
-0.08167006 -0.077185646 -0.016926726 -0.081693806 -0.11513513 -0.06269677 -0.030847369 -0.002586335
0.010326687 -0.07081726 -0.0811293 0.09544886 -0.039028067 0.041031834 -0.09574072 0.009659572
0.016389567 0.012430403 -0.04550433 -0.05780885 -0.061791368 -0.12240717 -0.033567786 -0.049619544

gnn_layer_1.gconv.a_fc.bias f4 [64]
00000000: 6a08 3bbb 0f75 df3d fa1b 563d a506 cf39
00000010: fac3 99bd 0775 303e 10b7 0e3e 37b3 66bd
00000020: 0f08 b2bd c70f 5d3b 00d7 c23d a3b1 fe3c
00000030: 0512 b63c f94e 0d3e ffc0 57bc 369a f1bd
00000040: c5f5 96bd 95b3 e3bc 0f74 903d cc1d a83d
00000050: 3e71 babd cfe9 75bd b312 b9bd b9a7 cabc
00000060: fff5 94bd 6832 64bd e0d1 2cbd d754 a13d
00000070: 7d40 073e d0ff 093e ef69 cc3d dd5f 13bb
00000080: ba55 a63d bbf1 fbbc c99d b8bc 4392 e5bb
00000090: 703d 313d 6eae 563c 51bf 8bbc 7aae 0f3d
000000a0: 34bf f03d 7f60 af3d 7ad6 f1bd c762 9c3d
000000b0: e01d 25bd 96a8 8dbd dc43 f0bd 7c92 2e3d
000000c0: 7c41 dfbd 7554 6bbd b3bc f33d ae20 303d
000000d0: 7777 d8bd a88d 51bd 12cf 213d b162 b53c
000000e0: 2514 9abd b680 c63d 2e55 803d 4627 00bd
000000f0: d5c6 d03d 6416 d13d e721 12bd dfb0 08bd
-0.002853895 0.10910999 0.052272774 0.00039487067 -0.07508083 0.17232142 0.1393702 -0.056323256
-0.08692943 0.0033731328 0.09513664 0.031090563 0.02222539 0.13799657 -0.013168572 -0.117969915
-0.073710956 -0.027795592 0.070533864 0.08208808 -0.091036305 -0.06003743 -0.0903677 -0.02473818
-0.072734825 -0.055712134 -0.04219234 0.0787751 0.13208194 0.13476491 0.09981143 -0.002248756
0.0812182 -0.030754915 -0.022536175 -0.007005961 0.043271482 0.013103111 -0.017059 0.035078503
0.11755219 0.08563327 -0.11808486 0.07636028 -0.040311694 -0.06916921 -0.11731693 0.042620167
-0.10901162 -0.05745359 0.11901226 0.042999916 -0.10569661 -0.051160485 0.03950412 0.022141786
-0.075233735 0.096925184 0.06266247 -0.031287454 0.10194174 0.10209349 -0.035676863 -0.033371802

gnn_layer_1.gconv.u_fc.weight f4 [64, 64]
00000000: 32f3 c83d a68e 90bd 8692 a3bd 1e59 6abd
00000010: c6d3 583b caf0 0a3d 6b43 60bc 5af8 e53d
00000020: 3ab4 893d 9272 2c3d 34a1 bdbd 107b 56bc
00000030: 0bd3 253d b64f 02bd 5ccb e93d 2599 65bc
00000040: f946 02bc 6ceb f83d 7d2f ce3d 995b 62bb
00000050: c403 9fbd eabe d8bd 302b c2bd e19e a5bd
00000060: 7494 c6bd d531 54bd 6859 c3bd c02d 673d
00000070: d9ed 4c3d c721 fc3d 94e3 b0bd 4b06 93bd
00000080: 86cc 97bd c7a5 d2bb 574d bc3d 3ba7 4e3d
00000090: d139 3abd 8ee4 9e3c d8b7 fa3d d035 a33d
000000a0: 7638 e1bd 07ab ec3c cf12 b6bd 9ee5 cfbd
000000b0: 75ca 033d 9c65 64ba fda6 8b3a 92ee a73d
000000c0: 33ce b6bc c3dd f0bd 5b8c 663c 2db5 bd3c
000000d0: 603d abbd a7a9 cc3d 6999 56bd 4d45 febd
000000e0: 0001 64bd c568 4e3c 4cd2 083d 07ca ebbd
000000f0: 2b95 c0bd 2c8f 8cbd 3736 1abd 7b46 b03d
00000100: 15eb 76bc 830f ed3d 8818 b13d 0bf7 0e3d
00000110: 80d0 b8bd 83a2 8c3d 0411 d83d 74b4 e73d
00000120: 472b 8a3d 05a6 953d f72d cf3d 7036 dbbd
00000130: e90a 9b3d 44d0 d03d 7e52 0a3d d3dc 22ba
00000140: 94e4 493c a236 95bd 8aef 41bd be66 74bd
00000150: 1c7f 183d 7a7b 823d d8de 63bd 2bcb aabd
00000160: aeca a13d efd8 0f3d 8f3a 083d 4312 163d
00000170: ebb6 a7bd 3375 363d 2f90 833d af4b a4bd
00000180: 1934 a43d 2af3 ab3d 5bd0 e1bd e0ee 0cbd
00000190: c130 33bd 5d43 c6bc 23e9 64bd 77e9 d4bd
000001a0: 79eb f3bd dac2 a83d 3467 e33d 9c0e febd
000001b0: 66f6 7a3d 214c f73c c4cf 91bc ec27 c83d
000001c0: 3266 013e 2028 cf3d b1fc ca3d 880e 4f3d
000001d0: f743 cb3b 8c2c 17bc a0ee 173c 7319 d93c
000001e0: 1108 27bc 4cf6 34bc 857e c23c 8d97 f1bd
000001f0: 57cb ba3c 4208 59bd 20f8 d7bb efad e0bd
00000200: db3b b3bd 5fb6 80bd 4e28 ffbd 5a81 cebd
00000210: 1594 983d 21ec 18bd 0ef5 373d 293e 93bc
00000220: ff96 d83d 6e39 a8bd 4051 92bd 3f54 78bd
00000230: ce38 443b 8822 c1bd dc21 363d 713b ccbd
00000240: 04e8 db3c 5061 16bd f64c f6bd bf7f ec3d
00000250: 2ab3 2ebd a3ff a03d a07f baba 4637 ef3d
00000260: 739a a83c 3232 77bc ed16 e7bc b12e 7cbc
00000270: ffcb dd3d e462 f73d 4814 40bd c24b d83d
00000280: cf57 af3d 2e08 123c fcdc babc d00f 5e3c
00000290: 680e be3d f666 683d 0618 d03d 1b37 ca3c
000002a0: 43dc 0d3c 9aab cfbd 0324 fb3c e0a0 4f3d
000002b0: c529 ec3d e44d 8bbd 9810 d8bd dcea d6bc
000002c0: 8adf 5c3d 9a98 5e3d 70c0 84bd 385f 74bd
000002d0: 2d26 7bbd d822 b33d 1338 8bbd b815 e03d
000002e0: 630d fd3c aea2 1cbd 8210 36bc b74b 413d
000002f0: 51f1 0cbd 6651 d93d e4d3 2abd 43db e8bd
00000300: f58f 8dbd 4209 b23c cb1e 083c 0c71 b73d
00000310: f836 b63d 2f97 a5bd 2af6 1d3d dc94 dabd
00000320: 291b dd3d 7332 e93c d9a5 643d d2ad c43d
00000330: ec45 cdbd 943b 3abd 8713 2f3d ee9c 9f3d
00000340: f954 8e3d 7274 94bd 1669 6b3d fbf4 2b3d
00000350: 73de 173d 7233 93bd 4ef1 133d baa0 c1bc
00000360: 414e fa3d f678 fd3d da23 02be a3f4 62bd
00000370: 30c3 b3bd b630 7d3d 8d64 b03d 1e25 ccba
00000380: 1038 ddbb 6ef1 86bd ff4b a43d 8c0f 863d
00000390: 167e 653d 4cc3 d4bd 1a0b b4bc a652 acb8
000003a0: ce99 edbd bdcd 353d 7b09 01be 4c3e 023e
000003b0: fd87 d0bd 9ff2 bfbd 0972 6ebd 32dc b3bc
000003c0: 07df 083e 5c1e ba3d d75f 9abd 687b abbd
000003d0: e6f7 0b3d 709f 333d 1efa 293c 74f0 b1bd
000003e0: 1d80 80bd 4e2e d43c d9cc 91bc 60d8 8e3c
000003f0: bc11 393d b874 88bc 9299 c33d 0df4 2fbd
0.09812011 -0.07058458 -0.079869315 -0.057213895 0.0033085211 0.03392104 -0.013687949 0.1122901
0.067238286 0.04210145 -0.09259263 -0.013090864 0.04048447 -0.0318143 0.11415741 -0.014013563
-0.0079514915 0.12154278 0.100676514 -0.003453946 -0.0776439 -0.10583289 -0.094808936 -0.08086944
-0.09696284 -0.051805336 -0.09538537 0.056440115 0.050031517 0.1231113 -0.08637157 -0.07178935
-0.074120566 -0.0064284536 0.09194439 0.050452452 -0.045465294 0.019396093 0.12242097 0.07969248
-0.10997097 0.028890146 -0.08890306 -0.10151218 0.0321755 -0.0008712651 0.0010654625 0.081998006
-0.02231512 -0.11761048 0.014071549 0.02315768 -0.08361316 0.09993296 -0.052392397 -0.12415562
-0.055665016 0.012598221 0.03340368 -0.11513143 -0.094034515 -0.06863245 -0.03764936 0.08607193
-0.015070696 0.11575224 0.08647257 0.034903567 -0.09024143 0.06866934 0.105501205 0.113137156
0.06746536 0.07307056 0.10116189 -0.107037425 0.0757044 0.101959735 0.033770077 -0.0006212715
0.012322564 -0.07285811 -0.047347583 -0.059668295 0.037230596 0.063712075 -0.055632442 -0.083395325
0.07899986 0.035118993 0.03325897 0.03663851 -0.08189186 0.044545364 0.06423985 -0.08022248
0.08017749 0.08395989 -0.11026069 -0.034407496 -0.043747667 -0.024202043 -0.0558864 -0.103960924
-0.11910147 0.0824029 0.11103669 -0.1240513 0.06127014 0.030187668 -0.017799266 0.097732395
0.1263664 0.10115075 0.09911478 0.050550967 0.0062031704 -0.009226929 0.009273201 0.026501393
-0.010194794 -0.01104505 0.02374197 -0.11796484 0.022802038 -0.05298639 -0.006590858 -0.10970675
-0.08751651 -0.062847845 -0.124588594 -0.100832656 0.074501194 -0.037334565 0.044911437 -0.017973976
0.10575675 -0.08214079 -0.071444035 -0.06062722 0.0029941085 -0.094304144 0.044465885 -0.09972275
0.026844032 -0.0367139 -0.12026398 0.11547803 -0.042651333 0.07861259 -0.0014228709 0.116804644
0.02058146 -0.015087651 -0.028209174 -0.0153919915 0.10829925 0.12079409 -0.04689434 0.10561325
0.0856167 0.008913083 -0.022810452 0.013553575 0.092800915 0.056738816 0.10160832 0.02468448
0.0086584715 -0.10140152 0.03065682 0.05069053 0.115314044 -0.06801966 -0.1055004 -0.026235037
0.05392412 0.05434475 -0.06482017 -0.05966112 -0.061315704 0.0874688 -0.06797805 0.109416425
0.030890172 -0.03824108 -0.011112334 0.047191348 -0.034409825 0.10611229 -0.04170598 -0.11369946
-0.06912223 0.02173293 0.008308123 0.08957109 0.08897203 -0.080854766 0.03856484 -0.10672924
0.10796196 0.028466439 0.055822227 0.09603466 -0.10023102 -0.045466974 0.042743232 0.07793604
0.06949801 -0.07248773 0.057473265 0.04198168 0.03707738 -0.07187547 0.036118798 -0.02363621
0.12221957 0.12376587 -0.12708989 -0.055409085 -0.087774634 0.061814032 0.086129285 -0.0015575027
-0.006751068 -0.06589018 0.080223076 0.06545934 0.056028448 -0.103888124 -0.02197795 -8.2169936e-05
-0.116016015 0.04438566 -0.12601273 0.12719077 -0.10182188 -0.09372448 -0.05821422 -0.021955583
0.13366328 0.09087822 -0.07537811 -0.08373147 0.03417196 0.043853223 0.010374574 -0.08688441
-0.06274436 0.025900986 -0.017797874 0.01743716 0.04518293 -0.016657218 0.095507756 -0.042957354

gnn_layer_1.gconv.u_fc.bias f4 [64]
00000000: adf1 91bd 62a2 abbd 0ed0 e9bc efb7 793d
00000010: 10b4 3abd 2efe 9dbc 40f0 d23d 377b dc3d
00000020: b068 dabc a6b5 b3bd 62bd c4bd 62ab b1bd
00000030: 875b 27bc be54 c7bd 059e c93c 7270 fd3d
00000040: 1e05 aabc 2e56 f53d 52f7 6dbd eae9 053e
00000050: afd6 5fbd 0eda 053e a3d4 83bd 0a0c 083d
00000060: 060b 0d3e f66d 933d 6014 83bd 928b 95bd
00000070: 01a5 a23d 1a8a 1f3d c598 35bd 51fd ba3d
00000080: a21a 3c3d 1816 993d 31c7 623d 086c 833d
00000090: 3b86 7e3d 8083 ae3b 5606 d0bb b9a4 4f3d
000000a0: 6066 b13d ec0f e4bd 9dee 8a3d d8b6 f33c
000000b0: 886d fb39 3859 c0bd 3d0d f93c f138 9c3d
000000c0: 6016 093e 7aba dabc c927 113d bf0a 073e
000000d0: 88d7 7f3d 744b 973d 2582 8f3d facd 73bd
000000e0: 300f 0a3e 5ae5 2ebd 6cce 0b3e 282b 65bd
000000f0: 2689 d63c 1617 9fbd ca29 a8bd abe4 a53c
-0.07126174 -0.083805814 -0.028541591 0.06096643 -0.045581877 -0.019286241 0.1029973 0.10765689
-0.026661247 -0.08774881 -0.096064344 -0.08675267 -0.010214693 -0.0973296 0.024611482 0.12374963
-0.020754393 0.11979328 -0.05809719 0.13077512 -0.054648098 0.13071463 -0.064370416 0.033214606
0.13773736 0.07198708 -0.064003706 -0.073020115 0.07941628 0.038950063 -0.044335146 0.091303475
0.045923837 0.07474917 0.055365745 0.0641709 0.06213973 0.0053257346 -0.0063484116 0.0506942
0.086621046 -0.11135849 0.06783793 0.029750273 0.00047956058 -0.09392017 0.03040182 0.07628048
0.13387442 -0.026700247 0.035438333 0.13187693 0.062461406 0.073874384 0.07007245 -0.059522606
0.13482356 -0.042699195 0.13652962 -0.05594936 0.026188444 -0.07768075 -0.08211096 0.020250639

affinity_1.A f4 [64, 64]
00000000: db43 893f 0098 1bba c613 e93d b6c7 823d
00000010: c643 abbd c00a e83d f89b acbc d84e 14bd
00000020: f6c6 f7bd 94e7 babd 3075 ca3d 4839 7c3d
00000030: 248f eb3d e8c7 13bd 30d1 19bc 74b4 a8bd
00000040: 24d7 aabd ec2a 3abd 98a9 a73c ea5d ab3d
00000050: ac8a cebd 786e b63c 1291 aabd 5026 7d3c
00000060: aa92 fb3d 8672 903d 1094 9c3c 2620 e0bd
00000070: a8dc 8f3d 42eb dfbd d0ce 3f3c e88b 2d3d
00000080: bc83 87bd d0d3 48bc ea71 c63d 6666 aabd
00000090: 4221 86bd 400f 243d e8f7 033d 4227 d6bd
000000a0: 5ce9 c53d d834 08bd 0220 d93d b0bc e0bc
000000b0: 8094 e53c 6a6a d43d 94a3 ca3d 14c7 a8bd
000000c0: 886a c93d 4670 8cbd c059 623b 52da fc3d
000000d0: ccb2 7fbd 9c33 d93d 2c99 e53d 104c 2f3c
000000e0: 802d 723c 10d2 213c c81b 833c 580f 11bd
000000f0: 3053 efbd a09e c73d dea3 a4bd b89e 393d
00000100: 16d8 babd eccf 8b3f 1008 48bc 88d5 e43c
00000110: 2897 80bc f03c c3bc 38d8 5c3d b67e 97bd
00000120: fad5 893d 7e3e dabd c897 7bbd 40a1 1f3d
00000130: ce2b 93bd 9607 b9bd b20f d8bd 009a 19ba
00000140: 9274 babd 18d8 633d c0ae 393d 8642 f73d
00000150: ae19 ba3d ecc2 c43d c0c8 f03d e49f 1bbd
00000160: 4065 193b 5044 2bbc c022 d73b 5c8d 4a3d
00000170: 7005 e83c b448 cd3d 0645 85bd a0ba 123c
00000180: 188d b93d c0ce 2f3d 6afd 923d 1634 a03d
00000190: 40b9 55bd 5055 b7bc 2c7b 643d 003c 85ba
000001a0: 704b 61bd d8f2 6fbd 8e9f 853d 3cc1 44bd
000001b0: c05f 213b 1467 3e3d d8e6 933d 0853 b3bd
000001c0: 8692 b9bd 961c dbbd 8060 1a3b 6268 f4bd
000001d0: 2863 f73d 009f 583c 3ad1 ff3d 84d2 4c3d
000001e0: c4a9 d93d bcfd e2bd 5c4c 6bbd 5ecc febd
000001f0: 8092 323d dccb 89bd a25a c3bd fe91 a73d
00000200: ce43 b8bd 366f 813d a73c 743f 80b5 5ebd
00000210: e039 9d3d 58db 793d 0e74 983d 405c 833b
00000220: f8dd 9a3c 2629 dd3d dedf dcbd 8662 e4bd
00000230: 2000 e2bb a4b9 283d 9013 3b3c a03e f2bc
00000240: e430 6abd cc8f e0bd 66a3 dcbd a018 e0bb
00000250: b052 01bd 20d3 5b3d 1c17 a43d ba04 843d
00000260: 088a a0bd b4af 8c3d 40d1 f3bb d474 c0bd
00000270: 1895 b4bd 9011 68bd 001c 5fbc f04e 01bd
00000280: 401e ab3d 4a38 da3d 68f1 e03c 2430 10bd
00000290: 50a1 c43d b658 bf3d f484 953d c41d c93d
000002a0: 6c1f 0fbd 6c9b 833d a057 6abc d032 ba3c
000002b0: e8d0 b4bc 302a 523c b87d 993d f819 aabc
000002c0: fab0 c33d dc12 38bd 86f0 c43d 4e72 a03d
000002d0: 9c6a 4ebd 6ca1 6f3d bc97 073d 006f 223c
000002e0: da25 9a3d 68f8 a3bd 4038 963c dc75 dabd
000002f0: 5e6d 82bd c8e9 dd3c daeb b9bd 28a2 813d
00000300: ba32 c63d cae4 a23d b037 e6bc 52d1 8f3f
00000310: c8cd ed3c 9e25 b6bd d486 c7bd 54cf 7ebd
00000320: c807 c3bc d4d4 7cbd 5cd0 583d e0c6 c93b
00000330: 7c6c 343d 54d0 5d3d bcdb 53bd b0d4 e2bd
00000340: 8094 943a ca87 c0bd 12f7 f7bd fa6b e33d
00000350: 981b e5bd 9e94 eebd 9024 133d 6027 19bc
00000360: 88d1 a83c 1677 c5bd a086 813c 84e7 803d
00000370: 14d7 dfbd a4b3 22bd 900b fe3c e04a 77bd
00000380: e839 453d 861c 84bd 60e0 e63b ee9f a43d
00000390: 5036 98bd 822f c0bd 64cc b7bd 9af1 82bd
000003a0: f091 06bd fc7b 823d 8cbe 87bd 846d 853d
000003b0: 648a 203d 2418 4b3d 56f1 99bd 5096 fe3d
000003c0: 485b cbbd 88d2 a63c 7c53 993d 5853 de3c
000003d0: 9e01 fcbd 3641 d63d f0fe bf3d 588a f2bc
000003e0: 3097 3e3c 48f0 c8bd 400e 4ebd a01f f3bd
000003f0: ce8d e13d 4cb2 b33d e8d9 66bd 16d4 a3bd
1.0723833 -0.00059354305 0.113807246 0.06385748 -0.08362536 0.113301754 -0.021070465 -0.036208004
-0.12098496 -0.09126201 0.09885633 0.061578065 0.11501911 -0.036079317 -0.009388253 -0.08237544
-0.08341816 -0.04545109 0.02046661 0.08367522 -0.10085043 0.022269472 -0.08328451 0.015451029
0.12283833 0.070530936 0.01911357 -0.10943632 0.07024509 -0.10933544 0.011707023 0.042369753
-0.06616923 -0.012257531 0.09689696 -0.08320312 -0.06549312 0.040053606 0.032218844 -0.104567066
0.096636504 -0.03325352 0.10601808 -0.027433723 0.028024912 0.10371859 0.09894481 -0.08241096
0.09834772 -0.06857352 0.0034538358 0.12346329 -0.062426373 0.10605547 0.11210856 0.010699287
0.014781356 0.009876743 0.016004458 -0.035415024 -0.11685789 0.09747052 -0.08039068 0.04531738
-0.09123246 1.0922828 -0.0122089535 0.02793385 -0.015697077 -0.023832768 0.05391714 -0.07397215
0.06730266 -0.10656451 -0.061424047 0.03897214 -0.071860895 -0.0903465 -0.10549869 -0.00058594346
-0.09104265 0.055626005 0.04533267 0.12073235 0.09086929 0.09607491 0.1175704 -0.03799428
0.0023406297 -0.010453299 0.006565422 0.049451217 0.028322905 0.10023633 -0.06507306 0.008955628
0.090601146 0.04292178 0.07177241 0.078224346 -0.05217862 -0.022379547 0.05578153 -0.0010164976
-0.055003583 -0.058581203 0.06524573 -0.048035845 0.0024623722 0.04648502 0.07221764 -0.08756071
-0.0906115 -0.10698812 0.0023556054 -0.11933972 0.120794594 0.013221502 0.12491079 0.05000545
0.10628083 -0.11083552 -0.05744587 -0.12441324 0.043596745 -0.06728336 -0.09538771 0.08182143
-0.08997308 0.0632004 0.9540505 -0.05437231 0.076770544 0.061000198 0.07444011 0.0040088
0.018904671 0.10798864 -0.10784887 -0.11151604 -0.0068969876 0.041192666 0.011418238 -0.029570878
-0.057175532 -0.10964927 -0.10773353 -0.006838873 -0.031572998 0.05366814 0.0801222 0.06446214
-0.07838827 0.0686945 -0.007440716 -0.09397283 -0.088175 -0.056657374 -0.013617516 -0.03156942
0.08355379 0.106552675 0.027458861 -0.03520216 0.096010804 0.09343092 0.073007494 0.098201305
-0.034942076 0.06426129 -0.014303118 0.022729307 -0.02207227 0.012827441 0.07494682 -0.020764336
0.0955524 -0.04493986 0.09616189 0.07834302 -0.05039464 0.058503553 0.03310369 0.00991416
0.07526751 -0.08006364 0.018337369 -0.10667011 -0.063685164 0.027089015 -0.09078188 0.06329757
0.09677644 0.07953794 -0.028102726 1.1235754 0.029028788 -0.08893894 -0.09742513 -0.062209442
-0.023807421 -0.061726406 0.052933082 0.006157741 0.04404877 0.054153755 -0.051723227 -0.11075723
0.001133576 -0.094009 -0.12107672 0.11104579 -0.11186904 -0.1164944 0.03592354 -0.009347767
0.020607725 -0.096418545 0.015811265 0.06294158 -0.10929695 -0.0397221 0.031011373 -0.06037414
0.048150927 -0.06450753 0.0070457906 0.08038317 -0.07432234 -0.093840614 -0.08974531 -0.06393738
-0.03285402 0.063713044 -0.06628141 0.06515029 0.03919448 0.04958357 -0.07516734 0.124310136
-0.0992952 0.020364061 0.074866265 0.02713935 -0.12304996 0.10461657 0.09374797 -0.029606983
0.011632726 -0.09811455 -0.05030656 -0.11871266 0.11013375 0.08774242 -0.056360155 -0.079994366
