ThinkMatch/exp_aaai/pca/CV4/saved_models/model.pt (torch, 216498 bytes, 17 tensors)

gnn_layer_0.gconv.a_fc.weight f4 [64, 121]
00000000: 77ce 8e3d 5403 15bd c133 73bd b22f e13c
00000010: f88d a73d 8f93 b03d ae76 313d d45a 38bd
00000020: ed64 08bd 9711 6cbd 43e9 5ebd 8bbc a8bd
00000030: 560e 55bc 865c e4bb 9d2f 83bd c968 0bbd
00000040: 08e0 973c a43d 23bc 2d4e 043d 087e e13c
00000050: 1d9d b73d a602 183d 8a8e a03d 0688 b03a
00000060: 05ec 90bc 201d 0a3d 97eb acbd c197 9d3c
00000070: a2a5 74bd 4799 72bd 3088 af3d 3b19 0f3d
00000080: dbbd 213d 2c40 ac3d 7608 603d 9ba4 303d
00000090: 0c3c b6bd cb08 6e3d fb47 bfbb da0a bc3c
000000a0: 2192 89bc f533 9f3d 8d03 38bd 6674 68bd
000000b0: 7b58 55bd f8a3 463d 381b c33d 5fd0 a53d
000000c0: 3287 dfbb ede9 413c 373d c1bc e1c7 cabc
000000d0: d090 16bd 7d99 443d 1c63 09bd 9e8e 3b3d
000000e0: e6c0 f53c 6fcb aa3d 678a 943d 0c40 503d
000000f0: 9d4e a1bd 127d a0bd e2c3 863d 58fb 4b3a
00000100: a0a1 8b3c 9235 54bd c8e5 ab3d ff62 2dbc
00000110: 514f 7b3a ade1 9f3c 565d 86bd c1f7 103d
00000120: cad8 1dbd a07f 9e3d 895b 1c3b bc77 d13c
00000130: 7af7 083d 3b3b 8cbd cb89 113d a2fa 77bd
00000140: 4c4c ac3d f610 c5bd 00c2 2b3d 8d38 01bd
00000150: 9dfa 8f3d 06bc 97bd ec25 243a a04b c4bc
00000160: 0eec 21bd 06d2 92bd b521 a6bd e14f 953d
00000170: d316 8d3d 7b7a da3c 9726 8cbd 641f b6bc
00000180: 4d7b 39bd b8ab ae3c 5d08 cb3c a9ba 6ebd
00000190: 2c34 f03c cf9d 773c e7ec 9cbd 9d4f 7abd
000001a0: 6cf0 773d 851d 9dbd 381c 9fbd 0c1d 91bb
000001b0: 96a5 06bd 455b 823c 8d46 cebc d9b5 bfbd
000001c0: b24d 84bc 004e efbb 15ff c53d 487a 163d
000001d0: 54d7 f63c 3bca b13c 797c dfbd 9b88 db3d
000001e0: 5e81 9dbc 5789 063c 285b 5bbb 5ed8 52bd
000001f0: 69b0 8cbc 3443 433d e155 783d d980 d83b
00000200: 9e21 cf3c 14f8 073d a737 053d 121b 9fbd
00000210: 0378 663d 81e0 c73d a007 0fbd 7dc3 84bc
00000220: 9eed 7cbd 558d d7bc f481 7e3d a42a 233d
00000230: cc39 603b 4495 2d3d d129 ad3d 0075 34bd
00000240: 4349 233d e6fa aebd 1f9a bb3d 6657 a7bd
00000250: 8fe6 39bd b5c6 a43b 462a 6abc 0a5f aa3d
00000260: 3d8c 08bd 3e59 743d cd48 533d 1a48 023c
00000270: 8f11 84bd 42dc 2a3d ebf3 8ebc fe80 8cbd
00000280: 69a6 3b3d 8376 9a3d b123 283d ed43 b23d
00000290: 7c43 923d 25e0 c13d 1b07 c83c 79c8 b1bd
000002a0: 80b9 663d 5fbf ad3d ece9 683d 2dc8 6fbd
000002b0: a2fa 01bc fc7d 923b efc2 693d a65d b03c
000002c0: af56 32bc 9b20 bd3c 88b7 dcbc 20f1 ed3c
000002d0: 2199 903c f034 083d 34f3 bc3b 5abf 3e3c
000002e0: 333a a1bd aaf9 d73c d2fb 90bc aa3d 2ebd
000002f0: 3b88 883d eadf b23c 2dd4 be3d a4d1 f5bc
00000300: 9f94 273d 778e b33d b2fa 61bd 375e 87bb
00000310: cdd4 cdbb 74c2 af3c bcd4 debc 12db 5d3d
00000320: cbff ab3d 5d8d f639 7ce2 9a3c 4d33 863d
00000330: 5801 a2bd 590d c33b 3fe1 8a3d fe03 aabd
00000340: d9b3 863d 4642 583d 5c4b b7bd 4e35 9f3d
00000350: 6079 b1bc 477c 8f3b 83d4 1fbb 2281 423d
00000360: c542 9cbd f12d 80bd 9c5f 6fbd 2b1b 6abd
00000370: 70c8 fc3c f1c9 a5bd 6fcf 69bc 3427 ab3c
00000380: d980 3ebd 8686 63bc 8652 edbc f671 a4bc
00000390: ca46 cc3d 09c9 8cbc a3de 1f3d faa5 973d
000003a0: 5f4d 7ebd 2404 693d 8cfc 843d 2f95 063d
000003b0: 0888 05bd d2c2 02bc 907b 21bd 1cba c63d
000003c0: 802a c5bd 2ab9 983d 68f9 a5bd 1931 973d
000003d0: 9ba6 943d fb74 2bbc b5db b53d 9ce9 3a3d
000003e0: 2139 28bd aac0 a43d ca3c 83bb 337c b3bd
000003f0: 802a debc 6db8 49bd 31be cdbc ad2f 8cbc
0.06972974 -0.036380127 -0.05937553 0.027488563 0.08181375 0.086218946 0.043326072 -0.045008495
-0.033299375 -0.057633962 -0.054421674 -0.08239087 -0.013003906 -0.0069690375 -0.06405566 -0.034035478
0.018539444 -0.009963427 0.032301117 0.027525917 0.08965514 0.0371119 0.07839687 0.0013468273
-0.017690668 0.033719182 -0.08443373 0.019237401 -0.059728272 -0.059228208 0.085708976 0.03493617
0.0394877 0.08410677 0.05469557 0.04312573 -0.08898172 0.058113854 -0.005837438 0.022954393
-0.016793313 0.07773582 -0.04492526 -0.05675163 -0.052086335 0.048496217 0.09526676 0.08096384
-0.0068215365 0.011835557 -0.02358876 -0.024753513 -0.036759198 0.04799794 -0.033541784 0.045790307
0.029999208 0.08339583 0.07252961 0.05084233 -0.078763224 -0.07836355 0.065803304 0.00077812886
0.017044842 -0.0518089 0.08393437 -0.010582685 0.0009586709 0.01951679 -0.06560771 0.035392527
-0.038536824 0.07739186 0.002385827 0.02556979 0.033439137 -0.06847235 0.0355318 -0.060541756
0.0841299 -0.09622376 0.04193306 -0.03154807 0.070302226 -0.074089095 0.00062617543 -0.023961842
-0.03953176 -0.07168965 -0.08111898 0.07290626 0.06889119 0.026669731 -0.06843298 -0.022231765
-0.045283604 0.021322116 0.024784261 -0.05828348 0.029321752 0.015113308 -0.07662373 -0.06111108
0.06053202 -0.07671646 -0.07769054 -0.0044285115 -0.03287276 0.015912661 -0.025180126 -0.093608566
-0.01615033 -0.0073029995 0.09667794 0.03673771 0.030131973 0.021702876 -0.10912413 0.10719415
-0.019226726 0.008211455 -0.0033471081 -0.051475875 -0.017173963 0.04767151 0.060628776 0.0066071567
0.025284585 0.03319557 0.032523777 -0.07768835 0.056266796 0.097596176 -0.03491938 -0.016206497
-0.061750047 -0.02631251 0.06213565 0.039835587 0.0034214137 0.04237868 0.084552415 -0.044056892
0.03986479 -0.08543949 0.09160256 -0.08170967 -0.045385893 0.0050285705 -0.014292305 0.083189085
-0.033336867 0.05965542 0.0515831 0.007951761 -0.064486615 0.04171396 -0.017450294 -0.06860541
0.045812998 0.075421356 0.041049663 0.08704362 0.07141778 0.0946658 0.02441745 -0.08680815
0.05632925 0.08483767 0.05686371 -0.058540512 -0.007933291 0.004470585 0.05707067 0.02152903
-0.010884925 0.023086837 -0.026942983 0.029045641 0.017651143 0.03325361 0.0057662968 0.011642301
-0.07872429 0.026364166 -0.017698202 -0.042539276 0.06666609 0.021835286 0.09317813 -0.030007191
0.04091322 0.087674074 -0.055170722 -0.0041311043 -0.0062814713 0.021455027 -0.027201049 0.054164
0.08398398 0.000470261 0.018906824 0.065527536 -0.079104125 0.005952519 0.067812435 -0.08301543
0.06577272 0.05279758 -0.089499205 0.07773839 -0.021664321 0.0043788287 -0.0024388141 0.047486432
-0.07629923 -0.06258763 -0.05844079 -0.057154816 0.030857295 -0.08095158 -0.014270647 0.020892717
-0.046509597 -0.013887053 -0.028970014 -0.020073872 0.099744394 -0.017185705 0.039030682 0.074047044
-0.062085506 0.056888714 0.06493482 0.032857116 -0.032600433 -0.007981019 -0.03942448 0.09703466
-0.09627247 0.07457192 -0.08104211 0.073824115 0.0725834 -0.010464902 0.088797964 0.045632944
-0.041070107 0.0804456 -0.0040050494 -0.087639235 -0.027119875 -0.049248148 -0.025115104 -0.017112577

gnn_layer_0.gconv.a_fc.bias f4 [64]
00000000: 1aaa 19bc e380 b33d d075 0ebd 357c ebbc
00000010: a59f a53d 93a2 81bd 8d6c 29bc 08fb 20bd
00000020: af2c 753d af6b 1fbd 67ad 4839 e914 87bd
00000030: 818f 33bd 9b2c 983d 3ef2 80bd 4ca4 4a3d
00000040: 6112 f63c a378 42bd 2317 27bc a12f ce3d
00000050: e1a4 44bd ac72 2f3d 2ced a03c 5c24 9abd
00000060: 5ee9 dcbc 9e32 5b3d 9963 d53c 0e8e 393c
00000070: 7064 763d 589d 893d 5a10 4e3d 3413 3c3d
00000080: 680f 3abd 5e80 78bd 6a01 9abc 356f 813d
00000090: 5dae 20bd 1b13 b83d 6d5e b03d 5890 adbc
000000a0: 1ce4 173c f471 8e3d b6cc e0bb bca7 ba3d
000000b0: 9bf3 693d b58f 88ba 0c75 773d a4e3 793c
000000c0: af72 613c 2bee 28bc d5a4 a2bd a22c af3d
000000d0: ad23 2b3d 2493 e73c c7f5 973d 11b8 f3bc
000000e0: 970d 18bd 0021 743d 8785 353d 8aa9 f639
000000f0: 7599 5c3d a994 7e3d ca93 de3c 1d25 983c
-0.009378934 0.087648176 -0.034780324 -0.02874575 0.080870904 -0.06329837 -0.010340822 -0.039301902
0.059857067 -0.038921054 0.00019138084 -0.06595785 -0.043838028 0.07430383 -0.06296204 0.049473092
0.03003806 -0.04747833 -0.010198387 0.10067678 -0.048008803 0.04283397 0.019644342 -0.07526466
-0.026966747 0.05351507 0.026048468 0.011325372 0.06015438 0.06719464 0.050308563 0.04591675
-0.04542485 -0.060669295 -0.018799502 0.06320039 -0.039228786 0.08988019 0.0861176 -0.021186993
0.009270694 0.069553286 -0.006860341 0.09114024 0.057117086 -0.0010418805 0.06041436 0.015252028
0.013760253 -0.01031069 -0.079415955 0.08553435 0.04178207 0.028268404 0.07419925 -0.029750856
-0.037122335 0.059601784 0.044316795 0.00047047093 0.053857286 0.062153492 0.02717008 0.018572384

gnn_layer_0.gconv.u_fc.weight f4 [64, 121]
00000000: 5c80 b53c 5b68 b2bc 8844 283c 9dcb 12bd
00000010: ea43 923c e3d5 603d 8948 373d 3da8 3b3d
00000020: 8651 003c 1e6f 943d fd44 2e3d e95c 563d
00000030: 2974 7d3c 9c41 7e3d 7848 a1bc 8bf3 973d
00000040: fb18 61bc 8df5 a9bd d1cf e9bc c537 013c
00000050: d2e6 ccbc 5ff7 afbd 41e1 abbc 8676 243d
00000060: 5bd3 c43c 65d4 883d 0054 d3bc 467a c43d
00000070: b69f b43d b2da 8abc 673f 80bd 59f5 993d
00000080: 0fb7 f53c 8599 823d abc0 26ba f9c8 85bd
00000090: c9cf 10bc 790e 283d 1596 9dbc 563b e83c
000000a0: 6047 b03d bea2 483d bfcf fbbc 8b80 babc
000000b0: 85e0 303c a710 55bd 38a4 3bbd fa00 423d
000000c0: a464 fbbb 187e 87bc c084 4ebc b27f ac3d
000000d0: f258 23bd 376e 63bc 6aaf d5bc 627a 8ebc
000000e0: dc45 da3c 2c98 713d 21d1 683d b7b0 a13c
000000f0: 8203 e9bc 10d9 cb3c 41e2 a2bd 0775 d23b
00000100: 509c 59bd 4493 a23d 0b0f 84bd 63ea 383d
00000110: dda9 96bd 1c52 7d3c c946 bf3a 7243 943d
00000120: 70f4 39bd 90d9 153d b09e b53d f58d 963d
00000130: 24f3 303d 1c85 933d 8bf1 a9bd 3d89 babc
00000140: 1d35 a63d 8096 813d 537d 9d3d 3d96 aebd
00000150: c40c 05bc 465b f33c 33d1 683d a88d 38bc
00000160: e673 75bd 3e5e 623d 0450 363d 8199 4e3d
00000170: e515 9f3d 0b08 8dbd 8520 773d 5d24 13bd
00000180: a16a 99bd 6dc3 973d 6496 6c3c 73e0 c03d
00000190: c479 92bc 3044 c13d 090f a6bd 5245 68bb
000001a0: 6cb6 91bd 4def 823d 4646 b33d 401a 0abb
000001b0: 6eed 943d c2fc 34bd 83e0 b83d 6970 6abd
000001c0: 59b6 86bd e339 88bd b6ac a6bb 4983 113d
000001d0: 0864 a0bd 5223 b3bc cb8b d6bd 35cc ce3b
000001e0: 0ea7 863d 74b8 073d cf08 3abc 0629 673d
000001f0: 1f34 1e3d 3b57 85bb f74a 283d 6e03 5abd
00000200: 72d1 6c3d 5218 503d 6979 a23d 7c7d 7ebd
00000210: 863e 003d 6000 623d 5498 98bd 6f06 b6bd
00000220: 0582 5f3d 23a5 1f3d f370 86bd ad8b e8bc
00000230: 0f33 27bd d1d2 743d 262b e33c bb7d 813d
00000240: dd7f b4bd 35fa 23bd fd74 1d3d 2217 5b3c
00000250: d245 a33d 8eef 7cbd e333 16bc 484a fc3c
00000260: e8ac af3c f964 0fbd 64d1 79bd 15b5 89bd
00000270: 5b83 8bbd 0651 28bd a0a9 d23d 0d84 5a3d
00000280: 5e68 3a3d f57f 813a 769c a4bd 3a48 9abd
00000290: 383f c33c 3116 0fbd ecae 4ebd eabb 723d
000002a0: 7d24 273d 888c 953d 6095 09bd b520 71bd
000002b0: b67a 0b3d b765 2bbd d1d1 b53c 18cf 953d
000002c0: 1415 783d df58 bebd e013 973d 4ad6 8b3d
000002d0: 4a1d 863d f671 02bc 1b76 9dbd 0f2e b63d
000002e0: 547f 1b3d c772 583d 3115 8ebd bccc d9bc
000002f0: 0e9c 8a3c f061 87bd f021 49bd 76a2 b8bb
00000300: d853 9cbc 8616 a43d 766c c23d ac55 90bd
00000310: acad b83d 3b36 af3c d47e 503d 2f87 84bd
00000320: 5682 fc3c 2716 ef3c 84d1 3ebc 57a1 003d
00000330: 4848 b43d a112 8bbc 14e7 5c3d 8672 ae3c
00000340: 2e69 8f3c 6353 113d 4d0e 643d 6a1a f73c
00000350: b2d6 a8bd e1d8 1c3b c932 273c f8b9 a73d
00000360: 1c76 893d 5173 443d 0396 113c 245f 5a3d
00000370: f79e 3e3c 6536 6fbc 817a 06bd 8fed 023d
00000380: fdf5 27bc 93f8 733d 8951 74bc 720b 8b3d
00000390: 5464 543d 8b3c b8bd b67b 963d 16c0 b23d
000003a0: c048 ad3d ec94 9f3c f438 b2bc 0dce 53bd
000003b0: 6ad2 0b3b 2c8f 8dbd 5bd8 70bd 6b35 873d
000003c0: 3d33 fabc 0f48 2fbd 8217 c9bc 2e1e 90bd
000003d0: bff3 d1bc 7da5 85bc 5aa1 86bb 6c5f 94bd
000003e0: a6c6 353d d178 b33d 6be3 ea3b 289d c03d
000003f0: be87 593b 2e1c 1e3a b88d 653d e888 bfbd
0.022155933 -0.021778276 0.010270245 -0.035838712 0.01785465 0.05489148 0.04474691 0.04581474
0.007831937 0.072477564 0.04254626 0.0523347 0.015469589 0.06207429 -0.019687876 0.07419499
-0.013738866 -0.08298788 -0.028541477 0.007886832 -0.025012407 -0.08592104 -0.020981433 0.040152095
0.024026563 0.06681136 -0.02579689 0.09593634 0.08819525 -0.016949985 -0.06262093 0.075174995
0.029994516 0.06376938 -0.0006361107 -0.06532473 -0.008838602 0.041029427 -0.019236604 0.028348606
0.08607364 0.048983328 -0.03073871 -0.022766372 0.010795717 -0.052017834 -0.045810908 0.047364213
-0.0076719094 -0.016539618 -0.012604892 0.084227934 -0.039879747 -0.013881258 -0.02608462 -0.017392341
0.02664464 0.058983013 0.056840066 0.019737585 -0.028444055 0.024883777 -0.07953311 0.006422642
-0.053127587 0.07938245 -0.06448182 0.045145404 -0.073566176 0.015461471 0.0014593239 0.07239427
-0.04539913 0.036584437 0.08868158 0.07351295 0.043200627 0.07203123 -0.08298024 -0.022770518
0.08115599 0.06327534 0.07689919 -0.085247494 -0.008120719 0.029706609 0.056840133 -0.011264242
-0.059924982 0.055265658 0.044509903 0.05043936 0.07767848 -0.068863 0.060333747 -0.03592335
-0.07491041 0.074103214 0.014440153 0.0941781 -0.017880328 0.09436834 -0.081083365 -0.0035441709
-0.07114872 0.06393299 0.08753638 -0.0021072775 0.072718486 -0.04418636 0.09027197 -0.05723611
-0.06577749 -0.06651666 -0.0050865067 0.035525594 -0.078315794 -0.021867428 -0.10475882 0.0063109645
0.06574832 0.033134893 -0.011354639 0.056435607 0.038623925 -0.0040692366 0.041087117 -0.053225927
0.05781693 0.050804444 0.079333134 -0.06213139 0.031309627 0.05517614 -0.07450929 -0.08887946
0.054567356 0.038975846 -0.06564512 -0.028386915 -0.040820178 0.059771363 0.027730536 0.06322809
-0.088134505 -0.040033538 0.038441647 0.0133722145 0.079723015 -0.061751895 -0.009167644 0.030797139
0.021444753 -0.035008404 -0.060990706 -0.06723992 -0.068121634 -0.041092895 0.1028626 0.05334859
0.04550969 0.0009880053 -0.08037655 -0.075333074 0.023833856 -0.034933273 -0.050459787 0.05926124
0.040806282 0.07302195 -0.03358972 -0.058869082 0.034052573 -0.04184505 0.022194775 0.073148906
0.060566977 -0.092942946 0.07376838 0.06827982 0.06548555 -0.007961741 -0.076885425 0.08895504
0.037963226 0.052843835 -0.06937636 -0.026586883 0.016920116 -0.06610477 -0.04910463 -0.005634601
-0.019082949 0.080121085 0.094933435 -0.070475906 0.090175 0.021388164 0.050902203 -0.06471097
0.030823868 0.029185368 -0.011646632 0.031403866 0.08802849 -0.016976656 0.05393131 0.021294843
0.017506208 0.035479914 0.0556777 0.030163962 -0.08244075 0.002393298 0.010204979 0.081897676
0.06711981 0.047961537 0.008885863 0.05331339 0.01163458 -0.014600371 -0.032831673 0.031964835
-0.010251519 0.05956323 -0.014912018 0.067892924 0.051853493 -0.08995923 0.07347815 0.08728044
0.084611416 0.019480191 -0.021755673 -0.051710177 0.0021335133 -0.069120735 -0.058800083 0.066019855
-0.03054201 -0.04279333 -0.024547342 -0.07037006 -0.025628923 -0.016314263 -0.00410859 -0.07244763
0.0443789 0.08763278 0.0071682236 0.09404975 0.003319248 0.0006031421 0.056043357 -0.09352285

gnn_layer_0.gconv.u_fc.bias f4 [64]
00000000: 457c e2bc 0f5a 96bd ce0b 3e3d 5950 53bd
00000010: 138e 673d 0d6d bab9 0dc5 2b3c be0b 6e3c
00000020: e587 903d 99e5 05bd e287 d33c 3cdb f4b9
00000030: 8873 80bd efcc 85bd afd4 103d 6180 8ebd
00000040: 9705 7cbd 0a87 13bc edda a53d c723 a7bd
00000050: d7ae 4b3d 5daa 11bd 03ca 9a3d 8caa 61bc
00000060: 886e afbd 01e8 0a3d 700c cd3d 934f a2bc
00000070: 556c a43d a755 343d f4b0 583d 5a2a 7e3d
00000080: bf7b 65bc ebec 983d 225b 763d 83f5 d43c
00000090: 4c43 3dbd 3e48 873d f07a 84bd 4872 dfbc
000000a0: e21d d53d 8c36 813d d545 2abd dbbc 7dbd
000000b0: b710 3bbc 40b3 e2bb ecd0 17bd 7b30 82bd
000000c0: 8115 b53d e0c9 74bd bb14 ccba 8f56 203d
000000d0: 87e4 5d3d ef31 67bd 871c 9c3d 9552 91bd
000000e0: 2cd6 433d df00 aa3d 5fd7 92bd 8aaa 26bd
000000f0: feeb 57bd 4475 55bc d4f1 99bd d33a c23d
-0.027647147 -0.07341396 0.046397977 -0.051590297 0.056531977 -0.00035557934 0.010483992 0.014529167
0.0705717 -0.032689665 0.02582163 -0.0004670265 -0.06272036 -0.065332286 0.03535908 -0.0695808
-0.06152877 -0.009004364 0.080983974 -0.08161121 0.049727287 -0.03556286 0.07558062 -0.013773572
-0.08566004 0.033912662 0.10012138 -0.019813335 0.08028475 0.044026997 0.05290313 0.06205211
-0.014006554 0.074670635 0.060145505 0.025995975 -0.046206757 0.06605576 -0.06468761 -0.027276173
0.1040609 0.06309232 -0.041570503 -0.061947685 -0.011417559 -0.006918341 -0.037064478 -0.06356903
0.08841992 -0.059762836 -0.0015570143 0.03914505 0.05417302 -0.056444105 0.07622629 -0.070958294
0.047811672 0.083009474 -0.07169985 -0.040689982 -0.052715294 -0.013028447 -0.07516828 0.09483876

affinity_0.A f4 [64, 64]
00000000: 35ca 8a3f 5056 833c f02a 82bd 9406 383d
00000010: 2857 1ebd c27f a93d 004f 71ba c0c9 d5bd
00000020: 0083 553b e832 c5bd 36ea bb3d 4086 ee3d
00000030: a8a3 debc 78a5 3cbd c89e 57bd 42cc e23d
00000040: 14c6 2c3d 365f f33d c4f6 f1bd 60d8 34bc
00000050: 306b d9bd 7296 cc3d ecab b53d 6686 b43d
00000060: 20a0 973d 2696 e93d 98c8 62bd 809c b8bc
00000070: 78bc 4abd c8d2 d03c 94e9 633d a6f4 d33d
00000080: 267f 8fbd 5c50 08bd ccf4 7cbd 4250 92bd
00000090: d02d eebd 52d6 b5bd 981c bf3d 6c0b 4d3d
000000a0: d026 28bc 5095 2e3d 0414 783d f017 6ebc
000000b0: 0899 ad3d e261 d63d e0b0 30bc e6e4 92bd
000000c0: 80af 0a3b 0034 ec39 c042 9e3c 40b6 c53b
000000d0: e884 323d ea5d ff3d 3023 a6bd 8a11 a9bd
000000e0: f821 303d 9c92 fa3d b26a e5bd 42f0 a9bd
000000f0: 1e5f ea3d c859 ebbc 1027 02bd 88c1 c1bc
00000100: 14bd e1bd 3d59 703f ac99 ea3d a84e 36bd
00000110: dc6a 173d 7604 b43d 8013 eb3c 28fb 67bd
00000120: 88cd afbc e024 e8bd c4d3 e0bd 14d2 403d
00000130: cc0c c63d 846e 29bd 009f 0bbd de89 c1bd
00000140: 7a54 ecbd 8e23 9f3d 48d5 9fbc 4067 c3bd
00000150: 4640 aebd 5405 a5bd e0dc fe3c 80a3 b23d
00000160: 76b4 edbd c0dc a93d 007f 5c3a b80d 943d
00000170: 100f d63c 541c 66bd 8c25 13bd bcdc a93d
00000180: a011 83bd fe1c ff3d 5af4 d4bd 1ef5 babd
00000190: 8c2e 113d 0eeb c9bd 8432 9abd 0846 9dbd
000001a0: c624 d6bd 3c98 93bd 9aca ec3d dcaa 9fbd
000001b0: f88c acbc a6f3 c23d 68b0 55bd b008 f8bc
000001c0: 96fd ae3d 1414 833d 8c0b 033d 381d de3d
000001d0: 9688 e23d 18c0 4a3d 7867 b9bc 122d 943d
000001e0: 6ef4 b93d 42e3 f5bd c800 0abd 5c7d 813d
000001f0: c0b2 a63d e0e5 da3b 7c35 453d 34f3 463d
00000200: ac28 85bd 9854 8d3c 4c0c 753f 5c97 703d
00000210: f428 13bd e4d2 853d 4ea4 9d3d 585c b73c
00000220: 687a d8bc 58cd 793d 8802 c1bd 8869 92bd
00000230: 5ce5 1cbd 7a74 9d3d 54de 003d ee44 d63d
00000240: 1057 ffbd ccae 64bd 2842 0fbd 6cf2 1c3d
00000250: 40a6 323d 083d d1bd 46ff c7bd 103d ddbd
00000260: 8c2e 7abd 924f 833d 201d 2fbd 5c37 2c3d
00000270: 608f 193d c4fb 803d 7824 bf3c 8a23 db3d
00000280: 20d2 3dbc 9014 2e3d a8ab 4ebd a845 afbd
00000290: 32dd a03d 783d f73c 6e27 a83d b463 ddbd
000002a0: e0b2 0d3d f020 343c 44d9 4a3d 2c46 4fbd
000002b0: c465 ac3d 34f1 d6bd d896 36bd 4cfe 1dbd
000002c0: 9069 8a3d eaff e3bd 585b ddbc 342f 01bd
000002d0: c483 35bd c048 283b e486 d53d b4cd fbbd
000002e0: 4065 88bd 72d8 d93d f065 dd3d e05c d6bd
000002f0: 5ef8 dbbd b81f eb3c 9481 dc3d e220 ccbd
00000300: 20d5 e43b 90ff b43c 86df e03d 5278 843f
00000310: c06d 9f3d b08c aabd 2ccd 12bd aadb e0bd
00000320: c0ed 9cbb b841 b1bd 24b1 cf3d 0034 ddbd
00000330: 9a9e d43d 842f a3bd fcfd 923d 0011 e9bd
00000340: b006 b63c 3ca2 d4bd 222f 903d da6f 96bd
00000350: 00b7 fb3d 1655 b83d 109c 36bc 82d6 cb3d
00000360: 88cf a63d 7a14 d0bd 6cbb e3bd fcb1 f7bd
00000370: c009 3b3c 0022 0b3d ccf0 a93d 6c5c a8bd
00000380: acad 50bd 3874 d1bd 3e1f 96bd deb9 d93d
00000390: 7078 223d 0030 72bc acbc acbd 66f0 a9bd
000003a0: 20df 913d 746d 263d 001e 62ba c0be 003b
000003b0: a035 69bc 1080 9c3c 80a4 5ebd 02d7 82bd
000003c0: 00fe 5bbb f05e ebbd 80a0 eb3a 40f4 053d
000003d0: 8492 963d f8db d63d f28a bc3d d4a4 b43d
000003e0: 34e5 883d 20d4 703c 40a2 c53c 884e d9bc
000003f0: c060 dbbd ea22 84bd 902d e13c 94b1 2e3d
1.0842959 0.016032368 -0.06355846 0.04492815 -0.038657337 0.08276321 -0.00092051923 -0.104388714
0.0032579303 -0.0962885 0.091755316 0.116467 -0.027177647 -0.04605624 -0.05264166 0.11074115
0.04218109 0.118833944 -0.11814645 -0.011037916 -0.106161475 0.09989633 0.08870682 0.08814697
0.07403588 0.11405592 -0.055367082 -0.022535563 -0.049496144 0.025491133 0.05564268 0.10349397
-0.070066735 -0.03327976 -0.061756894 -0.07144214 -0.11629832 -0.08878769 0.09331626 0.05005972
-0.01026316 0.042622864 0.060565963 -0.014532074 0.08476454 0.104678884 -0.010784358 -0.07172565
0.0021161735 0.0004505217 0.019318938 0.006033689 0.04358378 0.124690846 -0.0811218 -0.082552984
0.043001145 0.12234995 -0.11201991 -0.08297779 0.114439234 -0.028729334 -0.031775534 -0.023651853
-0.11022392 0.93886167 0.11455092 -0.044508606 0.036967143 0.08789913 0.028695822 -0.056636006
-0.02146031 -0.11335158 -0.10977891 0.047075346 0.096704096 -0.04136516 -0.03408718 -0.09450124
-0.1153955 0.077704534 -0.01951088 -0.09541178 -0.08508353 -0.08057657 0.03111118 0.087225914
-0.11606686 0.08294058 0.00084112585 0.07229179 0.02613023 -0.05617936 -0.03592448 0.08294055
-0.06399846 0.12456702 -0.10398169 -0.09128784 0.03544478 -0.09859286 -0.07529166 -0.07679373
-0.10456233 -0.07206771 0.11562081 -0.07796261 -0.021063313 0.095191285 -0.052170187 -0.03027758
0.085444614 0.06400314 0.031993434 0.10845417 0.11061208 0.0494996 -0.022632346 0.07235159
0.090798244 -0.120062366 -0.03369215 0.063227385 0.081395626 0.0066802353 0.04814671 0.04857178
-0.06501898 0.017252252 0.9572189 0.058738098 -0.035927728 0.06534365 0.07697354 0.0223829
-0.026425555 0.060986847 -0.09424311 -0.07149035 -0.03830467 0.07688232 0.03146203 0.10462366
-0.12467778 -0.05583076 -0.0349752 0.03831713 0.04361558 -0.10216719 -0.097654864 -0.108026624
-0.061079547 0.06411661 -0.042752385 0.042044982 0.03749025 0.062980205 0.02333282 0.10700138
-0.011585742 0.04250008 -0.050456673 -0.08558208 0.0785469 0.030180678 0.082106456 -0.108100325
0.034594417 0.010994181 0.049523607 -0.05060403 0.08417848 -0.104952246 -0.04457745 -0.038572595
0.06758416 -0.11132796 -0.027021095 -0.031539157 -0.044315115 0.0025678128 0.10426119 -0.12295094
-0.06659937 0.10636987 0.10810459 -0.10466933 -0.10740732 0.028701648 0.107669026 -0.099672094
0.0069834143 0.022094518 0.10980134 1.0349219 0.07784605 -0.08327615 -0.0358402 -0.109793976
-0.004789084 -0.08655113 0.10141209 -0.10800934 0.10381813 -0.07968047 0.0717735 -0.113801956
0.022219986 -0.10382506 0.0704024 -0.07345553 0.12290764 0.09000604 -0.011145607 0.099530235
0.08145052 -0.101601556 -0.11119732 -0.12094495 0.011415899 0.03396797 0.082978815 -0.08220753
-0.050946876 -0.10227245 -0.07330178 0.106311545 0.03966564 -0.014781952 -0.08434424 -0.082978055
0.07122636 0.040631726 -0.0008625686 0.0019644946 -0.014233977 0.019104034 -0.0543561 -0.06388666
-0.0033568144 -0.11492717 0.001797691 0.032703638 0.073521644 0.104911745 0.09206189 0.08820501
0.06684342 0.014699012 0.024125218 -0.026526704 -0.10711813 -0.06451972 0.027487546 0.04264982

gnn_layer_1.gconv.a_fc.weight f4 [64, 64]
00000000: 67f0 b83d a554 633d af63 043e 6e29 d4bd
00000010: 3d60 3dbb 456d 9e3d 4617 c13d 1567 7d3b
00000020: 777b f0bd 5e28 6dbc 47b5 dabd 5608 3b3d
00000030: c341 3b3b f640 bd3d 7638 aa3d 267b e7bd
00000040: db46 393c 940f 193d 0db2 dc3d 32b9 bebd
00000050: b6db f4bd 406c f23b a1e7 9d3b 5c9c 9b3d
00000060: 36f5 8a3d 64a1 a0bc 5ebb e13d 17bd 873c
00000070: 4f64 8c3d 495a 683d 4e40 c73d 639d 6a3d
00000080: f8f6 f5bd ab81 303d fef1 edbb aad4 d9ba
00000090: ff47 593d 4788 833d 67bc b13c 396c d13d
000000a0: 0ae3 0cbd 4970 b6bb 8839 c93d 249f 1d3d
000000b0: ac38 5a3d a308 ed3d b609 b23d 0f89 9cbc
000000c0: e5f1 2d3d af60 8abd 5175 a3bd 3d83 563d
000000d0: b574 5c3d 3f26 a4bd 0c31 29bd 64f1 e2bc
000000e0: 7095 f13d ac7c b5bc f0eb 743d 3b2b 84bd
000000f0: 0320 893d ed1c 403c 13e6 9f3c 6a28 663d
00000100: c518 1dbb 37ab 50bc f143 9c3c 61b2 4f3d
00000110: c756 553d 0f58 05bd 5477 be3d 970b 7e3b
00000120: 235d 5cbd c43f 9fbd 9fec 91bc 21c2 3bbd
00000130: 486a acbc 62a9 f2bd 32bc 703c 54a3 16bd
00000140: 6dfc 03bd de2d e3bd 0d30 9fbd fd1f 96bd
00000150: 7e5c b9bd 58ed fa3c 94f2 823d d237 d23d
00000160: ef7c 623d 9c49 3e3d b3ec 703d fdc0 08bd
00000170: ab04 97bb 6325 a93d 10ec adbd 6758 093d
00000180: 5079 8bbd eef2 49bd 8bc8 58bd 7752 45bb
00000190: 9cd0 aebd 6c21 093d 6905 3dbc b4fe 56bd
000001a0: 86a8 87bd b8cf f5bd 38a9 c5bc 0c01 553b
000001b0: 6401 58bd dfea a4bd f6fa ee3c ea82 fd3d
000001c0: 876e cf3b bad0 6b3b ec5b 80bd acea 4e3d
000001d0: 4cb5 e03d ef83 c0bd 75ef 37bd 2c08 2dbd
000001e0: c5ea a5bc f87e 1fbd 641d 5e3c 0c2f 153d
000001f0: d6f8 c13c b5d7 0e3d 8a11 c53d b191 acbd
00000200: f04a 013e b157 163d 2999 dc3c 74a0 9a3d
00000210: 514f 69bd df09 4a3b 0820 febd f6b5 abbc
00000220: ec1f 8a3c f30f 103d 081e 25bc b692 68bd
00000230: 9cd3 f2bc 02fd 043e 15a5 9c3d 40b2 e13d
00000240: 16ed 973d a45c b43d 25ed 98bd f5a5 ba3d
00000250: d61a e9bd 74e2 0fbd f081 9cbd 4bca bb3d
00000260: 0162 df3d 2e51 2bbb a8fc 98bd e1d4 e53b
00000270: 565f a13d 2368 68bd cf87 643d d556 3ebb
00000280: 8370 e43a 3c99 90bd 1f4b f9bd f4d3 e53d
00000290: 78f7 75bd 9212 05bd b275 cb3d dfbb 3cbc
000002a0: 2dbe 0ebd fd5b 683d 7736 9ebd 3605 723c
000002b0: 983d 2bbd 0d66 f13d 4398 ccbd 0921 133d
000002c0: 5b05 f4bd c773 aabb abd5 f0bd b994 91bc
000002d0: deed 963d b4e2 c63c 36ed d6bd 5e99 a9bd
000002e0: 210d d13d 7311 aabc 5fc9 b5bb 735b 4c3d
000002f0: 0ed3 e83d 7462 bbbd 6e91 31bd 93bb d2bd
00000300: 6d7f 77bd b99f dcbb 9ac9 dd3d bddc 8bbd
00000310: ef45 f1bd 6d31 d539 8b8c ad3d c754 16bd
00000320: b301 f03d b443 43bc 3207 a83b d02e 95bd
00000330: da2b 983d 628c 8bbd b485 213d f0f7 be3d
00000340: 631f ccbd 906a edbd 38c7 8dbc 4f5d eabd
00000350: d6bb 55bd 942f 10bd 6acb b6bd 3e27 b0bd
00000360: bfbc 993d 7632 933d 2bc0 e63d 432c 513d
00000370: bfc5 fabd 1906 e0bd 2f11 9ebd 0855 163c
00000380: 0d26 efbd 260c d13c a54b 03bd 1fec 30bd
00000390: 2ab6 d13c 5579 b73d 70bf 493d f35c 36bb
000003a0: 176b bb3d 9a85 483d 0a88 e83d 7da6 ebbd
000003b0: 616d c4bb 22a8 243d f6b3 5a3d 57e0 b23d
000003c0: 6db0 2b3d d98b 9a3c 8af2 693d a197 bbbc
000003d0: fb2e d13d d53a cf3d 538b 7dbd 6141 7bbd
000003e0: 9979 623c 7739 cb3d 0da7 a6bd 7389 1f3d
000003f0: f57b d4bd 6a5b d53d f892 cbbd 467e d7bc
0.09030228 0.055500645 0.12928651 -0.103594646 -0.0028896474 0.07735685 0.09428267 0.0038666178
-0.11742299 -0.014474956 -0.10679107 0.045662247 0.0028573133 0.09240906 0.0831155 -0.113027856
0.011308397 0.037368372 0.10776148 -0.09312667 -0.11955969 0.0073981583 0.004818872 0.075981826
0.067850515 -0.019608207 0.110220656 0.016569657 0.0685507 0.056726728 0.09729062 0.057279002
-0.12009996 0.04309241 -0.0072615137 -0.0016619165 0.053047176 0.06422477 0.021696283 0.1022572
-0.03439621 -0.0055675847 0.09825426 0.038481846 0.053276703 0.11573913 0.086932585 -0.019108323
0.042467017 -0.06756722 -0.07981361 0.052371252 0.053822238 -0.08015107 -0.04130654 -0.027702995
0.11796081 -0.022154175 0.05979532 -0.06453558 0.06695559 0.011725646 0.019518888 0.056190886
-0.0023971063 -0.012736133 0.019075366 0.050707225 0.05208471 -0.032554682 0.09300104 0.0038764232
-0.05379976 -0.07775834 -0.017813025 -0.045839433 -0.021046773 -0.118487135 0.014693307 -0.036776856
-0.032223154 -0.11092733 -0.07772837 -0.0733032 -0.090508446 0.030630752 0.06393924 0.10264553
0.055294927 0.046456918 0.058819484 -0.033387173 -0.0046087108 0.08259084 -0.08492291 0.033531573
-0.06810248 -0.04930394 -0.052925628 -0.0030108967 -0.08535883 0.03347914 -0.011536934 -0.052488998
-0.0662394 -0.1200251 -0.024128541 0.0032501845 -0.0527357 -0.080526106 0.029172402 0.123784855
0.0063303146 0.0035982565 -0.06267533 0.05051677 0.1097208 -0.09400164 -0.0449061 -0.04224412
-0.020253548 -0.038939446 0.013556812 0.03642182 0.023678225 0.034873683 0.09622486 -0.08426226
0.12626243 0.036704723 0.026928501 0.07550135 -0.056960408 0.0030828638 -0.12408453 -0.02096079
0.016860925 0.03517146 -0.010077961 -0.05678054 -0.029641919 0.1298714 0.076486744 0.110203266
0.074182674 0.08806732 -0.07467107 0.09113685 -0.11382072 -0.035128072 -0.07641971 0.09169444
0.10907365 -0.0026140916 -0.07470065 0.0070139025 0.07879512 -0.056739938 0.05579358 -0.0029043455
0.0017428551 -0.07060477 -0.12172531 0.112220675 -0.060050458 -0.032488413 0.09934558 -0.011519401
-0.034849335 0.05672835 -0.07725232 0.01477175 -0.041806787 0.11787043 -0.09989979 0.035920177
-0.11915084 -0.00520179 -0.11759504 -0.017771112 0.07369588 0.024278022 -0.10494463 -0.082812056
0.10207582 -0.020760274 -0.005547687 0.0498919 0.113683805 -0.09149638 -0.043351583 -0.10289683
-0.060424257 -0.0067329076 0.10829468 -0.06829212 -0.11780917 0.0004066335 0.08474072 -0.036701944
0.11719074 -0.011917997 0.005127811 -0.072843194 0.07430239 -0.06813885 0.03943415 0.09324634
-0.09966924 -0.11592591 -0.017306909 -0.114435785 -0.052181087 -0.035201624 -0.08925517 -0.08601235
0.075067036 0.07187359 0.11267122 0.051067602 -0.12244748 -0.10938663 -0.07718121 0.0091755465
-0.116771795 0.025518488 -0.032054562 -0.043193933 0.025599558 0.08958689 0.049254835 -0.0027826398
0.09151285 0.048955537 0.113540724 -0.115063645 -0.0059944843 0.040199406 0.05339428 0.08734196
0.0419163 0.018865513 0.05711607 -0.02289945 0.10214039 0.10118643 -0.061900448 -0.061341647
0.013822936 0.0992307 -0.08137331 0.03894944 -0.103752054 0.104178265 -0.099401414 -0.026305329

gnn_layer_1.gconv.a_fc.bias f4 [64]
00000000: 54fe 273d 3d6b 25bd c9ec babd 9748 e33d
00000010: 8510 f23d 7b56 b7bd d4e9 4fbd 57b5 54ba
00000020: 7a0b 633d 678c dd3c 9dd1 93bd b85e 94bd
00000030: 2823 b8bd fe0d c03b 31b5 473b 5815 d0bd
00000040: 7008 b03c a851 d6bd af17 22bd caba 30bd
00000050: d05e e23d ed75 f83d c241 ba3d 0765 9d3d
00000060: a268 ee3d 8385 8cbd 6c08 febd b000 503c
00000070: 5051 f73d 19f0 9f3d a719 cbbd ad0c c1bd
00000080: 9f84 7a3d c2b5 9f3b f9eb 0b3e 7913 c3bd
00000090: 9ac9 adbd eb18 83bb c3d8 ffbd 7bf9 d63d
000000a0: 6608 0a3e 5b54 c2bd a573 843d bc3d 9a3d
000000b0: b3bd e43c 0cd3 f7bd 8be9 313d d69b 0b3e
000000c0: f515 eb3a 086f e73c ebd4 413d 503c 963d
000000d0: 5782 ba3d e00e cfbd 422f de3d 946d adbd
000000e0: d200 acbd 0510 2cbc 94ba f63c 9c25 4bbd
000000f0: 1933 903d 3830 8e3d e82b e4bc 1812 443d
0.04101403 -0.040385474 -0.091271944 0.1109783 0.11819557 -0.08952042 -0.050760105 -0.000811418
0.055430867 0.027044488 -0.07217715 -0.07244629 -0.089910805 0.005861043 0.0030472989 -0.10160321
0.021488398 -0.104647934 -0.039573368 -0.043146886 0.1105324 0.121318676 0.090945736 0.07685285
0.11641051 -0.06861403 -0.1240395 0.012695476 0.12076056 0.07809467 -0.09917002 -0.09426246
0.061161634 0.004873962 0.13664235 -0.095251985 -0.08485718 -0.004000773 -0.12492516 0.104968034
0.13479766 -0.09488746 0.0646737 0.07531306 0.027922487 -0.12100801 0.043435615 0.13633665
0.0017935621 0.028251186 0.047322195 0.073357224 0.091068916 -0.10110259 0.108488575 -0.08468166
-0.08398594 -0.010501866 0.030118264 -0.049596414 0.07040996 0.06942791 -0.027852967 0.047868818

gnn_layer_1.gconv.u_fc.weight f4 [64, 64]
00000000: 451a c6bd ad50 07bc 6a55 13be 0029 0d3b
00000010: 46e5 083e bb0f 39bd 297d bdbd 258f da3d
00000020: 9537 f43d 458a fe3b c38b c6bd b529 143c
00000030: 407c 86bd 6d7f 8a3d 1f15 013d d2bb d5bd
00000040: a812 18bc d8fe 2abd 3826 afbd d2f4 e33d
00000050: a5fd 00be 687a 2b3d 69c4 b0bd 37d6 9a3c
00000060: da3a c63d 1938 443d 4ba8 92bd dbe0 e83d
00000070: 7bba c83d 09bd b33d b81f dbbc acd7 223d
00000080: 9b68 a53c a753 c93d 060a 6d3d c7e9 f13d
00000090: a949 ddbd 925f 453d 3051 0d3e 40d0 a73d
000000a0: dc7b d83d 2011 8dbd be4b e6bd 617e 81bd
000000b0: fdd6 733d 0ded 013d 8f64 e63c 17cf e53d
000000c0: 3528 b83d bf67 883d bcb7 963d 1dcc 583d
000000d0: 2c0f e53d 9c46 c3bd 7948 0b3d b1a4 ef3d
000000e0: e8c4 dc3d 7cc6 9bbd b7d8 ebbb db50 463d
000000f0: e454 cabb 93a2 bebd 2017 3dbd 3a2c c23c
00000100: 7930 d73d dea1 4b3d 48bc d0bd be26 7bbd
00000110: 7e8c 83bd 47a7 19bd 1453 a1bd edb5 833c
00000120: 23fd 9b3d 11f1 97bd ca3f 04be aedb 92bc
00000130: b94a 07bc d839 083d 1185 d4ba 63f0 ae3c
00000140: 784c d2bd 5f67 743c 8915 e93d 029a 01be
00000150: 0a01 a83c e404 893d 58cb 6bbd 3758 8db9
00000160: d06a ccbd 9549 a8bd f325 8dbd e407 e43d
00000170: c260 6d3d 03b6 193e 60e8 443d 4337 5ebd
00000180: 5716 043d b8ae 96bd 27bc 8e3d 9e0b 823d
00000190: 08fd f83d a34b 48b9 d999 be3d b207 9a3b
000001a0: ab7e c43d 0a24 3abd 19fd 1d3d 6b76 e83d
000001b0: a671 a6bd 0dc8 9fbc a21b 143e 1953 ab3c
000001c0: d419 e83d 8322 9bbc c1ad 593d de09 453c
000001d0: 2536 30bd 3ec3 3cbd 02b6 993c 46dc ec3d
000001e0: d726 723d a37f 923d 9760 083c 0a21 5fbc
000001f0: eb3f 4cbd d8a2 283d 0a7f e43d 9526 60bd
00000200: 0c9f 183d 5f8a 053e 1da7 113c 92ba d3bd
00000210: d778 15bd fb4e 943d 2ff7 883d 54b0 b03d
00000220: 8f29 d6bd 90a9 9dbd fc07 67bd e7ba 783c
00000230: 403e 843d e890 1c3d 3c70 be3d 8487 e53d
00000240: 15b1 453d 8a27 b5bd 6469 afbd 3adf 873d
00000250: 68ad b53d ec5c dcbd 2846 41bd 902d b13d
00000260: e609 cc3d b88a efbd 1aa9 e53d 8f07 3d3d
00000270: a9bc ccbd 7bef 9dbd 4370 9d3b 8c08 dfbd
00000280: 80d0 aa3c 173c a93d 95bc e0bd 2440 b8bd
00000290: 4674 03bd 96a1 2cbd 582e 0bbe d97a d2bd
000002a0: a2d9 81bb 1384 81bd 2877 743d a7c3 fe3c
000002b0: 3ad5 273d 601d 9d3d 0271 63bd 23ea b23c
000002c0: 68b3 983c 75d8 85bd 8775 6f3d ac80 7a3d
000002d0: c5a3 a53d 56bd d73d 5c57 373d 54e9 8c3d
000002e0: ffa4 52bb 0c33 c0bd cb91 23bd d467 9fbc
000002f0: 5968 303d ce90 ec3d 023a ad3d 7881 23bd
00000300: 6248 41bd 9256 0c3e b854 c93d 1a9b a0bd
00000310: 16b2 ee3c 176d c1bd 732d 55bc e8a4 b33d
00000320: 94c4 5abd 2bc2 6bbd dfbd ff3c 6a3f db3d
00000330: 9378 d33c 0baf bc3d 0b0b 933d 65fc bcbd
00000340: ac24 12bd fa71 d23d 8c39 093e fdbe 393b
00000350: f393 1a3b 74cc 11bd 7cd5 3e3c 89c2 aa3c
00000360: e0c1 04bc 6845 dcbd 814d d63c a82f dabd
00000370: b66d 3ebd 1de6 c23d e476 8c3d 9a95 22bb
00000380: b027 f23c 4b19 5a3d f702 af3d 1d8f d93d
00000390: 3ed4 13bd 23f5 043e e738 54bd 82c9 553c
000003a0: ee0e fb3d 93c0 61bd ed10 1e3d 7a2f 8739
000003b0: d781 b7bd 5c90 cb3b 52ee 8ebd a6a2 77bd
000003c0: 24fa cabd 8b7b 9cbd 43e3 c63c f0ad 87bc
000003d0: 156b b03b 4670 10bc 70af 69bd 42c8 0c3c
000003e0: e189 ee3c bc6b 423d 3e2f b13a 1c86 be3d
000003f0: e9c4 823d 0442 80bd 4055 ca3d a9d4 f8bd
-0.09672979 -0.008258981 -0.14388052 0.002153933 0.13368711 -0.045181017 -0.09252388 0.10671834
0.11924664 0.007767948 -0.09694626 0.009043147 -0.065666676 0.06762586 0.031514283 -0.104362145
-0.009281792 -0.041746944 -0.085522115 0.1113068 -0.12596758 0.041864783 -0.08631212 0.018900974
0.09679194 0.04790506 -0.071610056 0.11371013 0.09801193 0.0877629 -0.026748523 0.039756462
0.020191481 0.098304085 0.057870887 0.118121676 -0.10805065 0.048186846 0.13800502 0.081940174
0.10570499 -0.06888032 -0.112449154 -0.06322933 0.0595312 0.03172021 0.028124122 0.1122114
0.08992044 0.06660413 0.07359263 0.052929033 0.111845344 -0.09534952 0.034004662 0.11701334
0.107797444 -0.07606217 -0.0071974653 0.048416954 -0.0061746705 -0.09308352 -0.04616463 0.02370273
0.10507292 0.049714915 -0.10192162 -0.061316244 -0.06423281 -0.037513044 -0.07877174 0.01607796
0.07616641 -0.07419027 -0.12914959 -0.017927017 -0.008257561 0.03325829 -0.0016213973 0.02135486
-0.102684915 0.014917224 0.11381061 -0.12656406 0.020508308 0.06690386 -0.05756697 -0.0002695934
-0.0998131 -0.0821716 -0.06892004 0.111343175 0.057953604 0.15010838 0.048073173 -0.05425192
0.032247867 -0.07357544 0.06969481 0.06349872 0.12157637 -0.00019101663 0.09306688 0.0047006244
0.095944725 -0.045444526 0.03857145 0.113507114 -0.081271455 -0.019504571 0.14463666 0.020913647
0.11333051 -0.018937355 0.05314422 0.012026278 -0.043020386 -0.046084635 0.018763546 0.11565451
0.05911907 0.07153251 0.00832381 -0.013618717 -0.049865644 0.041170925 0.11157043 -0.054724295
0.037261054 0.13041066 0.008889941 -0.1033832 -0.036492195 0.07241627 0.066877715 0.08627382
-0.104571454 -0.07698357 -0.0564041 0.01518128 0.06457186 0.03822413 0.09298751 0.11207488
0.04826458 -0.08845432 -0.085650235 0.06634374 0.08870965 -0.10759911 -0.047186047 0.086512685
0.099628255 -0.116963804 0.11213894 0.046149787 -0.099969216 -0.07711693 0.0048046424 -0.10890302
0.020851374 0.08263414 -0.10973469 -0.08996609 -0.03209331 -0.042146288 -0.13591897 -0.102773376
-0.0039627114 -0.06324019 0.05968395 0.031099154 0.040974833 0.076716185 -0.055527695 0.02184016
0.018640235 -0.065354265 0.058461692 0.061157867 0.08087877 0.1053416 0.044761047 0.06880441
-0.0032141802 -0.093847364 -0.03993396 -0.019458689 0.043068264 0.11551057 0.0845833 -0.039918393
-0.04718817 0.13704899 0.09830612 -0.07842083 0.029137652 -0.09444635 -0.013011324 0.08771688
-0.053410128 -0.05755822 0.031218467 0.10705455 0.02581433 0.09213074 0.07179841 -0.09227828
-0.035679504 0.102756456 0.13400859 0.0028342598 0.002358672 -0.035595372 0.011647578 0.020844715
-0.008102864 -0.10755426 0.026160004 -0.10653621 -0.046491347 0.09516547 0.06858614 -0.0024808408
0.02955994 0.053246778 0.085454874 0.10623 -0.03609108 0.12984137 -0.05181208 0.0130485315
0.12258707 -0.055115294 0.03859036 0.0002578458 -0.08960312 0.0062122773 -0.0697905 -0.060457848
-0.09910992 -0.076407515 0.024278289 -0.016562432 0.005383859 -0.008815831 -0.057052076 0.008592667
0.02911848 0.047466025 0.0013518108 0.09302923 0.06385214 -0.062625915 0.098795414 -0.12149937

gnn_layer_1.gconv.u_fc.bias f4 [64]
00000000: ea9e d2bd 5628 48bd ea3b 45bd 0349 203d
00000010: 0310 d63d 0fcc 163e 8c88 303d 35b8 763d
00000020: 76f0 943d f869 25bd da7a a2bd e0f4 68bd
00000030: 1856 8abd 40ed 243c 21f0 31ba d476 d3bd
00000040: 6450 08bc b8c3 f03d f4ee cbbd 6b0e 993d
00000050: 1539 54bd 54d9 9d3d e46c b3bb e6aa aebd
00000060: 2e41 6ebc a8a5 e63d de68 98bd 3cd3 763d
00000070: 71d5 5039 003d 913d 881b c6bc 4220 0d3d
00000080: 0e7c b53d 1a03 df3c 9d43 a1bd bcb0 d13d
00000090: 6f3d ad3d 63b9 1cbd cc2d a03d 2331 1ebc
000000a0: 09a1 cc3d 222c b63d 215c 4a3d 361a 9fbd
000000b0: 1e16 adbd 6af7 f93c 783d 843d 3adf 3abd
000000c0: cd79 f93d 353b b63c 5db1 1dbc d7e8 89bd
000000d0: e7f3 763d c2a3 ea3c 0f61 0b3e f149 eb3d
000000e0: f987 e9bd d3b7 0bbd 2416 7abd 3848 73bd
000000f0: bfa5 8a3d 11b1 ddbd be3f dfbd 9de4 b33c
-0.10284217 -0.048866592 -0.04815284 0.03913213 0.10452273 0.1472628 0.04309897 0.060234267
0.07272427 -0.040384263 -0.07933588 -0.056874156 -0.06754702 0.01006633 -0.0006787796 -0.10325399
-0.008319948 0.117560804 -0.09957686 0.07473453 -0.05181225 0.07707468 -0.0054756273 -0.0852869
-0.014541907 0.11262065 -0.07441877 0.060260043 0.00019915939 0.07091713 -0.02418305 0.03445459
0.08861552 0.027223159 -0.07874224 0.102387875 0.08458983 -0.038262736 0.07821235 -0.00965527
0.099916525 0.088951364 0.049404267 -0.07768671 -0.08451484 0.030513484 0.06457037 -0.04562304
0.12181435 0.022245029 -0.009624806 -0.06733864 0.060291197 0.028642539 0.13611244 0.114887126
-0.11402888 -0.034110855 -0.06105627 -0.059395045 0.06769895 -0.10824788 -0.1090083 0.021959597

affinity_1.A f4 [64, 64]
00000000: 8ffa 853f c02b e8bc 68c9 3abd 1c30 adbd
00000010: 04cf a83d 8446 3c3d f818 96bc 8896 91bd
00000020: b427 1cbd 6075 473d 7036 6bbd e869 dd3c
00000030: b495 2c3d 10c0 d0bd c0a2 ff3c f82d 973c
00000040: 2848 35bd cc9e e4bd 76e1 923d 0ad7 8f3d
00000050: 9088 183c d031 2fbd 8ab1 d1bd b05e cb3d
00000060: a270 94bd 7465 abbd 6029 a1bb 7cea cbbd
00000070: 4868 cfbd 28b1 2cbd 0892 f83c 80ac 9f3c
00000080: f086 293c f8ee 363d 38f6 133d 8427 e13d
00000090: 7889 423d 48de fb3c 9452 7fbd a834 8f3d
000000a0: 5a95 ffbd 844c 42bd b858 89bd 9833 e9bc
000000b0: 72ab c8bd 12e7 f93d 7863 0abd a876 403d
000000c0: 9c28 c6bd c4bc 09bd 7e95 e2bd bca1 76bd
000000d0: ccf9 2a3d 5440 f93d 0650 873d bcdf e63d
000000e0: 2835 4e3d 1039 773c e6ec adbd 3868 47bd
000000f0: 76a9 a0bd 9058 35bd c88e 233d 8495 933d
00000100: 9ad3 c73d 9590 693f cc26 653d 1021 793c
00000110: 62c6 ba3d f4da d63d 9a8a e43d 20d1 f2bb
00000120: 20a7 73bd a8d8 9f3d 4877 aebd 0af3 8d3d
00000130: 647a 953d 20a3 443c 8807 1fbd f876 393d
00000140: 1ce9 653d d8b9 81bc 7442 9cbd 5cd1 babd
00000150: 2023 353d d064 b53d 9ef9 d5bd 0c47 253d
00000160: 3c4d f13d 08c1 6a3d 000b 2eba 8cf3 fabd
00000170: 3448 2d3d f019 6bbd e041 a2bd 5856 713d
00000180: f40b 2a3d e855 e5bc d03c 843d f0c9 a03c
00000190: d866 0a3d 701e 63bc 9068 44bd a8cd ecbc
000001a0: 2eef 943d 3249 a43d eae7 933d b4b3 57bd
000001b0: 9a41 a43d e83b 56bd a663 dcbd f8b7 073d
000001c0: 88d6 4bbd a07c 233d f456 563d a073 edbc
000001d0: 184a 6cbd 8ce0 0a3d 7c02 483d c091 6dbc
000001e0: be88 ccbd aa9b b53d 8033 923b 500b ed3c
000001f0: a057 0b3c b476 353d 8069 ff3c cece 8b3d
00000200: a06f c5bc f0e5 0a3d 356c 8e3f 2478 473d
00000210: 0895 48bd 34be fdbd 3a3f cf3d dc4f ef3d
00000220: 62e4 893d 3274 d33d a8ea ba3d 30c1 69bd
00000230: 06a1 893d e0e4 42bd 205f 5c3d 6842 35bd
00000240: 7472 f2bd 00b7 e8ba ce24 a3bd d008 9dbc
00000250: b890 a1bd b052 553c 967d e73d a099 d5bd
00000260: 7e6c 85bd 40df 423b e221 ee3d e0c9 2cbd
00000270: 4ad8 b5bd 6cba 993d 8651 953d d2c7 923d
00000280: 1c79 a03d a27d 9ebd 78da 6b3d d288 b73d
00000290: 8835 3c3d 7813 ccbd 9830 fdbc 72bf a93d
000002a0: 2072 b83c 30a4 2e3c 64e3 37bd 967d 833d
000002b0: 9425 1ebd 0a97 92bd 3491 133d 38d5 98bc
000002c0: 80e9 1dbd 8c87 e4bd d431 313d c4d6 e83d
000002d0: 9842 ac3c 1e20 ac3d 20f6 e4bd a062 893d
000002e0: 9a61 f9bd a816 dbbd c084 73bc 842b 663d
000002f0: d800 f33c 54a0 c9bd 40a3 393c def6 b73d
00000300: e006 2ebc 000d 5fbb b084 ca3d 56f9 753f
00000310: 8e57 d9bd 50a0 e63d 6a82 eabd 603c 3d3c
00000320: 0817 fcbc c02f 53bb 688f 0abd e432 2abd
00000330: f0ac 863d a8ea a7bc 90d3 8b3d 4ecf 933d
00000340: 008b 9d3b 2a8f 813d e0b5 d23c 104b 123d
00000350: 0249 91bd 86d3 febd f680 9d3d 906f e63c
00000360: ee3b b6bd e8cd fdbd 48cf 053d cc84 30bd
00000370: 2889 71bd 1aea fe3d 3897 c83c 10db cc3d
00000380: 185a 2b3d e0dc 333d 8acd ef3d 12ce ce3d
00000390: 560d a23d c031 7dbd 88b2 a73d c0de df3b
000003a0: f4ba 763d f0ac 2dbd 8002 2ebb 9cfc 043d
000003b0: 5e61 dc3d 1839 a5bd d480 753d 007b 53bd
000003c0: 509b 69bc 2e6e bc3d caad ad3d 8e25 b4bd
000003d0: fad2 f43d bcdd 593d b050 17bd e66e b53d
000003e0: fe06 bebd 5667 bb3d f4aa 90bd 9a85 8abd
000003f0: 9ea5 8c3d 60ca b13c 04af ad3d 3092 ae3c
1.046709 -0.028341174 -0.045602232 -0.08456442 0.0824261 0.045965686 -0.018322453 -0.0710879
-0.0381238 0.048695922 -0.057424963 0.02702804 0.042134956 -0.10192883 0.031205535 0.018454537
-0.044258267 -0.111631006 0.071719095 0.07023437 0.009309903 -0.042772114 -0.10238941 0.099301696
-0.072480455 -0.0836896 -0.0049182624 -0.09956834 -0.10127312 -0.042161137 0.03034307 0.019491434
0.010347113 0.044661492 0.036123484 0.10993865 0.04749438 0.03074564 -0.062334612 0.06992465
-0.124796584 -0.047436252 -0.06706375 -0.028466985 -0.097983256 0.12202276 -0.033786267 0.04698816
-0.096757144 -0.033627287 -0.110636696 -0.060212836 0.04174213 0.12170473 0.0660706 0.11273143
0.050343663 0.015089288 -0.084924504 -0.048683375 -0.07844822 -0.044273913 0.03993109 0.07206252
0.09757157 0.9123624 0.055945203 0.015205637 0.0911987 0.10490981 0.11159249 -0.0074101835
-0.059485555 0.07804996 -0.08518845 0.06931122 0.07298735 0.012001783 -0.03882554 0.045279473
0.056130514 -0.015835688 -0.076298624 -0.091219634 0.04422295 0.08857119 -0.10448001 0.04035096
0.117823094 0.057312995 -0.00066392124 -0.12253484 0.042305186 -0.057397783 -0.07922721 0.058920234
0.041515306 -0.027995065 0.064569116 0.019627541 0.033789486 -0.013862237 -0.04795128 -0.028906658
0.072721824 0.080217734 0.072219685 -0.052661613 0.08020325 -0.052303225 -0.10761194 0.03313443
-0.04976514 0.039913774 0.05232902 -0.028985798 -0.05768785 0.03390555 0.048830494 -0.014500082
-0.09987019 0.08867581 0.0044617057 0.028936058 0.008504778 0.044302657 0.031178236 0.06826554
-0.024101079 0.03391069 1.1126772 0.04869856 -0.048970252 -0.12389794 0.101194814 0.11685154
0.06733014 0.10324897 0.091267884 -0.057069004 0.06720166 -0.047581553 0.053801656 -0.044252783
-0.118382365 -0.0017754734 -0.07966004 -0.019169241 -0.07888931 0.0130202025 0.113032505 -0.10429692
-0.06514834 0.0029735118 0.116275564 -0.04218471 -0.088791445 0.0750626 0.0729094 0.07167019
0.078356 -0.07738806 0.057581395 0.08961643 0.04594949 -0.09964651 -0.03090696 0.082884684
0.022515357 0.010659263 -0.04489459 0.06420438 -0.038610056 -0.07157715 0.03602715 -0.018656358
-0.03855276 -0.11158666 0.04326041 0.11369088 0.021027848 0.08404563 -0.11179757 0.06708264
-0.12176819 -0.10697681 -0.014863193 0.056193843 0.029663488 -0.09845033 0.011330426 0.08982633
-0.010621756 -0.0034034848 0.098885894 0.9608358 -0.10612403 0.11261046 -0.11450656 0.011550039
-0.0307727 -0.0032224506 -0.03382817 -0.04155244 0.06575954 -0.020497635 0.06827462 0.072172746
0.00480783 0.063261345 0.02572149 0.035716116 -0.07094003 -0.12442689 0.07690613 0.028129369
-0.088981494 -0.12392789 0.032668382 -0.043095395 -0.058968693 0.12446995 0.02448617 0.1000272
0.041833967 0.043911815 0.11709125 0.100978985 0.079127 -0.061815023 0.08188349 0.006831974
0.060236886 -0.042401254 -0.0026551783 0.03246747 0.10760759 -0.080675304 0.059937313 -0.051630974
-0.014258221 0.092007026 0.08480413 -0.087962255 0.11954303 0.053189978 -0.036942184 0.08859043
-0.092786774 0.09150569 -0.07063857 -0.06763764 0.068675265 0.021702945 0.08480647 0.021309942
