ThinkMatch/exp_aaai/pca/CV3/saved_models/model.pt (torch, 216498 bytes, 17 tensors)

gnn_layer_0.gconv.a_fc.weight f4 [64, 121]
0.0006726706 0.012542408 0.016647328 -0.028849633 0.010580828 -0.007003654 -0.07247331 0.04334656
0.057216294 -0.038178824 -0.08707093 -0.044424437 -0.012231736 -0.022319518 -0.05945485 -0.06315344
0.007209181 -0.05757929 0.069676325 0.021509012 -0.079599574 -0.014014224 -0.07242332 -0.07851995
0.069250725 0.044222 -0.033979703 -0.068226285 -0.082899496 -0.03180613 0.08727377 -0.05517821
-0.042156383 0.054238673 -0.058028795 -0.009985516 0.036158014 0.015859082 0.015143339 -0.046444632
0.050497424 0.0022648775 -0.0758317 0.048808344 0.01578273 0.012450969 0.026728507 0.074690565
0.0689958 -0.0120359035 -0.04119991 0.04964138 -0.08628258 -0.0043556537 0.002395024 0.05953177
-0.011478847 0.040413465 -0.07861348 0.0053546694 -0.07163198 0.06362189 0.07947931 0.0310892
0.05133039 -0.0024543416 -0.008873692 -0.03461814 -0.044411536 0.01727933 -0.0072087706 -0.034283463
0.043679796 0.045046654 -0.086988896 0.009531955 -0.008231479 -0.0014777133 -0.084482744 0.0010360656
-0.06628925 -0.050496086 -0.042933125 -0.0366755 0.06020311 -0.056567874 -0.068666056 -0.06820494
-0.062135894 -0.0012029613 0.025691334 -0.047010843 -0.019098273 0.025299605 -0.052176483 0.03425513
0.010881384 0.06819578 0.05971545 -0.025667094 0.0012458537 -0.018030964 0.028392574 -0.004286785
-0.06555067 0.037013147 0.016386073 0.02226936 -0.08255719 -0.032993924 -0.019464752 0.01771584
0.04927973 0.049146246 -0.017024819 -0.019036656 -0.05383283 0.0191508 0.016632713 -0.008284725
0.027795665 0.051049158 -0.033293363 -0.05085953 0.015935415 0.025509449 -0.04043651 0.01274248
-0.042739894 -0.032970827 -0.09033554 0.06660734 -0.066819616 0.087800406 -0.04592519 -0.053897794
0.06362656 -0.020105407 0.06317728 -0.025404958 0.050541338 -0.09078157 -0.011200832 -0.0204058
-0.024413727 0.022464737 0.00886609 -0.04164474 -0.06020715 -0.0076048444 0.0405622 0.013840337
-0.023807628 0.06307211 -0.020409735 -0.010030525 0.060070474 -0.09126978 0.027644988 -0.00544481
0.052833945 0.052555047 -0.0060749725 0.040873077 -0.03213079 0.06562063 0.03185136 -0.0809909
-0.006739212 -0.0005219237 0.02618386 -0.053817805 0.055265963 0.0015910236 -0.03598229 -0.01494145
-0.031526033 0.028976751 -0.058506146 0.08184915 0.0062011587 -0.053622965 0.073278524 -0.0283289
0.0055836514 -0.06616363 -0.018064719 0.07711614 -0.018136336 -0.076119065 -0.04848138 -0.023735976
0.014553932 0.012380707 0.046898514 0.09435248 0.08163276 0.010846737 0.0622625 0.056815647
0.022560017 0.08893534 0.09911253 -0.056618515 -0.016752608 0.065746285 0.037972778 0.093126625
0.04381661 -0.029572489 0.014203183 0.08636745 -0.0076753665 -0.031807404 0.07620358 -0.07320412
0.0706814 -0.042256895 -0.078568384 0.07396321 0.026093254 -0.007166699 -0.026990382 0.052700374
-0.07200201 -0.0654568 0.053105373 -0.06292105 0.08290895 -0.064345665 -0.043529734 -0.03328117
-0.017639926 -0.06997434 -0.028190821 -0.0069253864 -0.054578073 0.058655154 0.08293158 0.023513846
0.068375774 -0.03129758 -0.082851484 0.0215733 -0.084241726 0.09953005 0.08336833 0.033628542
0.049528297 -0.077996604 0.065170445 0.07745178 0.04197605 0.046235923 -0.06853937 -0.069760054
00000000: 2956 303a ac7e 4d3c fa5f 883c 1156 ecbc
00000010: 365b 2d3c e87e e5bb e36c 94bd 2a8c 313d
00000020: a25b 6a3d 6661 1cbd 3e52 b2bd 66f6 35bd
00000030: 9f67 48bc 6cd7 b6bc ee86 73bd 9756 81bd
00000040: fe3a ec3b 43d8 6bbd 76b2 8e3d ab33 b03c
00000050: 1a05 a3bd ea9b 65bc ad52 94bd 11cf a0bd
00000060: 53d3 8d3d 2122 353d 4d2e 0bbd 39ba 8bbd
00000070: 36c7 a9bd 2547 02bd 97bc b23d 8c02 62bd
00000080: 2cac 2cbd 5f29 5e3d 9aaf 6dbd 4a9a 23bc
00000090: 6d1a 143d e8ea 813c c41b 783c ba3c 3ebd
000000a0: 63d6 4e3d 576e 143b a64d 9bbd 42eb 473d
000000b0: c94a 813c 26ff 4b3c bef5 da3c 5ef7 983d
000000c0: ac4d 8d3d 3d32 45bc 3dc1 28bd c254 4b3d
000000d0: ecb4 b0bd dfb9 8ebb d6f5 1c3b 96d7 733d
000000e0: c611 3cbc 9788 253d 1b00 a1bd 3976 af3b
000000f0: cab3 92bd 324c 823d 0cc6 a23d c7ae fe3c
00000100: d13f 523d 05d9 20bb f662 11bc c0cb 0dbd
00000110: dfe8 35bd 628d 8d3c 8d37 ecbb d16c 0cbd
00000120: 96e9 323d d782 383d 3c27 b2bd eb2b 1c3c
00000130: 53dd 06bc d5af c1ba 4a05 adbd 98cc 873a
00000140: a9c2 87bd fcd4 4ebd a5da 2fbd 0d39 16bd
00000150: 8997 763d b7b3 67bd caa0 8cbd 08af 8bbd
00000160: 3582 7ebd afac 9dba a276 d23c 718e 40bd
00000170: fb73 9cbc 1e41 cf3c 02b7 55bd 1b4f 0c3d
00000180: d547 323c 3baa 8b3d 3098 743d cc43 d2bc
00000190: ea4b a33a acb5 93bc 8b97 e83c 2978 8cbb
000001a0: 6e3f 86bd 199b 173d 163c 863c 3c6e b63c
000001b0: be13 a9bd a324 07bd 8b74 9fbc cf20 913c
000001c0: 8bd9 493d 934d 493d a277 8bbc c3f2 9bbc
000001d0: d07f 5cbd 23e2 9c3c 5441 883c a8bc 07bc
000001e0: bcb3 e33c ec18 513d 9f5e 08bd 1552 50bd
000001f0: fd8a 823c 31f9 d03c c1a0 25bd d6c5 503c
00000200: 0710 2fbd 6b0c 07bd d701 b9bd 6e69 883d
00000210: b9d8 88bd b3d0 b33d 0d1c 3cbd efc3 5cbd
00000220: a44e 823d 18b4 a4bc 1763 813d 0f1e d0bc
00000230: 6f04 4f3d b0eb b9bd b283 37bc 102a a7bc
00000240: 4cff c7bc f807 b83c 1443 113c ad93 2abd
00000250: c69b 76bd 0f32 f9bb 8d24 263d 95c2 623c
00000260: 3708 c3bc f32b 813d 5132 a7bc 1257 24bc
00000270: 750c 763d a7eb babd be77 e23c 606a b2bb
00000280: 6868 583d f643 573d 9010 c7bb 876a 273d
00000290: 939b 03bd 1c64 863d 9276 023d 8fde a5bd
000002a0: 9cd4 dcbb b5d1 08ba 897f d63c 0f70 5cbd
000002b0: 905e 623d e589 d03a 2a62 13bd fccc 74bc
000002c0: 7121 01bd a760 ed3c 24a4 6fbd 87a0 a73d
000002d0: 1733 cb3b c1a3 5bbd 0d13 963d 0212 e8bc
000002e0: 10f7 b63b cc80 87bd 76fc 93bc 11ef 9d3d
000002f0: a792 94bc 50e4 9bbd 6994 46bd f371 c2bc
00000300: 9d73 6e3c 73d8 4a3c a818 403d df3b c13d
00000310: 142f a73d 83b6 313c f706 7f3d 86b7 683d
00000320: c9cf b83c bb23 b63d 83fb ca3d d1e8 67bd
00000330: c43c 89bc fda5 863d 5889 1b3d 2cb9 be3d
00000340: 0c79 333d 0142 f2bc 78b4 683c 6be1 b03d
00000350: a481 fbbb 7b48 02bd 9f10 9c3d 0bec 95bd
00000360: 69c1 903d 9115 2dbd 76e8 a0bd 067a 973d
00000370: 85c1 d53c a1d6 eabb ef1a ddbc 59dc 573d
00000380: ca75 93bd 370e 86bd 0585 593d c0dc 80bd
00000390: 2bcc a93d a9c7 83bd 3c4c 32bd d651 08bd
000003a0: 9b81 90bc b54e 8fbd 70f0 e6bc 5aee e2bb
000003b0: 428d 5fbd 6340 703d 08d8 a93d 1ca0 c03c
000003c0: 9908 8c3d e431 00bd 0aae a9bd 7dba b03c
000003d0: ed86 acbd 69d6 cb3d 04bd aa3d 15be 093d
000003e0: 2fde 4a3d afbc 9fbd 1578 853d 0a9f 9e3d
000003f0: 14ef 2b3d e161 3d3d 5f5e 8cbd 5cde 8ebd

gnn_layer_0.gconv.a_fc.bias f4 [64]
-0.05773828 -0.0920224 0.0039629145 -0.0069649336 0.016900674 0.026760206 -0.04603413 0.07780014
-0.057151884 -0.005285742 0.076913066 0.013464838 0.055031255 -0.068830654 -0.07418119 -0.07878613
0.07464566 0.018402833 0.054376062 -0.04089814 -0.04621165 0.053152993 -0.06500545 -0.08063142
-0.069459066 -0.013261229 -0.07345202 -0.03251171 0.059916012 0.09494635 0.08293543 -0.031813916
0.043944944 0.049804434 0.0043601524 0.0052135307 -0.033357732 0.07580628 -0.04236321 0.057651967
-0.08727992 0.088155665 0.041429926 0.08337847 0.004668174 -0.0174896 0.08800948 0.048128475
-0.08527494 0.03135356 -0.011113893 0.05195305 0.0013149311 0.019461965 -0.0512655 0.05923729
-0.03441026 -0.077629074 -0.039984155 0.071245946 0.037544746 0.061529998 0.08138437 -0.037553236
00000000: fa7e 6cbd 3d76 bcbd 56db 813b 193a e4bb
00000010: 4873 8a3c 3838 db3c 498e 3cbd ae55 9f3d
00000020: 1818 6abd 0534 adbb 9984 9d3d a09b 5c3c
00000030: 7468 613d 16f7 8cbd 4fec 97bd 9f5a a1bd
00000040: d3df 983d 8ac1 963c 6fb9 5e3d cf84 27bd
00000050: 6d48 3dbd f4b6 593d 9421 85bd 1622 a5bd
00000060: 8e40 8ebd a045 59bc 036e 96bd 002b 05bd
00000070: 7e6a 753d 3b73 c23d 0dda a93d 4f4f 02bd
00000080: 9dff 333d bcff 4b3d 9cdf 8e3b 44d6 aa3b
00000090: 1ea2 08bd 5340 9b3d 0c85 2dbd 7824 6c3d
000000a0: d1bf b2bd f58a b43d 6db2 293d 55c2 aa3d
000000b0: 7bf7 983b 5a46 8fbc 503e b43d 5d22 453d
000000c0: a1a4 aebd 976c 003d 0c17 36bc b9cc 543d
000000d0: c459 ac3a b36e 9f3c c6fb 51bd cda2 723d
000000e0: c6f1 0cbd fefb 9ebd 6dc6 23bd 65e9 913d
000000f0: 85c8 193d e106 7c3d d9ac a63d 6cd1 19bd

gnn_layer_0.gconv.u_fc.weight f4 [64, 121]
0.049187932 0.0015585206 0.08290154 -0.034630653 -0.01957779 0.02522709 -0.010634663 0.06271339
0.08602934 0.07605324 -0.033258136 0.059891645 -0.028023407 0.0636654 -0.007518698 0.030712841
-0.031736586 0.015919143 -0.006338498 0.09153525 0.0423926 0.011345892 0.011213648 0.07340934
0.089510635 -0.045112886 -0.026140274 0.07837401 0.018706186 -0.0066092196 0.049196646 0.011286678
0.05599347 -0.027400924 -0.07953013 -0.0070852265 -0.03318077 0.0485123 -0.051579125 0.014266669
0.003660883 0.057764217 -0.01875514 -0.07825951 0.04293983 -0.022730248 -0.013458651 0.03799547
0.04427952 0.0053785034 0.09077537 -0.07984259 -0.05860683 0.04552474 0.008927044 0.024584197
-0.08275292 0.06523675 0.016600111 -0.056188866 0.023258304 0.0558727 -0.07408598 0.006280387
0.040727656 0.07709932 0.0011511864 -0.09187571 -0.017359575 0.07129991 0.020549018 -0.084681325
0.045565896 -0.018662177 -0.008816517 -0.055045884 -0.04169581 -0.048368007 -0.012123691 -0.046428032
-0.0633234 0.004596778 0.060950838 -0.07644142 -0.05580732 -0.026367666 0.07547286 0.04999696
0.0053058853 -0.021146215 -0.032493442 -0.025509719 -0.058525104 0.046685103 -0.072715774 0.059204098
-0.047188997 0.048428044 -0.082734846 0.099749565 -0.07857296 0.0066661187 0.08311638 -0.014225556
-0.02163987 -0.012505034 0.031059444 0.03761808 -0.03535994 0.073854424 -0.05138514 0.00019782448
0.09031231 -0.05762522 -0.091630526 -0.031866785 0.0641623 0.065252416 -0.010097165 -0.07356117
-0.08130218 -0.0513157 0.00049185083 -0.06246909 0.017759187 -0.04943976 -0.079032764 0.035184596
-0.00969689 0.052284796 0.003897849 0.064191066 -0.07136603 0.06667606 -0.021359885 -0.016604168
0.049953315 0.078710884 0.07113339 0.06121498 0.049850874 0.03309333 0.07523389 -0.07630056
0.08128126 0.077068344 -0.026947362 0.0812371 -0.051597003 -0.005276858 -0.039843895 0.007799655
0.09227097 -0.06430164 0.05571322 -0.07650665 -0.022353915 -0.01624476 0.009868779 0.0648845
-0.03201074 0.008863819 -0.04443967 0.053834986 -0.052237056 0.09156622 0.07739803 0.056893803
0.011291261 -0.041427698 0.027041446 -0.0670224 -0.027166843 -0.019097274 -0.0029992154 0.07326364
0.011113574 -0.066631034 0.013516939 0.06682282 -0.040532514 0.059035167 0.008774711 0.041116428
-0.010836547 0.045207918 0.07801508 -0.0497707 -0.0742004 -0.045650505 0.012743166 -0.08050483
0.012611934 0.0005301924 -0.020655185 0.020829372 0.09343482 -0.04428591 0.029810827 -0.004075657
0.008453416 0.086246744 0.01705024 -0.048906256 0.046563577 0.01680901 -0.08677844 -0.06953616
-0.045504443 -0.051927235 0.018815503 -0.059432246 -0.010384421 -0.029354949 0.06624475 -0.083923206
-0.05362098 -0.08635042 -0.050669443 0.066609584 -0.03929798 0.0031302772 -0.023129389 0.030420044
0.072054 0.047612946 -0.07537375 -0.002730486 -0.047433715 0.061220024 0.090024166 -0.027468856
0.085358165 -0.0722378 -0.046159312 -0.06194164 -0.010767395 -0.01715384 0.064239524 -0.015821923
-0.026250793 -0.023907514 -0.009373814 -0.009634039 0.099722475 -0.016758436 -0.05365354 -0.08886976
0.094061434 -0.070902 0.06278468 0.092904165 0.07143577 -0.0036076074 0.03285918 0.020800022
00000000: 4979 493d 4647 cc3a 48c8 a93d dfd8 0dbd
00000010: 9a61 a0bc 0ba9 ce3c 023d 2ebc e16f 803d
00000020: 2730 b03d cdc1 9b3d af39 08bd f150 753d
00000030: 5891 e5bc 0163 823d 695f f6bb 7f99 fb3c
00000040: 39fe 01bd dd68 823c 2db3 cfbb d576 bb3d
00000050: dda3 2d3d 1fe4 393c 73b9 373c a357 963d
00000060: 5a51 b73d 4ac8 38bd 2124 d6bc 8e82 a03d
00000070: b73d 993c 2792 d8bb 6c82 493d c2eb 383c
00000080: 6959 653d e777 e0bc b1e0 a2bd 302b e8bb
00000090: 8fe8 07bd d5b4 463d a244 53bd bfbe 693c
000000a0: 6deb 6f3b 2c9a 6c3d 61a4 99bc 8646 a0bd
000000b0: ade1 2f3d c934 babc ac81 5cbc 23a1 1b3d
000000c0: 715e 353d 283e b03b 70e8 b93d 8384 a3bd
000000d0: b70d 70bd 2678 3a3d bd42 123c cc64 c93c
000000e0: 5d7a a9bd d89a 853d f5fc 873c 4c26 66bd
000000f0: 3388 be3c c6da 643d 64ba 97bd b4cb cd3b
00000100: 0bd2 263d 40e6 9d3d 68e3 963a 5529 bcbd
00000110: ab35 8ebc b005 923d 6a56 a83c 676d adbd
00000120: 4ea3 3a3d 6ce1 98bc 2773 10bc cb77 61bd
00000130: 3ac9 2abd 881d 46bd 72a2 46bc 522b 3ebd
00000140: b3af 81bd 92a0 963b 96a7 793d 528d 9cbd
00000150: 3796 64bd 0101 d8bc 8491 9a3d 9dc9 4c3d
00000160: fedc ad3b d43a adbc d817 05bd c2f9 d0bc
00000170: 05b8 6fbd e138 3f3d 02ec 94bd ff7f 723d
00000180: 4049 41bd 7c5c 463d e370 a9bd 8049 cc3d
00000190: dcea a0bd 756f da3b ec38 aa3d 4e12 69bc
000001a0: 1946 b1bc eae1 4cbc 6070 fe3c 6a15 1a3d
000001b0: 96d5 10bd fd40 973d 3979 52bd 1b6f 4f39
000001c0: a9f5 b83d 6c08 6cbd c9a8 bbbd bf86 02bd
000001d0: 8667 833d 0fa3 853d 946e 25bc 3da7 96bd
000001e0: c281 a6bd 6930 52bd 8def 003a 97df 7fbd
000001f0: b77b 913c 5981 4abd eedb a1bd b91d 103d
00000200: b4df 1ebc 9528 563d 0e73 7f3b 9b76 833d
00000210: 5a28 92bd 758d 883d edfa aebc 7705 88bc
00000220: d99b 4c3d 2c33 a13d 62ae 913d 8fbc 7a3d
00000230: 6e30 4c3d df8c 073d 3a14 9a3d 7843 9cbd
00000240: ca76 a63d 02d6 9d3d b7c0 dcbc a35f a63d
00000250: 6157 53bd 7ee9 acbb 5a33 23bd 4094 ff3b
00000260: 90f8 bc3d 94b0 83bd 8c33 643d 85af 9cbd
00000270: 8f1f b7bc bb13 85bc a9b0 213c 2ae2 843d
00000280: b21d 03bd 8d39 113c 5f06 36bd 1382 5c3d
00000290: 86f6 55bd 1287 bb3d dc82 9e3d 7a09 693d
000002a0: fbfe 383c 17b0 29bd 0686 dd3c 0a43 89bd
000002b0: 008d debc e371 9cbc 7c8e 44bb 3f0b 963d
000002c0: b515 363c da75 88bd 2776 5d3c 67da 883d
000002d0: 6c05 26bd dcce 713d cec3 0f3c b369 283d
000002e0: c68b 31bc f02b 393d 5fc6 9f3d 5ddc 4bbd
000002f0: 61f6 97bd 06fc 3abd b6c8 503c b7df a4bd
00000300: 49a2 4e3c 9cfc 0a3a 1035 a9bc 5ca2 aa3c
00000310: c15a bf3d 2465 35bd d635 f43c 178d 85bb
00000320: 3280 0a3c 22a2 b03d f2ac 8b3c ed51 48bd
00000330: 73b9 3e3d 0db3 893c e5b8 b1bd f968 8ebd
00000340: de62 3abd a7b1 54bd f822 9a3c 3a6f 73bd
00000350: 6b23 2abc ca79 f0bc 54ab 873d eedf abbd
00000360: aca1 5bbd 7dd8 b0bd c38a 4fbd 9b6a 883d
00000370: ebf6 20bd 5625 4d3b d879 bdbc 7533 f93c
00000380: 0c91 933d cb05 433d 8d5d 9abd f4f1 32bb
00000390: db49 42bd d9c1 7a3d 975e b83d 5e06 e1bc
000003a0: 43d0 ae3d 69f1 93bd 8c11 3dbd 84b6 7dbd
000003b0: ba69 30bc 3686 8cbc 0390 833d fa9c 81bc
000003c0: e70b d7bc b1d9 c3bc a094 19bc 17d8 1dbc
000003d0: 4c3b cc3d fd48 89bc d0c3 5bbd 5901 b6bd
000003e0: 48a3 c03d 1135 91bd 4195 803d 8a44 be3d
000003f0: eb4c 923d 9c6d 6cbb 5997 063d cf64 aa3c

gnn_layer_0.gconv.u_fc.bias f4 [64]
0.0054584555 0.009116661 -0.0019266044 -0.007716333 0.04722294 -0.013863639 0.03766157 0.04193628
0.036756467 -0.0017434866 0.074539535 0.07028881 -0.017128197 0.0734272 -0.06842549 0.011635202
-0.05960749 0.043582436 -0.037670046 -0.08109272 0.062355448 0.0064344057 0.09803604 0.04227129
-0.0072790333 0.047443114 -0.05007766 -0.01351326 -0.047726657 0.083904885 0.030118994 0.064339034
0.06900977 0.11901833 0.053196266 0.04208661 0.095981255 0.006498618 -0.006673144 0.0054369294
0.023075288 0.0665932 0.089502744 -0.0635898 -0.059771348 -0.019702313 0.05660287 0.052178234
0.06548568 -0.074017696 0.0758774 -0.023236504 0.0042744954 0.042681277 0.073922776 0.08314284
0.050130107 -0.01419054 0.058147553 0.030390568 0.042909637 0.08081281 0.082244664 -0.050836265
00000000: d8dc b23b 0c5e 153c 1e86 fcba 4bd9 fcbb
00000010: d76c 413d 5124 63bc 0543 1a3d 60c5 2b3d
00000020: f38d 163d b485 e4ba 2fa8 983d 94f3 8f3d
00000030: 6f50 8cbc 0061 963d aa22 8cbd 93a1 3e3c
00000040: fc26 74bd 7f83 323d e84b 1abd f113 a6bd
00000050: 6d68 7f3d b5d7 d23b 1fc7 c83d a924 2d3d
00000060: f584 eebb b653 423d 3b1e 4dbd b866 5dbc
00000070: 077d 43bd 53d6 ab3d 1cbc f63c 2fc4 833d
00000080: ff54 8d3d e2bf f33d 54e4 593d 0263 2c3d
00000090: d291 c43d 5cf2 d43b 64aa dabb 4528 b23b
000000a0: 6308 bd3c 0462 883d 374d b73d 5e3b 82bd
000000b0: cdd2 74bd bf66 a1bc 69d8 673d d8b8 553d
000000c0: 5b1d 863d 9796 97bd 9c65 9b3d 7b5a bebc
000000d0: 1111 8c3b 90d2 2e3d d364 973d cb46 aa3d
000000e0: 3a55 4d3d 707f 68bc 212c 6e3d a4f5 f83c
000000f0: 04c2 2f3d 3081 a53d e46f a83d b039 50bd

affinity_0.A f4 [64, 64]
1.0631448 0.0010802895 -0.007362172 0.09926176 -0.03371471 -0.11890586 0.0437914 0.09607741
-0.053334907 0.03629133 0.11518939 0.014460087 0.11543372 0.06898777 -0.11632097 -0.053320676
-0.06380002 0.01709883 -0.08404881 -0.02210088 -0.0769051 -0.019667178 -0.06505847 -0.079084024
-0.0011775345 0.058765456 0.021555752 0.06732483 -0.11900754 -0.07589863 -0.08281681 0.111531794
-0.111542 0.007411033 -0.05875607 -0.059762746 0.045446813 0.021277145 -0.063202664 0.04312776
0.11591816 0.0086031705 -0.07390343 -0.03322141 -0.038095176 -0.11980952 -0.09193632 0.10976894
0.044188455 -0.081995815 0.016536623 0.06334075 -0.1007071 -0.06808774 -0.02493538 -0.0052858144
0.0520235 0.021522164 -0.08441147 0.025532663 0.024434581 0.0056171417 -0.08210547 -0.080328986
0.09006588 0.98243344 -0.04646018 -0.07685137 -0.12180391 0.019609034 0.06891902 -0.025396824
0.076836586 0.1038661 0.10048354 0.053480297 0.04263717 0.04974872 -0.070103124 -0.066879466
-0.0444448 0.015374392 -0.11102292 0.030549824 0.09434298 -0.11445488 0.032057464 -0.09528163
-0.071547806 0.046529844 -0.024072155 0.07257494 0.07025805 0.045560315 -0.03658542 -0.09438592
0.01053068 -0.12277423 0.016467914 0.10231802 0.017373577 0.05214791 -0.08229394 0.08802302
0.06299485 0.12400077 0.05524853 -0.029073179 -0.11212368 -0.043009043 -0.062877625 -0.08209081
0.021051466 0.056775346 -0.010225132 0.120032266 -0.10798028 0.061584413 0.05678548 0.040071443
0.026099697 0.052485168 -0.0012550056 0.105019435 0.09126195 -0.003942013 0.11449166 0.036285743
0.03642519 0.090967745 1.0788757 -0.0019988269 0.026665166 -0.0533787 0.09692542 0.091602385
0.005195722 -0.10747807 0.116516516 0.004780993 0.008350238 0.068035305 0.11181645 -0.0410067
0.03698291 -0.027439445 0.077949345 0.051409677 -0.021130592 0.09639375 -0.02067177 0.107642084
-0.08323541 0.066574186 -0.07382025 -0.043701515 -0.08988206 0.04640518 -0.03435126 -0.008107662
0.107807815 0.017741248 -0.0044648647 -0.05624497 0.024610236 0.04873073 -0.021631911 0.047641948
0.10228537 0.04773371 -0.06058988 -0.020844772 0.11369331 0.027150258 0.022290647 -0.005529195
-0.010855645 0.008152217 0.056764886 -0.10152975 0.040090024 0.12103385 0.0663999 -0.07712458
0.09784888 0.02771166 0.06913392 -0.110366344 0.094453275 -0.11243066 -0.06459369 -0.03058654
0.10069451 0.0242123 -0.04188858 1.0942237 -0.110373005 -0.0928649 0.058978736 0.023013934
0.04495333 -0.043941677 -0.03481467 -0.10781434 0.008324429 0.089610234 0.03879878 -0.052268773
-0.08292355 0.06653832 0.02835472 0.004752919 -0.0030857325 -0.04601012 0.079047605 -0.11883533
0.038766325 -0.056757078 -0.04955159 0.09268847 0.021774083 0.12172879 0.097745866 -0.046420798
-0.10477422 -0.018612057 -0.1156441 0.014779314 0.106227726 0.05265148 0.044928163 0.090074554
0.04535541 -0.05631268 0.008535668 0.001820311 -0.119915724 0.12156807 0.008794948 -0.0007510632
0.004875794 0.03763151 -0.111433014 0.06979494 0.03888437 0.013802007 -0.12291905 0.10796201
-0.056790143 0.0458712 -0.06296745 0.023709342 -0.036460802 -0.019426048 -0.0020644218 -0.10840917
00000000: 2115 883f 8098 8d3a 603e f1bb c049 cb3d
00000010: 7018 0abd ea84 f3bd 9c5e 333d 3cc4 c43d
00000020: b475 5abd 38a6 143d 6ae8 eb3d 00ea 6c3c
00000030: 8468 ec3d 7649 8d3d b039 eebd c866 5abd
00000040: 96a9 82bd d812 8c3c c821 acbd e80c b5bc
00000050: 6c80 9dbd 101d a1bc 603d 85bd cef6 a1bd
00000060: 8057 9aba 0cb4 703d b095 b03c 9ae1 893d
00000070: 3aba f3bd be70 9bbd dc9b a9bd c86a e43d
00000080: 2270 e4bd 40d8 f23b 34aa 70bd c8c9 74bd
00000090: 7026 3a3d 684d ae3c 6670 81bd bca6 303d
000000a0: 8066 ed3d 50f4 0c3c ae5a 97bd 2c13 08bd
000000b0: b009 1cbd b25e f5bd 1c49 bcbd 8ace e03d
000000c0: f4fe 343d 6ced a7bd d077 873c ccb8 813d
000000d0: 863f cebd 9671 8bbd 4845 ccbc a034 adbb
000000e0: 9816 553d 404f b03c ecdf acbd e029 d13c
000000f0: 082b c83c 0010 b83b ea26 a8bd 8683 a4bd
00000100: 7674 b83d c280 7b3f 084d 3ebd 4064 9dbd
00000110: 5474 f9bd 20a3 a03c 6a25 8d3d 000d d0bc
00000120: 805c 9d3d c0b7 d43d 50ca cd3d 280e 5b3d
00000130: 50a4 2e3d 50c5 4b3d 3a92 8fbd 1af8 88bd
00000140: c00b 36bd e0e4 7b3c fc5f e3bd a043 fa3c
00000150: e436 c13d 5267 eabd b04e 033d 0423 c3bd
00000160: a887 92bd 1496 3e3d f832 c5bc 2ca2 943d
00000170: 74e3 8f3d 749d 3a3d 98da 15bd 684d c1bd
00000180: e088 2c3c 0e71 fbbd b8e7 863c 1c8c d13d
00000190: 0853 8e3c 0c99 553d ba89 a8bd 6a45 b43d
000001a0: 7203 813d 1ef4 fd3d 484c 623d e02a eebc
000001b0: 1aa1 e5bd 402a 30bd fcc5 80bd 3a1f a8bd
000001c0: 2074 ac3c 448d 683d 5087 27bc 7ad3 f53d
000001d0: c424 ddbd f03f 7c3d e497 683d f421 243d
000001e0: 08cf d53c b0fa 563d 007f a4ba 6e14 d73d
000001f0: 8ce7 ba3d 002c 81bb 9a7a ea3d 5ca0 143d
00000200: 9432 153d 4c4d ba3d 9918 8a3f c0fe 02bb
00000210: e870 da3c a0a3 5abd d680 c63d 089a bb3d
00000220: e040 aa3b 761d dcbd 36a0 ee3d e0a9 9c3b
00000230: 70cf 083c 1856 8b3d 0600 e53d a4f6 27bd
00000240: 647b 173d b0c8 e0bc e8a3 9f3d f492 523d
00000250: 101a adbc 166a c53d d857 a9bc 7473 dc3d
00000260: 5477 aabd 0c58 883d 122f 97bd 5c00 33bd
00000270: 1614 b8bd 5c13 3e3d e8b3 0cbd 00d6 04bc
00000280: 58ca dc3d 1856 913c 004e 92bb 2061 66bd
00000290: 689b c93c e099 473d 6835 b1bc 3424 433d
000002a0: fe7a d13d 6c84 433d 182d 78bd a8c2 aabc
000002b0: 0ad8 e83d 386a de3c e09a b63c 402e b5bb
000002c0: e0db 31bc e090 053c 4c82 683d d4ee cfbd
000002d0: 7035 243d 98e0 f73d acfc 873d 7ef3 9dbd
000002e0: fe64 c83d 9003 e33c 1696 8d3d c007 e2bd
000002f0: b870 c13d 0c42 e6bd b249 84bd a090 fabc
00000300: ec38 ce3d e058 c63c 5c93 2bbd 860f 8c3f
00000310: 3e0b e2bd f42f bebd b093 713d b887 bc3c
00000320: fc20 383d 30fc 33bd d499 0ebd c4cd dcbd
00000330: 3063 083c 9285 b73d 78eb 1e3d c817 56bd
00000340: d2d3 a9bd 3e45 883d 2848 e83c 60be 9b3b
00000350: 003a 4abb 1c75 3cbd b6e3 a13d f05f f3bd
00000360: 70c9 1e3d 1c7a 68bd 9cf6 4abd 74d3 bd3d
00000370: 905f b23c f24c f93d fc2e c83d bc23 3ebd
00000380: de93 d6bd 5078 98bc d0d6 ecbd f024 723c
00000390: ec8d d93d 14a9 573d 9806 383d 0279 b83d
000003a0: 98c6 393d 20a8 66bd 30d9 0b3c 8097 ee3a
000003b0: 6096 f5bd aef8 f83d b018 103c 00e3 44ba
000003c0: 20c5 9f3b 8023 1a3d fe36 e4bd a6f0 8e3d
000003d0: 3845 1f3d d021 623c fcbc fbbd 301b dd3d
000003e0: c89c 68bd 70e3 3b3d 14f5 80bd 183a c23c
000003f0: ec57 15bd 6023 9fbc 404b 07bb a005 debd

gnn_layer_1.gconv.a_fc.weight f4 [64, 64]
0.04689101 0.12198181 0.044467814 0.035769418 -0.032269705 -0.02817749 -0.08089829 -0.06850224
-0.09702598 -0.117790006 -0.104879566 0.056784965 -0.10062941 -0.052117456 0.111787386 -0.008664183
-0.10185799 -0.016566385 0.12391258 -0.09564566 0.03844714 0.03283713 0.10789446 0.012292373
0.11202336 -0.10982652 -0.054497503 0.02168674 0.10123859 0.034153625 0.104830995 -0.109415516
0.10479737 0.099138156 0.0074216407 -0.054025285 -0.024259018 -0.009522896 0.096588194 0.0529267
0.051266465 -0.11824815 0.05747564 0.11378889 0.033301957 -0.0610252 -0.12043394 -0.09555414
-0.088033445 -0.046298806 -0.035432488 0.0027248973 -0.08559245 -0.023105862 -0.03687855 0.042503037
-0.04245698 -0.087665275 -0.09318158 0.031239016 -0.009953889 -0.07524613 -0.07187243 -0.10237455
-0.09921129 0.12441579 -0.048849374 0.12230376 0.017628603 0.060071204 -0.030478625 -0.043044392
0.021837333 -0.10950455 0.061299477 -0.09828658 -0.019587353 -0.012917265 0.003853453 0.12437315
-0.007947668 0.009225483 -0.09579754 0.020011475 -0.103345394 -0.063030295 0.07462839 0.07946354
-0.0196519 -0.021341883 0.094660595 -0.046551153 -0.0770082 0.035873823 0.02382945 -0.08724923
0.01474538 0.027318522 0.026806088 -0.028093753 0.04862448 0.026341569 -0.06831605 0.015467848
0.07090179 -0.029122945 -0.089318804 0.05360818 -0.10338617 0.10360062 -0.12476407 -0.039319664
-0.0965905 -0.026615242 0.041929398 0.032490715 -0.06347297 -0.0767168 -0.09971947 -0.0419461
-0.096862614 -0.0130241 0.10605144 0.004553726 0.06899046 0.027562575 -0.09306882 0.01925575
-0.08541666 -0.03441948 0.09090488 -0.08082322 -0.069680676 -0.013308127 -0.08469206 0.1048657
-0.013461732 -0.08457834 -0.070968546 0.08431512 -0.045059077 -0.10017629 0.071519464 0.098676234
-0.011485411 0.05348204 -0.06397511 -0.01025229 -0.11818981 0.10468788 0.005721485 -0.05331997
-0.08215179 0.08174898 0.023681767 -0.119981386 0.07501104 0.014767253 -0.039090462 -0.11047193
-0.1248646 -0.015566914 -0.07809301 -0.022028083 -0.009003446 0.11778791 0.099122375 0.071993135
-0.020646816 0.03175756 -0.02836023 0.033797402 -0.09919916 0.10128931 0.0895013 0.05994546
0.05816705 -0.07850546 -0.056526445 0.10201733 -0.11406588 -0.08022913 0.072401285 -0.06532717
0.053038713 0.049191806 -0.104331434 0.041202586 0.08227838 -0.03717449 -0.065034606 0.0063707265
0.13291925 0.07160685 0.00573103 -0.040761176 0.042344917 -0.005104706 0.0036499668 0.063242316
-0.0857907 0.0073665073 -0.061643053 0.013949375 0.08308737 -0.07542708 -0.05971229 0.08869324
0.05641451 -0.10271349 -0.04429675 -0.019447248 -0.01573809 -0.0061726742 -0.009416874 0.115592465
0.03177178 0.051556338 0.123839326 0.02445117 -0.11945813 -0.106298305 0.0071152705 -0.100895576
0.11114695 0.12674195 -0.030810887 -0.053079404 -0.021294622 -0.14281495 0.09296297 -0.048526365
0.04633453 -0.021387879 -0.08085506 0.10382265 0.060898196 0.018500125 -0.036728073 0.0783074
0.05026896 0.10826112 -0.06586005 -0.049789477 -0.068708986 -0.12585834 0.14127176 -0.05511886
0.09469842 -0.063994855 -0.054983336 0.100912414 0.01452039 0.009196319 0.023155253 0.03795516
00000000: ca10 403d 99d1 f93d e223 363d f482 123d
00000010: 3d2d 04bd 7bd4 e6bc 01ae a5bd e74a 8cbd
00000020: 8fb5 c6bd e33b f1bd 19cb d6bd 5a97 683d
00000030: cb16 cebd 1d79 55bd c9f0 e43d 38f4 0dbc
00000040: ec9a d0bd 3ab6 87bc e1c5 fd3d dfe1 c3bd
00000050: c07a 1d3d 3a80 063d c5f7 dc3d f365 493c
00000060: 816c e53d baec e0bd c638 5fbd 64a8 b13c
00000070: 2e56 cf3d ace4 0b3d a2b1 d63d 3e15 e0bd
00000080: 01a0 d63d f208 cb3d 3c31 f33b 9e49 5dbd
00000090: d9ba c6bc ec05 1cbc 08d0 c53d abc9 583d
000000a0: c9fc 513d 162c f2bd 946b 6b3d 260a e93d
000000b0: a267 083d 8ff5 79bd 12a6 f6bd e4b1 c3bd
000000c0: e14a b4bd d1a3 3dbd a821 11bd 3194 323b
000000d0: 184b afbd 8148 bdbc f60d 17bd aa17 2e3d
000000e0: 5fe7 2dbd da89 b3bd fcd5 bebd f7e8 ff3c
000000f0: a315 23bc a51a 9abd da31 93bd c0a9 d1bd
00000100: 4a2f cbbd b5cd fe3d 4816 48bd 657a fa3d
00000110: dc69 903c 390d 763d 4fae f9bc 514f 30bd
00000120: 35e4 b23c ec43 e0bd 2915 7b3d 794a c9bd
00000130: a875 a0bc f0a2 53bc 378a 7c3b 5ab7 fe3d
00000140: f036 02bc 7b26 173c 8031 c4bd 1bef a33c
00000150: c0a6 d3bd 0716 81bd c5d6 983d c8bd a23d
00000160: 05fd a0bc 2cd5 aebc 6add c13d 6cac 3ebd
00000170: 7ab6 9dbd 6ef0 123d fb35 c33c b9af b2bd
00000180: 9b96 713c 18cb df3c 7198 db3c df24 e6bc
00000190: 762a 473d 46ca d73c 49e9 8bbd db6c 7d3c
000001a0: f534 913d 3e93 eebc c7ec b6bd 4094 5b3d
000001b0: 21bc d3bd 902c d43d 4e84 ffbd a80d 21bd
000001c0: 3dd1 c5bd 3508 dabc 29be 2b3d fc14 053d
000001d0: 1efe 81bd b31d 9dbd b939 ccbd accf 2bbd
000001e0: e85f c6bd 0963 55bc 7f31 d93d 6c37 953b
000001f0: df4a 8d3d e9ca e13c de9a bebd 3cbe 9d3c
00000200: eeee aebd 71fb 0cbd 562c ba3d a586 a5bd
00000210: beb4 8ebd 550a 5abc 0873 adbd d4c3 d63d
00000220: 998e 5cbc 6937 adbd f557 91bd 68ad ac3d
00000230: de8f 38bd 3a29 cdbd cc78 923d c416 ca3d
00000240: 4e2d 3cbc fc0f 5b3d 6205 83bd 39f9 27bc
00000250: 800d f2bd 9966 d63d 4b7b bb3b 0a66 5abd
00000260: 333f a8bd 026c a73d 4400 c23c cdb8 f5bd
00000270: 639f 993d 59f2 713c 521d 20bd 1b3f e2bd
00000280: 03b9 ffbd 5f0c 7fbc 3aef 9fbd 3d74 b4bc
00000290: 3183 13bc ca3a f13d ac00 cb3d 2371 933d
000002a0: 8323 a9bc 3714 023d b753 e8bc 256f 0a3d
000002b0: ee28 cbbd c570 cf3d 754c b73d 5f89 753d
000002c0: 9340 6e3d 78c7 a0bd 4688 67bd 76ee d03d
000002d0: 5f9b e9bd 2c4f a4bd 2047 943d 40ca 85bd
000002e0: 1f3f 593d 597d 493d b8ab d5bd 0bc4 283d
000002f0: 9181 a83d 4744 18bd dd30 85bd 87c1 d03b
00000300: fc1b 083e 9da6 923d 5dcb bb3b 31f5 26bd
00000310: dd71 2d3d 6145 a7bb 4834 6f3b 3085 813d
00000320: 09b3 afbd be62 f13b 6d7d 7cbd eb8b 643c
00000330: b629 aa3d 8379 9abd e094 74bd cda4 b53d
00000340: e712 673d 735b d2bd 8270 35bd d64f 9fbc
00000350: 2bed 80bc 2544 cabb 3b49 1abc bebb ec3d
00000360: 2023 023d bd2c 533d 799f fd3d d24d c83c
00000370: 77a6 f4bd edb2 d9bd 3727 e93b 57a2 cebd
00000380: 03a1 e33d a4c8 013e 1d67 fcbc ca69 59bd
00000390: 0f72 aebc 153e 12be 5f63 be3d 95c3 46bd
000003a0: 47c9 3d3d a235 afbc 5697 a5bd f8a0 d43d
000003b0: 6370 793d 938d 973c 2d70 16bd a15f a03d
000003c0: d3e6 4d3d 02b8 dd3d a2e1 86bd 0df0 4bbd
000003d0: 4cb7 8cbd 02e1 00be 8ba9 103e 50c4 61bd
000003e0: 3ff1 c13d bc0f 83bd 3536 61bd 2bab ce3d
000003f0: eee6 6d3c 28ac 163c 16b0 bd3c df76 1b3d

gnn_layer_1.gconv.a_fc.bias f4 [64]
-0.02686118 -0.020296026 0.06515694 0.144632 -0.0842824 0.05030248 0.091779426 -0.008199287
-0.0946483 0.09120407 -0.049476914 0.030687429 -0.061993033 0.08116673 -0.0982305 -0.10086997
-0.102988176 -0.092087805 0.09055657 -0.028038064 -0.0076865405 -0.016227035 0.090363696 0.10519121
0.08305598 0.07150261 0.0023556033 0.0673121 0.022439957 -0.008058331 -0.12895826 -0.09334755
0.040593755 0.14193244 0.1265646 0.1301676 -0.012934568 -0.029171076 -0.06099064 0.06441153
-0.04413742 0.0763593 -0.01734345 0.013512803 -0.1231461 0.13536724 0.0065725893 0.07826392
-0.03734568 -0.014946684 -0.12223088 0.092597626 0.014958741 0.036422182 -0.014044719 0.07717431
0.10714259 0.013402969 0.09792984 -0.09110884 -0.013095304 0.03984653 0.062100958 0.05538275
00000000: fa0b dcbc da43 a6bc 0071 853d 691a 143e
00000010: 409c acbd f909 4e3d daf6 bb3d 4d56 06bc
00000020: f8d6 c1bd 33c9 ba3d 4ea8 4abd 3464 fb3c
00000030: 68ec 7dbd be3a a63d 132d c9bd ea94 cebd
00000040: 77eb d2bd 8898 bcbd b975 b93d 15b0 e5bc
00000050: 60df fbbb 8fee 84bc 9a10 b93d 7d6e d73d
00000060: 4119 aa3d f66f 923d 7760 1a3b edda 893d
00000070: 00d4 b73c 1707 04bc a20d 04be 002d bfbd
00000080: a345 263d bd56 113e 279a 013e a84a 053e
00000090: 83eb 53bc 2ef8 eebc 52d1 79bd 31ea 833d
000000a0: 70c9 34bd 4462 9c3d da13 8ebc ce64 5d3c
000000b0: 0634 fcbd b69d 0a3e e05e d73b d648 a03d
000000c0: c9f7 18bd f0e2 74bc 2f54 fabd d3a3 bd3d
000000d0: 8215 753c 6d2f 153d d21b 66bc 910d 9e3d
000000e0: 936d db3d 2098 5b3c 718f c83d 4697 babd
000000f0: b08d 56bc 1d36 233d 935d 7e3d 06d9 623d

gnn_layer_1.gconv.u_fc.weight f4 [64, 64]
0.056479584 -0.09028198 0.035668306 0.06653756 -0.08382056 0.022938378 0.03580345 0.07392767
0.021737095 0.047449242 -0.13329183 0.10229984 0.10537366 -0.097562246 0.14421853 0.053377558
0.06570448 -0.02025329 -0.08424011 -0.06557139 0.113740556 0.0026419554 0.05633348 -0.020127907
0.10041775 0.038384564 -0.100481465 -0.098567456 0.07488878 -0.08437538 -0.1176412 -0.04295616
0.029992625 0.095670484 0.112768695 0.11748268 0.099660784 -0.117238715 -0.045044534 0.028047979
-0.06748002 0.0398755 0.039204862 -0.0074420883 -0.096981786 0.13120858 -0.03018796 -0.005233825
-0.004411495 -0.07392459 -0.057670627 -0.12635127 -0.10496996 -0.11088079 -0.011073205 0.062415607
0.112702735 -0.015519577 -0.073834114 -0.07416778 0.13550952 0.09902171 0.08993958 0.004190167
0.0156228235 -0.11377886 -0.019678954 0.1081501 -0.016981669 -0.06899435 0.05567852 0.015720828
0.11225595 0.06752936 -0.104853116 0.09586406 -0.055879805 0.07697691 -0.122069664 0.07395635
-0.08194305 -0.06739786 -0.10727592 0.03137072 -0.09262586 0.08432233 0.058008574 0.024184221
0.03957091 -0.09426389 -0.09390757 0.0719377 0.033849463 0.04802651 -0.0031303172 -0.0825211
-0.065220125 -0.09755469 -0.042050093 -0.031974442 -0.0035429497 -0.07160495 0.05496033 0.11155776
-0.040154044 0.004230177 -0.10720307 -0.084567465 0.06432282 0.020498857 0.06651555 0.10063901
-0.09731608 -0.09967579 -0.030641181 -0.038751066 0.061388783 -0.10041214 0.0057738693 -0.044858854
0.043369353 0.015990317 -0.094595164 0.042331625 0.09191055 0.09559372 0.034231164 -0.0804701
-0.10764643 -0.119876966 -0.020391902 0.04285418 -0.08522753 -0.028710814 -0.12254098 -0.003638138
-0.03154108 -0.0023494004 0.017020803 -0.112884775 -0.03990728 -0.08768372 -0.058471426 0.12209824
-0.029588057 0.087281235 0.030186718 0.09821688 0.11160645 -0.098642 -0.007216017 -0.059399217
-0.06931703 -0.04591413 0.07439128 0.018978063 -0.10409979 -0.006706366 -0.025711289 -0.057900973
0.038017713 -0.10199666 -0.034063224 0.08262231 0.09561317 0.090844944 -0.049299505 0.045469273
0.04556496 -0.10703188 -0.06705374 -0.026224064 -0.033206455 0.087278925 0.12676024 0.023277305
-0.04146351 -0.10192005 0.11925064 -0.10060628 0.0026077363 0.04078868 0.00064025016 0.10765943
-0.112521715 -0.021229297 -0.085629486 0.012225202 -0.027916623 0.03375903 0.11292313 0.13015954
0.118180275 -0.015906045 0.0356327 0.02348055 -0.03837337 0.12609982 0.059435308 0.07920989
0.03732438 0.03382102 -0.07999282 0.123091556 -0.038489617 0.07609207 -0.059942916 0.0077963886
-0.06678345 0.108782254 0.018785061 -0.03139071 -0.08958569 -0.101845376 0.052520152 -0.07622206
0.12192946 0.0036105588 0.06264053 0.027645493 0.04635203 -0.056226406 -0.014918402 -0.10317884
-0.035903167 -0.039729506 -0.098005295 -0.078048654 -0.10112611 -0.019097345 0.09274958 -0.08419234
-0.08129247 -0.07537439 0.00013176749 -0.045517918 0.07323044 0.048619475 0.032411847 0.109503694
-0.10477013 0.032240823 -0.019078862 -0.06820023 0.02623747 0.046567082 0.1219912 0.04536261
-0.034991104 0.049679168 0.037662804 0.11147981 0.06476232 -0.025255857 -0.063132025 0.021274002
00000000: 2357 673d c2e5 b8bd ee18 123d d844 883d
00000010: 1daa abbd 44e9 bb3c a3a6 123d 6467 973d
00000020: fe11 b23c 235a 423d a77d 08be 9482 d13d
00000030: 25ce d73d b7ce c7bd 06ae 133e 6da2 5a3d
00000040: 1290 863d 3aea a5bc 1486 acbd 4b4a 86bd
00000050: cff0 e83d a824 2d3b efbd 663d 48e3 a4bc
00000060: d2a7 cd3d 2239 1d3d 3ac9 cdbd bcdd c9bd
00000070: 4a5f 993d 00cd acbd dfed f0bd ccf2 2fbd
00000080: 18b3 f53c e3ee c33d 46f3 e63d c29a f03d
00000090: f41a cc3d da1a f0bd 9e80 38bd e0c4 e53c
000000a0: f732 8abd 7e54 233d 4795 203d c3dc f3bb
000000b0: 639e c6bd 8b5b 063e be4c f7bc 8280 abbb
000000c0: 4d8e 90bb c765 97bd 0938 6cbd 3a62 01be
000000d0: 7efa d6bd 7815 e3bd 636c 35bc 82a7 7f3d
000000e0: b1d0 e63d d345 7ebc 5736 97bd 47e5 97bd
000000f0: 02c3 0a3e e5cb ca3d 3e32 b83d ab4d 893b
00000100: dff6 7f3c e404 e9bd c235 a1bc cd7d dd3d
00000110: 241d 8bbc e94c 8dbd 290f 643d f7c8 803c
00000120: 73e6 e53d d54c 8a3d 3bbd d6bd 6054 c43d
00000130: 39e2 64bd 12a6 9d3d a9ff f9bd 6d76 973d
00000140: c2d1 a7bd e407 8abd 7ab3 dbbd 967e 003d
00000150: a0b2 bdbd 30b1 ac3d 669a 6d3d fd1d c63c
00000160: 1b15 223d 6d0d c1bd 9d52 c0bd 1354 933d
00000170: bca5 0a3d 72b7 443d 0226 4dbb d300 a9bd
00000180: 2192 85bd c1ca c7bd b83c 2cbd a2f7 02bd
00000190: d530 68bb 9ea5 92bd 151e 613d 6578 e43d
000001a0: 9178 24bd 4c9d 8a3b 488d dbbd b531 adbd
000001b0: afbb 833d 38ed a73c 4e39 883d d31b ce3d
000001c0: a74d c7bd d222 ccbd 3703 fbbc 70b9 1ebd
000001d0: ce72 7b3d e1a4 cdbd ba32 bd3b ebbd 37bd
000001e0: 10a4 313d 20fe 823c 1cbb c1bd ed63 2d3d
000001f0: 993b bc3d a4c6 c33d fa35 0c3d 82cd a4bd
00000200: bb75 dcbd 0e82 f5bd eb0c a7bc dd87 2f3d
00000210: c58b aebd f132 ebbc c4f6 fabd d46d 6ebb
00000220: 3831 01bd 66f8 19bb 366f 8b3c 2230 e7bd
00000230: d175 23bd 8693 b3bd bc7f 6fbd a40e fa3d
00000240: a762 f2bc 81c0 b23d 234a f73c ee25 c93d
00000250: ec91 e43d d104 cabd 5774 ecbb 984c 73bd
00000260: 16f6 8dbd 7410 3cbd 755a 983d e277 9b3c
00000270: 4532 d5bd 13c1 dbbb 7ba0 d2bc 9229 6dbd
00000280: 76b8 1b3d a0e3 d0bd e185 0bbd e335 a93d
00000290: d6d0 c33d ea0c ba3d 47ee 49bd fd3d 3a3d
000002a0: 53a2 3a3d 8833 dbbd 7953 89bd d9d3 d6bc
000002b0: 7e03 08bd 4bbf b23d 70cd 013e 0cb0 be3c
000002c0: a4d5 29bd 76bb d0bd ae39 f43d aa0a cebd
000002d0: 8ee6 2a3b 0812 273d 76d6 273a 8c7c dc3d
000002e0: c971 e6bd 10e9 adbc 835e afbd 374c 483c
000002f0: 67b1 e4bc e946 0a3d 3e44 e73d 8b48 053e
00000300: 8008 f23d 654d 82bc 98f3 113d 485a c03c
00000310: 652d 1dbd 5020 013e 7072 733d cb38 a23d
00000320: 73e1 183d e987 0a3d 47d3 a3bd 6d17 fc3d
00000330: 4aa7 1dbd 29d6 9b3d b486 75bd d978 ff3b
00000340: c3c5 88bd 3bc9 de3d 21e3 993c 8c93 00bd
00000350: b478 b7bd 4f94 d0bd 5f1f 573d 501a 9cbd
00000360: 27b6 f93d 209f 6c3b ae49 803d cd78 e23c
00000370: a0db 3d3d a94d 66bd 506c 74bc 6d4f d3bd
00000380: 330f 13bd 68bb 22bd 00b7 c8bd f9d7 9fbd
00000390: 351b cfbd 0972 9cbc 7ef3 bd3d 096d acbd
000003a0: ab7c a6bd e35d 9abd 112b 0a39 ff70 3abd
000003b0: d7f9 953d 3725 473d 49c2 043d 7943 e03d
000003c0: b991 d6bd f40e 043d 464b 9cbc 90ac 8bbd
000003d0: f6ef d63c 20bd 3e3d 86d6 f93d 25ce 393d
000003e0: d552 0fbd 627c 4b3d 5044 1a3d 874f e43d
000003f0: 1ba2 843d 5fe5 cebc 5d4b 81bd d146 ae3c

gnn_layer_1.gconv.u_fc.bias f4 [64]
0.14281943 0.016908696 -0.03535193 -0.1273377 0.00289138 0.016662193 -0.0577859 0.113575555
-0.019564278 0.097884364 -0.06019038 0.034605537 -0.094115585 0.06277737 -0.0016157303 -0.06416766
0.09791706 -0.051647406 0.013112445 -0.015758453 -0.058030598 -0.09826237 -0.11193826 0.016878039
0.08483225 0.043241613 -0.08088903 0.04262164 0.114185184 -0.013964029 -0.015964177 0.10624826
-0.097278014 -0.10386202 0.09342718 0.07495493 0.011131224 0.02592506 0.013435677 0.100326456
-0.1095493 -0.12308913 -0.074089356 0.121063896 -0.11042285 -0.10087326 0.08559962 -0.030107556
0.09818537 -0.01233902 0.08146005 0.052620016 -0.10458546 0.053047244 -0.03068775 0.012015984
0.123387925 0.16972803 -0.06567929 -0.06541671 -0.11147903 0.072182894 0.13074863 0.16147435
00000000: 423f 123e 1b84 8a3c 2fcd 10bd d064 02be
00000010: 4f7d 3d3b 277f 883c e8b0 6cbd 4d9a e83d
00000020: 4445 a0bc 9977 c83d 308a 76bd 89be 0d3d
00000030: acbf c0bd 6c91 803d eac6 d3ba 566a 83bd
00000040: bd88 c83d 3b8c 53bd 95d5 563c df17 81bc
00000050: 7eb1 6dbd c83d c9bd e33f e5bd d043 8a3c
00000060: 88bc ad3d 1e1e 313d 26a9 a5bd 0794 2e3d
00000070: ecd9 e93d 62c9 64bc 4ec7 82bc b098 d93d
00000080: b239 c7bd 9cb5 d4bd c056 bf3d f881 993d
00000090: bd5f 363c cb60 d43c 5021 5c3c f577 cd3d
000000a0: 625b e0bd 2716 fcbd 29bc 97bd 59f0 f73d
000000b0: 6025 e2bd a496 cebd db4e af3d 1fa4 f6bc
000000c0: 6915 c93d 9a29 4abc 87d4 a63d 1688 573d
000000d0: e730 d6bd 1148 593d e064 fbbc b1de 443c
000000e0: cfb2 fc3d 2fcd 2d3e dd82 86bd 32f9 85bd
000000f0: 1e4f e4bd a0d4 933d f8e2 053e 8859 253e

affinity_1.A f4 [64, 64]
1.1206472 -0.11904776 0.095874816 -0.124783754 -0.07265334 -0.023083448 0.053254902 -0.021714807
-0.0074935555 -0.06785348 0.011106327 -0.043732837 -0.11591108 -0.084420025 0.051710606 -0.046124965
0.117154256 0.030940533 -0.081140056 0.017239302 0.076730534 -0.12166715 -0.018286824 0.07422976
0.05088629 -0.10022372 -0.12182009 0.021259338 0.047895193 -0.07597163 -0.10250959 -0.036744654
-0.09506932 0.11662659 0.06692521 0.08325845 0.006376773 -0.07517016 0.050988898 -0.04818009
0.027616948 0.041730538 -0.12076774 0.06646407 0.0003644973 0.006170675 0.10992277 0.060958296
-0.084874704 -0.08526465 0.09596473 -0.01929897 -0.10262568 -0.117266744 -0.07366265 -0.08891095
-0.012060076 0.12407766 -0.0068392903 0.022196472 0.0318048 0.040067196 -0.046609044 -0.0006054789
-0.07118717 1.0733608 0.09870155 0.050430834 0.030668423 -0.005081132 0.08179873 0.057384804
0.0060884207 0.005035296 0.052898586 -0.09531236 -0.0704968 0.037322775 0.051740304 -0.07167697
0.066009656 0.107917145 0.077194214 -0.06343347 -0.06794478 0.10187182 0.05656363 -0.002666086
0.005813986 0.10364336 -0.068526074 0.07832052 -0.078821555 -0.07194674 0.057104826 -0.08601026
-0.08200002 -0.023313358 -0.08582355 -0.05213827 0.003119871 0.03269951 -0.11724748 0.059742063
0.099678114 -0.1025165 -0.09178108 0.01436618 0.008035615 0.12055968 -0.01419653 -0.119852826
0.077749655 0.033590674 0.01811248 -0.060785577 -0.07711522 -0.106728345 -0.06988588 -0.108453006
0.11843224 -0.09139347 0.08033346 0.009810224 -0.009347126 0.07028887 0.01408793 -0.08429696
0.08220728 -0.037226066 0.9693005 0.10773376 -0.1112525 -0.03063421 -0.084909245 -0.09929082
0.1067383 -0.047842354 0.1070676 0.06547707 -0.074931115 -0.11143245 0.119309485 0.06816879
0.045520455 -0.100591704 -0.056928784 -0.036269635 -0.121120036 -0.11836636 0.0024238229 -0.062906355
0.06282064 0.019066006 0.066175595 -0.07956816 -0.05244617 0.11343075 0.05293022 0.08860242
-0.01562646 -0.045554966 -0.0726849 0.10128935 0.10277526 -0.023138046 0.055649623 -0.004805997
0.08600129 -0.013037428 0.04347612 -0.07961492 -0.10969032 0.021391273 0.09027788 0.11602092
0.10926244 0.014958993 -0.108508036 0.102264255 0.020158902 0.08916925 0.05862342 0.06779291
0.021955162 0.057243332 0.09688753 0.1178931 0.015625522 0.07339555 0.053886563 0.01232028
-0.07402043 -0.059261084 0.10362847 1.10906 0.08977601 0.02664408 -0.044985652 0.049838036
-0.093044296 -0.07987346 -0.043793276 -0.0039266497 -0.11950134 0.057597935 -0.10002524 -0.10112229
0.072590426 0.03601478 0.11042409 0.03173548 0.0024371147 -0.10249221 -0.01366277 -0.120649725
-0.006286621 0.021447495 0.071967125 -0.0025936663 0.048329294 -0.034175485 -0.03034766 0.12081842
0.08675316 -0.0830864 -0.036077544 0.09342426 0.06628136 -0.0435227 -0.07115762 0.08929838
-0.054569498 -0.063841745 -0.013124093 0.11070813 0.011207148 0.05463326 -0.016887262 0.020562336
-0.026640221 0.064296916 -0.021123126 -0.026126668 0.018112019 0.09669654 -0.122661605 0.016115502
0.06770852 0.08858028 -0.0051276386 -0.03694552 -0.05519876 0.071057096 0.08966528 0.061959356
00000000: 5e71 8f3f 50cf f3bd 045a c43d a08e ffbd
00000010: 46cb 94bd 8019 bdbc d021 5a3d 40e3 b1bc
00000020: 808c f5bb c4f6 8abd 50f7 353c 3421 33bd
00000030: ca62 edbd 68e4 acbd 80ce 533d 88ed 3cbd
00000040: 92ee ef3d 0077 fd3c c22c a6bd 7039 8d3c
00000050: e624 9d3d a02c f9bd 40ce 95bc c605 983d
00000060: 246e 503d 1842 cdbd d07c f9bd 1028 ae3c
00000070: c02d 443d 0497 9bbd 8cf0 d1bd 9081 16bd
00000080: b4b3 c2bd ecd9 ee3d 1610 893d 6883 aa3d
00000090: 40f4 d03b d0f2 99bd bcd9 503d 7c58 45bd
000000a0: f03c e23c a4ed 2a3d 1455 f7bd 501e 883d
000000b0: 001a bf39 6033 ca3b 301f e13d 68af 793d
000000c0: cad2 adbd 3c9f aebd 2889 c43d e018 9ebc
000000d0: 6a2d d2bd 8c29 f0bd 72dc 96bd f216 b6bd
000000e0: a097 45bc 6e1c fe3d 201c e0bb 60d5 b53c
000000f0: c045 023d 801d 243d 20e9 3ebd 00b9 1eba
00000100: 94ca 91bd e363 893f 0a24 ca3d 9090 4e3d
00000110: 583c fb3c a07f a6bb 1886 a73d 540c 6b3d
00000120: 6081 c73b 20ff a43b 30ac 583d 2033 c3bd
00000130: a060 90bd c4df 183d a4ed 533d 60cb 92bd
00000140: 1230 873d aa03 dd3d 0018 9e3d 68e9 81bd
00000150: a226 8bbd 2ca2 d03d 44af 673d 80b9 2ebb
00000160: 4083 be3b f842 d43d 6657 8cbd 8266 a03d
00000170: 326d a1bd d058 93bd c0e6 693d 2626 b0bd
00000180: a0ef a7bd a8fb bebc 42c4 afbd f08e 55bd
00000190: c076 4c3b ecef 053d 721f f0bd 18b4 743d
000001a0: 0a24 cc3d 2cf4 d1bd b8f7 bbbd 2060 6b3c
000001b0: d0a7 033c fee7 f63d 9098 68bc 6675 f5bd
000001c0: 363b 9f3d 6096 093d a060 943c 4cfa 78bd
000001d0: 96ee 9dbd 6494 dabd 5420 8fbd 9c1c debd
000001e0: 9a8c f23d 802c bbbd de85 a43d 10bb 203c
000001f0: b024 19bc 9cf3 8f3d 10d1 663c e2a3 acbd
00000200: 4a5c a83d 5c7a 18bd 1424 783f 84a3 dc3d
00000210: 5ad8 e3bd 98f4 fabc e6e4 adbd fc58 cbbd
00000220: 9c99 da3d 58f6 43bd 4246 db3d d818 863d
00000230: 7c75 99bd b236 e4bd 8858 f43d 149c 8b3d
00000240: a873 3a3d 0603 cebd 282e 69bd 788f 14bd
00000250: c80d f8bd 106a f2bd 00d9 1e3b 0cd5 80bd
00000260: 1ca8 803d 5030 9c3c 1287 873d a2f4 a2bd
00000270: ccd1 56bd 624e e83d 5ccd 583d 3075 b53d
00000280: 1003 80bc d897 3abd d2db 94bd ca70 cf3d
00000290: d67b d23d 008c bdbc dcf0 633d a07b 9dbb
000002a0: 7221 b03d f09a 55bc 0414 323d 260d a3bd
000002b0: 52a5 e0bd c03c af3c 9ce3 b83d 609c ed3d
000002c0: fcc4 df3d 9016 753c 7639 debd ec6f d13d
000002d0: 4824 a53c 5e9e b63d 1c1f 703d 02d7 8a3d
000002e0: 50db b33c fc77 6a3d f86c c63d f071 f13d
000002f0: 1801 803c 6850 963d 28b8 5c3d 00db 493c
00000300: 0698 97bd c0bb 72bd 2a3b d43d aef5 8d3f
00000310: 7cdc b73d b044 da3c e042 38bd f822 4c3d
00000320: 028e bebd b294 a3bd 9460 33bd 20ab 80bb
00000330: 1ebd f4bd d0eb 6b3d 08da ccbd 3419 cfbd
00000340: 4aaa 943d 3c84 133d 0626 e23d 10fd 013d
00000350: 00b8 1f3b 70e7 d1bd d0d9 5fbc 3417 f7bd
00000360: 0000 cebb a8b2 af3c 8063 933d 80fa 29bb
00000370: f0f4 453d 98fb 0bbd a89b f8bc a66f f73d
00000380: a4ab b13d 3429 aabd 0cc6 13bd 3855 bf3d
00000390: 86be 873d dc44 32bd 16bb 91bd 12e2 b63d
000003a0: 4484 5fbd 76bf 82bd 7006 57bc f2ba e23d
000003b0: 309e 373c 20c7 5f3d 2857 8abc 5872 a83c
000003c0: 983c dabc 1aae 833d 680a adbc 9807 d6bc
000003d0: a85f 943c d608 c63d 0236 fbbd a804 843c
000003e0: c4aa 8a3d 9469 b53d c005 a8bb 3054 17bd
000003f0: 1818 62bd 6286 913d 6ea2 b73d 18c9 7d3d
