ThinkMatch/exp_aaai/pca/CV0/saved_models/model.pt (torch, 216498 bytes, 17 tensors)

gnn_layer_0.gconv.a_fc.weight f4 [64, 121]
000000 5d cb 82 3c 70 f3 37 bd 9d 12 50 3d 39 16 ae bd
       0.015966112 -0.044909894 0.050799 -0.085003324
000010 a1 b3 f1 3c bc 55 9a 3c 9a 6c ad bd 00 bf 6a 3d
       0.029504599 0.01883971 -0.0846798 0.057311058
000020 3b 3b 70 bd 3a e3 b9 bd 30 04 67 bd 4e df 2a 3d
       -0.058650237 -0.09076543 -0.056400478 0.041716866
000030 3a 95 f6 3c 87 59 97 bc 78 c9 aa 3d fa 18 7d bd
       0.030100454 -0.018475307 0.08339208 -0.061791398
000040 ff a8 0a bd ab f2 b9 bb 0a 5c 46 3d bd 51 8a bd
       -0.033852573 -0.00567468 0.04842762 -0.067538716
000050 65 db 82 bd 87 79 95 bd 84 1f b4 3d 75 5b 57 3d
       -0.063895024 -0.0729857 0.08795074 0.052577455
000060 72 19 e7 bc 9b 85 da bc f2 b8 3a bd ea fc a4 bd
       -0.028210375 -0.026675036 -0.045586534 -0.08056052
000070 25 9c b4 3c 3c 97 7c bd dd 56 c1 bc fd 48 e2 bc
       0.022047112 -0.061667666 -0.02360099 -0.027622694
000080 0e da 5f 3d d4 bf 9f bc 58 6b 9e bc 96 b1 1a bc
       0.054651313 -0.01950065 -0.019338295 -0.009441754
000090 12 e1 7a bd 58 bd 9d 3c 63 a4 c2 3c 3c cf 80 3d
       -0.0612498 0.019255325 0.023760026 0.06289527
0000a0 14 bd 47 bd d5 1a ab 3b 8c d0 d1 3c dd bf 18 3d
       -0.048764303 0.0052217045 0.025612138 0.03729235
0000b0 81 53 41 3d 42 f9 8c bd 06 95 88 3d bb 11 aa bd
       0.047198776 -0.0688348 0.06669049 -0.08304163
0000c0 db 9b 93 bc 4c 24 9e bd e2 da dc bb a9 af b8 bd
       -0.018018654 -0.07721767 -0.00673996 -0.090178795
0000d0 27 a3 28 bd 3d 8d 13 3b fc 81 bb bd a9 93 ef 3b
       -0.04117122 0.0022514604 -0.09155652 0.0073113036
0000e0 7b 3d 95 bc c8 41 29 3d 6a f6 07 3d 16 9e 84 3c
       -0.018217793 0.0413225 0.033193983 0.016188662
0000f0 59 b9 b7 3c 59 d3 43 bc 12 12 2f 3d dc 80 90 bd
       0.022427248 -0.011952245 0.042741843 -0.07055828
000100 1f e6 2d 3c ef fd 1b bc c3 3c 97 3d 7b fc 66 3d
       0.010613947 -0.009520992 0.07384636 0.056393128
000110 cb f2 05 3d 6e 21 b2 bd 23 0a 86 bd ca ba e3 3c
       0.03270225 -0.086977825 -0.06544902 0.027799029
000120 b1 31 93 bd 65 7c 26 bd 1b f2 3d bd 51 42 db 3a
       -0.07187212 -0.040645976 -0.046373468 0.0016728138
000130 c2 09 d4 3c 07 7b a8 bd 97 d4 63 3d 2c 42 dc 3c
       0.02588356 -0.082265906 0.055622663 0.026887022
000140 9b f7 e1 bc 6f bd 1a 3b 68 e2 3d bc af 12 58 3d
       -0.027583888 0.0023611446 -0.011589624 0.052752193
000150 af d6 12 bd 51 e9 87 3d e9 a2 b4 bd 70 76 46 bc
       -0.03584927 0.066362984 -0.08820135 -0.012113199
000160 07 75 94 3d d5 3f ac 3d 4c ce b4 bd de bd c2 3c
       0.07248884 0.084106125 -0.088284105 0.023772176
000170 1c 0b a3 3d a1 9f ea bc 26 6e af bd 40 26 83 3a
       0.07961103 -0.02864057 -0.08565931 0.0010005906
000180 55 be a0 3d ec 06 18 3b 8d 83 ba 3d 71 9c 55 3d
       0.07848803 0.0023197485 0.091071226 0.052151147
000190 16 d0 85 3c 40 13 0e bd 8c aa 7b 3d f2 23 0f 3d
       0.016334575 -0.034686327 0.061441943 0.03494639
0001a0 ef 03 12 bd 98 7d 9b bc 8f 2c 2f bd c1 86 04 bb
       -0.035648283 -0.018980786 -0.042767104 -0.002022192
0001b0 53 f3 9d 3d ff 8b a5 3d 31 51 28 3d f2 f3 ba bd
       0.07712426 0.08083343 0.041093055 -0.0912856
0001c0 b1 4c 55 3d 3d cd 45 3d 77 56 ad bd 35 d8 a7 bd
       0.05207509 0.048291434 -0.084637575 -0.08195535
0001d0 da 83 ee bc ed 44 08 bd 8f 5e 04 3b 35 fe a0 bd
       -0.029115606 -0.033268858 0.0020197963 -0.07860986
0001e0 1e a5 00 3d a7 b4 83 bd 15 aa 77 3c f9 2a 79 3d
       0.031407468 -0.06430941 0.015116234 0.060831998
0001f0 f0 36 aa 3d 37 7a 93 3d ab 20 14 bd cc 74 03 bd
       0.0831126 0.07201045 -0.036163967 -0.032093808
000200 27 ba a4 bd ec 3e 82 3d d2 78 21 3c 34 a5 a0 3b
       -0.08043318 0.06359658 0.009855466 0.0049025062
000210 4c 60 1c 3c 75 be 7e 3b f9 14 36 3d a4 da e7 bc
       0.009544443 0.0038870845 0.044453595 -0.028302498
000220 bd de b9 3d 7f 56 2c 3d d3 f1 46 3d fa 42 a5 bd
       0.09075687 0.042074677 0.048570465 -0.080694154
000230 64 86 25 3d b5 48 db 3c a1 40 ac 3d cb 0a ef bc
       0.040411368 0.026768068 0.084107645 -0.029179951
000240 0b 3f 8f bd b0 8d 56 3d 13 b1 99 bd 8c ed ac bb
       -0.06994446 0.052381217 -0.07504477 -0.005277341
000250 68 91 8f bd 6a 3c 14 bd 3c 2c b6 3d a3 6c b2 3c
       -0.07010156 -0.036190428 0.08895156 0.021780318
000260 1e 13 50 3d dd 22 a4 bd 71 54 8b 3d 56 c4 99 bd
       0.05079948 -0.08014462 0.06803215 -0.07508151
000270 3a 23 8f 3d 93 ba d3 bc 0c 21 b1 3d 2e 20 34 bd
       0.06989141 -0.025845801 0.08648881 -0.043976
000280 4f d0 2e bc e3 df 4c bc 4d 4f b5 3d 46 be 94 bc
       -0.010669782 -0.012504551 0.08853016 -0.018157136
000290 93 93 8c bd 75 26 8a bd d8 e6 83 bd 90 a6 10 bd
       -0.06864085 -0.06745616 -0.06440514 -0.035315096
0002a0 cd 8f 0c 3d 00 74 62 bd 1c 57 86 3d ab 05 78 3d
       0.034316827 -0.055286407 0.065595835 0.06055228
0002b0 3e 8d f7 3c d3 c3 e5 3c a7 1a 7a bc 47 60 8c 3c
       0.030218717 0.028047478 -0.0152651435 0.017135752
0002c0 d6 51 9c bd a2 23 fa bb 49 a9 b3 3d 88 4f 93 3d
       -0.076327965 -0.0076336423 0.08772523 0.07192904
0002d0 16 68 61 bc 48 8d 84 3d 8f 42 40 3d 59 0b 6b 3c
       -0.013757726 0.0647226 0.046938475 0.014345967
0002e0 a4 d4 2d bd 47 7e bd 3c d5 87 4b 3d 00 ad ae 3d
       -0.042439118 0.023131503 0.049690086 0.08529091
0002f0 a2 ab 98 bc fa 19 bf bc b5 1b 77 3b ff 4a 1f bd
       -0.018636528 -0.023327816 0.0037705724 -0.03888988
000300 df 70 df bc 7e 48 00 3c 16 32 e8 bc ec 87 30 bd
       -0.0272755 0.0078297835 -0.028344195 -0.043098375
000310 79 ea 29 3d e8 b0 a9 3d ac 10 6d bd 55 6c bf 3c
       0.041483376 0.08285695 -0.057877228 0.023367086
000320 32 e8 63 bc e4 3d 11 3d 18 c7 be 3c 7d d8 9c 3d
       -0.01391034 0.035459414 0.023288295 0.07658479
000330 34 9d b8 bd 62 87 ff 3c f9 b7 4a bd a4 fd 3f bd
       -0.09014359 0.031192485 -0.049491856 -0.04687275
000340 ec 28 0e 3b b3 d7 a4 3c 44 2c 8a 3d 93 aa 8d 3c
       0.0021691872 0.020122385 0.06746724 0.01729325
000350 29 f3 9c 3d 3b 64 32 bc a4 2a 30 3d 85 e4 8c 3c
       0.076635666 -0.010888155 0.043009415 0.01719881
000360 65 1c b8 3d 4d 95 81 3c 88 10 05 bd 3a 7d 1f bd
       0.08989791 0.015818262 -0.03248647 -0.038937785
000370 23 27 97 3d 7a aa c3 3d 28 7a 21 bc 53 78 43 3d
       0.073805116 0.09554 -0.0098557845 0.047722172
000380 04 0b e0 bc 2b fd 3b 3d d5 61 ae bc 53 7c d7 3c
       -0.027349003 0.045895737 -0.021286884 0.0263044
000390 27 cc 88 bc de 84 52 bd 53 29 26 3d f1 2a b7 bd
       -0.01669891 -0.051396243 0.040566754 -0.08943737
0003a0 d4 1b 56 bd 22 6a 4e 3d ab c3 a8 bd 5e 97 09 bb
       -0.052272633 0.050394185 -0.08240446 -0.0020994763
0003b0 09 d7 48 bc fd 17 16 3d 54 c5 de 3c 55 76 e1 bd
       -0.0122583 0.03664397 0.027193703 -0.11008898
0003c0 b4 a2 3b bd 36 62 0f 3b c9 84 ae 3d 12 a3 ab bc
       -0.045809463 0.0021878607 0.085214205 -0.020951781
0003d0 b5 04 b8 bc 12 28 b6 bd 29 4f 92 3d 3a 76 8c bc
       -0.022463182 -0.088943616 0.07144005 -0.017146219
0003e0 d8 d0 83 3c 40 38 02 bd 7c 47 8f bd 8c 7e 84 bc
       0.016090795 -0.031791925 -0.069960564 -0.016173624
0003f0 dc d4 99 bd a3 73 39 3a f8 c9 90 3d c6 19 56 bc
       -0.07511303 0.0007074421 0.070697725 -0.013067668

gnn_layer_0.gconv.a_fc.bias f4 [64]
000000 19 de ab 3d ba aa 97 bd 8f fc 8f 3d 12 0b 92 bd
       0.08391971 -0.074056104 0.070305936 -0.07131018
000010 e1 b4 4d 3d b5 8a 2d 3d 68 51 7e 3c de 8d aa 3d
       0.050221328 0.04236861 0.015522338 0.0832784
000020 06 c7 04 bd e6 36 88 3d c8 03 b4 bc 1c 05 1d bd
       -0.032416366 0.06651096 -0.02197446 -0.03833495
000030 2a 89 a2 bd ee e9 b4 bd d5 62 a7 bd f5 50 b1 bc
       -0.07936318 -0.08833681 -0.081731476 -0.021645049
000040 1e 6c 96 3d 15 5d 96 3d 2e f0 93 bd df 66 27 3d
       0.073448405 0.07341973 -0.07223545 0.04086959
000050 9b f9 96 3d 61 67 02 bd 54 44 15 bd 9f 2c 7a ba
       0.07371827 -0.03183687 -0.036442116 -0.0009543392
000060 18 25 19 bd e4 cb a1 bd a4 af fd 38 c5 7f a8 3d
       -0.03738889 -0.07900217 0.00012096696 0.08227495
000070 e9 1d d6 bc 14 5d 17 3d a9 f0 ac 3d d8 6a f5 3c
       -0.02613731 0.036954 0.0844434 0.029958174
000080 4a 71 8e bd f3 13 a5 bd fc 8f 7b 3d 4b d9 35 bd
       -0.06955202 -0.08060446 0.06141661 -0.04439668
000090 a2 22 b2 3d a4 d4 36 bc 34 22 b4 bc 47 7b 1a bd
       0.08698012 -0.011159096 -0.021988966 -0.037715223
0000a0 dc 05 54 bd 46 9a 13 3d ff c0 c0 3d b0 b9 3b bd
       -0.0517634 0.0360358 0.09411811 -0.045831382
0000b0 8c 51 45 3c 65 ea 07 3c c9 44 83 bc 6e b5 87 bd
       0.012043368 0.00829563 -0.01602401 -0.06626402
0000c0 3f d9 48 3d 10 90 47 3c 5e ce fa bc 91 e9 2c 3d
       0.049035307 0.012180343 -0.030615982 0.042214934
0000d0 59 cd 8d bd 09 fc 55 bd 96 d4 b3 bd 1b a6 18 3d
       -0.069239326 -0.052242313 -0.08780782 0.037267786
0000e0 d2 42 b0 bb 33 73 5c bd 91 45 58 bd e5 ed 1e bd
       -0.0053790594 -0.0538208 -0.05280072 -0.038801093
0000f0 17 44 6b 3c 15 5f b1 3d e2 63 9c bd 9f c0 1c bb
       0.014359496 0.086607136 -0.07636239 -0.0023918522

gnn_layer_0.gconv.u_fc.weight f4 [64, 121]
000000 da 03 b3 3a 15 5b 7e bd 67 a2 46 3c 4e 94 b6 3d
       0.0013657764 -0.06209858 0.012123681 0.089150056
000010 a6 d0 58 bd d0 98 96 bc 6e 3f 4b bd f5 d2 76 bd
       -0.052933358 -0.018383414 -0.04962104 -0.060259778
000020 59 df 64 bd 3a 0f 91 3d b0 25 26 3d 67 d9 8b bd
       -0.055877063 0.07082982 0.040563285 -0.068285756
000030 4b 25 e8 3c 7a 7e a5 bd bd 9c 32 3d 99 35 90 3d
       0.028338095 -0.08080764 0.04360651 0.07041473
000040 32 b9 46 bd 80 95 32 bd 68 bf 9d 3c 90 ad f0 bc
       -0.04851646 -0.043599606 0.019256309 -0.029379636
000050 e6 6b 94 bd 57 48 2d 3b d0 19 a7 3d fe 15 a9 bd
       -0.072471425 0.0026440823 0.0815922 -0.08256148
000060 04 39 b1 3d c5 80 ac 3d 2c 62 04 bd eb 2a 42 bd
       0.08653453 0.08422998 -0.032320186 -0.04740421
000070 76 ba 37 3d fd f2 52 3d c5 8d 35 3c 76 56 0c bd
       0.044855557 0.051501263 0.011081164 -0.034262143
000080 88 4e 67 bd 9e 22 75 3d f1 cf f3 bb 82 a3 1d bd
       -0.056471378 0.059847467 -0.00744056 -0.03848601
000090 d0 6e 9e 3c 52 38 cd bc 75 b1 df bc a5 8c 3c 3d
       0.019339949 -0.02505127 -0.027306298 0.046032567
0000a0 38 42 b5 3d 48 35 76 3d 7c 38 4f bc 63 e1 a2 3d
       0.08850521 0.060109407 -0.012647744 0.07953145
0000b0 4d e8 82 3c 1f e1 55 3b 34 fd e8 bc dd 0c 96 3b
       0.01597991 0.0032635403 -0.02844105 0.00457917
0000c0 95 65 a2 3d a2 ad 8e bd 2d b9 1b 3d 88 6b 2b 3d
       0.079295315 -0.069667116 0.038018394 0.041850597
0000d0 c0 11 f7 bc 80 a5 b0 bd 8a 3f 1d 3d 09 bc 89 bc
       -0.030159831 -0.086253166 0.038390674 -0.016813295
0000e0 24 ec a8 bd dc 10 1c 3d 54 b2 eb 3c cc 4f 31 bc
       -0.08248165 0.038102016 0.028771557 -0.010822248
0000f0 c4 25 96 3d 59 d9 59 bd e5 62 b6 3c c9 96 89 bd
       0.07331422 -0.053185795 0.022263953 -0.06718213
000100 d4 e0 7f 3b 87 f7 89 bd d9 0c a5 bd 1c 92 92 bd
       0.003904392 -0.06736665 -0.08059091 -0.071567744
000110 fd 97 76 3d 03 f5 a2 bd a3 94 2f bd c8 2e 8a 3c
       0.06020354 -0.079568885 -0.04286636 0.01686801
000120 a8 86 2d 3d c7 33 f8 bc 09 84 bd 3c 62 b1 5b 3b
       0.042364746 -0.030298127 0.023134248 0.0033522476
000130 61 a8 21 bd 80 08 ff bc 53 4c 53 bd 8d 9d 50 bd
       -0.03946722 -0.031131983 -0.05158646 -0.050931502
000140 20 b7 36 3d f7 b5 7f 3d 1c 22 b5 bd 33 6a 0a 3c
       0.044608235 0.062429395 -0.088443965 0.008448171
000150 37 55 95 bd ef b1 ca bb ee bc 44 3d 5a 86 56 ba
       -0.07291644 -0.006185762 0.04803174 -0.0008183472
000160 33 f2 92 bd 5a 64 ac bd bc 54 2c 3d c1 08 a9 bc
       -0.07175102 -0.08417578 0.042072996 -0.020634057
000170 74 76 0e 3a 3d e8 aa bb 2e bb 12 bc 6b 8d 1c bd
       0.0005434521 -0.0052156732 -0.00895576 -0.038220804
000180 03 f6 4b bd d9 ff 81 3d 62 45 a4 bc 19 7e 5e bc
       -0.049795162 0.06347627 -0.020052616 -0.013579869
000190 f0 c9 18 bd 20 4d 05 bd 69 ca ab 3c e6 8f bd bd
       -0.037301958 -0.032544255 0.02097054 -0.09255962
0001a0 10 4e a2 3d 46 6b 36 3d 93 29 41 bd ec 9f a6 3d
       0.079250455 0.044535898 -0.04715879 0.081359714
0001b0 cf 21 20 3d 58 fc f5 bc d7 03 07 3d 92 9e 13 3d
       0.039094742 -0.030027553 0.032962646 0.036039896
0001c0 e1 09 f4 bb 02 e8 68 bc 20 49 01 bd 14 ba d2 bc
       -0.0074474667 -0.014215471 -0.031563878 -0.025723495
0001d0 e6 bc d0 3a 2b 92 32 3d f4 7d 4f bd ce 10 ca bd
       0.0015925437 0.043596428 -0.050657228 -0.098664865
0001e0 0a 8a 06 3d 36 c5 0b 3d c4 e3 99 3d 9a b5 b4 bd
       0.032846488 0.034123622 0.07514146 -0.088237
0001f0 8c 8c 20 3d 3e 49 a3 3d d1 6a 28 3d 42 4a 4f bd
       0.039196536 0.07972954 0.041117493 -0.050607927
000200 aa a9 9e 3c 3f 01 b1 3d a0 ae 60 bd f3 1a 92 bd
       0.019368012 0.08642816 -0.054854035 -0.071340464
000210 03 e3 8a bd 20 3f 2c 3c 74 33 c0 3d 63 d7 0a 3d
       -0.0678158 0.010513097 0.09384814 0.033896815
000220 c8 c8 84 3b 33 6b d7 3d de 1a 6e 3d ac 6a 30 3c
       0.0040522553 0.105184935 0.05813109 0.01076762
000230 5b 64 6e bd 52 c1 1a 3c 54 c2 32 3d 30 b4 45 3d
       -0.058201175 0.009445505 0.043642357 0.048267543
000240 87 47 9b 3d d0 b1 3b 3d 83 5f 59 bc 41 32 41 bc
       0.07582002 0.045823872 -0.013267401 -0.011791767
000250 d3 83 0b bc 19 58 97 bd 44 43 33 3d b1 6e f9 bc
       -0.008515316 -0.0738985 0.04376532 -0.03044829
000260 43 70 00 3d 6e 63 bf 3b fa 5b 81 3d cd a5 8f bd
       0.03135706 0.0058407104 0.06316371 -0.07014046
000270 26 aa b8 3d aa 36 d6 3b 8a c4 9e bd 33 dd 03 bc
       0.09016828 0.006537278 -0.077523306 -0.0080483435
000280 d1 61 a4 3b 7f 44 ad 3a ae 1e 39 bc fc 3c 0d bd
       0.0050165434 0.0013219266 -0.0112988185 -0.034481987
000290 ed 75 fa 3b f6 d1 4f 3a 36 f3 43 bd 58 d7 12 3a
       0.0076434524 0.000792771 -0.047839366 0.0005601547
0002a0 62 f3 9c 3d b8 82 3a bd 79 fb b7 3b 7f cc d3 bc
       0.07663609 -0.04553482 0.0056146947 -0.025854347
0002b0 c2 3e 83 bd 43 a5 d8 bc be a1 6c 3c 0a 50 b5 bd
       -0.064084545 -0.02644599 0.014442859 -0.08853157
0002c0 5b 09 a4 bd c0 d8 e7 bc a5 e7 16 3d 64 bb ab 3d
       -0.08009597 -0.028301597 0.036842007 0.08385351
0002d0 e4 e8 86 bc a2 da c4 3c 38 6e 59 3d 50 13 72 bd
       -0.016468473 0.024030033 0.05308363 -0.05910045
0002e0 1f 8e 9b bd 75 52 78 3d 2d 3e 64 3c 97 4d f9 bc
       -0.07595467 0.060625512 0.0139308395 -0.030432506
0002f0 3d 12 b4 3d 6c 56 b5 bd c4 94 c8 bc d1 27 f1 3b
       0.08792541 -0.08854374 -0.024485 0.007359483
000300 3a 74 2d bd 83 36 2d bd ff b1 9b bd 55 e7 71 3c
       -0.04234717 -0.042288315 -0.076023094 0.0147646265
000310 e7 4b 94 bd 90 f0 2d 3b 4e b6 a3 bd 8d 5f 7e bb
       -0.0724104 0.0026541092 -0.07993756 -0.0038814277
000320 02 1c a7 3d 8b a4 4f 3d 7a 30 3a 3d 22 90 1d 3c
       0.08159639 0.05069403 0.045456387 0.0096168835
000330 16 59 4d 3d db 8f c4 bc 58 cf 19 bd f0 1a 5a bd
       0.050133787 -0.023994377 -0.037551254 -0.053248346
000340 f2 6a 4d bc 45 d8 07 3d 24 50 ef 3c 74 2f a2 bc
       -0.012537705 0.033165235 0.029213019 -0.019798018
000350 b9 70 fe 3c 8d ef 40 bd 2f 0d e8 3c 7f 8d 8a 3d
       0.03105961 -0.047103453 0.028326599 0.067652695
000360 db 2a 9c bd 73 8e 80 3d fb 5c a6 bd d9 d0 55 3d
       -0.076253615 0.0627717 -0.08123203 0.052201126
000370 d0 92 c0 bc 3e 48 bc 3d e2 a4 c2 3d ab 60 9f 3d
       -0.023507506 0.091934666 0.09504105 0.0778211
000380 2c 65 19 3d 96 15 a9 3d 95 7c 4e 3d 3b 21 9d 3d
       0.03745 0.0825607 0.05041178 0.07672354
000390 6f 87 c2 3d 6d 89 94 3d 61 e3 9f 3d 16 95 58 bd
       0.09498488 0.072527744 0.07807041 -0.052876554
0003a0 7d 0c f8 bc 09 ac 1e bd 2a 42 83 bd 14 a4 05 bd
       -0.030279392 -0.038738284 -0.06409104 -0.03262718
0003b0 56 7e ba 3d 02 7c 33 3c ca 8d a3 3d d1 d4 ca bd
       0.09106128 0.010954859 0.079860285 -0.09903873
0003c0 f7 b2 e3 bc aa 67 9f 3b a2 5f 83 3c 85 11 57 3d
       -0.027795298 0.0048646526 0.016036812 0.052506942
0003d0 07 92 03 bd 31 1b d5 bc 3a d3 a2 3d 4e 17 54 bc
       -0.032121684 -0.026013942 0.079504445 -0.012945009
0003e0 3c c6 7e 3d 2b 24 4d 3c 33 10 39 bd 9e 37 a9 bd
       0.06220077 0.01252083 -0.045181464 -0.08262561
0003f0 87 68 ba 3c 16 c7 87 3d b3 73 94 3d bd f0 a5 3d
       0.02275492 0.066297695 0.072486304 0.08102558

gnn_layer_0.gconv.u_fc.bias f4 [64]
000000 6a 75 2b 3d c6 96 bf 3c 0d df 0d bd 47 67 b7 bc
       0.04186002 0.023387324 -0.034636546 -0.022388114
000010 93 40 a1 3c f0 c2 e0 3c 9f 6c 24 3d 98 f8 5a 3d
       0.019684112 0.027436703 0.04014265 0.053459734
000020 f0 15 6e ba d3 70 8a 3c 83 f0 9e bc f4 78 15 bd
       -0.00090822484 0.016899502 -0.019401794 -0.036492303
000030 5d 37 30 3c a8 72 28 bd d7 ee 81 3c a6 b5 38 bb
       0.010755387 -0.04112497 0.015860958 -0.0028184443
000040 63 47 5d bc 30 5b 51 3d 89 32 b5 3c a9 5b ae bc
       -0.013505789 0.051112354 0.022118824 -0.021283941
000050 f1 fd 2b bd 7b 72 e4 3c e0 bf b5 3d 45 63 9d bd
       -0.041990224 0.02788662 0.08874488 -0.0768495
000060 d7 21 9d 3d 3b 2f 35 bc 96 cc 91 3d 2a 18 56 bd
       0.0767247 -0.011058624 0.071191 -0.05226914
000070 08 2e d6 3c 9d 86 89 3d bb 0d ae bd f4 d2 1c 3d
       0.026144996 0.067151286 -0.08498713 0.038287118
000080 c8 59 73 bd ee d3 8d 3d 6c 7a 81 3d 8e 23 9a 3d
       -0.059411794 0.06925188 0.06322178 0.07526313
000090 db d4 60 3d b7 21 d5 3d 95 56 8f 3c 2d 2a 40 3d
       0.054890495 0.10406821 0.01749734 0.046915222
0000a0 5e f7 a2 bd cb 06 bd 3d c7 2c f6 bc e5 f8 80 bd
       -0.07957338 0.09229811 -0.030050648 -0.06297473
0000b0 4b 50 98 3d 37 2c 87 bd 3e 49 d8 3a af 37 a1 3c
       0.0743719 -0.0660023 0.001650132 0.019679872
0000c0 1c 33 b0 bb e6 37 62 3d 46 8d 98 bb f5 f7 95 bd
       -0.0053771865 0.05522909 -0.004655513 -0.07322685
0000d0 08 d5 77 bd 77 86 c8 3d b6 cf 07 bc cd c0 fd 3c
       -0.060505897 0.09791272 -0.008289268 0.030975724
0000e0 79 ff d1 bb bb 9a 4a 3d 72 32 a4 3d d9 5a ad 3d
       -0.0064086285 0.04946397 0.08017434 0.084645934
0000f0 bd 9e 94 bd 27 23 32 bd 3a 1e 6f bd 19 38 4d bd
       -0.072568394 -0.043490555 -0.058378436 -0.050102327

affinity_0.A f4 [64, 64]
000000 f2 98 8a 3f 90 e6 a2 bd 3c b7 63 3d 78 ad 5d bd
       1.0827925 -0.079541326 0.055594668 -0.05412051
000010 c0 35 80 bd 88 33 b5 3d f0 54 73 bc a8 a8 b5 bd
       -0.06260252 0.088477194 -0.014851794 -0.08870059
000020 60 bf 72 bd 88 be 9b 3d 98 ed b1 bc 44 2c 0b 3d
       -0.05926454 0.076047 -0.021719739 0.033977762
000030 80 df ef bd 60 f0 7e 3c 98 fb da 3d 44 71 93 3d
       -0.11712551 0.01556024 0.10692519 0.07199338
000040 60 b4 2f bd 20 05 a5 bb e0 05 e6 bb 28 ed eb bc
       -0.04289663 -0.0050360113 -0.0070197433 -0.028799608
000050 20 c3 ec bd f8 b9 a9 3d ec 17 56 3d f2 fa dd 3d
       -0.11560655 0.08287424 0.052268907 0.1083888
000060 14 08 ec 3d 48 aa df 3d 6a fb a4 3d a8 aa bf 3c
       0.11524978 0.109211504 0.08055766 0.023396805
000070 6a b1 e2 3d a8 57 ef bd 9a 2a 97 bd 5e c6 93 bd
       0.11068995 -0.11686641 -0.073811725 -0.0721557
000080 e0 63 72 3c 38 b5 fc bd c0 e4 e6 bb 60 37 de bb
       0.01479432 -0.12339252 -0.007046312 -0.0067815036
000090 f8 7a f6 3c de 6c 90 bd 38 ab b6 bd 34 3b 47 bd
       0.030087933 -0.07052015 -0.08919376 -0.048640445
0000a0 7a 03 9f bd 00 13 fb bb d2 03 dc 3d ba dc 87 3d
       -0.07764335 -0.007662177 0.10742916 0.06633897
0000b0 dc 49 ed bd c0 2c 3c 3c 50 c3 b0 3c 44 7b 13 bd
       -0.11586353 0.011485279 0.021577507 -0.036006227
0000c0 3c 5c 82 3d a0 27 c8 3c 40 60 9f bd a8 dd e9 bc
       0.063652486 0.024432957 -0.0778203 -0.028548077
0000d0 c8 d3 98 bd 88 0a f6 bd 98 0c 2a bd 40 78 bc 3b
       -0.07462269 -0.120137274 -0.041515917 0.0057516396
0000e0 d4 a0 16 bd 38 2c ec 3c 38 1b f1 bd 92 f2 fb 3d
       -0.03677447 0.028829679 -0.1177277 0.12302126
0000f0 78 de 2e bd c2 e4 ef 3d 54 ff 8e 3d 06 75 a5 3d
       -0.04269263 0.11713554 0.06982294 0.08078961
000100 98 00 70 3d 3e 68 64 3f 86 b3 81 bd cc 67 0a 3d
       0.058594316 0.8922156 -0.063330695 0.033790395
000110 f0 19 b6 bc 4a f7 99 3d b8 e4 a6 bd 48 c8 84 bc
       -0.022229165 0.0751787 -0.081490934 -0.016208783
000120 5e 89 b2 bd 90 be 22 3c 82 84 dd 3d e0 6a dc 3c
       -0.08717607 0.009933129 0.108162895 0.02690643
000130 14 fc 9b 3d 78 40 42 3d 08 1d 00 bd f4 9c 68 3d
       0.076164395 0.047424763 -0.031277686 0.056790307
000140 e8 aa e9 bc 6a 4d a3 bd f0 70 b0 3c 00 0f 55 bd
       -0.028523877 -0.0797375 0.021538228 -0.05201626
000150 54 7b b8 bd 7e 80 da bd 30 85 99 3c 76 ad ef bd
       -0.09007898 -0.10669039 0.018740267 -0.11703007
000160 50 66 eb 3d 68 c7 bf 3d 1e d2 f6 bd 0c ef 8b 3d
       0.11494124 0.093642056 -0.120517954 0.06832704
000170 ae 4c 93 3d 8e 6d 81 bd d0 4e ab bd be e5 8a 3d
       0.0719236 -0.06319724 -0.08364642 0.06782101
000180 90 1c 7f bc 30 7a 85 3d 80 3e 98 ba f4 7e f1 3d
       -0.015570775 0.06517446 -0.0011615306 0.117917925
000190 30 2a 7e 3c 30 d3 c6 bd 22 57 be bd 54 6c 37 3d
       0.015512988 -0.097082496 -0.09293963 0.044781044
0001a0 80 ac 56 bb 90 c3 8e bd 00 1f 7b 3c 04 e8 3e bd
       -0.0032756627 -0.06970894 0.015327215 -0.046607986
0001b0 4a 22 a7 3d 18 2b 90 3c 18 fd b2 3c 08 96 cb bc
       0.08160837 0.017598674 0.0218492 -0.024851814
0001c0 20 88 21 3d e8 10 ab 3d a4 41 2c 3d f0 12 f6 bd
       0.03943646 0.08352834 0.042054787 -0.12015331
0001d0 2c 1f d5 bd bc 4e 14 3d 2c c2 3d 3d f6 eb dc 3d
       -0.10406336 0.0362079 0.046327755 0.107871935
0001e0 18 09 ef 3c a0 fc 6c bd 28 40 b3 3d 1c a8 cc bd
       0.02917914 -0.05785811 0.08752471 -0.09993002
0001f0 40 e6 d8 3d 7c 75 e7 bd f6 60 f9 bd f4 3e 04 bd
       0.10590792 -0.11301705 -0.12176697 -0.0322866
000200 ce 15 f9 3d 04 04 ae 3d 19 fa 8b 3f f4 ee 53 bd
       0.12162362 0.0849686 1.0935699 -0.051741555
000210 30 9e 41 bc fc 14 1e 3d 90 08 a3 bc 50 21 dd 3c
       -0.0118175 0.03859423 -0.019901544 0.026993424
000220 30 c9 44 3d 20 a5 3f bd c0 1e c9 3d 1a 35 a2 bd
       0.04804343 -0.046788335 0.09820318 -0.079202846
000230 00 53 fb 3c 60 d2 13 3d 20 9f 6b 3d 28 2e 8a bc
       0.030679226 0.0360893 0.0575248 -0.016867712
000240 aa 67 87 3d 80 9d ce 3c 48 8b c2 3d 40 8b 93 3c
       0.06611569 0.025221586 0.09499222 0.018010736
000250 fc 32 d3 3d e8 47 d5 bd e8 61 11 3d 50 b0 03 bc
       0.10312459 -0.10414106 0.03549376 -0.008037642
000260 9e d0 82 bd 06 b3 fc 3d d6 97 ad 3d 3c 32 7f bd
       -0.06387447 0.123388335 0.08476226 -0.062303767
000270 62 71 b8 bd d8 fa bb bd cc f2 d6 3d e2 2e 87 bd
       -0.09006001 -0.09178704 0.104955286 -0.06600739
000280 08 38 e2 3c bc b7 a5 bd 14 69 04 bd e2 92 dd 3d
       0.027614608 -0.08091685 -0.032326773 0.10819031
000290 32 19 d2 bd f2 97 ae 3d 48 3a ff 3d ec f4 aa 3d
       -0.10258712 0.08525075 0.12462288 0.083474964
0002a0 38 d1 24 bd 9c 69 ae bd f0 88 20 bc 22 7d 97 bd
       -0.04023859 -0.08516237 -0.009798273 -0.07396914
0002b0 d6 a8 cd 3d 3c f5 70 bd 02 45 81 bd ca 66 e4 3d
       0.100419685 -0.058827624 -0.0631199 0.11152418
0002c0 64 3b 7f 3d 76 c7 ba bd 60 40 ed bb 38 2a 9b bc
       0.0623125 -0.091200754 -0.00724034 -0.01894103
0002d0 48 48 9e bc 40 52 dd bd ce 7f a9 bd 18 e7 f6 bc
       -0.019321576 -0.108067036 -0.0827633 -0.030139491
0002e0 90 77 70 3c fc 47 eb 3d a0 ca 20 3d f2 28 9e 3d
       0.014676943 0.11488339 0.03925574 0.077226534
0002f0 c8 c2 3d bd 10 07 11 bc 7a 2a a9 bd 90 e8 de bd
       -0.046328336 -0.0088517815 -0.08260055 -0.108842015
000300 00 5c fb ba 1a ca 8c 3d 66 cd ed 3d 57 04 71 3f
       -0.0019177198 0.06874485 0.11611442 0.9414725
000310 a4 75 21 bd bc 06 fb 3d 4a 9e 82 bd 88 af e4 3c
       -0.03941883 0.12257144 -0.063778475 0.027915731
000320 98 f8 2e 3d 24 cf b9 bd 58 0b 98 3d d0 6b ce 3d
       0.042717546 -0.09072712 0.07424039 0.10079157
000330 00 48 33 3a 7c dc d1 3d 8c a3 8e bd c0 d4 c6 bd
       0.0006839037 0.10247132 -0.06964788 -0.097085476
000340 70 45 ba bc 70 98 6d 3c 4c 5a 70 3d 46 51 bc bd
       -0.022738189 0.014501676 0.058679864 -0.09195189
000350 d6 0b f2 bd bc 97 86 3d a2 90 84 3d f8 50 20 bd
       -0.11818664 0.0657191 0.06472899 -0.039139718
000360 1c bd 5b 3d 08 e9 d8 3d 7e 91 e6 bd e0 c8 15 bc
       0.053647146 0.10591322 -0.11258219 -0.009142131
000370 d0 f4 23 3d 44 98 3d 3d 72 7b bb bd c8 e9 4d 3d
       0.040028393 0.04628779 -0.09154405 0.05027178
000380 fa 50 fc bd 2c 31 5c bd 5a 66 81 3d 64 a2 b1 3d
       -0.123201326 -0.05375783 0.0631835 0.08673552
000390 d0 83 b9 3d 32 28 f3 3d 78 17 a7 bd 08 39 a8 3c
       0.09058344 0.11872901 -0.08158773 0.020535007
0003a0 d0 0b 73 bc 84 2b 02 3d d0 5e 81 3d 46 d9 cd 3d
       -0.014834359 0.03177978 0.06316912 0.10051207
0003b0 54 29 ce bd c8 1b 29 bd 30 9a 26 bd d8 e5 b4 3d
       -0.100664765 -0.04128626 -0.04067439 0.08832902
0003c0 70 77 8d bd c6 96 8b 3d 00 aa 45 bc 80 2e e9 bb
       -0.069075465 0.06815867 -0.012064457 -0.007116139
0003d0 60 5e da bc a0 95 46 bd f4 ad 3c bd 00 0e e0 39
       -0.02665633 -0.048482537 -0.046064332 0.0004273504
0003e0 e4 9e 33 3d 3c d8 af bd 90 e7 37 bc 98 2f a5 3c
       0.0438527 -0.08586165 -0.011224642 0.020164296
0003f0 00 37 de bd 80 07 a8 3d 20 04 3a bc da fc 80 bd
       -0.10850334 0.082045555 -0.011353523 -0.062982276

gnn_layer_1.gconv.a_fc.weight f4 [64, 64]
000000 44 cf dd 3d 95 83 fc bd 76 ad b7 bd 78 00 f3 3d
       0.108305484 -0.12329785 -0.08968632 0.11865324
000010 a9 54 e0 bd c9 ae 93 3d 03 01 34 bd 02 48 56 3c
       -0.10953648 0.07211072 -0.043946277 0.013078691
000020 bd 61 6b 3d ea 76 91 3d 27 ab 9e bc 9c 81 81 3d
       0.057466257 0.07102759 -0.019368721 0.06323549
000030 f2 e9 e0 3d 5c 10 8b 3d e5 46 9e bd 4f 12 b8 3d
       0.109821215 0.0679023 -0.07728366 0.08987867
000040 ce 9c c0 3d ab cb f4 3d 59 23 26 3d 8e 0d ad bd
       0.09404908 0.11952909 0.040561054 -0.08449851
000050 9a 9e bf 3d 0e e3 c9 bd 8c 1d 57 3d 58 81 9a 3d
       0.09356423 -0.0985776 0.052518412 0.075442016
000060 97 fb 6c bd 46 9b a9 bb 5f 86 ad 3d 61 ca 7a bd
       -0.057857122 -0.0051759807 0.08472895 -0.06122816
000070 21 e8 bf bd 23 4b f9 3d 72 5d e2 3d 1f bc a4 3d
       -0.09370447 0.12172534 0.110529795 0.08043694
000080 50 2c fb 3d 08 65 1a bc 53 28 ab bc 17 ef c1 bd
       0.12264311 -0.009423502 -0.020893252 -0.09469431
000090 6a 3a e9 bc 4c 6f 0d 3d 7a d6 2f bd e5 a9 1f bd
       -0.028470237 0.03452997 -0.04292915 -0.038980383
0000a0 d9 2b 63 3d b6 0c 63 bc 2a df ca bd 6a 1b 20 bd
       0.05546174 -0.013858011 -0.099058464 -0.039088644
0000b0 5b 5d 49 bd 86 06 d9 bd 68 a0 1a 3b 27 b6 b7 bd
       -0.049161296 -0.10596947 0.0023594145 -0.0897029
0000c0 42 24 f7 3d 72 38 e8 bd 00 36 ef 3c 61 9a 15 3d
       0.120674625 -0.11338891 0.029200554 0.03652418
0000d0 2d 16 2b bd cc ff 15 bd 3c 63 5e bd 12 1e f7 bd
       -0.041769195 -0.0366209 -0.054293856 -0.12066282
0000e0 81 7c b0 bd fc fb 40 bd 68 1e da bc 9d 99 c5 bd
       -0.08617497 -0.04711531 -0.026625827 -0.0964844
0000f0 1d 2f 71 bd 44 0e 81 3c 21 4c 94 3d 14 17 17 3d
       -0.05888282 0.015753873 0.07241083 0.036887243
000100 77 c9 b3 3d 8b 5a d0 3d a2 a1 d9 3d 8a 43 8a 3c
       0.08778661 0.1017352 0.10626532 0.016877908
000110 09 19 8c bd fd 79 96 3c 19 99 d9 bd dc 05 07 3e
       -0.068407126 0.018368715 -0.10624904 0.13185829
000120 60 7b 50 3d 4b 17 f3 3d da e7 b6 bd 6d 92 d2 bd
       0.05089891 0.11869677 -0.08930941 -0.10281835
000130 51 ba da 3b a1 5f 0e 3c 85 97 58 3d 68 a6 5a 3d
       0.0066750427 0.008689792 0.052878875 0.053381354
000140 04 1e 7c 3d 58 ae 9b bd 1a 7e db bc 24 20 8c bc
       0.061552063 -0.07601613 -0.026793528 -0.01710517
000150 00 b4 f2 bc a6 93 19 bd 86 e0 5c 3d 34 d4 d2 3d
       -0.029626846 -0.037494324 0.05392506 0.10294381
000160 42 99 f8 bc 56 ee 93 3d c0 bd a2 3c 01 aa 8b 3d
       -0.030346517 0.07223193 0.01986587 0.06819535
000170 1f 32 f4 3d f6 38 2f 3d 68 f9 ee bd 00 fe 9b 3d
       0.11923622 0.04277893 -0.11668664 0.07616806
000180 94 c3 9b bd 2e 87 6b 3d 5c 17 fb 3d d4 10 71 bd
       -0.07605663 0.057501964 0.12260315 -0.05885394
000190 ba 38 fd 3d 58 7e 1b 3d 5f 71 d7 bd 8c 9a 0a 3e
       0.12364335 0.037962288 -0.10519671 0.13535517
0001a0 1a 87 30 bd a4 f4 f3 bd 3b 37 67 3d 01 63 be 3d
       -0.043097593 -0.11911896 0.056449156 0.09296227
0001b0 cc 16 e2 3d 16 4f c6 3d cc 1e ac bd c6 67 55 bd
       0.110395044 0.09683053 -0.084043115 -0.05210092
0001c0 26 00 e2 bd 74 75 16 3c 38 0d 09 bd 08 88 6b bd
       -0.110351846 0.009183276 -0.033459872 -0.057502776
0001d0 78 ac 9b 3d 31 62 e3 bd d1 9a bb 3d 00 fd d4 bd
       0.07601255 -0.11102713 0.09160388 -0.103998184
0001e0 1b f6 27 3c 17 de f5 3d 30 4a 86 bc a9 ae ca 3d
       0.010251547 0.12005251 -0.016392797 0.09896595
0001f0 da e1 39 3d 31 25 48 3c a8 47 04 3e 0a 51 8d 39
       0.045381404 0.012215898 0.1291796 0.00026953995
000200 6d 3f aa 3d e9 fc c7 bd ee 42 03 bd f9 4d 89 3c
       0.08312879 -0.09765036 -0.03204625 0.016760813
000210 13 d9 a2 3d 5a 1b f2 3c 32 7f b8 3d 45 6b d5 3d
       0.0795156 0.029554058 0.090086356 0.10420851
000220 40 3b 8b bd 2c f4 67 3d d4 23 5a 3d 96 f8 80 bd
       -0.067984104 0.056629345 0.053256825 -0.06297414
000230 ce 31 9e bd f1 b1 6e 3c 94 b7 12 3d 8b 87 bd bd
       -0.07724343 0.014568792 0.035819605 -0.092543684
000240 89 22 8c 3c a6 fe f1 bd a3 ed a4 bd 64 cc 36 3d
       0.017106311 -0.118161485 -0.08053138 0.044628516
000250 ab ab 91 bc c0 3a 9d bd 58 c6 81 3d ac a0 0d bd
       -0.017782053 -0.07677221 0.06336659 -0.034577057
000260 2e 56 a5 3d 2d ff fd 3d df 73 22 bd c7 97 25 3c
       0.08073078 0.124021865 -0.039661285 0.010106987
000270 08 df a6 bd e8 13 dc 3d 42 6f bb 3d 4f b6 46 3d
       -0.081480086 0.10745984 0.0915208 0.048513707
000280 4f 6b 2c bc 11 f8 61 3d 39 68 83 3d 58 93 8f bd
       -0.010523631 0.055168215 0.06416363 -0.070105255
000290 06 2e a4 bb 52 db df bd bb 05 db bd e4 48 97 bd
       -0.0050103692 -0.10930504 -0.106944524 -0.0738695
0002a0 0d 3e 0e 3d 7a ef ed bc 99 60 8c 3d 00 a0 45 3d
       0.034727145 -0.029044855 0.06854362 0.04824829
0002b0 7c 32 82 bd e8 77 20 bc 9b 66 aa bd 4e cb 62 bd
       -0.063572854 -0.009794213 -0.08320352 -0.055369668
0002c0 b6 17 1a bc eb cc 85 3d 52 47 e1 3d c0 13 88 bd
       -0.009405067 0.065332256 0.109999314 -0.06644392
0002d0 1c 72 ff 3d f8 99 bb 3d 9d dc aa bc 94 2b a5 3d
       0.124729365 0.091602266 -0.02085715 0.080649525
0002e0 2c fb bf 3d 6b 99 28 bd da 1d 95 3d b9 e2 19 bc
       0.09374079 -0.041161936 0.07281084 -0.009392434
0002f0 9b 51 a8 bb 4a b0 d3 3d c1 fc c5 bd 80 6a a1 bd
       -0.0051366813 0.10336359 -0.096673496 -0.078816414
000300 bb b7 7f bc cf 4a ca 3d 6c 7f f1 bd ea b7 78 3d
       -0.01560777 0.0987755 -0.11791882 0.06072227
000310 69 b2 b5 bd 76 d5 b3 bc 6d f9 81 3d cb 2e c9 bd
       -0.0887192 -0.021952372 0.06346402 -0.09823378
000320 f5 18 87 3d 32 9a c7 3d 8a 39 c1 bd 21 f2 15 bc
       0.06596557 0.09746207 -0.09434803 -0.009151966
000330 67 dd 38 3d 06 09 cc 3d 63 85 b1 3d 8a c8 ef 3d
       0.04513302 0.099626586 0.086680196 0.11708172
000340 d6 11 ab bd dc d9 66 3c 40 54 e0 bd ac b8 91 3b
       -0.08353011 0.014090028 -0.109535694 0.0044470634
000350 87 f9 d1 bc 5a 07 36 3d 9f 14 81 3d 86 f1 22 3c
       -0.02563168 0.044440605 0.06302761 0.009945279
000360 f7 cf c1 bd 82 e3 e0 bd df 95 1d 3d 29 35 c4 bd
       -0.09463494 -0.10980894 0.038473006 -0.09580452
000370 eb 02 c5 3d 15 be ca 3c 5c 42 ae 3d 65 4a 67 bc
       0.09619697 0.024748841 0.08508751 -0.014116858
000380 38 c9 8c 3d ce ea 80 bd db ed c2 3d 41 a4 bd 3d
       0.06874317 -0.062947854 0.095180236 0.092598446
000390 d9 9d bd bd b2 ed c0 3d 44 ac 42 bc 92 cf 19 bd
       -0.09258623 0.09420337 -0.011881892 -0.03755147
0003a0 10 58 70 bd b5 36 eb bd 30 8b d9 bc 4f cc 0c bd
       -0.058677733 -0.11485044 -0.026555628 -0.03437453
0003b0 a7 3f c2 bd be 61 af bd 5c 68 d0 3d cc 9c 2c 3d
       -0.09484797 -0.08563565 0.10176155 0.04214172
0003c0 61 66 80 bc 50 e3 37 3d 28 e6 c8 bd 27 9f 96 3d
       -0.015673818 0.044894516 -0.09809524 0.07354575
0003d0 9b 45 ec 3d 59 40 68 bd 1a 0d b3 bd 80 40 02 3d
       0.11536714 -0.05670199 -0.08742733 0.031799793
0003e0 51 60 9d 3d 88 d7 db 3d e8 31 be bd d7 cd 5c 3d
       0.076843865 0.10734469 -0.092868626 0.05390724
0003f0 b2 89 f6 3d 44 cf be 3d 71 8f 8c bd 0a 8d 8c bd
       0.12037982 0.093168765 -0.06863297 -0.068628386

gnn_layer_1.gconv.a_fc.bias f4 [64]
000000 d5 44 9b 3a 96 4c cf 3c ed b9 d0 bc bd e7 fd bc
       0.0011846075 0.025305074 -0.025479281 -0.03099429
000010 a3 a3 19 bd 78 5c f7 bc a7 2e 14 bd 7a d9 b8 3d
       -0.03750957 -0.03019546 -0.036177304 0.09025855
000020 ff 03 46 3c 7d 9f 1d bd 4e 91 0f bd bd 1d 03 3e
       0.012085914 -0.038482178 -0.035050683 0.12804313
000030 72 b3 69 bd 4c 63 07 bd ad a3 17 3d 1b 00 30 bd
       -0.057055898 -0.03305368 0.037021328 -0.04296885
000040 06 2c bf bd 81 9a 51 bc 6f 29 da bd 30 33 e8 bc
       -0.09334569 -0.012793184 -0.10652434 -0.02834472
000050 ca a3 13 3c b3 fb 32 bd bb 30 ea bd 63 61 f3 bd
       0.009011218 -0.04369707 -0.11435076 -0.118838094
000060 65 8d ec bd a4 dc 86 bd 44 7c a4 bd a2 25 8e 3c
       -0.11550406 -0.065850526 -0.08031514 0.01735193
000070 4d 90 d3 bd 75 2d d1 bd 28 c3 8f 3d 10 7a 0c 3e
       -0.103302576 -0.10213748 0.07019645 0.13718438
000080 f9 b7 8e bd b1 d1 66 bd 03 df a4 3d 17 74 84 bd
       -0.06968684 -0.05635232 0.080503486 -0.06467455
000090 fc cb a6 3d 10 02 88 bd 31 de 66 3d 8d c9 00 be
       0.08144376 -0.066410184 0.056364242 -0.12576886
0000a0 a9 37 74 bd f7 5f d0 3d 82 72 fc 3d 5c 8f d6 3d
       -0.059623394 0.10174554 0.12326528 0.104765624
0000b0 d9 53 bd bd 61 3f ed 3c 36 6c 25 3b 6c be 6b 3d
       -0.09244508 0.028960885 0.00252415 0.057554647
0000c0 74 09 16 bc 47 61 bc 3d a8 6a 22 bd 86 1c 02 be
       -0.009157527 0.09198242 -0.039652497 -0.12706193
0000d0 9e ef c6 bd e3 01 d4 3d f6 45 c5 3c fc 74 8e bd
       -0.09713672 0.10351922 0.024081212 -0.06955907
0000e0 4d e3 8c 3d f9 c2 93 bd 37 cd f4 3d 42 01 67 bd
       0.06879292 -0.072149225 0.11953204 -0.056397684
0000f0 96 db 01 3c e2 0e 3a 3d f8 13 af bd 62 db d5 3d
       0.0079258885 0.04542435 -0.085487306 0.104422346

gnn_layer_1.gconv.u_fc.weight f4 [64, 64]
000000 fb 08 98 3d 54 52 8a 3d c0 eb ba 3b 1c 51 38 3d
       0.07423588 0.06753984 0.005704373 0.044999227
000010 ca bb b4 3c 98 85 d4 bc fe 22 a7 3d e5 aa ae bd
       0.022062201 -0.025942609 0.08160971 -0.08528689
000020 16 9a 40 3d 68 81 b9 3b 02 4a 3f ba 5c 52 90 3d
       0.047021948 0.0056611784 -0.00072971 0.07046959
000030 26 0a 1b 3d ee 31 54 bd d0 ad bc bd e1 18 10 3d
       0.037851475 -0.05180543 -0.092128396 0.035179976
000040 54 72 90 bd 12 1b 58 3d c3 a2 a8 bd 56 11 0a 3c
       -0.07053056 0.05276019 -0.08234169 0.008426985
000050 7a 99 c4 3d e8 bc 27 3c 9c ab 10 bd ae 82 72 bd
       0.09599586 0.01023791 -0.03531991 -0.059206657
000060 33 5d ad 3d 43 21 0a bd bd 85 67 bd 22 5e da 3d
       0.08465042 -0.033723127 -0.056524027 0.10662486
000070 7d 73 09 bd 0c 0f b0 3d 60 8f 13 3c 58 05 be bb
       -0.033557404 0.0859662 0.009006351 -0.005798977
000080 6f 71 bd bd 00 36 ee bc a9 fb cc bd 86 b0 7c bd
       -0.09250151 -0.029078484 -0.10008938 -0.061691783
000090 62 39 d4 bd 78 3d cf 3c 5c 5e d8 bd a7 95 21 3c
       -0.103625074 0.025297865 -0.105648726 0.00986234
0000a0 e7 b4 10 bd a2 f9 d5 3d 7f fc 02 bd ec 65 32 3d
       -0.035328772 0.10448004 -0.03197908 0.04355423
0000b0 e4 4c ed bd 30 d4 ad 3c ab cd b2 bd 14 89 c2 3d
       -0.11586931 0.021219343 -0.08730634 0.09498802
0000c0 53 1e 59 3d 78 eb 68 3d 42 51 83 bd d1 e3 48 bd
       0.053007435 0.056865185 -0.06411983 -0.049045388
0000d0 64 7a 62 bd 94 54 7e 3d 02 14 c0 bb bd 58 a3 bd
       -0.055292502 0.06209238 -0.00586176 -0.0797591
0000e0 81 20 ac 3d 30 5f 6a 3c 08 e1 fc bd fc 46 5b 3d
       0.08404637 0.014304921 -0.12347609 0.053534493
0000f0 46 71 fc bd f9 9f f7 3c 4b fb dd 3d 47 6d c8 3c
       -0.12326293 0.030227648 0.10838946 0.02446617
000100 92 02 d6 3d 3a 5b fc bd b1 eb c9 bd 34 66 13 3d
       0.10449709 -0.123220876 -0.09859408 0.03598614
000110 94 71 9f 3d f9 99 ab bd 23 0d e4 3c 11 39 95 bd
       0.07785335 -0.08378977 0.027838295 -0.07286275
000120 06 e8 6b 3d 24 94 dd bc a3 32 c0 bd 54 4b 79 bd
       0.05759432 -0.027048178 -0.09384658 -0.060862854
000130 f1 49 03 3e 5e e6 86 bd 2e 62 06 3e 27 df fb 3b
       0.12821175 -0.06586908 0.1312339 0.007686514
000140 66 38 9d 3d 2b 95 cb 3d 14 8f e6 bc 72 f3 8c 3d
       0.07676773 0.09940561 -0.028144397 0.06882371
000150 9b ec fa 3d 4d fb d6 3b 7f fd 14 bd 46 47 96 3d
       0.1225216 0.006560719 -0.036374565 0.07337813
000160 a5 14 2a bd cd cb 23 3d a4 00 ec bd 1a 5f 9a bd
       -0.041523594 0.03998928 -0.1152356 -0.075376704
000170 2e 42 41 3d 35 76 e1 bd 74 db 90 3d e0 98 41 bd
       0.047182254 -0.11008874 0.07073107 -0.047264934
000180 c3 71 e8 bc cd 50 02 3e 3e a2 82 bd cf 6f a0 bd
       -0.028374558 0.12726136 -0.063786015 -0.07833826
000190 c2 95 91 bd 47 a4 ca 3d 60 95 da bd 11 a5 56 bb
       -0.07108642 0.09894615 -0.10673022 -0.0032752196
0001a0 38 d7 f0 3d 87 71 d2 bc 29 ea a7 3d 54 b7 cd bd
       0.117598 -0.0256889 0.081989594 -0.10044733
0001b0 a9 95 ac bd 96 a8 82 bd 34 d7 9e bd 6f b6 e5 bd
       -0.08426983 -0.063798115 -0.077558905 -0.11216437
0001c0 47 46 a5 bd 5e f3 d2 bb 9e b3 97 3d 78 ac 6d bd
       -0.08070045 -0.006437703 0.07407306 -0.058025807
0001d0 c8 46 d1 bd 4b 2a 37 bd f6 fc c7 3d ce 52 5d bd
       -0.102185786 -0.044718068 0.09765045 -0.054034047
0001e0 57 53 9b 3d 28 eb 47 bd ea ca 80 bc a3 08 08 3c
       0.07584255 -0.048808247 -0.015721757 0.00830284
0001f0 a6 9d d4 3d 46 78 fa 3d e4 65 8a bd 72 e0 05 bb
       0.103816316 0.122299716 -0.06757715 -0.002042797
000200 76 14 b6 bd af d9 c0 3c 65 47 1b 3c f5 90 4b bc
       -0.08890621 0.0235413 0.009477471 -0.012424697
000210 45 87 c6 3c b0 c0 18 bd b0 63 78 bd 80 48 00 bd
       0.024234423 -0.037293136 -0.060641944 -0.03131914
000220 a5 25 a3 bd c2 0f b8 bd c4 61 57 3d 16 61 78 3c
       -0.079661645 -0.089873806 0.05258347 0.015159866
000230 45 2b 98 bd c0 9a e8 3d ba 01 d8 3d c6 67 8c bd
       -0.07430128 0.11357641 0.10547204 -0.06855731
000240 a6 4e 0a 3c 38 dd 16 bb 1e df 8e 3d 58 a1 45 bd
       0.008441603 -0.002302004 0.0697615 -0.048249573
000250 e8 98 0d bc 30 1f a5 3c 12 93 8c 3d 7e 7a 69 bd
       -0.008642413 0.020156473 0.06863989 -0.057001583
000260 32 21 07 bc e0 6c 2b bd 4e 6f 86 3d a2 27 b8 3c
       -0.0082476605 -0.04185188 0.065641984 0.022479836
000270 7e eb 1f 3d 16 9f 62 3d dc 15 b8 3d df 95 0c 3d
       0.039042942 0.055327497 0.08988544 0.034322616
000280 9e d3 eb bc ce 41 50 3c 32 79 3d 3c cd eb 46 bd
       -0.02878743 0.012711002 0.01156454 -0.04856472
000290 73 0f 64 bd fa 03 97 3d 13 c6 80 bd 9e 97 00 be
       -0.055678796 0.07373805 -0.0628778 -0.12557837
0002a0 aa bb 5d 3d eb 21 98 3d c3 0a 4e 3d 9e d5 93 bd
       0.05413405 0.07428344 0.050303232 -0.072184786
0002b0 83 2d 73 bd 72 14 13 3c e7 06 1c bb 0c 03 ad 3d
       -0.059369575 0.0089770425 -0.0023807825 0.08447847
0002c0 bd cf d0 3c 33 33 64 3d 12 5a f1 3d fe 43 00 bd
       0.025489682 0.05571289 0.11784758 -0.031314842
0002d0 f2 f8 5f bc 95 af 53 3b f1 79 b5 bc 8f cf 66 3d
       -0.013670193 0.00323007 -0.022152873 0.056350287
0002e0 13 12 ee bd ba 73 ce 3d 64 50 1f 3d 0b c1 5c 3d
       -0.11624541 0.10080667 0.038895026 0.053895038
0002f0 cd 88 de 3d 4a 9a 64 3d 8b 70 df bd 4b ee 19 3c
       0.108659364 0.055811204 -0.10910138 0.009395192
000300 9a 60 b5 bc ea 8c a4 3d bf 7f c4 3d 65 2b e7 3d
       -0.02214079 0.0803469 0.09594678 0.11287574
000310 77 48 ce bc 73 7d 82 3d f8 d4 ba bd 6a c9 df bd
       -0.025181038 0.06371584 -0.09122652 -0.109270886
000320 24 dd c0 3d b8 0c e9 bd 32 9c 04 3d 3c 61 f7 3d
       0.09417179 -0.11379379 0.032375522 0.12079093
000330 03 29 cd bd cd 77 9d 3d 0a c7 f8 3d f4 c4 92 bd
       -0.10017588 0.07688866 0.12147339 -0.07166472
000340 e1 10 bb bc a5 4c 85 3d 1b 89 98 bd 07 3a fd 3d
       -0.022835197 0.065087594 -0.07448026 0.123645835
000350 e9 25 9c bd 72 ac c0 bd 52 79 54 3d 62 22 87 3d
       -0.07624418 -0.09407891 0.051873513 0.06598355
000360 06 36 2f bd 30 24 ab 3d 6b 76 0d 3e 81 08 6e bb
       -0.04277613 0.083565116 0.13814704 -0.0036320987
000370 a2 af e2 bd 9d 5f d3 bc 5a a8 c1 bd 89 83 c0 3d
       -0.110686556 -0.025802428 -0.09455939 0.09400088
000380 4c 6f 97 bd b8 07 0b bd 4f 16 48 3d 27 e1 92 bd
       -0.07394275 -0.033942908 0.0488494 -0.07171851
000390 20 ee ce bc dd 61 7a bd 20 d0 de 3d e2 a4 02 3d
       -0.025260031 -0.061128486 0.108795404 0.031895526
0003a0 86 6a fb bc f6 31 81 3d 5a 70 37 3c 46 dc 0b bc
       -0.030690443 0.063083574 0.01119622 -0.008536404
0003b0 7e 1d 27 3d e7 c4 7a 3b b4 ea be 3d 1b 9a 04 3e
       0.04079961 0.0038264336 0.0932211 0.12949412
0003c0 c6 0e da bd 09 f7 e0 3d 68 da df bc 0e 39 3c bc
       -0.10647349 0.10984618 -0.027325824 -0.011488212
0003d0 3b 31 b4 bd 33 4c 24 bd 7a 16 02 be 0c 19 45 bd
       -0.087984525 -0.04011173 -0.12703887 -0.04811959
0003e0 ad 80 e3 3d c8 a0 a4 3d 81 8d da bd b0 0d ba 3d
       0.11108527 0.08038479 -0.10671521 0.09084642
0003f0 3d 6f 16 3e 29 e6 83 bd 6a 92 c1 3d b9 e3 d8 bd
       0.14690872 -0.06440384 0.094517544 -0.1059031

gnn_layer_1.gconv.u_fc.bias f4 [64]
000000 9d b7 c2 3c eb 94 7e bc 24 5f ce bd 33 fb ae bd
       0.023769194 -0.0155384345 -0.100767404 -0.08544006
000010 ab 72 d1 3d e4 ed 0d bd d7 6a a3 3d f3 90 af 3d
       0.10226949 -0.0346507 0.079793625 0.08572569
000020 f4 84 6a bc d3 5c 9c bd 37 64 bf 3d 91 ac f1 bd
       -0.014313925 -0.07634892 0.09345286 -0.118004926
000030 14 46 75 bd 9d bc bb 3d 75 af 0f ba 21 80 d7 3d
       -0.059881285 0.091668345 -0.0005481162 0.105224855
000040 86 6f be bd 85 00 b2 bd 76 67 9d 3d 82 06 9f 3d
       -0.09298615 -0.08691505 0.07685749 0.07764913
000050 bf f7 93 bd 97 b0 9c 3d 8d d0 af bd 1a bf 12 bd
       -0.07224988 0.07650869 -0.085847 -0.03582678
000060 04 c8 b3 bd d4 90 03 3e c4 60 fd bd 45 0d b5 3d
       -0.08778384 0.12848216 -0.12371972 0.088404216
000070 56 5d 1c bd fa a8 4d 3c 1b 09 ae bd 54 52 61 3d
       -0.03817495 0.012552494 -0.084978305 0.055010155
000080 e9 7d 26 3c 65 61 f3 3c cd 23 34 3d a3 da 0d bc
       0.010161855 0.029709527 0.043979455 -0.008658084
000090 5b 03 c6 bd f0 1b 79 3c ea 4e 5b 3c 1c 36 96 bd
       -0.09668609 0.015204415 0.013385514 -0.07334539
0000a0 4d cf 9a bd a7 b0 5c bd fc 57 8c bd fb 65 fe 3d
       -0.07559071 -0.053879406 -0.06852719 0.12421795
0000b0 e6 a9 94 3d 5b 3b ef bd 5e 25 00 3e e6 9a 1d 3d
       0.07258968 -0.11681243 0.12514254 0.0384778
0000c0 df 06 27 bc 3d 9c 15 bc a1 5f 95 3d 85 1e 82 3d
       -0.010194509 -0.009131488 0.072936304 0.063534774
0000d0 3f bf 03 bd a9 82 fb 3d 58 6b cb bc 9f 81 4b bd
       -0.03216481 0.12280781 -0.024831459 -0.049684163
0000e0 a6 98 6a 3d 35 8b 31 3d c0 93 d0 bc 60 66 ef 3b
       0.057274483 0.04334565 -0.025461078 0.007305905
0000f0 0c 2b 35 bd 88 e6 a1 3c 72 22 d1 3d dc 53 62 3d
       -0.044230506 0.019763246 0.10211648 0.055255756

affinity_1.A f4 [64, 64]
000000 c1 36 87 3f 9a fc 85 3d be 82 e3 3d 02 de 97 3d
       1.0563585 0.065423205 0.111089215 0.074153915
000010 5c 3c b0 3d 60 4a db bb 0a 19 f0 bd 00 67 6a bd
       0.08605263 -0.006692216 -0.11723526 -0.057227135
000020 ea 49 c1 3d b0 dd cb 3c d8 2e 3a bd 4c 3f b6 bd
       0.09437926 0.024885982 -0.04545483 -0.08898792
000030 bc 88 b6 3d b4 f1 80 bd f0 d8 fd bd 60 5c eb bd
       0.08912799 -0.06296101 -0.12394893 -0.114922285
000040 7a 4a 93 3d fc 25 78 3d aa 22 e6 3d f8 dd ab bc
       0.0719194 0.0605831 0.112370804 -0.020979866
000050 80 76 56 bc 0a b4 cc 3d 8c 7f 34 3d 96 9b 98 bd
       -0.013089776 0.09995277 0.04406695 -0.07451551
000060 f8 2e 0f bd 40 f2 7f 3b c6 3b bb 3d 9e c1 f3 bd
       -0.034956902 0.0039054304 0.0914226 -0.11902164
000070 30 e4 1e bd f0 6a 6b 3d 38 6f 2e bd ac 29 77 bd
       -0.038791835 0.05747503 -0.042586535 -0.060342476
000080 34 84 fa bd d8 a6 60 3d 36 7a 9d bd 70 d3 77 bd
       -0.12232247 0.054846615 -0.076893255 -0.060504377
000090 a0 f4 2f 3c c8 d7 d5 bc c2 97 9c bd 46 29 ee 3d
       0.0107394755 -0.02610387 -0.07646133 0.11628966
0000a0 00 22 ab bc b0 4a 97 3c c0 dd 2d bc 10 8a 49 3c
       -0.020890236 0.018468231 -0.010611951 0.012300983
0000b0 6c c8 d5 bd 00 e8 5a 3d 5c 3b f4 bd de 23 f6 3d
       -0.10438618 0.05344391 -0.119253844 0.1201856
0000c0 28 d6 85 bd 24 fd c8 3d 20 75 02 bc 64 75 69 bd
       -0.06534988 0.09813908 -0.007962495 -0.056996718
0000d0 6e 3b b7 3d a4 a6 2d 3d 40 8b 27 bd 58 d7 b7 bc
       0.08946882 0.04239525 -0.040904284 -0.022441551
0000e0 88 73 05 bd 80 a5 a6 3d 08 99 ee 3d 00 98 44 3c
       -0.032580882 0.08137035 0.11650282 0.01199913
0000f0 48 36 1a 3d 38 9b b5 bc 48 5c 8f 3c 02 72 f3 3d
       0.037649423 -0.02216874 0.017500058 0.1188698
000100 7c b0 a9 bd 75 f4 84 3f d6 36 88 3d d8 85 a3 3c
       -0.08285615 1.0387102 0.06651084 0.019961283
000110 3e 2c db bd a6 a0 cc bd f4 8d da 3d 40 0b 6a bd
       -0.10701798 -0.09991579 0.10671607 -0.057139635
000120 00 c7 69 bb b0 4e 25 3d f0 86 52 3d 38 dc e9 bd
       -0.0035671592 0.040358245 0.051398218 -0.114189565
000130 78 40 19 3d ca e7 bf bd 30 62 6e 3d fa e9 f5 3d
       0.037414998 -0.09370382 0.058199108 0.12007518
000140 b0 f6 05 3d d2 89 ef 3d 00 1f e7 3b c4 ec 2d 3d
       0.032705963 0.11696209 0.007053256 0.042462125
000150 ea 35 e6 3d 16 98 e2 bd 9a b3 d0 3d 66 1f 84 bd
       0.11240752 -0.11064164 0.10190506 -0.06451301
000160 20 ea 4e bc 8c 67 10 3d 78 12 11 bd 0a b2 a6 bd
       -0.012629062 0.035255 -0.035418004 -0.08139427
000170 98 63 e0 3c 80 bd 65 bc 24 60 8f bd 00 e2 57 3a
       0.02739124 -0.014022231 -0.07000759 0.0008235276
000180 80 f2 62 3d 30 db f0 3c 0c 5e ed 3d 80 c4 6d 3b
       0.055407047 0.029401392 0.11590204 0.0036280453
000190 c8 37 82 3d a0 06 83 3d e8 63 d3 3c 7a e7 b4 bd
       0.06358296 0.06397748 0.025804475 -0.08833213
0001a0 58 bf e6 bc 6c d4 a0 3d ba 5a 8d bd 50 c5 58 3d
       -0.028167412 0.07853016 -0.0690207 0.052922547
0001b0 9e a4 f6 bd ac df 99 3d a4 87 05 bd 74 e0 b2 bd
       -0.12043117 0.07513365 -0.03260006 -0.08734217
0001c0 48 ab 9e 3c 10 09 93 bc 70 73 7f bc 98 1b 51 bd
       0.019368783 -0.017948657 -0.015591487 -0.051051706
0001d0 80 03 82 bd 38 db b0 3c 38 a8 32 3d 8a 2a e9 3d
       -0.06348324 0.021588907 0.043617457 0.11385067
0001e0 06 8d e2 3d 02 23 8d bd 3a f3 ee 3d c2 62 ff bd
       0.11062054 -0.06891443 0.116674855 -0.124700084
0001f0 0c e7 cb 3d 32 dd d6 3d a6 8c ed 3d a8 e2 b2 3c
       0.09956178 0.104914084 0.11599092 0.021836594
000200 d0 53 87 bc e8 bb a6 bd 53 08 86 3f 9c ab 4b bd
       -0.016519457 -0.08141309 1.047129 -0.049724206
000210 f4 9f 71 bd a4 e0 01 bd d8 6b a9 3c fe d0 f8 bd
       -0.058990434 -0.031708375 0.020681307 -0.12149237
000220 04 de 8f bd e4 8b 0a bd 20 2f de 3d 30 af c4 3c
       -0.07024768 -0.033824816 0.10848832 0.024009317
000230 a8 37 85 bc d0 de 3a 3c f6 8b eb bd d0 05 68 3c
       -0.01626189 0.011405662 -0.11501305 0.014161542
000240 e4 61 73 bd 40 e6 ab bc 88 74 e7 3d 40 8c 7f bd
       -0.059419528 -0.020983815 0.113015234 -0.062389612
000250 b0 2e 44 bd 12 e4 d1 3d 88 d0 1b bd 0e 04 90 3d
       -0.047896087 0.10248579 -0.038040668 0.07032023
000260 26 79 ca 3d 60 c3 4b 3d 40 02 0b bc 64 ce 9e 3d
       0.098863885 0.04974687 -0.008484423 0.0775421
000270 d0 cc 9b bd ec cf fd 3d 08 da 8d bc 8a 01 ed bd
       -0.07607424 0.123931736 -0.01731588 -0.11572559
000280 b0 ff c5 3d 8a 8c a5 3d 98 e9 65 bd dc 36 5e 3d
       0.09667909 0.08083446 -0.056130975 0.054251537
000290 96 d6 f1 bd 6c e1 c8 bd 50 56 04 3c 10 cb 86 3d
       -0.11808507 -0.09808621 0.008077219 0.065817
0002a0 32 57 b5 bd a6 5f ca 3d 80 c8 bb bd 16 3f d2 bd
       -0.08854522 0.09881525 -0.09169102 -0.10265939
0002b0 5a 17 dd 3d 22 5d c9 bd f4 44 de 3d 30 98 6c 3d
       0.107954696 -0.09832217 0.108529955 0.057762325
0002c0 0c 27 7e bd 1a 86 f5 bd b8 e1 26 bd b0 aa 4d 3c
       -0.062048957 -0.119884685 -0.040742606 0.012552902
0002d0 c0 03 ef 3c 20 2a 22 bc f0 23 07 3d 28 bd ef 3d
       0.029176593 -0.009897739 0.032993257 0.117060006
0002e0 c4 44 44 3d 48 57 fc 3c 40 3b 18 3c 5c 9a 8f bd
       0.047917143 0.030803338 0.00929147 -0.070118636
0002f0 3c 8b 48 3d da 1b 9f bd 00 06 87 ba d0 e4 47 3d
       0.04896091 -0.07768984 -0.0010301471 0.048802197
000300 30 42 1e 3c 24 d9 cc bd c0 70 1d 3b fa 6f 7d 3f
       0.009659335 -0.10002354 0.0024023503 0.9899899
000310 c4 89 28 bd d8 eb bf bd d0 20 82 3c 78 a2 a4 3d
       -0.04114701 -0.093711555 0.015884787 0.08038801
000320 c0 63 2b 3d 80 76 b0 3b b4 dc 25 3d 90 05 de 3d
       0.041843176 0.00538522 0.040493682 0.10840905
000330 08 c7 88 bd bc c2 3d bd 44 8f 30 3d f8 08 96 3c
       -0.06678587 -0.04632829 0.04310538 0.018314824
000340 50 94 fb bd 86 81 ee 3d cc dd b8 3d 40 ab 00 3b
       -0.12284148 0.116457984 0.090266794 0.0019633323
000350 32 b8 dd bd a0 86 99 3d 0c a5 87 bd 7c 52 76 bd
       -0.10826148 0.07496381 -0.06623277 -0.060137257
000360 10 4d 53 3c b8 1f ec 3d 40 7e 47 bb 82 d5 d5 3d
       0.012896791 0.11529487 -0.003044024 0.10441114
000370 fc 8f 4f 3d 36 ed bf bd 78 65 a5 3c 02 40 b4 bd
       0.050674424 -0.09371416 0.020189986 -0.08801271
000380 80 01 6c bc 0a 23 a9 bd 30 68 9e bd c8 65 cd 3c
       -0.0144046545 -0.08258636 -0.07734716 0.025072947
000390 32 02 a3 3d a0 d3 61 3d 84 9c 6d bd 4e b5 99 3d
       0.07959403 0.055133462 -0.058010593 0.07505284
0003a0 64 46 ff bd 10 a3 8a 3d 66 99 e7 bd 1a 9c d3 3d
       -0.12464598 0.06769383 -0.11308555 0.103325084
0003b0 34 45 8f bd a8 01 8c 3d f0 c0 28 bc 3c da 5e 3d
       -0.06995621 0.068362534 -0.010299906 0.054407343
0003c0 94 6e 62 bd ea 82 d8 3d b0 5a 92 bd 30 ee 75 3c
       -0.055281237 0.10571845 -0.071462035 0.015010402
0003d0 e2 9e c2 bd 74 8f e5 bd 70 92 88 bc 10 98 43 bd
       -0.09502961 -0.11209002 -0.01667139 -0.04775244
0003e0 46 ae 8b 3d 6c 28 fa bd c4 02 b9 3d 6a 5f fc 3d
       0.068203494 -0.12214741 0.090337306 0.12322886
0003f0 06 e4 a2 3d 12 eb df bd 10 0d 32 bd cc 10 aa 3d
       0.07953648 -0.10933508 -0.04346949 0.08303985
