ThinkMatch/exp/pca/CV2/saved_models/model.pt (torch, 216498 bytes, 17 tensors)

gnn_layer_0.gconv.a_fc.weight f4 [64, 121]
00000000: a567 82bc 6a58 1a3c 3fd6 813d 5fff c93b
00000010: 9bc5 5dbd 825f 493d 3951 da3c db08 6c3c
00000020: 9588 cd3d 7b9a 2a3d 1df0 603d abec 8ebd
00000030: cd59 1bbd c14c de3c ae1b 68bc 7425 27bb
00000040: c9e2 3b3d 1a6f 193d c2ad 293d 53d6 893d
00000050: f8a2 ab3d 2c97 4a3c 6d32 af3c 9d22 053d
00000060: 969a acbd 97ea 763d d6be 88bd ac81 693d
00000070: f677 953b 0de5 47bd f090 c23c bca7 c23d
00000080: 1869 6b3d ce05 91bd abaf 643d 7bac e6bc
00000090: 9863 383c a964 8abd b6ea 61ba bb4f 79bd
000000a0: 89af a7bc e7f8 903d b8fa 993d 46dd b9bd
000000b0: f534 58bd 06d7 d1bc 2d30 a1bd d682 11bd
000000c0: 92d1 96bd 1984 993d 040d a53d c3a5 4e3d
000000d0: a057 71bd 1afe 973d 2739 8fbd e21a 633d
000000e0: dd74 93bc e46c 863d 848b 54bd 0aa9 5dbc
000000f0: f492 a3bd 282f 74bd 3dd6 1ebd 6a88 a0bd
00000100: 1b18 1dbd 54dd 8bbd 8f20 563d 43eb 383d
00000110: 75c8 b43d 316d c53d 7d3f 6bbd 0e4f 923c
00000120: 12fa 953d e6f1 833d 8f99 cabd 22c1 483c
00000130: efe9 41bd b70c debc b598 9d3d cefc 653b
00000140: ac3e 5bbd 2df3 743d f0ab f93c ac30 5dbd
00000150: f6c3 883b b2db cdbb 0708 99bc 1ff1 b53d
00000160: 2bd4 b93d bcd4 c83c 6b17 73bd 733b fabc
00000170: fc3d 8a3c b9ca af3b 92fc f23b 581c 493c
00000180: cc4a 673d 515b cdbd c6a4 33bd e21d 1cbd
00000190: 4965 a1bd 6f92 23bd b893 013b 1c61 0c3d
000001a0: 05d8 25bb dca1 7bbd d584 3b3d 506d 353d
000001b0: 5315 8a3d 2338 433d eb59 c8bd b7a4 e9bc
000001c0: 4468 873b 3b04 c4bc 2099 c2bc 5300 913d
000001d0: 8401 493d a2c4 e63c b081 c43d 18a4 f1bd
000001e0: 352e c33d 9d88 223d fc7f 0d3d ac5f a9bd
000001f0: 6baf 9a3d 3e31 8f3d 09f4 aebc a16d 8f3d
00000200: 3792 003d d932 b63d bf58 4fbc e3ff 543d
00000210: 37ab eabc 74e1 c8bc dd42 e9bc 239e 363d
00000220: 3f72 6ebd b2da 97bd 9af2 13bd 113f 9f3c
00000230: 4fa8 a23d 3cac dcbc 7870 a13d 9c88 b83d
00000240: 9d47 413d 4122 813c 4717 803c 573c 933c
00000250: b0c6 ac3d 062a abbd 5421 c8bc 83f4 193d
00000260: 930e 51bc 9e4e 4c3d f3ff 98bc 5b33 533c
00000270: 9d58 b83d 686f 87bc 90bc 073d ac42 ad3d
00000280: c937 293c 4407 a2bd 1e14 883d ae53 9abb
00000290: 932e 673d 9719 8bbd a2c3 313d 5888 0c3d
000002a0: 2b24 603d 4604 c53d 5755 953d af62 5abd
000002b0: de0a d53c e0f1 80bd 0918 333d 6c06 c73d
000002c0: 6b76 9d3d c92b 1a3d c10c c63d 175e 82bc
000002d0: 4d8f 293b 8ef0 753d 713a 583d 3172 313d
000002e0: b61e 9bbd f43e 853d 33dd 93bd 743a 9a3c
000002f0: 204b e9bb bbf5 9abd b13d c13d d2e1 df3b
00000300: a974 2bbd ecdb 173d 8ef5 603d 1551 913d
00000310: 88e9 bdbd cc9a 7abd 9c79 663d f5cd 5abc
00000320: b26e 193d e870 72bd dbc4 893d 2a7c 643d
00000330: 1d76 06bb 420d 9c3d 504e 1bbd 76dd 003e
00000340: 0616 e83c 81df 97bc 77e8 133c e363 a13d
00000350: 0910 423d 077a 6ebd 2a43 1e3d d581 8abd
00000360: ec72 bbbd 0620 893d 4785 a5bb 7b61 de3c
00000370: dca9 62bc a74a e53c 315b 903d d996 c2bd
00000380: 685c 24bd 4288 8b3c 5920 b5bb 13b5 debc
00000390: e132 aabc af8e 8abd 988a 953d a86c 75bc
000003a0: c53f 7cbd e690 90bd a4a5 383c 0751 bfbb
000003b0: c60d 883d a3c3 2cbd 51f6 57bc 42cb c63b
000003c0: 2b9a 993c 6eb2 b9bd 0cc0 3cbd 3713 5abd
000003d0: 1e30 50bd ac02 ce3c bb24 2639 e4ef 0abc
000003e0: afc0 70bd 2c81 3e3d 379d 3cbc 6757 1c3c
000003f0: 3913 8abd 8283 96bd 3ae5 473b 56de 9dbd
-0.015918562 0.009420494 0.06339692 0.006164476 -0.05414353 0.04916335 0.026650058 0.014406408
0.100358166 0.04165123 0.05491649 -0.069787346 -0.037927438 0.027136208 -0.014166756 -0.0025504502
0.045870576 0.03745947 0.041425474 0.06730332 0.08380693 0.012365144 0.02138635 0.032503713
-0.084279224 0.060282316 -0.06677024 0.05700843 0.0045614196 -0.048802424 0.023750752 0.09504649
0.057473272 -0.07081185 0.055831593 -0.028158417 0.011254214 -0.06757481 -0.00086180435 -0.060867053
-0.020469444 0.07078724 0.07518524 -0.09075408 -0.05278488 -0.025615226 -0.07870517 -0.035525165
-0.07364191 0.07495899 0.08059123 0.05045105 -0.058921456 0.07421513 -0.06993323 0.05544556
-0.01800006 0.06563738 -0.051890865 -0.013529072 -0.079870135 -0.059615284 -0.038778532 -0.07838519
-0.038353067 -0.06829324 0.052277144 0.045146238 0.08827297 0.09639967 -0.057433594 0.017859962
0.07323088 0.06442623 -0.0989257 0.012253078 -0.047342237 -0.027105672 0.07695142 0.003509331
-0.053526565 0.059802223 0.030477494 -0.054001495 0.004173751 -0.0062822932 -0.018680586 0.08883881
0.09073671 0.024515502 -0.059348505 -0.030545926 0.01687526 0.0053647426 0.0074153626 0.012274824
0.056467816 -0.10027183 -0.043858312 -0.038114436 -0.07880647 -0.03993457 0.0019771885 0.0342723
-0.002530576 -0.061433658 0.045780975 0.0442937 0.067423485 0.047660958 -0.097827755 -0.028520925
0.0041323025 -0.023927798 -0.023754656 0.0708014 0.04907371 0.028169934 0.095950484 -0.117988765
0.09530298 0.039681066 0.034545884 -0.08270201 0.075529896 0.06991814 -0.0213566 0.07003332
0.03138944 0.08896417 -0.012655436 0.052001845 -0.028646095 -0.024521567 -0.028474266 0.044584405
-0.058214422 -0.0741476 -0.036120035 0.019439252 0.079422586 -0.026937596 0.0788278 0.09010431
0.047187436 0.015763404 0.0156361 0.017973108 0.08436334 -0.08357625 -0.024429955 0.0375867
-0.012759822 0.049879663 -0.018676734 0.012890662 0.09001277 -0.016532615 0.03313881 0.08459982
0.010328242 -0.07911542 0.06644462 -0.0047096824 0.0564409 -0.0679199 0.04339946 0.034309715
0.054721992 0.09619956 0.07291668 -0.05331677 0.026006158 -0.06296134 0.043724094 0.09718022
0.07688602 0.037639413 0.09670401 -0.015914006 0.0025872767 0.060043864 0.05279011 0.043321792
-0.07574217 0.06506148 -0.07219925 0.0188267 -0.0071195513 -0.075664006 0.09435595 0.00683234
-0.041859303 0.03707497 0.05492168 0.07095543 -0.09273058 -0.061182782 0.05626832 -0.013354768
0.037459083 -0.059189707 0.06727 0.055782475 -0.0020517178 0.07619716 -0.03791648 0.1258448
0.028330814 -0.018539192 0.009027592 0.0788038 0.047378574 -0.058221843 0.03863827 -0.06763045
-0.09152779 0.06695561 -0.0050512883 0.027146092 -0.013834443 0.027989699 0.070486434 -0.09501428
-0.040127188 0.017032746 -0.005527538 -0.027185952 -0.020776214 -0.06765496 0.07301825 -0.014979519
-0.061584253 -0.07058887 0.011269961 -0.0058385166 0.06643252 -0.04217876 -0.013181285 0.0060667107
0.01875027 -0.09067236 -0.046081588 -0.05324098 -0.050827138 0.025147758 0.00015844677 -0.008480046
-0.058777507 0.046509907 -0.011512092 0.009542323 -0.06741948 -0.07349302 0.003050162 -0.07708423

gnn_layer_0.gconv.a_fc.bias f4 [64]
00000000: 3033 9ebd 8adc 293c 4e0b 453b 6191 453d
00000010: 4c75 a5bd f7e7 963d d8f1 79bb e8ac 2bbc
00000020: 6c24 3e3b 6416 40bd 3e4d 5fbd 98d1 9b3c
00000030: 8c84 f0bc 50b7 39bc d86d b5bd ef96 e23c
00000040: f1cb 653c fc8f c93d af2a a0bd 0be5 aa3d
00000050: 3b09 52bd 6b70 13bc 3bf6 e13c 1e05 d5bc
00000060: 6014 a13d da80 9ebb 574d 493d 86e0 c5bc
00000070: 7523 703d 5a7a 59bd c300 9a3d fc46 883d
00000080: 0e02 843d f667 603d 576b 7b3d e931 7c3c
00000090: 00f9 a5bd 2d82 7e3d b78b 2f3c 13c6 6d3d
000000a0: ffb1 1bbd 34f1 963d 7371 b53d 4c26 85bd
000000b0: 7a5c 7abd aaf8 ab3d b40e 9d3c 46ca 6fbd
000000c0: e0ef 9fbc 783f 3ebd 3e0a 513d d687 983d
000000d0: 525d 9f3b 44bc 82bb 0bd2 02bd 2685 b23d
000000e0: e9bf a93c ac65 8d3d 08db 823d 4750 943d
000000f0: ed67 4dbd 0077 90bd 6960 33bb 2915 8f3c
-0.07724607 0.010367522 0.0030066553 0.048234347 -0.08079013 0.073684625 -0.0038138535 -0.010478236
0.0029013408 -0.046896353 -0.054517023 0.01902084 -0.029360078 -0.011335209 -0.08858842 0.027659861
0.014025674 0.09841916 -0.07820641 0.08344468 -0.051278334 -0.0089989705 0.027583232 -0.026003417
0.07865214 -0.0048371376 0.049146023 -0.024154913 0.058627564 -0.0530952 0.075196765 0.06654164
0.064457044 0.054786645 0.061381664 0.015392759 -0.081041336 0.062135864 0.010714463 0.058050226
-0.038011547 0.073702246 0.08859529 -0.06501445 -0.06112335 0.08397038 0.01917205 -0.058542512
-0.019523561 -0.046447247 0.05103516 0.07447784 0.0048634196 -0.003989728 -0.031938594 0.08716802
0.020721393 0.06904158 0.06389433 0.07241874 -0.05014794 -0.070539474 -0.0027370697 0.017466145

gnn_layer_0.gconv.u_fc.weight f4 [64, 121]
00000000: acc6 d43d 604e 90bd 67f3 50bb 7596 e5bc
00000010: f8ed dfbc 4d6c 123d 1b4c f5bc b1c7 6ebd
00000020: 2636 38bd 429a f8bc fe03 723d 6d08 69bd
00000030: 98ac 4cbd 2ecd 833d 6744 9f3d 3861 31bd
00000040: 7359 973d e105 dc3c 82da 6c3d b551 9b3d
00000050: 08e4 583d 769b 343d da79 01bd bde6 a83d
00000060: 0c05 bb3c 635f 26bd d50b b33d bda5 a7bd
00000070: dc05 9d3d f1a7 ad3d eedc abb9 9eb3 a7bc
00000080: 8a25 9fbd 1ffe 063d 8e9f 0f3b 18a9 073d
00000090: bdff 55bd f7f0 203d 7685 c3bc 32d7 4a3d
000000a0: e2e7 d23c bc6c aa3c db10 fd3b 1a45 17bb
000000b0: 792e 8bbd d4f1 3cbd 5b70 c5bd 7e40 53bd
000000c0: 4ff4 9d3d 10c1 3b3d f8a3 afbd 4020 09bd
000000d0: db36 e6bc 9b16 103d e58c b1bd cf35 053c
000000e0: 597c 3c3d 03bb 43bd a777 893b 7216 72bd
000000f0: 9eeb f8bc 44a1 a53d f16c 4d3d d356 ad3d
00000100: 68ef 8fbd ac79 c5bc 2d5e 3f3d f58d 2bbd
00000110: 1a25 773d df78 ca3d d8c8 95bd 715a ad3d
00000120: 0a18 75bd ac6f 82bc a83d 13bd 4d1d 2abd
00000130: a029 84bb f5ca 123c d0c2 39bd baab bc3d
00000140: 2677 0b3d b20b 8bbd 096e 513d 62d2 653d
00000150: 7dd7 793d 94f5 ac3c 659f 24bd 1d6b a93d
00000160: ca16 5f3d 28ab 453d 31ee 823c eab4 b43d
00000170: bdb4 84bd cdb0 acbd 3d6b 323d b853 0ebd
00000180: d90f 59bb 4edc bcbd b576 353b c0ba 9a3d
00000190: e87d 873d ade9 0cbb e424 71bd aff3 813d
000001a0: 7bf7 a23d 84e0 7e3d 73d6 8d3d c004 323c
000001b0: 6be5 47bd c7c6 aa3d e4d4 d93c 4c54 cb3c
000001c0: 174c 083e 8763 ddbd fc30 85bd 1305 21bd
000001d0: 108a 0fbd d236 1c3d 7fe5 a43d 0bad 4c3d
000001e0: e186 bb3d d2cc 95bd 0c98 37bd 27cb 463d
000001f0: 51e3 533c 435f 34bd 22c5 013d 6a8d 50bd
00000200: d502 653d 8d7c bb3d c380 85bc ae1f a93c
00000210: 19e6 bebc ee0d 6c3d e09e 9e3d 530a 1e3c
00000220: 43a6 87bc 229c 8b3d c05a 09bd 3258 943d
00000230: 06c6 3abd 51fe d23a 6c53 603c ed8f 7fbd
00000240: abef 523d 47b6 b83d ce03 0ebc 0ad0 92bd
00000250: aae8 44bd f96b 873d 16bd 303d 69e7 6f3d
00000260: 86c3 883d f829 273c 584f 8ebd 7503 933b
00000270: 3cb9 a9bc 1786 a03c 0415 743d ffe8 8d3d
00000280: 9c8a 24bc ee20 23bd b4cb 62bd b943 333c
00000290: e7bc 833d ee0d 803d 1683 d7b9 a062 7dbd
000002a0: 8083 a9bd 7ef0 593c 3c4d 92bb 285f 343d
000002b0: f29f f63c 2d33 01bd 743b 45bd 8d80 b93d
000002c0: ca16 9abd b354 b7bd 9962 793d 7c84 5abd
000002d0: 985b 653d a90d 8fbd 01e2 16bc 4334 aebc
000002e0: 2279 5cbd b95c 87bd 5a5e 80bc a90b febc
000002f0: 9585 4abd feee c2bd 08c6 9d3d 9218 febb
00000300: b307 5d3d 876d 243d 354e 083d ef09 53bd
00000310: 1d8d 9a3d 5c7c 4abd 544d fbbc 2f1f 75bc
00000320: 99d8 32bd 78a7 ad3d 7d91 cc3c a905 9e3d
00000330: 7950 d83c 121b 66bd 9648 2e3d 1472 993c
00000340: 760f 44bd f248 7abd bb63 993d 0461 7239
00000350: 391e a5bd 143f 76bd ff01 c63b ce08 753d
00000360: 164a 20bd 95fd 993c a3fe 85bd 90f4 993d
00000370: 96d1 b0bd 3f74 223d 1d2b d83d 1a9b b23d
00000380: a3a7 a23d 4548 1dbd 74b9 57bd da24 113d
00000390: fd91 5dbd 6795 a7bd e5a1 cb3d 4d1a bd3d
000003a0: d129 ebbd eebb b8bd 00b7 253d 454b c33d
000003b0: b001 173c 152c 3ebc 571e c03d 72e6 bebd
000003c0: aa02 833d fa38 04be 190f 8e3d 7b33 d5bc
000003d0: aab3 ab3d ae1a 9b3d 0b8d a73d 02ab b6bd
000003e0: 0975 603d bad8 8dbd 299d 933c 32b1 b13d
000003f0: 524a d9bb 4cbf 9bbd 50c8 2abd 6d39 8bbd
0.10389456 -0.07046199 -0.003188336 -0.028025845 -0.027335152 0.035747815 -0.029943516 -0.05829591
-0.044973515 -0.030346993 0.05908584 -0.0568928 -0.049969286 0.06435619 0.077767186 -0.043305606
0.07390108 0.026858272 0.057825573 0.07583944 0.052951843 0.04409357 -0.031610347 0.08247135
0.022829555 -0.04061831 0.08742491 -0.08185909 0.07667133 0.08479298 -0.00032780267 -0.02047139
-0.07770832 0.032957193 0.002191517 0.033120245 -0.052245844 0.039292302 -0.02386735 0.049521632
0.025745336 0.020803802 0.0077229566 -0.002308196 -0.06795973 -0.046129063 -0.09640571 -0.051575176
0.07712614 0.045838416 -0.085761964 -0.03347802 -0.028102329 0.03517781 -0.086694516 0.008130505
0.046017025 -0.04778577 0.004195172 -0.059103437 -0.030385789 0.080873996 0.050152723 0.08463826
-0.07028085 -0.02410587 0.046720672 -0.041883428 0.060338117 0.098863356 -0.073136985 0.08464516
-0.05983738 -0.01592239 -0.03594747 -0.04153185 -0.0040332824 0.008959522 -0.045351803 0.09212442
0.034049176 -0.0678934 0.05113033 0.05610884 0.06099652 0.021113195 -0.040191073 0.08272383
0.054465093 0.04825893 0.01598272 0.08823569 -0.064797856 -0.084321596 0.0435593 -0.03474781
-0.0033121018 -0.09221707 0.0027689163 0.07555151 0.066158116 -0.0021501586 -0.058873072 0.06345307
0.079573594 0.062225834 0.069256686 0.01086539 -0.048802774 0.08338695 0.026590772 0.02482047
0.13310276 -0.10809999 -0.06503484 -0.03931148 -0.035043776 0.03813822 0.080515854 0.049969714
0.091565855 -0.07314457 -0.044822738 0.048533585 0.012932614 -0.04403616 0.03168214 -0.050916113
0.055910904 0.091546156 -0.01629675 0.020644989 -0.023303078 0.057630472 0.07745147 0.009646016
-0.016558772 0.06816889 -0.03353381 0.072433844 -0.045599006 0.0016097521 0.013691764 -0.062393118
0.051498096 0.09019142 -0.008667899 -0.071685866 -0.04807345 0.06612391 0.043149076 0.0585703
0.06677918 0.010202877 -0.06948727 0.004486496 -0.02071821 0.019595189 0.059590355 0.06929206
-0.010042813 -0.039826326 -0.055370048 0.010941439 0.06432515 0.06252657 -0.00041105662 -0.061861634
-0.08277035 0.013301967 -0.0044647735 0.04403606 0.030105565 -0.031542946 -0.048152402 0.09057722
-0.07523878 -0.08951702 0.060885046 -0.053349003 0.055995554 -0.06985027 -0.009209157 -0.021265155
-0.05382646 -0.06609482 -0.01566999 -0.03101142 -0.0494438 -0.095182404 0.07703787 -0.007754394
0.05396242 0.040143516 0.03327771 -0.051523145 0.075464465 -0.049435005 -0.030676521 -0.014961048
-0.043663595 0.08479208 0.024971718 0.07715923 0.02640556 -0.05617816 0.042549692 0.018731155
-0.047866307 -0.061104722 0.07489725 0.0002311506 -0.08062405 -0.06011875 0.0060427184 0.05982285
-0.039133154 0.018797675 -0.06542709 0.0751735 -0.08633725 0.039661642 0.10555098 0.087209895
0.079421304 -0.038399 -0.052667096 0.035435535 -0.054094303 -0.08182793 0.09942988 0.09233532
-0.11482585 -0.0902022 0.040457726 0.09535841 0.009216711 -0.01160719 0.09380787 -0.09321298
0.063969925 -0.1291236 0.069364734 -0.026025524 0.083838776 0.07573448 0.08181199 -0.08919336
0.054799113 -0.06926103 0.018019276 0.086763754 -0.006631174 -0.07604846 -0.04169494 -0.067980625

gnn_layer_0.gconv.u_fc.bias f4 [64]
00000000: 9324 b23d b5eb dd3d 3336 96bd 5b29 47bd
00000010: 21ad 6c3d 3772 97bd fd72 563d f156 133c
00000020: 412c 7b3c 7afc 88bc 8884 403d c7c7 fbbb
00000030: d63b f4b9 4f84 94bc aa50 0fbd 38b5 aebd
00000040: 7bd9 b03c 58bf 933d 4bce 523d 1b44 9a3d
00000050: a9c3 403d b14b 523d 1429 113d a1d1 81b9
00000060: 5eb4 f5bb ee2f 66bd c565 4f3d ef01 973d
00000070: 108d 743d 2b82 9a3d b21c 4b3d cec2 efbc
00000080: d60f 863d 3180 d5bc 7f3f 18bd cb12 943d
00000090: dce3 b3bd d66d a33d f6ea e93c afad adbc
000000a0: 0f3c ddbc 5a05 a93d cad0 83bd 0835 8a3d
000000b0: 68fe 6d3d ff52 5e3b 9205 66bd e10a a03c
000000c0: bcf6 5cbd 5327 263d bbe5 3bbd 32ca a13d
000000d0: 5cb5 0abc 8b96 183d 63b8 71bd 55c7 863d
000000e0: 290f d0bc 663e 8f3d 7ae8 a03d 481e 56bd
000000f0: 3745 813d 1249 a53c 770c bb3d b2d5 ad3c
0.08698382 0.10835973 -0.073345564 -0.048623424 0.057782296 -0.07394832 0.052355755 0.008992896
0.015330375 -0.016721953 0.04700139 -0.0076837274 -0.00046583888 -0.018129496 -0.034989037 -0.085306585
0.021588078 0.0721423 0.051466268 0.07532521 0.047061596 0.051341716 0.035439566 -0.00024760983
-0.007498308 -0.056198053 0.050634164 0.07373416 0.05970484 0.07544359 0.049587913 -0.029267695
0.06545989 -0.026062103 -0.03716993 0.07230147 -0.08783695 0.07979934 0.02855442 -0.021200983
-0.027006177 0.08252974 -0.06436308 0.06748396 0.05810395 0.0033923981 -0.056157656 0.019536437
-0.05394624 0.040564846 -0.045873385 0.07899894 -0.008466091 0.037252944 -0.059013736 0.06580988
-0.025397854 0.069943234 0.078568414 -0.052274972 0.0631203 0.020176444 0.09133237 0.021220062

affinity_0.A f4 [64, 64]
00000000: b628 6f3f 286b 9f3c dccd 52bd 9c3c a53d
00000010: 9c08 adbd 30b6 2fbc 9420 ec3d 1c73 2abd
00000020: 04c4 a4bd 66de fb3d 185f d1bd 7403 ce3d
00000030: 02fc b9bd a04a 043c 067e c5bd 2844 133d
00000040: a4b8 a4bd c63d a3bd 1a9a 9a3d 00b3 d7ba
00000050: 901e 4ebd aa2b 873d 6076 5abc 2839 f13d
00000060: 003a 953b 188c 6b3d be10 bc3d b87a 913d
00000070: 4648 8f3d e039 f73b fad1 d53d 60a2 b6bc
00000080: 7aa6 f43d bc6a 133d cc72 aabd 8096 7c3b
00000090: 844e bfbd 80e4 93bc 8e3d aebd 0e67 e43d
000000a0: c65f da3d 10eb 69bc f2ef 8ebd 14da dcbd
000000b0: d60a 92bd d8f4 f6bd 1c33 933d 5c3e 52bd
000000c0: 1848 363d 6c8a dbbd 2020 243d 9069 fe3c
000000d0: b0d1 8e3c 3e7f d73d 26cd 86bd bcd3 76bd
000000e0: f8eb 5d3d 00c6 c53d 8c25 e03d 80ab d43a
000000f0: fa0f ce3d c8c2 e53d 5c1f c73d ba03 d03d
00000100: 40c1 5abc 29e2 733f 5ef9 a8bd 62fb c73d
00000110: b694 bdbd 2804 98bd 025b b4bd 7243 85bd
00000120: b890 d83c 1cf0 9bbd ee1d 943d 8e03 fbbd
00000130: 9870 913d 3037 2fbc b6d6 a13d 86bc c93d
00000140: e80b c4bd 56b3 a33d 283c c13d 685c f43d
00000150: 7c59 5cbd 881c 893c 16de acbd f833 f1bd
00000160: 4670 933d a071 113d 185f dcbc 78a7 d73c
00000170: 02e9 c93d 0010 853c 0e74 b2bd d6c3 99bd
00000180: 080f 173d 302d b63c a64d e73d 58e3 373d
00000190: d803 843c a467 ce3d ac43 b0bd cc61 de3d
000001a0: 5cdb 87bd 3474 09bd a0b1 efbd 2e8b 9abd
000001b0: baf2 9bbd 58cc fd3d 00b4 603d 5c1f 8a3d
000001c0: e868 f53c 1c5a 1b3d 0077 52bb e873 97bc
000001d0: 2615 98bd a461 ef3d 8005 b73b e0ee ef3d
000001e0: 00d0 fb3b 686c ecbd 1c05 0bbd 9882 993c
000001f0: 8cdb 143d ecce 89bd 3811 7abd e09b 0cbd
00000200: 246b 773d e494 933d 10db 833f 98df bcbc
00000210: 6414 13bd 4ef4 86bd e0a2 fc3b 368d 82bd
00000220: 000f 933a 4089 5f3b 500d 103d b44d 9dbd
00000230: f4e3 86bd 5248 c03d 0ac2 e63d 60cf e93b
00000240: 9e8b c13d eced ae3d f083 a53d bc9c 903d
00000250: 60e5 cbbc 50e8 13bc d0e2 273c 809f acbd
00000260: 40df 323b 6c7f 41bd 3431 13bd 3044 2fbd
00000270: 10d3 77bc 1295 fcbd b272 c33d 0c20 073d
00000280: 502b 7bbd d4b0 5dbd bee1 d63d 60fb dc3d
00000290: dc90 b23d 2237 cd3d 783a fa3d 8062 67bb
000002a0: c8b3 333d 740f 963d 98ec bdbd bc70 81bd
000002b0: 0c42 5b3d deec f2bd f80c cfbc 7afc eabd
000002c0: 8057 d03b ea2f f83d c0c5 963d 8051 b43b
000002d0: f430 49bd 5c14 19bd 4048 123d a0b5 06bc
000002e0: b8b6 983c 60cb ea3b 7aa5 be3d 8025 953a
000002f0: d48c 58bd 20a5 fdbb 3032 8dbd 2086 f03b
00000300: 7a81 8c3d c6b2 f7bd c4b2 f43d 7335 623f
00000310: 7a21 e83d a0e0 bd3c f649 cebd 80a7 2d3b
00000320: 901a b63d 6256 f0bd 18f0 c7bd 007d d7ba
00000330: 0465 c9bd f47a 32bd d009 e6bc 94a5 7cbd
00000340: 742a 833d f6d6 a63d c2dd c43d 88dd 153d
00000350: 045d 313d 7047 22bd 004a 8f39 f44e 253d
00000360: 5602 8dbd 8011 803a fe36 90bd e84a ccbd
00000370: 6078 d53d ec74 633d 9edd f73d 5ee7 c93d
00000380: 9024 28bc 207d e13c 845d 05bd d06d 73bc
00000390: e0ab a2bc 3c31 0dbd 280c b33c 589c 1e3d
000003a0: f034 a83c a413 7c3d 762b babd f027 9b3d
000003b0: 4063 153d 0a9f f1bd c0ec 6fbb cad2 db3d
000003c0: 80f3 3e3b ce44 8dbd 64a9 b23d 006d 57ba
000003d0: 342c 643d 9015 e93d ec13 3bbd 3c0b 073d
000003e0: 5430 6ebd 28de 8dbd de13 bc3d 94c2 28bd
000003f0: 1e1e 8b3d e6fc 83bd 10c8 adbd d008 593d
0.93421495 0.019460276 -0.051465854 0.08068201 -0.08448908 -0.010724589 0.11529651 -0.041613683
-0.080451995 0.122982785 -0.10223216 0.100592524 -0.0908127 0.008074433 -0.09643178 0.03595367
-0.0804303 -0.07970767 0.07548924 -0.0016456544 -0.050322115 0.06600125 -0.013333887 0.1177848
0.0045540333 0.05750665 0.09182881 0.07103485 0.06996207 0.007544741 0.104404405 -0.022294223
0.119458154 0.03599046 -0.08322677 0.0038541853 -0.093411475 -0.018053293 -0.085078344 0.111524686
0.106627986 -0.014277235 -0.0697936 -0.107837826 -0.07130973 -0.12058419 0.07187483 -0.051329
0.044502348 -0.10719761 0.0400697 0.031056195 0.017433971 0.105223164 -0.06582098 -0.06026052
0.054180115 0.09656906 0.109446615 0.0016225427 0.10061641 0.11218792 0.09722778 0.10156961
-0.013351738 0.9526697 -0.08250688 0.09764744 -0.0925688 -0.07422668 -0.08806421 -0.06507005
0.026436195 -0.076141566 0.07232271 -0.122565374 0.07101554 -0.01069431 0.07902281 0.09850411
-0.095725834 0.0799319 0.09435302 0.119316876 -0.053796276 0.016737238 -0.08440797 -0.117774904
0.07199149 0.035508752 -0.026900813 0.026324973 0.09858896 0.016242981 -0.08713542 -0.07508056
0.03687957 0.022238344 0.11294107 0.044894546 0.016115114 0.10078362 -0.086066574 0.10858497
-0.06633636 -0.033558086 -0.11703801 -0.07546078 -0.07614656 0.12392491 0.05485916 0.067442626
0.02995725 0.037927732 -0.0032114387 -0.018487886 -0.07425909 0.11688545 0.0055853724 0.11715484
0.0076847076 -0.11544114 -0.03394042 0.01873903 0.03634219 -0.0672892 -0.061051577 -0.03432834
0.06040491 0.07206133 1.0301228 -0.023055837 -0.035908118 -0.06589566 0.007709846 -0.0637459
0.001121968 0.0034108907 0.035168946 -0.07680836 -0.06586447 0.09388794 0.11267479 0.0071353167
0.09450458 0.08541474 0.08081806 0.07061145 -0.024889648 -0.009027556 0.010246947 -0.0842886
0.0027293712 -0.04724066 -0.035935596 -0.042789638 -0.015126005 -0.123331204 0.09543361 0.032989547
-0.061320603 -0.054123715 0.10492276 0.107901335 0.08719036 0.100202814 0.12218183 -0.0035306513
0.043872625 0.07327166 -0.09273642 -0.063203305 0.053529784 -0.11861585 -0.025274739 -0.11473937
0.006358087 0.12118514 0.073619366 0.0055028796 -0.04911895 -0.03737293 0.035713434 -0.008222014
0.018641815 0.0071653575 0.09308906 0.0011378974 -0.05286868 -0.0077406317 -0.06894338 0.0073402077
0.06860633 -0.12094645 0.11948159 0.8836281 0.1133451 0.023178399 -0.10072701 0.0026497543
0.08891785 -0.11735226 -0.09762591 -0.0016440451 -0.0983372 -0.04357429 -0.02808085 -0.061681345
0.06404582 0.08146469 0.096126094 0.03658822 0.043301597 -0.03961891 0.0002733022 0.0403585
-0.06885211 0.000977084 -0.07041739 -0.09975225 0.1042335 0.055531427 0.12102817 0.09858583
-0.010262623 0.027525485 -0.032559887 -0.014857724 -0.019857347 -0.03447078 0.021856382 0.03872332
0.020533055 0.06154217 -0.09090321 0.07575977 0.036471605 -0.117979124 -0.003660962 0.10733564
0.0029136837 -0.06897889 0.08723715 -0.00082178414 0.055706218 0.11381066 -0.045673296 0.0329697
-0.058151558 -0.069271386 0.09183477 -0.04120119 0.06792854 -0.06444721 -0.084854245 0.05298692

gnn_layer_1.gconv.a_fc.weight f4 [64, 64]
00000000: 1e7f edbd 06b8 063e db79 2fbd 0837 d13d
00000010: 9d68 23bb defc 02bd 0f90 c0bd 02a2 58bd
00000020: 8190 98bd 46ff f03d dbee f3bd a27c 963d
00000030: 0f0c 843c 793d da3d 57fe b73d 78b9 95bd
00000040: 0f02 e23c 79fe 0c3e 394a f63d 2dfd 693d
00000050: b68d 82bd 06fa dcbc 3fe6 a1bc 0a0e 68bd
00000060: 4134 c93d de47 5bbd 51b4 00bb cb17 f63c
00000070: 72fc f63d 8c6b e6bc ea7b f5bc d449 f23d
00000080: b562 5b3c f5fa fd3d d6bf bd3d 1ca5 1cbd
00000090: 26dd d9bd 08e8 7a3d 58dd 8fba de2a 90bd
000000a0: 9cc3 f7bd 2dce dcbd d608 b03d 7017 f33d
000000b0: fcbf 34bd 9f7a abbd fc0d e43d 3a7c 0fbc
000000c0: 1b6b 67bd c647 b73d f5c9 98bd 7684 d6bd
000000d0: 51dd e7bd a1d1 a73d cc61 a2bd 3b25 723d
000000e0: 8054 f63b 2b10 023e ae78 e23d 0d4b d83d
000000f0: 1b0a 713d e460 42bd c478 993d 7286 f0bd
00000100: c41a 60bb 9ef7 8abb 812c 8abd 10a5 88bc
00000110: 5285 b73b 0b5a c63d e0cd f63d ff64 47bc
00000120: bff5 763d aa60 d93d 2864 b2bc 5b75 7fbc
00000130: f3a8 ac3b ccfa 4d3d 9afd ff3c c2f0 b33d
00000140: 78b9 fcbd e6cd e3bc 867d ec3d 1722 d53d
00000150: 1e24 9cbd 4347 e5bc 2683 c1bd 29a8 2f3d
00000160: e21e 9bbc 4f91 d0bc 2b4c 9b3d ea0a aebb
00000170: d43e d73d 27b5 8dbd 66d1 9abd 58ac 663d
00000180: d16b d2bb ba62 b7bc 84c4 3d3c f12b 91bd
00000190: a71d 94bd 0b3e ba3d 7d23 dcbd e412 413d
000001a0: 0024 b03d 1113 403d 7783 db3b c639 973d
000001b0: 78dd 59bd ebec fb3d 6c0c ee3d f6db fabd
000001c0: b6ae e53c b7ae ae3d 6d27 f73d 3581 1bbd
000001d0: 69a8 37bd c6ab 7a3d 228c 9e3c e89e fabd
000001e0: cc38 073d 4705 2c3d 629a e93d a072 edbd
000001f0: e381 3fbd 30cb 8f3d 6d80 803d f2e0 18bd
00000200: 2e87 0abc c124 6dbd d25c d3bd aaea c2bd
00000210: a76e c2bd c095 a53d 0961 85bc 4785 033e
00000220: 7fa8 ab3c 58ae afbd 59e7 b2bd 72b2 a63d
00000230: 16d4 78bd 3b81 20bd f10c 043d 9e17 d63d
00000240: 4dae d63d 543b 003e 0d80 c5bc cf2a 453d
00000250: cd5c d43d af8d 933d 6893 09bc 1c8f ca3d
00000260: 4897 cc3c 3ac8 22bd 2602 bebd 5723 f63c
00000270: dee9 36bd 5933 a6bd 2341 e73d e13a 7a3d
00000280: ea63 68bd 7474 983d a318 3e3d 2ca3 ebbb
00000290: 918a cebc 6163 dabd 350f dc3d 79d5 4cba
000002a0: bda9 dd3c 7ae8 c9bb e3d2 c1bd bf1b d33d
000002b0: 111e 2fbd 3bbc aa3d a8dc 2abd 4996 ef3d
000002c0: 185d 93bd 3d25 b2bd bb72 8bbc ee93 3dbc
000002d0: cff2 f7bc bc9f a7bd 2506 c1bd 7247 a83d
000002e0: c063 3fbc b3e3 a8bc fad9 f7bd 07e1 773d
000002f0: 6278 c73d 78b0 bfbc 702d d5bc a28f 19bc
00000300: 8f5e c3bd 0999 58ba 26b1 c63d 4883 6d3d
00000310: 853f e3bc 5496 4c3d 2950 d93d 31d6 d4ba
00000320: fc1b 3cbd 989e fabd a172 88bc 7021 263d
00000330: 7b72 b43d cd14 123d 04e0 ce3d a89c e1bd
00000340: ac18 ee3d fcc8 ed3b e40f 1cbd 1256 ecbd
00000350: a552 c23d 9e9d e9bd 6f51 3b3d 3109 f0bc
00000360: af5d c8bc c33d a13d 6aa5 ca3d f357 8f3c
00000370: 05a5 13bd 831c 453d e609 543c ff77 8dbd
00000380: 16e7 78bd 8c61 66bd 675d 66bd d878 e5bc
00000390: 026a a83b a559 003e 2387 513d d4b2 f23d
000003a0: 5c38 833d 6aad 783d 4357 c7bc c32b a2bd
000003b0: 78f0 a93d f264 12bd bf77 29bd 07dc b4bd
000003c0: 3505 3dbb 6e41 47bd 893e 263d ccea d13d
000003d0: dd19 7bbc 4a25 21bd e825 003e 9519 a4bd
000003e0: d0d9 cfbc faa4 8dbd a620 51bc ddd9 28bd
000003f0: 17d3 3bbd a8e7 f23d 49da d5bd e112 4dbd
-0.11596511 0.13156137 -0.04284082 0.102155745 -0.002493418 -0.031979434 -0.09402477 -0.052888878
-0.07449437 0.117674395 -0.119107924 0.073479906 0.016119031 0.10656256 0.08984058 -0.07310766
0.027588872 0.13768949 0.120258756 0.057126213 -0.063746855 -0.02697469 -0.01976311 -0.056654014
0.0982442 -0.053535335 -0.0019638727 0.030040642 0.12059869 -0.028127454 -0.029966313 0.11830488
0.013390233 0.12401382 0.092651054 -0.038243398 -0.10637884 0.06125644 -0.0010976 -0.07039426
-0.120978564 -0.107815124 0.08595435 0.11869705 -0.044128403 -0.083729975 0.1113548 -0.008757645
-0.056498628 0.089492366 -0.07460395 -0.10474484 -0.1132151 0.081942804 -0.079288095 0.059117537
0.0075173974 0.1270148 0.11058174 0.1056119 0.058847528 -0.047455683 0.07493737 -0.117443934
-0.003419564 -0.004240944 -0.0674677 -0.01668027 0.00560061 0.09685143 0.12050986 -0.012170075
0.060292955 0.1061414 -0.021776274 -0.015591945 0.0052691638 0.050288007 0.031248856 0.08786155
-0.12340063 -0.027808141 0.11547379 0.10406893 -0.07624076 -0.027988082 -0.09448843 0.04288498
-0.018935625 -0.025459914 0.07582887 -0.0053113597 0.105100304 -0.06919318 -0.07559471 0.056316704
-0.006421544 -0.022385944 0.0115824975 -0.07088459 -0.07232218 0.09093865 -0.10748956 0.047137156
0.086006165 0.046893183 0.0066990214 0.07384066 -0.053189725 0.12301048 0.11623463 -0.122489855
0.02803741 0.08529418 0.12068067 -0.03796502 -0.044838343 0.061198972 0.01935393 -0.1223734
0.03301315 0.04199722 0.11406399 -0.115941286 -0.04675473 0.07021177 0.06274495 -0.0373239
-0.008455081 -0.05789638 -0.103204384 -0.09517415 -0.094937615 0.08085203 -0.016281622 0.1284381
0.020954369 -0.08578175 -0.08735532 0.081395045 -0.060749136 -0.039185744 0.032238904 0.10453723
0.10482464 0.12522632 -0.024108911 0.04813653 0.10369263 0.072047584 -0.008396961 0.09890577
0.02497448 -0.039741732 -0.092777535 0.030046148 -0.044656627 -0.081152625 0.11291721 0.061091308
-0.05673591 0.07444087 0.046410214 -0.0071910825 -0.025212558 -0.10663486 0.10745088 -0.00078137923
0.027058477 -0.0061617466 -0.094640516 0.103080265 -0.042753283 0.08336683 -0.04171434 0.116985865
-0.071954906 -0.08698509 -0.017022481 -0.011570914 -0.030267147 -0.08184764 -0.09425 0.08216752
-0.011681497 -0.020616388 -0.121021226 0.060517337 0.09739758 -0.023399577 -0.026022643 -0.009372624
-0.0953952 -0.000826255 0.09701757 0.057986528 -0.02774025 0.04994805 0.106109925 -0.001623815
-0.045925125 -0.122372806 -0.016656222 0.040559232 0.08810898 0.03566437 0.10101321 -0.11016208
0.116257995 0.007256625 -0.038101092 -0.11539854 0.094884194 -0.11407016 0.045731958 -0.029301258
-0.024458734 0.07873108 0.098948315 0.017497992 -0.036046047 0.048122894 0.012941813 -0.06907653
-0.060767256 -0.05624537 -0.05624142 -0.028011724 0.0051395902 0.12534197 0.051154267 0.11850515
0.06407234 0.060712256 -0.024333602 -0.07918503 0.08297819 -0.0357408 -0.041373964 -0.088310294
-0.0028842215 -0.048646383 0.040586982 0.10249862 -0.0153259905 -0.039342202 0.1251446 -0.08012692
-0.025372416 -0.069162324 -0.012764132 -0.041223396 -0.045855608 0.11860591 -0.10442025 -0.050066832

gnn_layer_1.gconv.a_fc.bias f4 [64]
00000000: d2d7 f2bd f351 773d 5525 b6bd 58d2 803d
00000010: 80fc 8ebb a07c b73b 254f 01be 97e4 b03d
00000020: fa1a fcbd 304a 2cbd 6c31 213d 0afb c83d
00000030: 91b7 eb3d 3ebb f1bd 2a01 073e dd80 503d
00000040: f846 d93d 1e2d 82bc 4642 a03d 88de 70bd
00000050: 78b1 8d3d 4301 883d c0a4 adbb a76d bf3d
00000060: c309 cb3d 6761 3bbd 39f1 b93d 2cd1 b7bd
00000070: b335 a43d 1a66 9ebd 0a4c 813d e04d fe3d
00000080: fa04 f4bc 4331 c7bd 5284 c03d 1e00 c9bd
00000090: c641 e0bd 9b4c 3c3d 01f6 543d 9cb8 fbbd
000000a0: 7050 cb3c 25ef 723c 62d4 35bc 44e5 a5bc
000000b0: 38d7 83bc 8926 013e eb9e 9f3d bc53 bdbd
000000c0: c332 74bc 55cf fcbd 5cae b1bd b751 873d
000000d0: 3f62 083e c4eb cb3c 3da7 093e 638a 903b
000000e0: 1dde 483d a213 8dbd 275e f5bc 2100 02bd
000000f0: d4bc afbb 68c1 38bd 997a 4ebc 7161 0fbd
-0.11857571 0.060380887 -0.08893839 0.0629012 -0.0043635964 0.0055995733 -0.12627847 0.0863735
-0.12309833 -0.04206294 0.039353773 0.09813507 0.11509622 -0.11803292 0.13184038 0.050904144
0.10609239 -0.015890654 0.07825141 -0.058805972 0.06918615 0.06640866 -0.0052991807 0.093470864
0.09913971 -0.045747187 0.09079213 -0.08975443 0.08018055 -0.07734318 0.063133314 0.12417197
-0.02978753 -0.09726193 0.09400238 -0.098144755 -0.10950045 0.045971494 0.05199242 -0.12291071
0.024818629 0.014827524 -0.011097999 -0.020250924 -0.016093835 0.12612356 0.07793983 -0.09244487
-0.014904681 -0.12344233 -0.086758345 0.06607383 0.13318728 0.024892695 0.13442703 0.004411028
0.04903995 -0.0688851 -0.029952122 -0.031738404 -0.0053630862 -0.04510632 -0.012602472 -0.035005037

gnn_layer_1.gconv.u_fc.weight f4 [64, 64]
00000000: 6fd9 e4bd 764e e83d bb90 153c 11cd babd
00000010: 434b babd 80b2 ccbc eb04 f93d 8462 8d3c
00000020: 578f 80bd 06a2 ebbc 112e c0bd c732 4e3d
00000030: 0c79 0d3e c1b5 91bd 7fc2 043e 4ecd 163d
00000040: 3496 05be a447 83bd 72c4 9b3d ca2c adbd
00000050: afc1 ed3d aaff 0a3e 96cb ed3d 05f4 823b
00000060: b7ea cf3d b78b e9bd 40a7 fd3c 493e b23b
00000070: 3fe1 83bd c1d6 8ebd ca97 b1bd 487a 283c
00000080: 240a 1bbc 5a81 a7bb 12d0 bcbc d45f ad3d
00000090: 97fd f43c 2b10 303d e1d6 08bd 45f1 92bc
000000a0: 15ea 8b3d f532 da3d 9ae1 893c 3a55 08bd
000000b0: 3ec6 9d3d c433 94bd b9cf 453c 6158 e13c
000000c0: a5ca ecbd 31bf c0bc af59 db39 775a d43d
000000d0: dd31 38bd 5a6e 01be 7b3d e43d a98b 3b3d
000000e0: 0041 463d 14ce e63d 7efc 693d bda1 53bd
000000f0: 09be 933d ac8d a83d cb40 043e 14c5 653d
00000100: 968a d13c 24b6 c7bd a12b 5cbd ae13 003e
00000110: 6bcf c2bd aa76 c9bd 8574 373d 163f c83d
00000120: d321 76bd 7f22 863c 472d 07be d80f 053c
00000130: a454 03bd 37c0 723d 76a3 90bc 6740 d3bd
00000140: 2a57 483d ea45 833d 08d7 b53d b15f cf3d
00000150: c9a8 c13c 03c1 d23d 72dc e43c d15b 433d
00000160: 29ac e5bd 5a5f 04be 5899 81bc cafc 83bd
00000170: 24f8 66bd 4b42 d8bd 78bb ba3c 3e28 543d
00000180: 9566 4bbd ff67 e53d 59de f83c 03e1 88bd
00000190: c9e3 8e39 9b2a b53d f5c3 623c 08d0 0fbd
000001a0: b220 30bd 8b73 abbc 79b6 a73c e363 d63c
000001b0: 4163 0e3d b935 e43d 3777 f4bd 7d3f dd3d
000001c0: 3f6c e1bc 7a83 8bbd 7785 3a3d a5eb e2bd
000001d0: 80f5 9f3d b934 f53d 048a 81bd cbdc 33bd
000001e0: 4484 e93d adc7 d9bd 8a71 69bd 8aa6 14bd
000001f0: bc4e da3c 56df 303c f199 b93d ec2a 14bd
00000200: fcfc 95bd 3c1d a3bb 7bbc 093d 9b6d b0bd
00000210: d0e3 823d f2b4 073d 3742 a6bd df85 81bd
00000220: 7b09 883d 2b26 853b 424f b6bc 2187 dcbc
00000230: 85ef dc3d da06 9a3d 0099 dd3d 2eca 933b
00000240: 9657 64bd a353 9e3d 6814 fd3d 4a68 afbc
00000250: 4c1c 843d 3bd3 69bd 015d b43c 3ef8 c7bd
00000260: 58f5 953c 3b53 4abd 46c0 0f3c 6954 f1bd
00000270: ea00 d53d 98ca 62bd 6e8b 833c 1f63 6fbd
00000280: 0fcc 673d 9f45 5b3c 00a3 a93d c2ac 993d
00000290: 6bb4 9f3d fea4 cc3d 8606 a73d 0403 c2bd
000002a0: 5fd0 55bc 08f5 963d 6f1a 4a3c 2f03 093e
000002b0: 11a9 533d f295 ddbd edd4 003e 2ee2 69bc
000002c0: 7ec4 a03c 45e5 413d 7877 8bbd 2a36 dcbc
000002d0: 425a bebd 1fa8 29bd 2599 3e3d 64ff d63d
000002e0: 1430 34bd a4b1 a3bd 6965 ea3d 1625 28bd
000002f0: abf7 f6bc d426 f2bc 7783 d83d 2502 d8bd
00000300: 6934 f0bd 329a ccbd 9183 a83c 33b8 d53d
00000310: b7e4 263c e92d 93bb 47fd 023e ccbb d8bd
00000320: 4141 95bd fa1a fc3d 1144 c73c 4ec0 2f3d
00000330: 6b35 0ebe 6380 f1bd df7b 943d 1df7 bc3d
00000340: 2500 46bc fab3 5cbd 16fd b3bd 8663 d43c
00000350: 0609 0539 b737 1fbd d565 c5bd 5f0f ad3d
00000360: 3601 c73d 1d75 553d 956d dc3d 3ce4 0d3c
00000370: a040 8d3d 8c55 40bd 9537 563c ef35 84bd
00000380: cc70 fa3d 954d ad3d f6cf d9bd 7fc7 0cbe
00000390: d829 97bd a847 a3bd 4cd0 8d3d 836e 9fbd
000003a0: a9aa 07bd d3c1 40bd 361c 40bd eee0 223d
000003b0: 45fd 95bd 2eae 00be f34a 133c a658 12bd
000003c0: 83b3 233e 8509 b5bd 4925 4cbd 78d2 52bd
000003d0: bebe a9bd dd8d 403d 2324 293d bc38 2dbc
000003e0: e07a 523d 3fe3 3ebd f38a c9bd 007f b73d
000003f0: 0955 643d 2a5c fa3d c56c cbbb 29a3 773d
-0.11174285 0.1134309 0.009128745 -0.091211446 -0.09096386 -0.02498746 0.12159141 0.01725889
-0.0627734 -0.028763782 -0.093837865 0.050341394 0.13815707 -0.07114745 0.1296482 0.036816888
-0.13045579 -0.06410149 0.07605828 -0.084558085 0.11609208 0.1357409 0.116110966 0.0039963746
0.1015219 -0.114036016 0.03096354 0.005439554 -0.06439447 -0.06974555 -0.086715296 0.01028306
-0.009462867 -0.0051118555 -0.023048434 0.084655434 0.029906077 0.04298417 -0.03340805 -0.017937312
0.06831757 0.106542505 0.016831208 -0.033284403 0.07703827 -0.07236436 0.012073451 0.027507963
-0.11562089 -0.023528667 0.00041837755 0.10368817 -0.04496943 -0.12639752 0.11144539 0.045787487
0.048401833 0.11269775 0.05712556 -0.051667918 0.07213981 0.08230147 0.12915342 0.05609615
0.025578778 -0.097515374 -0.053752545 0.12507507 -0.09512218 -0.098370865 0.044788856 0.09777658
-0.06009085 0.01637387 -0.13200866 0.008121453 -0.03206314 0.05926534 -0.01765607 -0.10315018
0.04891125 0.064098194 0.088789046 0.101256736 0.023640053 0.1029072 0.027937148 0.047694985
-0.112144776 -0.12926999 -0.01582019 -0.064447 -0.05638899 -0.105595194 0.02279447 0.05179619
-0.049658377 0.11201476 0.030379461 -0.066835426 0.00027254064 0.08846017 0.013840665 -0.035110503
-0.04299993 -0.020929119 0.020472752 0.026170677 0.034762625 0.11143059 -0.11936801 0.10803125
-0.027517436 -0.068121865 0.04553744 -0.11080102 0.07810497 0.11972947 -0.063251525 -0.043911736
0.11402181 -0.10633788 -0.056993045 -0.036291637 0.026648872 0.010795435 0.09062565 -0.036173746
-0.073236436 -0.0049778502 0.033627015 -0.086146556 0.06391108 0.033131547 -0.08118098 -0.06324362
0.06642433 0.004063388 -0.02225459 -0.026919903 0.10787872 0.07520838 0.10820198 0.0045101857
-0.05574759 0.07730796 0.12357408 -0.021412034 0.0645071 -0.05708621 0.022017004 -0.09764145
0.018305466 -0.04939578 0.008773869 -0.11783678 0.10400565 -0.05536899 0.016057696 -0.05844414
0.05659109 0.013383298 0.08283043 0.07503654 0.07798084 0.09992407 0.08155541 -0.094732314
-0.013050168 0.07370955 0.012335404 0.1338012 0.051674906 -0.108196154 0.12581225 -0.014275117
0.019624945 0.04733779 -0.06809896 -0.026881296 -0.09294559 -0.0414201 0.04653277 0.10497931
-0.043991163 -0.07992867 0.11445124 -0.041050993 -0.030147394 -0.02955953 0.1057195 -0.10547284
-0.117287464 -0.09990348 0.020570548 0.10435524 0.010186366 -0.004491557 0.1279193 -0.105826944
-0.07287837 0.12309833 0.024324449 0.042908005 -0.13887565 -0.11792066 0.07250189 0.092268206
-0.012084995 -0.053882577 -0.08788507 0.025926363 0.0001268723 -0.038871493 -0.096385635 0.084501974
0.09717028 0.05211364 0.107630886 0.008660372 0.06897092 -0.046956584 0.013074775 -0.064555995
0.122285455 0.08462063 -0.106353685 -0.13747977 -0.07381028 -0.07972652 0.06924495 -0.0778475
-0.03312174 -0.047059845 -0.046901904 0.03976529 -0.07323698 -0.12566444 0.008990037 -0.035729073
0.15986447 -0.08839706 -0.049840245 -0.05147025 -0.08288334 0.04701029 0.04129423 -0.010572609
0.051386714 -0.046603438 -0.098409556 0.0895977 0.05574516 0.1222461 -0.0062080347 0.060458336

gnn_layer_1.gconv.u_fc.bias f4 [64]
00000000: 5e4c 173e 4971 cb3d 45b5 cd3d 3f36 2c3d
00000010: 4cba aabd eafc afbd addc 45bd bbd1 2ebd
00000020: 838a 8f3d d41f 85bd 8457 2e3d 0dc7 3d3c
00000030: 8b7c 66bc 37fd 1c3d d026 55bc 3199 033d
00000040: def9 80bd 71b5 4cbd 4948 963d fc8a 083e
00000050: 3ffd 0a3e ece2 e13d 1935 d9bd 1823 d43c
00000060: 2896 4fbb 5aee 44bb 0a6f 823d cd5a 353c
00000070: 9c9e 0c3e 0462 c1bd 552f 783d 0a5e dbbd
00000080: 4468 bdbd e050 303d 14a9 19bd 8146 253e
00000090: fa41 6bbd 7f25 6e3d 7ada 26bd efa3 61bd
000000a0: 3460 8cbc 747d 85bd fe3a d43d 323d 183d
000000b0: 37d7 dbbd 9809 933d fce8 983b f0fa 6bbd
000000c0: 4980 babd 54d9 143d eb10 453d 3b90 d33d
000000d0: 7a02 ec3d 806b 01bd b885 bbbd 65d0 12bd
000000e0: 5789 f9bd f570 8c3d ec3f fabd 9f3d ce3c
000000f0: 4a84 943c 54ea 95bc 93f4 963d 5e58 d5bd
0.14775226 0.09933717 0.1004434 0.04204392 -0.083363146 -0.085931614 -0.048306156 -0.042680483
0.07008841 -0.06500211 0.04256393 0.011583102 -0.014067779 0.038327422 -0.013009742 0.032128517
-0.062976584 -0.049977724 0.07338006 0.13334268 0.13573168 0.1102961 -0.10605831 0.02589564
-0.0031675193 -0.0030049295 0.06368835 0.011069012 0.1373238 -0.09442523 0.060592014 -0.10711296
-0.09248403 0.04304588 -0.03751476 0.16140176 -0.057435967 0.058141228 -0.0407357 -0.05508798
-0.017135717 -0.06518069 0.10362814 0.037167735 -0.10734408 0.07179564 0.004666446 -0.05761236
-0.091065 0.036340073 0.048111837 0.10330244 0.1152391 -0.03159666 -0.09156364 -0.03584327
-0.121843986 0.06857482 -0.122192234 0.025175868 0.018129487 -0.018300213 0.073708676 -0.10417245

affinity_1.A f4 [64, 64]
00000000: c5a4 673f bc1a 363d 6605 eabd 9038 953c
00000010: 80c3 483d a0cd 63bc 56a8 d13d 84d3 bdbd
00000020: d098 d23c 2260 a13d f0a2 71bc 706c 2fbd
00000030: 9203 a7bd b6cc cf3d 2077 2ebd 7ad8 e83d
00000040: d028 11bd 00fa afbc 00da 8cb9 8097 6abb
00000050: 02a1 fdbd 7085 e63d f01c ad3c 00e8 37bd
00000060: d8e0 94bc ac54 1f3d 2ef7 c0bd c0af 52bc
00000070: d877 c7bc 6e99 fa3d ba37 ffbd c2d0 fbbd
00000080: c01d 183c 8e6e 8cbd 5895 3ebd 9471 8c3d
00000090: d0e8 3bbc 1816 b9bd 202d 583c 1650 9ebd
000000a0: c8c1 3abd ee64 9dbd dc9f 51bd 789e fbbd
000000b0: 5043 c53d 5e97 a2bd 568a 8cbd 0c86 7c3d
000000c0: 60d1 bdbc 1c71 1b3d 085a 65bd feef dcbd
000000d0: 7684 ed3d 0801 3b3d c060 7abc c04f 44bb
000000e0: dae0 ac3d b845 9fbc 4cb0 0b3d 0013 0e3d
000000f0: a00a 40bc 8473 6cbd a0ec 84bc 304e 553d
00000100: a203 ff3d 308f 7b3f 8061 08bc 701e 1f3d
00000110: 2c66 ef3d d0de b23c 589e 5bbd ae50 f53d
00000120: a876 38bd eeea dcbd 2492 093d 1878 e53d
00000130: 3045 22bd 00f6 a539 8276 c93d 98ae 8fbc
00000140: ba39 acbd 60b1 243c e23b a9bd 703a 973d
00000150: 421c d2bd 6ab9 b8bd e83e 20bd 9693 be3d
00000160: a0c4 a1bc ee17 bebd 10f8 033d a6fa abbd
00000170: b83c e9bc 5c33 913d f018 c93d d214 8c3d
00000180: 908b c03d e829 113d e0bd cf3b 3296 863d
00000190: 4c06 66bd 9c76 94bd 2083 013d 263d c3bd
000001a0: 608a fcbc 4617 cebd 006d 123a 14b0 983d
000001b0: ac99 2c3d 4870 c4bc 2062 b73c f24d 89bd
000001c0: 449e 8abd 5067 913d 781f 97bd 2a33 913d
000001d0: 405e 803c 7030 3cbd 24d0 b3bd 6e2a fcbd
000001e0: ccb1 8bbd 8006 6fbc 5881 83bc 72dd b33d
000001f0: 646d c03d a41d ddbd f01b babc 6c2d 953d
00000200: 5897 083d 7877 a3bd 3a45 883f 607d fe3d
00000210: eabd d33d 0c96 febd 007f e5ba 6e1b 823d
00000220: 48e5 59bd 842b ca3d f40b ed3d 8600 a83d
00000230: 581c 3d3d 8e43 a9bd 38f2 b7bc 48bd e9bd
00000240: e86d 6ebd 980b 8e3d 92ab b93d ccda 373d
00000250: 1e24 d03d 90ae 8bbd a044 cdbd 70aa a8bd
00000260: 7635 f93d fee8 c9bd 8c79 b6bd 3cea 87bd
00000270: 308c 613d c836 e63c d604 dabd 7c41 e1bd
00000280: 8c56 ecbd d071 acbd 4011 9f3d f0eb 65bd
00000290: 24e9 f1bd e0be 19bd 60ef 61bc 341d f13d
000002a0: b05d 9a3d 92fe c43d 1833 f83c d2b9 8ebd
000002b0: e894 bebd 08d2 f9bc 1024 4d3d 0019 1bbc
000002c0: 00a9 b83b 82a4 8e3d 42a8 adbd 8c72 55bd
000002d0: d00a 103c 204d 59bc 28ee 8d3d 9c31 8fbd
000002e0: 14c1 193d 685f fdbc 0c11 a9bd f038 5fbc
000002f0: 3828 bb3d 125d ad3d 90ab 57bc 3a3a fc3d
00000300: ca64 943d f418 70bd 8010 b83d a6b4 763f
00000310: bc8c 943d 98e1 693d 780d d5bd dc42 89bd
00000320: 0068 a53c 36e5 9a3d 46ad 853d 20c0 2b3d
00000330: 806c 9fba 9020 2f3c 8071 deba 50ac 79bd
00000340: 886f e53c 9e92 c9bd 421f efbd 4c34 6dbd
00000350: 009c 5dba 7c90 3b3d 3890 b23c 62ce 89bd
00000360: 98ae 1c3d 506c 793c 025b efbd a03d 03bc
00000370: 88db e63d 1a3b 813d c89b 7b3d 782b ad3d
00000380: 5052 88bc 5476 ffbd 4063 e63b 9049 a1bc
00000390: 20a1 d0bd b06c 4cbc 8052 8b3d 7c98 393d
000003a0: 4881 c53d 4ef6 abbd c88d b13c 5ae4 e2bd
000003b0: 5cbc 8abd 706d 813d 80ec 273d 1443 76bd
000003c0: f2ef bcbd 48f1 d4bd c40d 82bd b843 073d
000003d0: 9284 e23d d022 b9bd 089c 963c 5a12 a8bd
000003e0: f4a2 95bd a642 d6bd 20a2 c6bd 88d1 d7bd
000003f0: 307a 59bc 8068 37bd 6cf6 92bd 74cd f7bd
0.90485793 0.04445909 -0.11426811 0.018215448 0.04901457 -0.013904005 0.10237186 -0.09268859
0.025707632 0.07879664 -0.01474832 -0.042828023 -0.08154978 0.101464674 -0.042594075 0.11369415
-0.035439312 -0.021481514 -0.00026865304 -0.0035795867 -0.123842254 0.1125592 0.021131963 -0.044898987
-0.01817362 0.03889911 -0.09422146 -0.012859285 -0.024349138 0.12236296 -0.12461801 -0.12295677
0.009284437 -0.06857024 -0.046529144 0.06857601 -0.011469081 -0.09037417 0.013194352 -0.07730119
-0.04559496 -0.076852664 -0.051177844 -0.12286085 0.096319795 -0.07939027 -0.06862323 0.061651275
-0.023171127 0.037949666 -0.055994064 -0.107879624 0.115975305 0.04565528 -0.015281856 -0.0029954761
0.084413245 -0.019442424 0.034103677 0.03468609 -0.011721283 -0.05772735 -0.016226113 0.05207652
0.12451865 0.9826536 -0.008324027 0.038847387 0.116894096 0.02183476 -0.053617805 0.11978279
-0.045035034 -0.10786997 0.033586636 0.11204547 -0.039616764 0.00031654537 0.09837057 -0.017539307
-0.08409448 0.010052055 -0.08263375 0.07384193 -0.10259296 -0.0901974 -0.039122492 0.093054935
-0.019747078 -0.09281908 0.032218993 -0.08397417 -0.028471336 0.07089874 0.098192096 0.06839909
0.094016194 0.035440356 0.0063397735 0.06571616 -0.05615835 -0.072491854 0.03161919 -0.095331475
-0.030827701 -0.10063033 0.00055857 0.07455459 0.04213874 -0.023979321 0.022385657 -0.0670432
-0.06768468 0.070997834 -0.07379049 0.07089837 0.015669942 -0.04594463 -0.08779934 -0.1231278
-0.068210214 -0.014588952 -0.016052887 0.08782472 0.093958646 -0.10796669 -0.0227184 0.07284054
0.033347458 -0.07981771 1.0646126 0.12426257 0.103389576 -0.12430963 -0.0017509162 0.06352888
-0.053197175 0.09871581 0.115745455 0.08203225 0.04616961 -0.08264838 -0.022454366 -0.11413056
-0.058210284 0.06935805 0.090659276 0.044886395 0.10163139 -0.068204045 -0.10022855 -0.082356334
0.121684 -0.09858893 -0.08909902 -0.066364735 0.055065334 0.028102294 -0.10645454 -0.10998818
-0.11539945 -0.084201455 0.07766962 -0.05613321 -0.11812046 -0.03753555 -0.013789982 0.11773148
0.07537401 0.09618868 0.0302978 -0.06969036 -0.09305745 -0.030495659 0.05008322 -0.00946641
0.0056353807 0.06964971 -0.08479358 -0.052111194 0.00879164 -0.013263017 0.0693019 -0.06991884
0.03753765 -0.030929282 -0.082552046 -0.013624415 0.091385305 0.084650174 -0.013163462 0.12315793
0.072457865 -0.058617547 0.08987522 0.963694 0.072534055 0.05709991 -0.104029596 -0.067022055
0.020191193 0.0756325 0.0652719 0.04193127 -0.0012163073 0.010688916 -0.0016971081 -0.060955346
0.028007284 -0.09842418 -0.11675884 -0.057911202 -0.0008453727 0.045792088 0.021797284 -0.067288175
0.038252443 0.015223578 -0.1168728 -0.008010298 0.11272341 0.06310101 0.06142786 0.08455557
-0.016640812 -0.12473741 0.0070308745 -0.019688398 -0.10186982 -0.012477085 0.06802845 0.045311436
0.09643799 -0.08396588 0.021674052 -0.11078711 -0.06774208 0.06319702 0.04099703 -0.060122564
-0.092254534 -0.10397583 -0.06350282 0.033023566 0.11060442 -0.09039843 0.018384948 -0.08206625
-0.073064715 -0.10461931 -0.09698892 -0.10538012 -0.013273761 -0.044777393 -0.071759075 -0.12099734
