ThinkMatch/exp/pca/CV0/saved_models/model.pt (torch, 216498 bytes, 17 tensors)

gnn_layer_0.gconv.a_fc.weight f4 [64, 121]
0	0x3db35bf8	0.08757776
1	0xbd9af5e3	-0.075664304
2	0x3d44ffaa	0.048095383
3	0xbb30e168	-0.0026989821
4	0xbda9cebc	-0.082913846
5	0x3db8b5ed	0.090190746
6	0x3d5502bd	0.052004565
7	0x3dc1f033	0.094696425
8	0x3d17bdab	0.037046116
9	0xbd9609b2	-0.07326068
10	0x3cfc327f	0.030785797
11	0xbd541a4c	-0.05178289
12	0x3d009c44	0.031399027
13	0xbc0d5f41	-0.008628667
14	0x3c997073	0.018730378
15	0x3d9a6cb0	0.07540262
16	0x3d6c8e2f	0.057752784
17	0x3d7a33ca	0.061084546
18	0x3d4f6cf9	0.050641034
19	0xbb43e516	-0.0029891185
20	0xbce59509	-0.028025167
21	0x3dba4aa1	0.090962656
22	0x3d8de009	0.06927497
23	0xbd0fbc24	-0.035091534
24	0x3d37e798	0.0448986
25	0xbdb758fb	-0.089525186
26	0x3d4fef6a	0.050765432
27	0x3db057e0	0.08610511
28	0xbd2506f1	-0.040289823
29	0xbdb7cf9b	-0.089751445
30	0xbd4d629b	-0.050142866
31	0x3d85edfb	0.06539532
32	0xbd867d3f	-0.065668575
33	0x3db3948b	0.08768567
34	0xbc9d14bb	-0.019174924
35	0x3cc4e909	0.024036901
36	0xbd06f08d	-0.03294425
37	0xbd826e5d	-0.063687064
38	0x3ca8493e	0.020542737
39	0xbcf36069	-0.029709058
40	0xbd5e2107	-0.054230716
41	0xbda72106	-0.081605956
42	0x3d81e94e	0.063433275
43	0x3d1edaff	0.03878307
44	0xbce1054b	-0.027468344
45	0x3d20a1cf	0.039216813
46	0xbc50ed5f	-0.012751906
47	0x3db96f0b	0.09054383
48	0xbd65b713	-0.056082796
49	0x3cb93476	0.022608023
50	0xbd8bcaa5	-0.06825761
51	0xbd833b3b	-0.06407782
52	0x3da14098	0.078736484
53	0x3db15fbc	0.08660838
54	0xbd0ff6de	-0.03514754
55	0xbc7eb3e1	-0.015545816
56	0x3d91b719	0.07115001
57	0x3db00d98	0.08596343
58	0xbd51eb0f	-0.05124956
59	0x3b8cbe74	0.0042951647
60	0xbd1fb59f	-0.038991567
61	0x3bd3b284	0.0064604897
62	0x3d50be4f	0.050962742
63	0xbda38778	-0.07984823
64	0xbdb05b81	-0.08611203
65	0xbd743243	-0.059618246
66	0x3d101d81	0.035184387
67	0x3c1737f6	0.009229651
68	0xbc4ac078	-0.01237499
69	0xbd632a66	-0.055460356
70	0xbd3d71ee	-0.04625123
71	0xbd8f87c2	-0.070083156
72	0xbd707beb	-0.058711927
73	0xbd9d15e1	-0.07670189
74	0xbd469d1d	-0.04848968
75	0x3d364915	0.04450329
76	0x3d9159fa	0.0709724
77	0x3cebf992	0.028805528
78	0xbdb00923	-0.08595493
79	0x3b9af656	0.0047290726
80	0x3d8ea348	0.06964737
81	0xbd1f0c4a	-0.03883008
82	0x3d95832c	0.0730041
83	0xbc2ad573	-0.010426867
84	0x3cbfef74	0.02342961
85	0x3bc6e325	0.006069558
86	0xbd2a4a21	-0.0415746
87	0xbbee406c	-0.0072708633
88	0xbcf9b692	-0.030482564
89	0xbb764a58	-0.0037580933
90	0x3d38139f	0.044940587
91	0xbcd1793b	-0.025570503
92	0x3d799786	0.06093552
93	0xbbb394d4	-0.005480388
94	0x3d160b34	0.036631778
95	0x3d25f3c4	0.040515676
96	0x3da69e4d	0.08135662
97	0xbc970a4d	-0.018437529
98	0xbd4de637	-0.050268378
99	0x3d949a0d	0.07255945
100	0xbb967e90	-0.004592724
101	0xbd81211f	-0.063051455
102	0xbce47ca2	-0.02789146
103	0x3d9b74e3	0.07590654
104	0x3d6e6ea1	0.058210973
105	0x3d8de77a	0.06928916
106	0x3da81b71	0.08208359
107	0x3d3de329	0.046359215
108	0xbd9a46f8	-0.075330675
109	0x3bdbf2e8	0.0067123063
110	0xbdb72f5b	-0.08944579
111	0x3c2a0c9e	0.010378985
112	0xbda451f4	-0.08023444
113	0x3db5e9a0	0.08882451
114	0xbd8a0d31	-0.06740797
115	0x3c4ac0b3	0.012375045
116	0x3c730a87	0.014834053
117	0xbd925936	-0.07145922
118	0x3d9e668b	0.07734402
119	0xbdb394de	-0.087686285
120	0x3c438bf2	0.011935221
121	0x3c1c6b00	0.009546995
122	0x3c9fc3a3	0.019502467
123	0x3d47b8d4	0.04876025
124	0xbd6feaa5	-0.058573384
125	0x3d9adb11	0.07561315
126	0xbd03d6ba	-0.0321872
127	0xbdbb23f0	-0.09137714
128	0xbd70eb6c	-0.058818266
129	0x3cfe3ec7	0.031035794
130	0x3c233183	0.009960535
131	0x3d29ae38	0.041425914
132	0xbc2ce27b	-0.010552044
133	0x3d19bdd2	0.037534542
134	0x3ce1715c	0.027519874
135	0xbd453177	-0.048142876
136	0xbd84e720	-0.06489396
137	0x3d200c57	0.03907427
138	0xbcf042b4	-0.029328682
139	0x3d779a0d	0.06044965
140	0xbc50af03	-0.012737039
141	0xbb80b18a	-0.0039274143
142	0x3d174b53	0.03693707
143	0xbcdd9880	-0.027050257
144	0x3c656161	0.014000268
145	0x3c4f4835	0.012651493
146	0x3d51086c	0.051033422
147	0x3c9ab30c	0.018884204
148	0xbd406699	-0.046972845
149	0xbbd2c5f1	-0.006432288
150	0xbd2ffa9d	-0.042963613
151	0xbd4a5a98	-0.049402803
152	0x3da277d3	0.07933011
153	0xbc1f4e92	-0.0097233225
154	0xbd9acd99	-0.07558746
155	0xbd26b462	-0.04069937
156	0xbd36f338	-0.044665545
157	0xbdac9285	-0.08426384
158	0xbd9baacc	-0.07600936
159	0x3dad6bcc	0.08467826
160	0xbd97379a	-0.07383652
161	0xbd597ae0	-0.0530957
162	0xbd1de1a7	-0.038545277
163	0xbd8dc85f	-0.069229834
164	0xbcb39a10	-0.021924049
165	0x3ccc3fc0	0.024932742
166	0xbd2ee900	-0.042702675
167	0xbb1081af	-0.0022049954
168	0x3d8fb04b	0.07016047
169	0xbd7c187a	-0.06154678
170	0xbd398d5e	-0.045300834
171	0xbd0c3ea2	-0.03423942
172	0xbda785d7	-0.08179825
173	0x3b424841	0.0029645117
174	0x3d870c34	0.065941244
175	0xbcdf0b75	-0.027227143
176	0x3aa92cb6	0.0012907002
177	0x3dac4251	0.08411086
178	0xbda3ac73	-0.079918765
179	0xbc869676	-0.016429167
180	0x3ce7b089	0.02828242
181	0x3c476e41	0.012172283
182	0xbd33953e	-0.0438435
183	0xbd961493	-0.07328143
184	0x3c85c8c4	0.016331084
185	0x3d97e51c	0.07416746
186	0xbd9897d0	-0.07450831
187	0x3dadfa1c	0.0849497
188	0x3d976bb6	0.07393591
189	0xbb970613	-0.0046088784
190	0xbd8d9a0e	-0.06914149
191	0xbc7514b9	-0.014958554
192	0xbda2d91d	-0.07951567
193	0xbdb0d665	-0.086346425
194	0xbda11d89	-0.078669615
195	0x3d2abe19	0.041685198
196	0x3d96f259	0.07370443
197	0x3d78036b	0.060550135
198	0xbd0ab916	-0.033867918
199	0x3c5edf55	0.013603051
200	0x3b46ec22	0.0030353148
201	0xbcbbaeb5	-0.022910455
202	0xbc9f9c5e	-0.019483741
203	0x3da01111	0.07815755
204	0x3da62d6d	0.08114133
205	0x3c1ea9bf	0.009684025
206	0xbbc71ef8	-0.00607669
207	0xbbc1b1a3	-0.0059110685
208	0x3d1dca24	0.038522854
209	0x3d99dfa6	0.07513361
210	0xbb30badf	-0.0026966853
211	0xbd625329	-0.05525509
212	0xbd2d345d	-0.042286266
213	0xbdb2d8ea	-0.08732779
214	0x3d9eb89c	0.07750055
215	0xbc87549c	-0.016519837
216	0xbd873c34	-0.0660328
217	0x3d85133f	0.064978115
218	0xbd2ea8c2	-0.04264141
219	0xbd7d9feb	-0.061920088
220	0x3d82cd90	0.06386864
221	0xbd3eeddc	-0.04661356
222	0x3bcb3d5a	0.006202382
223	0xbd4fef42	-0.050765283
224	0xbd936fa3	-0.071990274
225	0x3daadd98	0.08343047
226	0xbc8510dd	-0.016243393
227	0x3d74634b	0.059665006
228	0x3d200985	0.03907158
229	0xbd514ed2	-0.05110056
230	0x3d5c9ea1	0.053862218
231	0x3d28e9fa	0.041238762
232	0x3d33b736	0.043875895
233	0x3da0f19e	0.07858585
234	0x3d24f5c8	0.040273458
235	0xbd15c187	-0.036561515
236	0x3d769992	0.06020505
237	0x3d2d5979	0.042321656
238	0xbce03cbf	-0.027372716
239	0xbc0d9e10	-0.008643642
240	0xbd77b913	-0.060479235
241	0x3d9d0dfb	0.07668682
242	0xbc272f0b	-0.010204087
243	0x3ccfa3c3	0.025346642
244	0x3d90e9eb	0.07075866
245	0xbd86f8f9	-0.065904565
246	0x3d9a400a	0.07531746
247	0xbce5a5b2	-0.028033111
248	0x3cf45171	0.02982399
249	0x3cee042a	0.02905472
250	0xbc803b4b	-0.015653273
251	0xbdb6b4ba	-0.089211896
252	0x3c552e4f	0.013011529
253	0x3d653d09	0.05596641
254	0xbdb9dfb1	-0.09075869
255	0xbce57231	-0.028008552

gnn_layer_0.gconv.a_fc.bias f4 [64]
0	0xbd9fa09c	-0.07794306
1	0xbdba70e2	-0.09103562
2	0x3aad567d	0.0013224628
3	0x3d569bc8	0.05239466
4	0xbbae2c1e	-0.005315318
5	0x3d94f900	0.072740555
6	0xbd835a56	-0.064137146
7	0xbda59d00	-0.08086586
8	0x3d52d915	0.051476557
9	0x3bab9040	0.005235702
10	0xbd986d59	-0.074427314
11	0xbd4436d9	-0.04790387
12	0xbd27f901	-0.041008953
13	0xbd9479c5	-0.07249788
14	0xbc56aabc	-0.01310223
15	0xbd6db963	-0.058038127
16	0xbd41bce9	-0.0472993
17	0xbd5091fe	-0.05092048
18	0x3d662ab3	0.056193065
19	0x3db6f30f	0.089330785
20	0x3d4073e3	0.04698552
21	0x3c474d08	0.012164362
22	0xbd963723	-0.07334735
23	0x3d77cba8	0.060496956
24	0x3bdaaba1	0.006673292
25	0x3daa4361	0.08313633
26	0xbdb57f44	-0.088621646
27	0x3cd6c20c	0.026215576
28	0x3d05a48b	0.032627624
29	0x3dd5af30	0.10433805
30	0xbca7ac48	-0.020467892
31	0x3baebcb4	0.0053325538
32	0xbd1df9a3	-0.03856815
33	0xbd47f985	-0.048821945
34	0xbc055423	-0.008137736
35	0xbd515086	-0.051102184
36	0xbdaec1fa	-0.08533092
37	0x3dadebc1	0.08492232
38	0x3d9f535e	0.07779573
39	0xbd6e530c	-0.05818467
40	0x3d7931b1	0.060838405
41	0xbd91c314	-0.07117286
42	0x3d2b3739	0.04180071
43	0x3c92dfaf	0.017928926
44	0x3b68e7b6	0.00355385
45	0x3d9b4b24	0.07582691
46	0x3d849419	0.0647356
47	0xbd57c40c	-0.0526772
48	0xbc816763	-0.015796369
49	0x3d556f5f	0.052108165
50	0xbd312ef3	-0.043257665
51	0xbcf874f1	-0.0303292
52	0xbd8de942	-0.06929256
53	0x3cf672e2	0.030084077
54	0xbd98efab	-0.07467588
55	0x3d109213	0.035295557
56	0xbd994263	-0.074833654
57	0xbd0596fa	-0.032614686
58	0xbd0b9ee3	-0.034087073
59	0xbdbd9ded	-0.092586376
60	0xbd0b7938	-0.03405115
61	0xbd11aa62	-0.03556288
62	0x3d8cc331	0.06873167
63	0x3dc1df06	0.094663665

gnn_layer_0.gconv.u_fc.weight f4 [64, 121]
0	0xbc7cbece	-0.015426351
1	0xbd29e521	-0.04147828
2	0x3ae49f9d	0.0017442588
3	0x3d7c6e57	0.061628666
4	0x3db4f7af	0.088363044
5	0xbd901af4	-0.07036391
6	0x3d9a0361	0.07520176
7	0xbdbd59d4	-0.09245649
8	0xbd7b55a8	-0.061360985
9	0x3d749348	0.05971077
10	0x3db3e50a	0.0878392
11	0x3cfb8a78	0.030705675
12	0x3d30fffc	0.043212876
13	0x3d1d5916	0.038415037
14	0x3cef3feb	0.029205283
15	0xbd237f7d	-0.039916504
16	0x3dc4463e	0.0958371
17	0xbceec20b	-0.029145261
18	0x3d53167d	0.05153512
19	0xbca2076c	-0.01977893
20	0x3d7943d1	0.06085569
21	0x3c9c88e4	0.019108243
22	0x3dbff01f	0.09371971
23	0xbcb4fa78	-0.022092089
24	0xbd1ff3c0	-0.039050817
25	0xbd8f5e61	-0.07000423
26	0xbd283f3c	-0.04107593
27	0xbd7de352	-0.061984368
28	0xbcd06970	-0.025440902
29	0x3cb94fb7	0.022621019
30	0x3da37a9c	0.0798237
31	0xbc43c224	-0.011948142
32	0x3d0c3ba2	0.034236558
33	0x3d83e9cd	0.06441078
34	0x3cd42531	0.02589664
35	0x3d8baf8b	0.068205915
36	0x3c8e3e72	0.01736376
37	0xbd73d9df	-0.05953395
38	0x3ce422ab	0.027848562
39	0xbd189aa5	-0.037256856
40	0x3d4a5a34	0.04940243
41	0xbd520ce8	-0.05128184
42	0xbdab7eae	-0.083737716
43	0x3b6eb15d	0.0036421635
44	0x3c8425a7	0.016131235
45	0x3d245975	0.040124375
46	0x3d823684	0.06358054
47	0xbca60119	-0.020264195
48	0x3db6d8f4	0.08928099
49	0xbca6ed01	-0.020376684
50	0xbd6d64ed	-0.05795758
51	0x3dba9cf8	0.09111971
52	0x3d261ba3	0.0405537
53	0xbdb0e443	-0.086372875
54	0xbd52ace5	-0.051434416
55	0x3b30cab1	0.0026976282
56	0xbd8b00fa	-0.06787296
57	0x3cab49a4	0.020909138
58	0xbd80a385	-0.06281189
59	0xbd34cf05	-0.04414274
60	0x3d9bfbc9	0.076163836
61	0xbd49be46	-0.049253725
62	0x3d29ffec	0.04150383
63	0x3d9817d3	0.07426419
64	0x3d1017e6	0.03517904
65	0xbd5cf8b2	-0.05394811
66	0x3c5e0221	0.013550312
67	0xbd4f7209	-0.05064586
68	0xbd9904fc	-0.07471654
69	0x3d97e5c5	0.07416872
70	0xbd88d0c0	-0.06680441
71	0xbd2513c9	-0.04030207
72	0xbd339212	-0.043840475
73	0xbd3262b2	-0.043551154
74	0xbd4b0c7f	-0.049572464
75	0x3d58652b	0.052830856
76	0xbdb180e5	-0.08667163
77	0x3d17c511	0.03705317
78	0x3ceae570	0.028673857
79	0xbca45817	-0.020061536
80	0xbdad3825	-0.08457974
81	0x3b3b1c3e	0.002855077
82	0xbc9cc5de	-0.01913732
83	0xbd3b96a9	-0.045797978
84	0x3bc12677	0.005894478
85	0x3d864161	0.06555439
86	0x3d6e4f6f	0.058181223
87	0xbc172094	-0.009224076
88	0xbcbfd8a5	-0.023418734
89	0x3d9f6c14	0.07784286
90	0xbd9b839f	-0.07593464
91	0xbd8f5400	-0.069984436
92	0xbd94e180	-0.07269573
93	0xbdada862	-0.08479382
94	0xbd91c192	-0.07116999
95	0x3d1d49b6	0.038400374
96	0xbb6cc840	-0.00361301
97	0x3d043fb2	0.032287307
98	0xbc0b74a7	-0.008511699
99	0xbda7c296	-0.08191411
100	0xbd93938e	-0.07205878
101	0xbd6ffdca	-0.05859164
102	0x3d1c82b7	0.038210597
103	0xbb7b84d1	-0.0038378725
104	0xbc046e9f	-0.008083015
105	0xbca53ffd	-0.020172114
106	0xbd361fbc	-0.044463858
107	0x3da62c84	0.081139594
108	0xbc8909fa	-0.01672839
109	0x3dacdede	0.08440946
110	0xbd9516e2	-0.07279755
111	0xbd12b417	-0.03581628
112	0xbdc2f541	-0.09519435
113	0xbd8fc788	-0.070204794
114	0xbd0d421e	-0.034486882
115	0x3dabdd77	0.083918504
116	0x3cea48c1	0.028599145
117	0xbd6a062a	-0.057134785
118	0xbda0db6f	-0.07854354
119	0xbcac782d	-0.021053398
120	0xbae6158b	-0.0017554028
121	0x3da28f7b	0.07937523
122	0xbdb6cc74	-0.08925715
123	0x3da6d66c	0.081463665
124	0x3bd7f03e	0.0065899184
125	0x3dae2ce2	0.085046545
126	0xbcf362d3	-0.029710209
127	0x3d5b3e89	0.053526435
128	0xbc6c8c9c	-0.014437821
129	0xbd2e663e	-0.042577974
130	0xbdb150b7	-0.08657973
131	0xbd897a4b	-0.06712779
132	0xbd20e5b0	-0.039281547
133	0x3d4ee1f8	0.05050847
134	0xbdb64076	-0.08899014
135	0xbd415aab	-0.04720561
136	0x3b7d7cde	0.0038679163
137	0xbd2982a6	-0.04138436
138	0x3d2ba23c	0.041902766
139	0x3d8878e4	0.06663683
140	0x3cb6987a	0.022289503
141	0x3cae115a	0.021248508
142	0x3c941fdc	0.018081598
143	0x3d0eb09a	0.03483639
144	0xb8abacb5	-8.1860846e-05
145	0x3d87195a	0.06596632
146	0x3c3e5240	0.01161629
147	0xbd59746c	-0.053089544
148	0xbc31b65e	-0.010846702
149	0x3b6884ec	0.0035479618
150	0x3c7f3b83	0.015578154
151	0xbc5a92b9	-0.0133406455
152	0x3cf7bb69	0.030240731
153	0xbd79870c	-0.060919806
154	0x3d7928f5	0.060830075
155	0x3da651de	0.08121084
156	0x3b4aa174	0.0030918987
157	0x3c52cab3	0.01286571
158	0x3da3c21e	0.07996009
159	0xbd1b70f0	-0.037949502
160	0xbd9a9b0c	-0.07549104
161	0x3c2234e1	0.009900303
162	0xbda91853	-0.082565926
163	0x3d0aa71e	0.03385078
164	0x3cedeaca	0.02904262
165	0x3ce41ee2	0.027846757
166	0xbcc967fc	-0.024585716
167	0xbbe3a476	-0.0069470955
168	0x3b043fc4	0.002017961
169	0xbd8de0ec	-0.06927666
170	0xbd9cf927	-0.076647095
171	0x3dad9132	0.084749594
172	0x3d819cb1	0.06328715
173	0xbccb838c	-0.024843
174	0xbcf55353	-0.029946959
175	0xbd85b4c9	-0.06528623
176	0xbd53c5a8	-0.05170217
177	0x3d369c75	0.044582803
178	0x3c6c17a6	0.014409935
179	0x3dadb406	0.08481602
180	0xbdb62df7	-0.08895486
181	0x3d251e31	0.040311996
182	0xbd31c254	-0.043398216
183	0x3d5a5dab	0.053311985
184	0x3c892e16	0.016745608
185	0x3cf8686a	0.030323226
186	0x3d7e076c	0.062018797
187	0xbd2f16f1	-0.042746488
188	0x3cbecc54	0.02329079
189	0xbc3abd51	-0.011397676
190	0xbd6ab5b1	-0.05730218
191	0xbcd05581	-0.025431396
192	0x3d4ac599	0.04950485
193	0xbc50c8be	-0.012743173
194	0x3d9a5d06	0.07537274
195	0xbc241046	-0.0100136455
196	0xbdb2073f	-0.08692788
197	0x3d86bde4	0.065791875
198	0xbdad2912	-0.08455099
199	0x3d9826f7	0.07429307
200	0x3d883c3e	0.06652115
201	0xbca9bdb9	-0.02072035
202	0x3d139dfc	0.036039338
203	0xbca5d296	-0.020242017
204	0x3ca9162a	0.020640451
205	0xbd0e43aa	-0.0347325
206	0x3d927cbd	0.07152698
207	0x3cfa3757	0.030543966
208	0xbdba9af5	-0.09111587
209	0xbd04ecbb	-0.032452326
210	0x3d9edc72	0.0775689
211	0x3da15f92	0.07879557
212	0x3d933833	0.071884535
213	0x3d9b0b32	0.07570495
214	0x3cd677db	0.026180198
215	0x3d88a427	0.066719346
216	0x3d7a42dc	0.06109892
217	0xbdabe8fa	-0.08394046
218	0xbd828847	-0.06373649
219	0x3da1c22d	0.07898364
220	0xbd346659	-0.04404292
221	0x3ce57326	0.028009009
222	0xbc38861f	-0.011262446
223	0xbdb4e56f	-0.088328235
224	0xbd9da9fb	-0.07698437
225	0xbd9e7cd8	-0.07738656
226	0x3d4c6c3f	0.04990792
227	0xbd83b9c1	-0.06431914
228	0xbd0166fd	-0.031592358
229	0xbce85366	-0.02836008
230	0xbd95ce7c	-0.073147744
231	0x3c95358f	0.018214015
232	0x3c2ff4f7	0.0107395565
233	0x3d9adb4f	0.07561361
234	0xbd04ead8	-0.032450527
235	0x3d44ee21	0.04807866
236	0x3da82724	0.082105905
237	0xbd9e7d51	-0.07738746
238	0x3c343274	0.010998357
239	0x3daf32d5	0.08554617
240	0x3d3ef114	0.04661663
241	0xbcbb5b74	-0.022870757
242	0x3d98d5f6	0.07462685
243	0xbd5a8be1	-0.053356055
244	0xbd955678	-0.07291883
245	0xbd840a93	-0.06447329
246	0x3d2d2867	0.04227486
247	0x3d4a2d38	0.04935953
248	0x3d86dc32	0.06584968
249	0xbd8f3528	-0.069925606
250	0xbdafae73	-0.085781954
251	0x3d6563f9	0.056003544
252	0x3d5b13a1	0.053485516
253	0xbda43dd9	-0.08019609
254	0xbc864d1c	-0.01639419
255	0xbdb08f6d	-0.08621106

gnn_layer_0.gconv.u_fc.bias f4 [64]
0	0xbb86d781	-0.0041150455
1	0x3d0e2469	0.034702692
2	0xb787bad2	-1.6180249e-05
3	0x3da8b1a0	0.08237004
4	0xbd7114cc	-0.058857724
5	0x3d1b9296	0.037981592
6	0x3d178a5b	0.03699718
7	0x3daac476	0.08338253
8	0xbd86600d	-0.06561289
9	0x3d957446	0.07297568
10	0x3c5d4f07	0.013507611
11	0xbd99703a	-0.07492109
12	0x3d9d2514	0.07673088
13	0x3d5d219a	0.053987123
14	0x3d1ec976	0.038766347
15	0x3cb321c8	0.021866694
16	0x3cdba940	0.026814103
17	0x3d6b7d4f	0.05749255
18	0xbd9605e3	-0.073253416
19	0xbd570ac4	-0.0525005
20	0x3ccaa4d6	0.024736803
21	0xbda06453	-0.07831635
22	0x3d10a042	0.035309084
23	0x3d8c05fb	0.06837078
24	0x3daed3a6	0.085364625
25	0x3da535be	0.08066891
26	0x3da2691d	0.07930205
27	0xbcbc2258	-0.022965595
28	0x3d0c94a0	0.034321427
29	0x3adfc81d	0.0017073188
30	0x3d606cf8	0.05479142
31	0x3cd1ab77	0.025594456
32	0xbda35600	-0.079753876
33	0x3d9e90ef	0.07742488
34	0xbd2e7443	-0.042591345
35	0x3c8c5627	0.017130924
36	0x3d365a7b	0.044519883
37	0xbd78bf71	-0.060729448
38	0x3d45632b	0.048190277
39	0xbb4ba364	-0.003107273
40	0x3c7b5d1a	0.015342021
41	0x3c30a39c	0.010781195
42	0xbdac0a46	-0.08400397
43	0xbcb52981	-0.022114517
44	0xbd83bf14	-0.0643293
45	0x3dc863b3	0.09784641
46	0xbd907210	-0.07053006
47	0x3d3e8b8d	0.046519805
48	0xbd90b14a	-0.07065065
49	0xbdc3a908	-0.095537245
50	0xbc5b14ba	-0.013371641
51	0x3d49cb00	0.04926586
52	0xbd3ba251	-0.045809094
53	0xbdb9d11c	-0.090730876
54	0x3da4b8b8	0.08043045
55	0x3d11f543	0.03563429
56	0xbc44beac	-0.01200835
57	0x3cba9ffd	0.022781366
58	0x3ce64d6d	0.028113091
59	0x3d9b6b66	0.07588844
60	0xbd9a608e	-0.075379476
61	0xbdabb793	-0.083846234
62	0x3d8a760c	0.06760797
63	0x3d23268c	0.039831683

affinity_0.A f4 [64, 64]
0	0x3f803458	1.0015974
1	0xbdab3bc4	-0.08361009
2	0x3d768d04	0.060193077
3	0xbdff45b2	-0.12464465
4	0x3ddc640a	0.107612684
5	0xbd51cec4	-0.051222578
6	0xbda4ec2c	-0.08052859
7	0xbcdc7690	-0.026912004
8	0x3b22b7c0	0.0024828762
9	0x3cde2250	0.02711597
10	0xba761400	-0.00093871355
11	0x3c2cd4f0	0.010548815
12	0x3c2766e0	0.010217398
13	0xbcf1d0d0	-0.029518515
14	0xbdceba78	-0.1009416
15	0xbb536c00	-0.0032260418
16	0xbda3ac12	-0.07991804
17	0x3df53a70	0.11974037
18	0xbdb70380	-0.089362144
19	0x3d405798	0.046958536
20	0x3d4d211c	0.050080404
21	0x3de0695c	0.10957596
22	0xbdc89ebe	-0.09795903
23	0x3dd2c5f0	0.1029166
24	0x3dc0372e	0.09385525
25	0x3d487528	0.048939854
26	0xbdd3bb7e	-0.10338496
27	0xbd552124	-0.05203356
28	0x3da93ee0	0.082639456
29	0x3da61f2c	0.08111414
30	0x3c0d5cf0	0.008628115
31	0xbda5d090	-0.08096421
32	0xbddb3536	-0.107035086
33	0x3d734170	0.059388578
34	0x3c17ab70	0.0092571825
35	0xbd31ba50	-0.043390572
36	0xbdd16f9e	-0.102263674
37	0x3da8103c	0.082062215
38	0xbdfea33c	-0.12433478
39	0xbddb4674	-0.10706797
40	0x3ccee608	0.025256172
41	0x3db577fe	0.08860777
42	0x3d7d8b70	0.061900556
43	0xbdc233f6	-0.09482567
44	0xbcec3b70	-0.028836936
45	0xbdb02b52	-0.08602013
46	0xbc51f580	-0.012814879
47	0xbd807f04	-0.06274226
48	0x3b9bb8a0	0.0047522336
49	0x3df0f496	0.11765401
50	0x3bc6bba0	0.006064847
51	0x3c1db110	0.0096247345
52	0xbdf3b40a	-0.11899574
53	0xbd4eea5c	-0.05051647
54	0x3d9b281e	0.07576011
55	0x3de3ab70	0.111166835
56	0xbdc0f4c2	-0.09421684
57	0x3df8b040	0.12142992
58	0xbce70ce8	-0.028204396
59	0xbc4a37d0	-0.012342408
60	0x3caf94b0	0.021433204
61	0xbd3b2780	-0.045691967
62	0x3c2753f0	0.010212883
63	0xbc28b3f0	-0.010296807
64	0xbdaf45ee	-0.0855826
65	0x3f8994a3	1.0748485
66	0xbdef5186	-0.11685471
67	0xbc840018	-0.016113326
68	0x3c040d20	0.00805977
69	0xbd807f54	-0.06274286
70	0x3d665b4c	0.05623941
71	0x3d81f4fe	0.06345557
72	0xbde0c684	-0.10975364
73	0xbd7ce2e8	-0.061739832
74	0xbdb23dae	-0.08703171
75	0xbde7ffea	-0.113281086
76	0x3de6be3e	0.112667546
77	0xbdd9fad2	-0.10643543
78	0x3dfab308	0.12241179
79	0xbd66050c	-0.056157157
80	0x3d9cdc1a	0.076591685
81	0x3cd93650	0.026515156
82	0xb7d98000	-2.592802e-05
83	0xbdb3f5e0	-0.08787131
84	0x3cbea228	0.023270682
85	0x3deff0bc	0.11715838
86	0x3d15d854	0.03658326
87	0x3dece16c	0.11566433
88	0xbd8566fa	-0.06513782
89	0x3dedfaaa	0.11620076
90	0xbdb2693c	-0.08711478
91	0x3d3207f4	0.043464616
92	0xbdb2a42a	-0.08722718
93	0xbce47668	-0.027888492
94	0x3d91426c	0.07092747
95	0x3dde4a12	0.108539715
96	0x3de975a0	0.11399388
97	0x3df0a2f2	0.11749829
98	0x3dc6dffa	0.09710689
99	0x3da71388	0.08158022
100	0x3df62976	0.12019627
101	0x3cc7cd08	0.024389759
102	0x3d36f9c8	0.044671804
103	0xbddf308c	-0.108979315
104	0x3d3f3b20	0.046687245
105	0xbda49afe	-0.08037375
106	0xbde080b8	-0.10962051
107	0xbc52dd40	-0.012870133
108	0xbc550ea0	-0.013003975
109	0xbc9226a8	-0.017840698
110	0x3d42a900	0.047524452
111	0x3dfd5bb8	0.123710096
112	0x3c993648	0.018702641
113	0x39ca4e00	0.00038586557
114	0x3dadce94	0.08486667
115	0xbc763430	-0.015027091
116	0xbc6a8be0	-0.014315575
117	0x3c168250	0.009186342
118	0x3df6c5c2	0.12049438
119	0x3d890686	0.06690697
120	0x3dcbedd2	0.0995747
121	0x3d634df8	0.05549428
122	0xbc2cff10	-0.0105588585
123	0x3dee01f2	0.11621465
124	0xbd92dfd2	-0.071715966
125	0xbc0f5740	-0.008748829
126	0xbd89cd3e	-0.067286
127	0xbd3d0230	-0.046144664
128	0x3d8223f8	0.06354517
129	0xbdc71e7e	-0.09722613
130	0x3f8dab21	1.1067849
131	0xbd17941c	-0.037006482
132	0x3df20332	0.11817016
133	0x3b8130c0	0.003942579
134	0xbdb92cda	-0.09041758
135	0x3d855d16	0.06511895
136	0xbba5fba0	-0.0050653964
137	0xbc0ead40	-0.008708298
138	0x3db49fd6	0.08819549
139	0x3cdd5848	0.027019635
140	0x3d13c3b4	0.03607531
141	0xbc412880	-0.011789441
142	0xbdf62504	-0.12018779
143	0xbdead1b6	-0.114657804
144	0xbb12ac00	-0.0022380352
145	0x3d819ae4	0.06328371
146	0xbcfac248	-0.030610219
147	0xbd7dab04	-0.06193067
148	0x3cf25fa8	0.029586628
149	0xbc7129f0	-0.014719471
150	0x3da649bc	0.081195325
151	0x3df6d43a	0.12052198
152	0x3ccb5e98	0.02482538
153	0x3d4e1f0c	0.050322577
154	0x3dfacf18	0.12246531
155	0xbdde13e6	-0.10843639
156	0xbd8ce824	-0.06880215
157	0xbdf525aa	-0.119700745
158	0x3dde46a6	0.10853319
159	0x3bb233c0	0.005438298
160	0xbc1bdbf0	-0.009512886
161	0xbd4c1274	-0.049822286
162	0xbd8c1972	-0.06840791
163	0x3b4ad280	0.0030948222
164	0x3de24516	0.11048333
165	0xbc8651a8	-0.016396359
166	0x3cf50f10	0.029914409
167	0x3de90a4c	0.11378917
168	0x3cfec698	0.031100556
169	0x3d746cd0	0.059674084
170	0x3df7221e	0.12067054
171	0x3ca66b70	0.020314902
172	0xbda3fcc4	-0.080071956
173	0x3d3fd8a4	0.046837464
174	0x3dd66cda	0.104699805
175	0x3d30fcd4	0.043209866
176	0xbcac4908	-0.021030918
177	0xbd5cec78	-0.05393645
178	0xbd1003e0	-0.035159945
179	0x3da8f77c	0.08250329
180	0x3dec41f6	0.115360186
181	0xbd2e3468	-0.042530447
182	0xbd9facaa	-0.07796605
183	0x3c928ef0	0.017890424
184	0xbcd38418	-0.025819823
185	0xbdd4b908	-0.103868544
186	0x3d35c3b4	0.04437609
187	0xbd89ad86	-0.0672255
188	0x3d31d408	0.0434151
189	0xbd44d988	-0.048059016
190	0x3c58b930	0.013227746
191	0x3d003dc8	0.03130892
192	0xbde84700	-0.11341667
193	0x3d85c840	0.06532335
194	0x3d498594	0.049199656
195	0x3f8fddfc	1.1239619
196	0xbdd96f48	-0.10616928
197	0x3df90122	0.12158419
198	0xbca11948	-0.019665375
199	0xbae87a80	-0.0017736703
200	0xbd9e7c40	-0.077385426
201	0x3dcb2a76	0.09920208
202	0x3d66e6d8	0.056372494
203	0x3c97c5c0	0.018526912
204	0x3c15f440	0.009152472
205	0x3da57416	0.08078782
206	0xbd5db284	-0.054125324
207	0x3df892a8	0.121373475
208	0x3c2abaa0	0.010420471
209	0xbcb5f070	-0.022209376
210	0x3d6ad7ec	0.057334825
211	0x3d38b450	0.045093834
212	0xbdc88bd8	-0.09792298
213	0x3c104580	0.008805633
214	0xbd890c0a	-0.066917494
215	0x3ca37b18	0.019956157
216	0xbd3c95c8	-0.04604128
217	0xbc25f680	-0.010129571
218	0xbd9f6740	-0.07783365
219	0xbdd818e4	-0.105516225
220	0xbd2c07f0	-0.041999757
221	0xbd32b908	-0.04363349
222	0xbcca9a18	-0.02473168
223	0x3d5ceb8c	0.053935573
224	0x3d1bfeb4	0.0380847
225	0x3de9fa1e	0.11424659
226	0x3d2a7568	0.041615874
227	0xbdf2ccd0	-0.11855471
228	0xbd85cc58	-0.06533116
229	0xbd8202a8	-0.06348163
230	0x3d46afdc	0.048507556
231	0x3d30b048	0.043136865
232	0x3cdffe20	0.027342856
233	0xbd0f0578	-0.034917325
234	0x3d8bda44	0.0682874
235	0xbdd4f30e	-0.103979215
236	0x3a179c00	0.00057834387
237	0xbd9c61a6	-0.076358125
238	0x3de3b5a8	0.111186326
239	0x3d10c5d8	0.03534493
240	0xbd9374ec	-0.072000355
241	0x3b56c2c0	0.0032769889
242	0xbdc11108	-0.094270766
243	0x3c77af20	0.015117437
244	0xbd308d50	-0.043103516
245	0x3ce2fca0	0.027708352
246	0x3df38098	0.11889762
247	0x3d9e1bb6	0.07720129
248	0xbd851bbc	-0.064994305
249	0x3d29d80c	0.041465804
250	0xbd874db4	-0.066066176
251	0xbd5dff14	-0.05419834
252	0x3de8c60e	0.11365901
253	0xbdd7ca4a	-0.105366305
254	0xbd873e9e	-0.0660374
255	0xbbc786e0	-0.0060890764

gnn_layer_1.gconv.a_fc.weight f4 [64, 64]
0	0xbc05e876	-0.008173099
1	0x3dfe0a0d	0.12404261
2	0xbdde2322	-0.10846545
3	0xbc343e16	-0.011001131
4	0x3b492354	0.0030691223
5	0x3dfcf1bb	0.12350794
6	0xbbe835f4	-0.00708651
7	0x3da27db8	0.07934135
8	0xbd226c57	-0.039654102
9	0x3d6eb182	0.058274753
10	0x3d2e22b9	0.042513583
11	0xbdf0a641	-0.117504604
12	0x3d526354	0.051364258
13	0xbc4e23f7	-0.012581817
14	0x3d9d5a57	0.076832466
15	0x3ca7be12	0.020476375
16	0x3cef82c6	0.029237162
17	0xbd5299c0	-0.05141616
18	0xbd14f11c	-0.036362752
19	0x3d47cd0b	0.04877953
20	0x3ddc754f	0.10764562
21	0x3d3ecfd7	0.04658493
22	0x3d0f3afa	0.034968354
23	0xbdb2ec5b	-0.087364875
24	0xbd7ac4f5	-0.06122299
25	0xbc09d892	-0.008413451
26	0xbdf51ecc	-0.11968765
27	0xbdfb69c3	-0.12276032
28	0x3dd28a3f	0.102802746
29	0xbc358f5a	-0.011081541
30	0xbd77a33f	-0.060458418
31	0xbdb1fc06	-0.08690648
32	0xbdcb1fda	-0.099181846
33	0x3dbab524	0.09116581
34	0xbdd51d38	-0.10405964
35	0x3d946970	0.07246673
36	0x3dd013bd	0.10160015
37	0xbd0ac2d1	-0.033877198
38	0x3c1a1210	0.0094037205
39	0x3d609f0a	0.05483917
40	0xbddd1bbf	-0.10796308
41	0xbdcfad6c	-0.101404995
42	0xbde626f6	-0.112379
43	0xbd8298f3	-0.06376829
44	0x3d074e87	0.033033874
45	0x3dadbe2e	0.084835395
46	0x3ad7f0e7	0.0016474993
47	0xbd161ffa	-0.03665159
48	0xbdfeccd4	-0.124414116
49	0xbdcc5e3e	-0.09978913
50	0x3cef0009	0.029174821
51	0xbdd88466	-0.10572128
52	0x3cc5c3c9	0.02414121
53	0xbdffb989	-0.1248656
54	0xbdca462b	-0.09876665
55	0x3d6f5a9b	0.058436017
56	0x3d10b751	0.035331074
57	0xbd538cb0	-0.051647842
58	0x3df0505b	0.117340766
59	0xbde19e32	-0.110165015
60	0x3d979706	0.07401852
61	0xbd343c30	-0.04400271
62	0xbd9ddf21	-0.07708574
63	0xbd693fd3	-0.056945633
64	0x3da54520	0.08069825
65	0xbdb18b42	-0.086691394
66	0xbcda57c0	-0.02665317
67	0xbc9c4f08	-0.019080654
68	0xbdee6d66	-0.1164196
69	0xbd40aab4	-0.047037795
70	0x3c47b55a	0.012189234
71	0xbdc5787e	-0.09642123
72	0xbd8c563c	-0.068523854
73	0xbdd2d24f	-0.102940194
74	0xbc102137	-0.008796982
75	0xbde31d54	-0.11089578
76	0xbd95b74b	-0.07310351
77	0x3cae301c	0.021263175
78	0x3d23e72c	0.040015385
79	0x3d82575b	0.06364318
80	0xbdfcf71c	-0.1235182
81	0xbdfaf338	-0.122534215
82	0x3dc1a124	0.09454563
83	0x3c472999	0.012155914
84	0xbcafffa4	-0.021484204
85	0xbc7033e5	-0.01466081
86	0xbdfd64dd	-0.12372754
87	0x3ddfbd8a	0.109248236
88	0xbdf4f8b1	-0.119614966
89	0x3ddc671b	0.10761853
90	0xbc98caa8	-0.018651322
91	0x3c5b69f5	0.013391961
92	0xbc05cd75	-0.008166661
93	0xbd561181	-0.052262787
94	0xbd5065c2	-0.050878294
95	0x3cd00eb0	0.025397629
96	0xbdacc9c8	-0.08436924
97	0xbd922d68	-0.07137567
98	0xbdbc1e8e	-0.09185515
99	0xbdea2296	-0.11432378
100	0x3d7a3334	0.061083987
101	0xbdb3f7fc	-0.08787534
102	0xbdc4b8fc	-0.096055955
103	0x3b09bc00	0.0021016598
104	0x3c9ea467	0.019365503
105	0xbdddd36e	-0.10831343
106	0x3cff26f2	0.0311465
107	0x3d9af5d3	0.075664185
108	0xbda0c968	-0.07850915
109	0x3c8248da	0.015903879
110	0xbd7d7c3b	-0.061886054
111	0xbdc46360	-0.09589267
112	0xbdc69608	-0.09696585
113	0x3da5ea34	0.08101311
114	0x3db8308a	0.08993633
115	0x3ddc260e	0.10749446
116	0x3c306758	0.010766827
117	0xbc8e31fa	-0.017357815
118	0xbdb19e68	-0.08672792
119	0x3da8fe6c	0.08251652
120	0x3ddbcd9c	0.10732576
121	0x3d9d9820	0.07695031
122	0xbd8ff6e8	-0.070295155
123	0xbb6ad140	-0.003583029
124	0x3dbc30c2	0.09188987
125	0x3dd4cf86	0.103911445
126	0xbd5eb51c	-0.054371938
127	0xb9bd3e6d	-0.000360954
128	0x3d9e5aaf	0.0773214
129	0x3daa8015	0.08325211
130	0x3c858bcb	0.01630201
131	0x3d949fc9	0.07257039
132	0xbd81b9d7	-0.06334274
133	0xbbbe4a26	-0.005807179
134	0x3cdc70eb	0.026909312
135	0xbb8286d4	-0.003983358
136	0xbb423814	-0.0029635476
137	0xbb1cb9e6	-0.0023914515
138	0x3d2e57fb	0.042564373
139	0x3d82046e	0.06348501
140	0xbc47b7ae	-0.012189789
141	0x3bb9065e	0.005646511
142	0x3dd448a5	0.10365418
143	0xbb9aef94	-0.004728267
144	0x3dc08b47	0.09401565
145	0xbca85d24	-0.020552225
146	0xbd99677f	-0.074904434
147	0x3c0275d4	0.007962663
148	0xbb18a437	-0.002329124
149	0x3d8f988b	0.07011517
150	0x3cf2aa7b	0.029622307
151	0x3de837af	0.11338746
152	0x3cc136a8	0.023585632
153	0xbdc5757c	-0.09641549
154	0x3d8fb405	0.07016758
155	0x3d4f8983	0.05066825
156	0xbdc30555	-0.095225014
157	0x3d188e24	0.03724493
158	0x3d06b6ae	0.03288906
159	0xbd91e743	-0.07124188
160	0x3dc01f86	0.093810126
161	0xbde258ed	-0.110521175
162	0xbd81331a	-0.06308575
163	0x3ca17c1b	0.019712498
164	0xbd553600	-0.05205345
165	0xbd440b09	-0.047862086
166	0xbc8c97d2	-0.017162237
167	0xbc83f248	-0.01610674
168	0xbd0bb861	-0.034111384
169	0xbc748bd9	-0.01492592
170	0xbd905b46	-0.07048659
171	0x3d187e82	0.037230022
172	0x3d4a8d9f	0.049451467
173	0x3dcb24f4	0.099191576
174	0xbd12f124	-0.0358745
175	0xbda953cc	-0.08267936
176	0x3c6dc04f	0.014511182
177	0xbbc4d37d	-0.0060066567
178	0xbde99dfa	-0.11407085
179	0x3d99e965	0.075152196
180	0x3dbe5b67	0.09294777
181	0xbdca3983	-0.09874251
182	0x3c4e0928	0.012575425
183	0xbe06d12c	-0.1316573
184	0x3dd351eb	0.10318359
185	0xbc9b8809	-0.018985765
186	0x3dbe4ed0	0.09292376
187	0x3d4495e0	0.047994494
188	0x3df03780	0.11729336
189	0xbdc10f97	-0.09426802
190	0x3dbda202	0.09259416
191	0xbdcc192c	-0.09965739
192	0x3de98c33	0.11403694
193	0x3d192d0d	0.03739648
194	0xbaa06303	-0.0012236539
195	0xbde1a86d	-0.11018453
196	0xbceb7f46	-0.028747212
197	0x3d95f7f2	0.073226824
198	0xbc827644	-0.015925534
199	0x3bc1ca3f	0.005914002
200	0xbdc93daa	-0.098262146
201	0xbdb01908	-0.08598524
202	0xbcdfdfff	-0.02732849
203	0x3dbb9969	0.0916012
204	0xbddf91aa	-0.10916455
205	0xbde05ec6	-0.109555766
206	0x3e03105d	0.12799211
207	0xbddfebb0	-0.10933626
208	0x3de22fc7	0.11044269
209	0xbd91ed7f	-0.07125377
210	0x3ddcbb6a	0.10777934
211	0x3d025578	0.03181979
212	0x3cfdb0a7	0.030968023
213	0xbc92efbb	-0.017936578
214	0x3d030bcd	0.031993676
215	0x3e02fc1e	0.12791488
216	0x3de50a2b	0.1118358
217	0x3d820039	0.06347699
218	0xbdbc1cca	-0.091851786
219	0xbd8eee58	-0.06979054
220	0x3c1c9792	0.009557622
221	0x3d7219e6	0.05910673
222	0x3ba6f68f	0.00509531
223	0x3cd3cad6	0.025853556
224	0xbd063450	-0.032764733
225	0x3d5bf0fc	0.053696617
226	0xbda9b944	-0.0828729
227	0xbd8c64e2	-0.06855179
228	0xbd7d7852	-0.061882325
229	0x3ba3500e	0.0049839085
230	0x3dc4a8ea	0.0960253
231	0x3df2552b	0.11832651
232	0xbcfbee8c	-0.030753396
233	0xba8c06af	-0.0010683144
234	0x3d94744e	0.07248746
235	0x3dedb4d4	0.11606756
236	0x3df3e04e	0.11908017
237	0xbd8cc710	-0.06873906
238	0x3dccd449	0.10001428
239	0x3da2acda	0.07943125
240	0xbb225f75	-0.0024776135
241	0x3d1f93cf	0.03895932
242	0xbca1c1f5	-0.019745806
243	0xbde28212	-0.11059965
244	0xbd105313	-0.035235476
245	0x3d69dbcd	0.057094384
246	0x3d8517f4	0.06498709
247	0xbd948f03	-0.0725384
248	0x3d13e7e6	0.036109827
249	0x3dde3eed	0.10851846
250	0x3cba7647	0.022761477
251	0xbdb95d58	-0.09051007
252	0xbdd23172	-0.10263337
253	0xbdca3bbe	-0.09874676
254	0xbd7b740e	-0.061389975
255	0xbd8453fa	-0.0646133

gnn_layer_1.gconv.a_fc.bias f4 [64]
0	0xbdf793d7	-0.12088745
1	0x3d917220	0.07101846
2	0xbc14533c	-0.009053048
3	0xbc2b5053	-0.0104561625
4	0xbdce111b	-0.10061856
5	0xbdf8a3a2	-0.121405855
6	0xbc43974b	-0.0119379265
7	0x3cfb8d7f	0.030707119
8	0xbc1ad4ea	-0.009450177
9	0x3c588fed	0.013217908
10	0x3daa28de	0.08308576
11	0x3db462cd	0.08807907
12	0xbdab3cfa	-0.0836124
13	0xbb9ac331	-0.0047229757
14	0xbdb7e7d1	-0.08979762
15	0xbdaf8ff2	-0.08572377
16	0x3de94b0c	0.11391267
17	0x3dd44a1d	0.103656985
18	0x3cde8d3c	0.027166955
19	0xbd0d21c6	-0.034456037
20	0xbd029ced	-0.031887937
21	0xbdf763ec	-0.120796055
22	0xbd8e6d86	-0.06954484
23	0xbd94219e	-0.072329745
24	0x3d21c376	0.039493047
25	0xbdcffc04	-0.1015549
26	0x3e01f013	0.12689237
27	0x3ca4f740	0.02013743
28	0xbd1fe786	-0.039039157
29	0xbdfcb35d	-0.12338898
30	0xbc8b4ded	-0.017004931
31	0x3bc5102d	0.006013891
32	0xbcbaa5c1	-0.022784116
33	0xbdfe0ad8	-0.12404412
34	0x3cfffe8e	0.03124931
35	0x3da2eef6	0.079557344
36	0x3de6d4ce	0.11271058
37	0x3ddbe460	0.107369184
38	0x3dedba87	0.11607843
39	0xbdcd563f	-0.10026216
40	0xbcff0105	-0.031128416
41	0x3dc0956f	0.09403502
42	0xbdcc7562	-0.099833265
43	0x3dde1802	0.10844423
44	0x3cc6e8cd	0.02428093
45	0xbc995f10	-0.018722087
46	0xbda6371e	-0.081159815
47	0xbda3590b	-0.07975968
48	0xbe09a01c	-0.13439983
49	0xbcc72374	-0.024308898
50	0x3e16e142	0.14734367
51	0x3d6fa597	0.05850753
52	0x3e129b09	0.14316954
53	0x3db09dc9	0.08623845
54	0xbd829578	-0.06376165
55	0x3d38454d	0.044987965
56	0x3dce5800	0.100753784
57	0xbd8030e2	-0.06259324
58	0xbdf6b8fc	-0.12047002
59	0x3c2d77b9	0.010587626
60	0x3cf5afe2	0.029991094
61	0xbdc3c64a	-0.09559305
62	0x3ce0afb6	0.027427536
63	0x3da6a7fe	0.08137511

gnn_layer_1.gconv.u_fc.weight f4 [64, 64]
0	0x3df70e7a	0.12063308
1	0xbd770135	-0.060303885
2	0xbc8e033c	-0.017335527
3	0x3d4e569b	0.050375562
4	0xbda0080c	-0.07814035
5	0x3c907045	0.01763166
6	0x3e024dfc	0.12725061
7	0x3d21f2e8	0.039538294
8	0xbdec8ff7	-0.115508966
9	0x3ddc7db7	0.10766166
10	0xbc54c04b	-0.012985299
11	0xbe02d3e1	-0.12776138
12	0xbd0ba82b	-0.034095924
13	0xbd9d6b58	-0.0768649
14	0x3d010a4a	0.031503953
15	0x3d943090	0.07235825
16	0x3d297c4e	0.04137831
17	0x3de4d30b	0.11173066
18	0xbd394d80	-0.045239925
19	0xbdd64410	-0.10462201
20	0x3c1055f6	0.008809557
21	0x3cafd0eb	0.021461925
22	0xbdcc89b0	-0.09987199
23	0x3d6f4286	0.05841305
24	0xbb8168b1	-0.0039492478
25	0x3d9cfd75	0.076655306
26	0xbc98c7e2	-0.018649999
27	0xbd86ff71	-0.0659169
28	0x3d8db79d	0.06919787
29	0x3d8ac696	0.067761585
30	0x3dbb05c7	0.09131961
31	0xbdc41229	-0.09573776
32	0xbde42669	-0.11140139
33	0x3d51a1f0	0.051179826
34	0x3d9f8ac8	0.07790142
35	0x3df7f652	0.12107529
36	0xbdf6d719	-0.12052745
37	0xbd36c319	-0.044619653
38	0xbd036fd6	-0.032089077
39	0x3d94d541	0.072672375
40	0xbc9aa362	-0.018876735
41	0xbdb3304c	-0.08749446
42	0xbc3bd976	-0.011465421
43	0x3dd34a37	0.1031689
44	0x3d9ca934	0.076494604
45	0x3cb1a45b	0.021684816
46	0x3d59e5ba	0.0531976
47	0xbdd21a67	-0.10258942
48	0x3df32a16	0.11873262
49	0x3dc687d8	0.09693879
50	0xbb93fe2d	-0.004516384
51	0xbcdb4972	-0.02676842
52	0xbd9180f1	-0.07104672
53	0x3d19271f	0.037390824
54	0x3dce5ee7	0.10076695
55	0x3da90162	0.08252217
56	0x3d821458	0.063515365
57	0xbdae88ab	-0.08522161
58	0x3d936516	0.07197015
59	0x3dce0f57	0.100615196
60	0xbce561ec	-0.028000794
61	0x3df6c3b5	0.12049047
62	0x3c3afc38	0.011412673
63	0x3dfdb66a	0.12388308
64	0x3da1c1b0	0.07898271
65	0x3d6278ba	0.055290915
66	0x3d8f9834	0.07011452
67	0xbdf6aeba	-0.12045045
68	0x3da83302	0.08212854
69	0xbdecda63	-0.115650915
70	0x3c85bbe3	0.016324943
71	0x3dec121a	0.1152689
72	0xbdbf2630	-0.093334556
73	0x3d6fb569	0.058522616
74	0xbdc8b740	-0.09800577
75	0xbd21aee2	-0.039473422
76	0x3d1b3814	0.037895277
77	0xbd9ab813	-0.075546406
78	0xbc966fae	-0.0183638
79	0xbdd90b39	-0.10597844
80	0xbd578bc0	-0.05262351
81	0x3da31a1f	0.079639666
82	0xbdd20c50	-0.10256255
83	0x3d197180	0.037461758
84	0xbde3af68	-0.111174405
85	0x3d8639c1	0.065539844
86	0x3ca65cd0	0.020307928
87	0xbd1a3cb4	-0.037655547
88	0xbdb4eb25	-0.08833913
89	0x3da8f851	0.082504876
90	0xbde7d532	-0.11319961
91	0x3dbafc00	0.091300964
92	0x3ce10168	0.02746649
93	0x3d4403d4	0.047855213
94	0xbdb19d69	-0.08672602
95	0xbc97efa8	-0.018546894
96	0x3de435f5	0.11143104
97	0xbd2c5a4c	-0.0420783
98	0x3d9817a7	0.07426386
99	0x3d072bb8	0.033000678
100	0x3c7c7843	0.015409532
101	0xbdd019b1	-0.1016115
102	0x3c4ec4b1	0.012620137
103	0x3cb3fc61	0.02197093
104	0xbc7d531c	-0.015461709
105	0xb9a1c852	-0.00030857563
106	0x3d066fb3	0.03282137
107	0xbb2fbc98	-0.0026815291
108	0x3da18b0d	0.0788785
109	0x3dde59fd	0.10857008
110	0xbd5321f2	-0.051546045
111	0xbcd6ecd5	-0.026235977
112	0xbc86e5b8	-0.01646696
113	0xbca0b466	-0.01961727
114	0x3dac574a	0.084150866
115	0x3de4035b	0.111334525
116	0xbdc3e869	-0.09565813
117	0xbd5892c7	-0.052874353
118	0x3d5dd22f	0.054155525
119	0x3c361684	0.011113767
120	0xbcaf0044	-0.021362431
121	0x3cefc4ff	0.02926874
122	0xbd876a7b	-0.066121064
123	0xbdd8bdc0	-0.10583067
124	0x3d58ae14	0.05290039
125	0x3dffb494	0.124856144
126	0xbdb63f8c	-0.08898839
127	0xbd89a7f0	-0.06721485
128	0xbc9b06b0	-0.018924087
129	0xbde5a90d	-0.112138845
130	0x3df8512b	0.121248566
131	0x3d626a61	0.055277232
132	0xbcc15a0d	-0.02360251
133	0x3cf2ce50	0.029639393
134	0xbdbe94e3	-0.09305742
135	0xbda55112	-0.080721036
136	0x3d7a2031	0.061065856
137	0xbdc3603f	-0.09539842
138	0x3d0796f9	0.033102963
139	0x3d74b8a8	0.059746414
140	0x3d00a2b2	0.03140516
141	0x3d5684f0	0.052372873
142	0x3d825398	0.063636005
143	0x3e026bda	0.12736455
144	0xbd00d8c0	-0.03145671
145	0xbcd43643	-0.02590478
146	0x3cb194d5	0.021677414
147	0x3c1fe13d	0.009758291
148	0x3c13047e	0.008973239
149	0x3d95c89b	0.07313653
150	0xbd9d0027	-0.07666045
151	0xbd940901	-0.0722828
152	0xbdd6e853	-0.10493531
153	0x3d3aa29e	0.04556524
154	0x3dad3a5e	0.08458398
155	0xbc997f6a	-0.018737514
156	0xbd9addf0	-0.075618625
157	0xbdc3ce26	-0.09560804
158	0x3ddf7265	0.10910491
159	0xbdebcf3c	-0.11514136
160	0x3d2afe84	0.04174663
161	0xbded6683	-0.11591818
162	0xbd9bc791	-0.07606424
163	0x3dbf18ae	0.09330879
164	0x3d78e8f2	0.06076903
165	0xbc327772	-0.010892736
166	0xbd968c69	-0.07351
167	0x3dbd252c	0.092356056
168	0x3da5a7c6	0.08088641
169	0xbbbd1151	-0.0057698865
170	0xbded1aa9	-0.11577351
171	0xbd1fec08	-0.039043456
172	0xbd9c7d40	-0.07641077
173	0x3d54f5ea	0.051992334
174	0xbdf6431c	-0.12024519
175	0xbd736d0c	-0.059430167
176	0xbddfe9fc	-0.10933301
177	0x3dfb5fc8	0.12274128
178	0x3dde4796	0.10853498
179	0x3dc2d794	0.095137745
180	0xbd2b64c5	-0.04184415
181	0x3de1ffca	0.11035116
182	0x3cbf57c7	0.023357285
183	0xbd6126f9	-0.054968808
184	0x3d063144	0.032761827
185	0xbd9c022a	-0.076176
186	0xba929244	-0.0011182507
187	0xbd41ae7d	-0.047285546
188	0x3d1b3c2e	0.03789919
189	0x3d752dc6	0.059858106
190	0x3d6a9cb9	0.05727837
191	0xbdc56803	-0.09638979
192	0xbd625d9c	-0.055265054
193	0xbd6e1720	-0.058127522
194	0x3d67b5d4	0.05656989
195	0xbca8c8b0	-0.020603508
196	0xbd9a024c	-0.07519969
197	0xbd3a0c30	-0.04542178
198	0xbdeac436	-0.114632055
199	0xbd731b60	-0.05935228
200	0x3deb48ee	0.114885196
201	0xbd8b3b96	-0.067984745
202	0xbd9f5bb6	-0.07781164
203	0x3dc1b2dc	0.09457943
204	0x3cd49d88	0.025954023
205	0x3c69ea70	0.014277086
206	0xbd905286	-0.0704699
207	0xbdf2d52e	-0.11857067
208	0xbd8bb4ba	-0.0682158
209	0x3c8203d8	0.015870973
210	0xbca08ee8	-0.019599393
211	0xbdec89c8	-0.11549717
212	0x3d0774a8	0.033070236
213	0xbc305aa0	-0.010763794
214	0xbdc24110	-0.09485066
215	0xbd66b114	-0.05632122
216	0x3d9ea98c	0.07747182
217	0x3d63e15c	0.05563484
218	0x3dfa81ee	0.12231813
219	0xbd1c7438	-0.038196772
220	0xbdf9a16e	-0.121889934
221	0x3cb44868	0.022007182
222	0xbd545fc8	-0.051849157
223	0x3d6e62e4	0.05819978
224	0x3c58c1b0	0.013229772
225	0x3da8b7b0	0.082381606
226	0xbdc7dfe4	-0.097595006
227	0xbdd982d6	-0.10620658
228	0x3d3a110c	0.045426413
229	0x3da7fa22	0.08202006
230	0xbdabbb6e	-0.08385359
231	0x3dfc0604	0.12305835
232	0x3dceecd2	0.10103764
233	0xbcd16068	-0.025558665
234	0xbc1306a0	-0.0089737475
235	0xbd18dbc0	-0.037318945
236	0x3d76a67c	0.060217366
237	0x3d05089c	0.032478914
238	0x3cfdc650	0.030978352
239	0x3daca752	0.08430351
240	0xbda0e078	-0.07855314
241	0x3d0a43d8	0.033756107
242	0x3d0a1bb0	0.03371781
243	0x3c424250	0.01185663
244	0xbca60b58	-0.020269081
245	0x3dd6f922	0.10496737
246	0x3d453a5c	0.04815136
247	0x3d16c10c	0.036805198
248	0x3c5561c0	0.013023794
249	0x3d8cb3ea	0.068702534
250	0x3d772298	0.060335726
251	0xbccacb78	-0.024755225
252	0xbd8a8d66	-0.06765251
253	0xbd8609fe	-0.065448746
254	0x3c301d90	0.010749236
255	0xbd4b1034	-0.049576

gnn_layer_1.gconv.u_fc.bias f4 [64]
0	0xbd789cdb	-0.060696464
1	0xbd1fd5f8	-0.039022416
2	0x3d34980b	0.044090312
3	0xbdc170e2	-0.09445359
4	0x3d987dcb	0.07445868
5	0xbdde68a4	-0.10859802
6	0x3d685e4a	0.056730546
7	0xbd669713	-0.05629642
8	0x3d95a737	0.07307284
9	0x3c8c10e8	0.017097905
10	0xbc5d7064	-0.013515566
11	0xbd46a709	-0.04849914
12	0xbcae20ef	-0.021255938
13	0x3c93855f	0.018007932
14	0xbd836eb7	-0.064176016
15	0x3d2aa05b	0.041656833
16	0x3d9df546	0.07712798
17	0x3d8ffc28	0.07030517
18	0xbce660da	-0.028122354
19	0x3de3dc03	0.11125948
20	0xbd0dec18	-0.034648985
21	0xbd8a2d90	-0.067469716
22	0xbd651686	-0.055929683
23	0xbdf643e4	-0.12024668
24	0xbc82ef08	-0.01598312
25	0xbcac34a9	-0.021021204
26	0xbd06dbc2	-0.03292442
27	0xbd6c17d1	-0.0576399
28	0xbd525a78	-0.05135581
29	0xbdaf0ca3	-0.08547332
30	0xbd8824b7	-0.06647628
31	0xbdf16e83	-0.117886566
32	0x3d99a848	0.075028
33	0x3e07ab81	0.13249017
34	0x3df47811	0.11936963
35	0xbcba801c	-0.022766165
36	0x3d23d880	0.040001392
37	0x3cc53ba4	0.02407629
38	0xbdeb103c	-0.11477706
39	0xbd6049db	-0.054757934
40	0x3e0ece0c	0.13945788
41	0xbda71278	-0.081578195
42	0x3dc48666	0.09595947
43	0x3cacd157	0.021095915
44	0x3dd0dedc	0.10198757
45	0x3e04cc51	0.12968566
46	0xbc0e9a0b	-0.008703719
47	0x3dc581ff	0.096439354
48	0xbdebe396	-0.11518018
49	0xbe044654	-0.12917453
50	0xbdc3f734	-0.09568635
51	0xbd39ed66	-0.045392416
52	0xbdd44ea4	-0.10366562
53	0xbdf0650a	-0.11738022
54	0xbb44ebc0	-0.0030047745
55	0xbddbc329	-0.10730583
56	0x3db708fa	0.08937259
57	0xbddb121c	-0.106968135
58	0xbb400e23	-0.00293053
59	0xbcac0940	-0.021000504
60	0xbd748ac6	-0.059702657
61	0x3bd2e00b	0.0064353994
62	0xbd0fc505	-0.0351
63	0x3d424621	0.04743016

affinity_1.A f4 [64, 64]
0	0x3f748bb4	0.9552567
1	0xbdfa3992	-0.12218012
2	0xbc717e60	-0.014739603
3	0xbd919a38	-0.07109493
4	0x3d8ceaa8	0.06880695
5	0x3dcdf474	0.10056391
6	0x3d431d84	0.04763557
7	0x3c1cb630	0.009564921
8	0x3d5b7ed0	0.053587735
9	0xbddaa0b4	-0.10675183
10	0x3d7ceb20	0.06174767
11	0xbc0267a0	-0.007959276
12	0x3d80e048	0.06292778
13	0xbc82a468	-0.015947536
14	0x3c802898	0.015644357
15	0xbdbaa640	-0.09113741
16	0x3db0f016	0.08639543
17	0xbdc76fbe	-0.0973811
18	0x3c7dd680	0.015493035
19	0x3d767608	0.060171157
20	0x3d0fa324	0.035067692
21	0xbdaebc5e	-0.08532022
22	0x3cb71768	0.022350028
23	0x3d41df98	0.047332376
24	0x3d87cd32	0.06630935
25	0xbd559818	-0.052147
26	0xbc324000	-0.010879517
27	0xbb1d74c0	-0.0024025887
28	0xbc445b30	-0.011984631
29	0xbd87bf32	-0.066282645
30	0x3d32292c	0.043496296
31	0xbd2dd144	-0.0424359
32	0xbcccef38	-0.025016412
33	0x3d1f3b98	0.038875192
34	0xbcccf170	-0.02501747
35	0xbdc033f6	-0.09384911
36	0x3d0663cc	0.032810017
37	0x3d53bc88	0.05169347
38	0xbcf935a8	-0.030421093
39	0x3df809a8	0.12111217
40	0xbd9cbf60	-0.076536894
41	0xbd267874	-0.040642217
42	0xbd7eb964	-0.06218852
43	0x3c510f70	0.012760028
44	0xbcb8fa78	-0.02258037
45	0xbd129934	-0.035790637
46	0xbdc09b00	-0.09404564
47	0x3df76f46	0.120817706
48	0xbd9908c4	-0.07472375
49	0x3d9bf66c	0.076153606
50	0xbd0d7f90	-0.03454548
51	0x3dadfc66	0.08495407
52	0x3da78fd2	0.081817284
53	0xbdcb41ee	-0.099246845
54	0xbdf530a4	-0.11972168
55	0xbc55cb20	-0.013048917
56	0xbd802954	-0.06257883
57	0x3dc5ec80	0.096642494
58	0xbdeb473a	-0.11488195
59	0x3dc1e3c0	0.09467268
60	0x3d8271c6	0.06369357
61	0x3d6fdf88	0.058562785
62	0x3ddd3cce	0.10802613
63	0xbd310c00	-0.043224335
64	0xbdf31698	-0.11869544
65	0x3f786aaa	0.97037756
66	0xbc606ab0	-0.013697311
67	0xbddbb6c8	-0.10728222
68	0xbccb8bd0	-0.024846941
69	0xbd3f87f0	-0.0467605
70	0xbc75d600	-0.015004635
71	0xbd3c3a84	-0.045954242
72	0x3d13489c	0.035957918
73	0x3d40b764	0.047049895
74	0x3d54dec8	0.051970273
75	0xbd5c14c4	-0.05373074
76	0xbd8d4648	-0.06898171
77	0x3d05e1c8	0.032686025
78	0x3db1e938	0.08687061
79	0xbd1431c8	-0.036180288
80	0x3de36c0a	0.11104591
81	0xbdcd89ec	-0.10036072
82	0x3d70ad6c	0.058759138
83	0x3d075e1c	0.033048734
84	0xbd904246	-0.07043891
85	0x3d3793c0	0.04481864
86	0x3c8af8b8	0.016964301
87	0x3dceb11c	0.10092375
88	0x3d446580	0.04794836
89	0xbdd48a26	-0.10377912
90	0xbc8bad90	-0.017050534
91	0x3dc69de2	0.096980825
92	0x3c0c1af0	0.008551344
93	0xbc95c0f8	-0.018280491
94	0x3c8259f8	0.015912041
95	0xbdecbf92	-0.11559977
96	0xbd1ab85c	-0.037773475
97	0x3c2adb30	0.010428235
98	0xbd53e69c	-0.051733598
99	0xbd6283a4	-0.055301324
100	0x3ba0e8a0	0.0049105436
101	0xbd38c300	-0.04510784
102	0x3d5be154	0.053681687
103	0xbd0c9ec4	-0.0343311
104	0xbd8ff178	-0.070284784
105	0x3db63fe4	0.08898905
106	0x3db1709e	0.08664058
107	0xbd871f26	-0.06597738
108	0x3d979efe	0.07403372
109	0x3d1b72ec	0.037951395
110	0xbb585980	-0.003301233
111	0x3c203f20	0.009780675
112	0xbdb0c166	-0.08630638
113	0x3df7eda6	0.12105875
114	0x3dc50e70	0.09621894
115	0x3dc6ac4c	0.09700832
116	0x3c82c030	0.015960783
117	0x3dbd7bcc	0.09252128
118	0xbd678910	-0.056527197
119	0xbd2b3384	-0.041797176
120	0x3df3dd96	0.119074985
121	0x3d9e2646	0.07722144
122	0x3de26c08	0.110557616
123	0xbdffc928	-0.124895394
124	0x3de3d5d8	0.11124772
125	0xbc946110	-0.01811269
126	0xbd9d0344	-0.076666385
127	0xbd731d88	-0.059354335
128	0xbc0c3a00	-0.00855875
129	0xbd60a340	-0.054843187
130	0x3f8f56f0	1.1198406
131	0xbdd0ed2a	-0.102014855
132	0x3dfb7500	0.12278175
133	0xbd8eab72	-0.06966294
134	0xbd7eff08	-0.062254936
135	0x3a972a80	0.0011533052
136	0xbd62216c	-0.055207655
137	0x3c3d01c0	0.011536062
138	0xbdb13594	-0.08652797
139	0x3dd969da	0.10615893
140	0xbccc9ed0	-0.024978071
141	0xbdebdd2e	-0.11516796
142	0x3c4fea40	0.012690127
143	0xbd741c7c	-0.059597477
144	0xbdb5946c	-0.088662
145	0x3cef3220	0.029198706
146	0xbd10f8f8	-0.035393685
147	0x3d7b2660	0.061315894
148	0x3dc91532	0.09818496
149	0xbddaac28	-0.106773674
150	0xbdbf0078	-0.09326261
151	0xbcffe8e0	-0.031238973
152	0xbdb6444c	-0.08899745
153	0x3d91e7d4	0.07124296
154	0x3dd75f44	0.10516217
155	0xbcb2e6e8	-0.02183862
156	0x3d5c8fbc	0.053848013
157	0x3d8b9782	0.06816007
158	0xbd95b236	-0.07309382
159	0x3d6d1cd4	0.05788882
160	0xbde6829c	-0.112553805
161	0x3acdc400	0.0015698671
162	0xbc13cc00	-0.009020805
163	0x3dd95be4	0.1061323
164	0xbcb2d980	-0.021832228
165	0xbcb56590	-0.022143155
166	0x3dfbce54	0.12295213
167	0x3de86df6	0.113490984
168	0x3c69ea70	0.014277086
169	0x39f16200	0.00046040118
170	0x3cbd2890	0.02309063
171	0x3db444e6	0.08802204
172	0xbdf35806	-0.118820235
173	0x3d9982c0	0.07495642
174	0x3dfc0de6	0.123073384
175	0xbd82c9f2	-0.06386174
176	0xbd31ccc8	-0.043408185
177	0x3b6eea40	0.0036455542
178	0x3b9922e0	0.004673347
179	0xbcff1c48	-0.031141415
180	0x3de28da6	0.110621735
181	0xbc3e2160	-0.011604637
182	0x3da931b2	0.08261432
183	0xbdf27cec	-0.11840233
184	0xbc342ee0	-0.010997504
185	0x3d045f7c	0.032317623
186	0x3cf03a60	0.02932471
187	0x3c9b03f8	0.01892279
188	0x3ddce0d8	0.10785073
189	0x3cd421a0	0.02589494
190	0x3cd76418	0.026292846
191	0x3da9acf0	0.08284938
192	0xbddef306	-0.10886197
193	0x3df884e2	0.121347204
194	0x3d3086f8	0.043097466
195	0x3f8cd8e3	1.1003689
196	0xbdd7bbf6	-0.105338976
197	0x3d648a48	0.055795938
198	0xbda03c90	-0.078240514
199	0x3d92f100	0.07174873
200	0x3d20af14	0.039229468
201	0x3c99b608	0.018763557
202	0x3db22ab8	0.08699554
203	0x3df5da86	0.12004571
204	0xbd951326	-0.07279043
205	0xbd54c6b0	-0.051947296
206	0x3dacc680	0.08436298
207	0x3c8a14d8	0.016855642
208	0xbdfd9120	-0.12381196
209	0x3d33788c	0.043816134
210	0x3dfbfb2a	0.12303765
211	0x3d684614	0.056707457
212	0x3cefedd0	0.029288203
213	0x3d91ab5a	0.07112761
214	0x3d45d068	0.048294455
215	0xbd272c78	-0.040813893
216	0x3d994dba	0.07485528
217	0x3cff56c0	0.031169295
218	0x3bf89a20	0.0075867325
219	0x3d94a5f8	0.072582185
220	0xbdab3472	-0.083596125
221	0xbde97c16	-0.11400621
222	0xbd745518	-0.059651464
223	0xbcbfca40	-0.02341187
224	0x3deac25c	0.11462852
225	0xbdc16376	-0.09442799
226	0xbdd65b9e	-0.10466693
227	0xbd2ce844	-0.042213693
228	0xbd7fa8bc	-0.062416777
229	0x3d5946dc	0.053046092
230	0x3da3bfd6	0.07995574
231	0x3df492f0	0.119420886
232	0xbc0ae770	-0.008478031
233	0x3dee2d80	0.11629772
234	0x3bca6260	0.006176278
235	0xbdd6f3b8	-0.104957044
236	0xbd129b60	-0.03579271
237	0x3d89d048	0.067291796
238	0xbd73cd48	-0.059521943
239	0x3d3bae04	0.04582025
240	0xbd1d4b04	-0.03840162
241	0x3ab0dd00	0.0013493598
242	0xbd2e7ac8	-0.042597562
243	0xbd28bd78	-0.041196316
244	0x3d03d79c	0.032188043
245	0xbdd31c14	-0.1030809
246	0xbdb12d0e	-0.086511716
247	0xbdb822e8	-0.08991033
248	0xbd9d8aa0	-0.07692456
249	0xbd545c14	-0.051845625
250	0x3ca6a6d8	0.02034323
251	0xbd2c34d4	-0.04204257
252	0xbd3c0208	-0.045900375
253	0x3df1362e	0.11777912
254	0xbdf78a76	-0.12086956
255	0xbde8787a	-0.11351104
