ThinkMatch/exp_aaai/pca/CV2/saved_models/model.pt (torch, 216498 bytes, 17 tensors)

gnn_layer_0.gconv.a_fc.weight f4 [64, 121]
0	0xbae797e5	-0.001766917
1	0xbd464975	-0.048409898
2	0x3cc3cf5a	0.023902584
3	0xbd589b9d	-0.05288278
4	0xbd82a3e5	-0.06378917
5	0x3d63556e	0.055501394
6	0x3cea33b9	0.028589116
7	0xbd213c70	-0.03936428
8	0xbdd7c879	-0.10536284
9	0x3cb5724a	0.022149224
10	0xbd559633	-0.052145194
11	0xbd04e9ec	-0.032449648
12	0xbcd5e509	-0.026110189
13	0x3bd8ddd7	0.0066182422
14	0xbd6d1970	-0.057885587
15	0xbd94ab90	-0.072592854
16	0xbcb02a3d	-0.021504516
17	0x3d82ce46	0.06387
18	0x3da91436	0.08255808
19	0xbc838f98	-0.016059682
20	0xbda656d0	-0.08122027
21	0x3db56ab5	0.088582434
22	0x3db56500	0.08857155
23	0xbd366bab	-0.044536274
24	0x3d8cf1eb	0.0688208
25	0x3cba4bec	0.02274128
26	0x3c653259	0.013989055
27	0xbda06f25	-0.07833699
28	0x3ccbc3bd	0.024873609
29	0x3cac7478	0.02105163
30	0xbc831146	-0.015999448
31	0xbd1cc8b0	-0.038277328
32	0x3d4f44bc	0.05060266
33	0x3da4c9f8	0.08046335
34	0x3d4d46cc	0.050116345
35	0xbd367830	-0.044548213
36	0xbd7a5b15	-0.06112202
37	0x3d12d0ac	0.035843536
38	0x3d200271	0.03906483
39	0x3d3e45a1	0.046453122
40	0xbcdd9073	-0.027046418
41	0xbd8a9642	-0.06766941
42	0xbbdda5dc	-0.0067641567
43	0xbd8cd905	-0.06877331
44	0x3d7f0756	0.062262855
45	0xbc8c800b	-0.0171509
46	0xbb8ec3e7	-0.0043568495
47	0xba875193	-0.0010323994
48	0x3d9b2377	0.07575124
49	0xbc8521d6	-0.016251486
50	0xbd849c16	-0.064750835
51	0x3d677b75	0.056514222
52	0xbdb3f25b	-0.0878646
53	0xbcb2c8a6	-0.021824192
54	0x3b017385	0.0019752693
55	0x3d037aed	0.032099653
56	0xbda5cf00	-0.08096123
57	0xbd606bbe	-0.05479025
58	0xbd9f2963	-0.07771566
59	0xbceaf003	-0.0286789
60	0xbd629dd1	-0.055326287
61	0x3da1750c	0.07883653
62	0x37c1fbae	2.312459e-05
63	0xbd047c0e	-0.03234487
64	0x3d9c6b04	0.07637599
65	0xbd2e58ef	-0.042565282
66	0x3d758476	0.059940778
67	0x3d2d2ea9	0.042280827
68	0x3cb46e9c	0.022025399
69	0xbd926cbf	-0.07149648
70	0x3d16f5a8	0.03685537
71	0x3d0f607f	0.035004135
72	0xbd90dd32	-0.0707344
73	0xbcb439cf	-0.022000222
74	0xbc1e0f94	-0.009647269
75	0x3d7e6001	0.062103275
76	0x3d4c0297	0.049807157
77	0xbcd58f8a	-0.026069421
78	0x3d8df0d3	0.06930699
79	0xbda2c9e1	-0.079486616
80	0xbd83e32a	-0.064398125
81	0x3d34accb	0.0441101
82	0xbda56c9b	-0.080773555
83	0x3da318d8	0.07963723
84	0x3d99ec39	0.07515759
85	0x3d8af821	0.06785608
86	0x3d250117	0.040284242
87	0x3d8c908f	0.0686351
88	0x3d230c7d	0.03980683
89	0xbd0aa251	-0.033846203
90	0xbb527934	-0.00321157
91	0xbd0f1d0a	-0.034939803
92	0xbd4b63d3	-0.049655747
93	0xbd7ff4fa	-0.062489487
94	0xbb9dfda3	-0.0048214956
95	0x3d4af2ee	0.049548082
96	0xbd043995	-0.032281477
97	0xbd36b944	-0.044610277
98	0xbd9a70eb	-0.07541069
99	0x3db26fbf	0.0871272
100	0x3d61fc7c	0.05517243
101	0xbbd1661d	-0.0063903467
102	0x3d2e046a	0.04248468
103	0x3dc35b61	0.095389135
104	0x3cbfae42	0.023398522
105	0xbdcf29f9	-0.101154275
106	0xbc9c8d03	-0.019110208
107	0xbdb5f44b	-0.08884486
108	0xbd89820b	-0.06714257
109	0x3d9f3668	0.07774049
110	0x3d45c4ad	0.048283268
111	0x3c4fdb19	0.012686514
112	0xbd2e7418	-0.042591184
113	0x3cbc7631	0.023005577
114	0x3cfd24fd	0.030901426
115	0xbdb34729	-0.08753807
116	0x3be43345	0.0069641196
117	0x3ccfcd9a	0.025366593
118	0xbb732c29	-0.003710518
119	0x3dc1f449	0.09470422
120	0xbd333dd7	-0.043760147
121	0xbd250656	-0.040289246
122	0x3ca2eb27	0.01988752
123	0xbd37ac1f	-0.04484188
124	0xbd9027ff	-0.07038879
125	0x3d017c20	0.031612515
126	0xbc94ed0b	-0.018179437
127	0xbd7fd235	-0.06245633
128	0x3cdf802d	0.027282799
129	0x3da51e62	0.08062436
130	0xbd6dda15	-0.058069307
131	0x3ca12c5d	0.019674474
132	0x3d8351f9	0.064121194
133	0x3d39fdeb	0.04540817
134	0x3d57bba4	0.052669182
135	0xbd551660	-0.05202329
136	0xbd5f072c	-0.0544502
137	0x3c6d11ff	0.014469623
138	0x3da1c265	0.07898406
139	0x3c5849d7	0.013201199
140	0x3c5eea79	0.013605707
141	0x3c5cb4ae	0.013470812
142	0x3db49047	0.08816581
143	0xbd1ed504	-0.038777366
144	0x3d966bbb	0.07344767
145	0x3db4539c	0.0880501
146	0xbd8d2485	-0.06891731
147	0x3d067fd7	0.03283676
148	0x3c93ba12	0.018033061
149	0xbd6ed5f2	-0.058309503
150	0x3c651e56	0.013984283
151	0x3d37645c	0.044773445
152	0x3c578787	0.013154871
153	0x3d609d23	0.054837357
154	0xbdabd22a	-0.08389695
155	0xbd23f95f	-0.04003274
156	0x3c9f7917	0.01946692
157	0x3d8752f6	0.066076204
158	0x3d98a7fe	0.07453917
159	0xbd0e8990	-0.03479916
160	0xbd1df7ff	-0.038566586
161	0xbc8fdf2b	-0.01756247
162	0xbd2afbc7	-0.04174402
163	0x3dbbd618	0.091716945
164	0xbd9581b6	-0.07300131
165	0xbcfa7d7e	-0.030577417
166	0x3d83db99	0.06438369
167	0xbcdf356b	-0.027247151
168	0xbccd8535	-0.025087932
169	0x3cab079e	0.020877656
170	0xbd96efaa	-0.07369931
171	0xbd6509cd	-0.05591755
172	0x3c17fa19	0.0092759365
173	0xbd248acf	-0.04017144
174	0xbdaac186	-0.08337693
175	0xbc272872	-0.010202514
176	0x3cfc5814	0.030803718
177	0xbd3a9a44	-0.045557275
178	0x3be9f309	0.0071395678
179	0x3d9d7d1c	0.07689878
180	0x3b2fe07a	0.002683668
181	0xbae24a6f	-0.0017264615
182	0x3d977804	0.07395938
183	0xbd42217d	-0.04739522
184	0x3db05b09	0.086111136
185	0x3d87b091	0.06625474
186	0xbda6e416	-0.08148973
187	0x3d36226a	0.044466414
188	0x3d6de487	0.05807927
189	0x3b54eee7	0.003249103
190	0xbd8befa6	-0.06832819
191	0x3d0437e8	0.03227988
192	0xbd90bd26	-0.07067327
193	0x3b514b17	0.0031935626
194	0xbd2737a2	-0.04082454
195	0x3d118494	0.035526827
196	0xbd9c5b15	-0.0763456
197	0x3d792cbd	0.06083368
198	0xbd7927b3	-0.060828876
199	0xbc4062b7	-0.011742285
200	0x3d4a3396	0.049365602
201	0xbd675709	-0.056479488
202	0x3d80b095	0.0628368
203	0x3db7f4a8	0.08982211
204	0x3d70e1b0	0.058808982
205	0x3db250d6	0.087068245
206	0xbcdbb33b	-0.026818862
207	0x3af85cf2	0.0018948598
208	0x3d121b44	0.035670534
209	0x3da54454	0.08069673
210	0xbd10d244	-0.035356775
211	0x3db7c51e	0.08973144
212	0xbd86d625	-0.065838136
213	0x3d8c2dfe	0.0684471
214	0xbd1be742	-0.03806234
215	0xbcdb2060	-0.026748836
216	0x3d9b1c4c	0.075737566
217	0x3da8c022	0.082397714
218	0x3bfcfffa	0.0077209445
219	0xbd5b6d76	-0.053571187
220	0x3d49e131	0.049287025
221	0x3d22b1f5	0.039720494
222	0xbc029449	-0.007969924
223	0xbd71f2c2	-0.059069403
224	0xbcef50b7	-0.029213293
225	0xbd97f055	-0.074188866
226	0x3b1c795d	0.002387605
227	0x3cabbab3	0.020963049
228	0x3dc3ca1d	0.095600344
229	0xbc54a396	-0.012978455
230	0xbd34594a	-0.044030465
231	0x3ba3f6f5	0.005003805
232	0xbcb0ffd3	-0.021606361
233	0x3da9ce7a	0.082913354
234	0xbcf54b32	-0.029943082
235	0xbc96d0b6	-0.018410068
236	0xbd9b32ab	-0.075780235
237	0x3ca5c06e	0.02023336
238	0x3d952806	0.072830245
239	0x3d4415e9	0.047872458
240	0xbd902794	-0.07038799
241	0x3d92a0b1	0.07159556
242	0x3d35274e	0.044226937
243	0xbdac5a9c	-0.0841572
244	0xbd894f0b	-0.067045294
245	0xbd628cf3	-0.0553102
246	0xbbded597	-0.0068003642
247	0xbd2637f8	-0.04058072
248	0xbc924eab	-0.017859777
249	0xbd09e65e	-0.03366696
250	0x3d89265a	0.06696768
251	0x3d544242	0.051821
252	0xbd59416d	-0.05304091
253	0x3da272e8	0.07932073
254	0xbc8bacf1	-0.017050238
255	0xbdad25d7	-0.08454483

gnn_layer_0.gconv.a_fc.bias f4 [64]
0	0xbd99c479	-0.07508177
1	0xbc3dca2a	-0.011583844
2	0x3c5cfd38	0.013488106
3	0x3d51b4f3	0.051197957
4	0x3dad26bf	0.08454656
5	0xbd1b65cc	-0.037938878
6	0xbda8a353	-0.082342766
7	0x3cd733ad	0.026269758
8	0x3d3a9d9c	0.045560464
9	0x3d94d5c5	0.07267336
10	0xbdbc51fa	-0.09195323
11	0xbd35c5a4	-0.044377938
12	0x3d01f749	0.03172997
13	0x3d9b5770	0.07585037
14	0x3d5f7df2	0.05456347
15	0xbdafd67f	-0.08585834
16	0xbd487250	-0.048937142
17	0x3d134b13	0.03596027
18	0xbbcb4701	-0.0062035327
19	0x3d1af5ea	0.03783218
20	0xbc8f39ee	-0.017483678
21	0x3bba54e4	0.0056863893
22	0xbd4db1cc	-0.05021839
23	0x3cd97057	0.026542826
24	0x3d6a2e7b	0.057173233
25	0xbd35cf48	-0.044387132
26	0x3d8b760d	0.06809626
27	0xbd8e1a5d	-0.06938622
28	0x3d33a1f9	0.04385564
29	0xbd0e9856	-0.034813248
30	0x3da19499	0.07889671
31	0xbd98d182	-0.074618354
32	0x3c1fd958	0.009756409
33	0x3d292114	0.04129131
34	0x3d26bac1	0.040705446
35	0x3d526d41	0.051373724
36	0xbd38c729	-0.04511181
37	0x3d967dd8	0.073482215
38	0xbc60570e	-0.01369263
39	0xbdbecaa7	-0.093159966
40	0xbd955500	-0.07291603
41	0x3d9440b0	0.07238901
42	0xbc19fa2f	-0.009398027
43	0x3d801c92	0.06255449
44	0xbdb7a968	-0.089678586
45	0x3b0b6340	0.0021268874
46	0xbc2a0c98	-0.010378979
47	0xbdabdea9	-0.083920784
48	0x3af15c3f	0.0018414332
49	0xbd2efdd8	-0.042722553
50	0xbc5bab5f	-0.013407557
51	0xbd12b44f	-0.035816487
52	0x3c2086bc	0.009797748
53	0xbcec4d28	-0.028845385
54	0x3d2d6ad2	0.0423382
55	0xbcb0af19	-0.021567868
56	0x3d527cd9	0.051388595
57	0x3d8317e2	0.0640104
58	0xba1ca975	-0.0005976179
59	0x3d5da9b5	0.054116923
60	0x3b5c74a1	0.0033638852
61	0xbd4c7003	-0.04991151
62	0x3dae9145	0.08523802
63	0x3dc61950	0.09672797

gnn_layer_0.gconv.u_fc.weight f4 [64, 121]
0	0xbd429d9d	-0.047513593
1	0x3cb6a060	0.02229327
2	0xbd0eab82	-0.03483153
3	0xbd2e2e82	-0.042524822
4	0xbd8144f6	-0.063119814
5	0xbcec91c0	-0.028878093
6	0xbb46dcac	-0.0030343933
7	0x3db14686	0.086560294
8	0x3d1dd47e	0.038532726
9	0xbd53cd3a	-0.05170939
10	0xbd404013	-0.046936106
11	0x3d0534ab	0.03252093
12	0x3d95b4a7	0.07309847
13	0xbce3dac5	-0.027814278
14	0xbd62914a	-0.05531434
15	0xb981ba29	-0.00024743497
16	0x3c2dc1b8	0.010605268
17	0x3d88002e	0.06640659
18	0x3c327622	0.010892423
19	0x3c5b57a4	0.013387594
20	0xbdbb733d	-0.09152839
21	0xbc06226b	-0.008186917
22	0xbd2258a7	-0.039635327
23	0x3c17c119	0.009262347
24	0xbc0b69b6	-0.00850909
25	0x3d7b186b	0.061302584
26	0xbd685704	-0.05672361
27	0xbc14ce20	-0.009082347
28	0x3da60e21	0.081081636
29	0x39caccd2	0.00038681045
30	0x3d0e30af	0.034714397
31	0xbd928731	-0.07154692
32	0x3dc52f3d	0.096281506
33	0xbcfa47f0	-0.03055188
34	0xbd787f65	-0.060668368
35	0xbd1cf5b4	-0.03832026
36	0xbcd2107e	-0.02564263
37	0x3db63094	0.08895984
38	0x3ae15d45	0.0017193934
39	0x3b875219	0.00412966
40	0x39648d2c	0.00021796365
41	0xbdbe8fb9	-0.09304757
42	0x3db9acd1	0.09066165
43	0xbcc3546d	-0.023843968
44	0xbcdfe2cb	-0.027329823
45	0xbdb1f285	-0.08688835
46	0xbad3986e	-0.001614345
47	0x3b621b1d	0.0034501024
48	0xbd1b7796	-0.037955843
49	0x3d10d510	0.035359442
50	0x3d69f256	0.057115875
51	0xbd79a9ca	-0.06095294
52	0xbd96d496	-0.07364766
53	0x3ca3eae5	0.020009467
54	0x3c32f7cb	0.010923336
55	0xbd16c0a6	-0.036804818
56	0xbd857e29	-0.06518204
57	0x3d82c962	0.06386067
58	0x3d8099bf	0.06279325
59	0xbd086200	-0.033296585
60	0xbdac9d4b	-0.08428439
61	0x3d8b4edd	0.06802151
62	0xbd0f9a36	-0.035059176
63	0x3d34cd0f	0.04414087
64	0x3d5eb941	0.05437589
65	0x3d8bc8da	0.06825419
66	0x3d933bad	0.071891166
67	0xbce91f59	-0.02845733
68	0x3d7e0728	0.062018543
69	0x3d99670e	0.07490359
70	0x3d1d8789	0.038459335
71	0xbd29cd13	-0.04145534
72	0xbd1870e9	-0.037217055
73	0x3da578b7	0.08079665
74	0xbc30e622	-0.010797055
75	0x3d00a7e8	0.031410128
76	0x3d979cab	0.07402929
77	0xbb6484a1	-0.0034869092
78	0xbd352573	-0.044225167
79	0x3d05b333	0.0326416
80	0xbcecb5c1	-0.02889526
81	0x3be0c360	0.006859228
82	0xbd5a595f	-0.053307887
83	0x3cf5c591	0.030001434
84	0x3dc260a6	0.094910905
85	0xbd2a8b94	-0.04163702
86	0x3d92bdb3	0.071650885
87	0x3d668251	0.056276623
88	0xbd703418	-0.05864343
89	0xbd812378	-0.06305593
90	0xbd31db1f	-0.04342186
91	0x3cebb042	0.02877057
92	0xbd5693f7	-0.052387204
93	0xbca1cb68	-0.019750312
94	0xbd2c76eb	-0.042105597
95	0x3d72a5d5	0.05924018
96	0x3dbd4ae3	0.09242799
97	0xbca03390	-0.019555837
98	0xbd48875c	-0.048957214
99	0xbc54891b	-0.012972142
100	0x3df2d5e8	0.11857206
101	0x3c390598	0.011292838
102	0x3d9bb554	0.07602945
103	0xbd00598d	-0.031335402
104	0x3d84c08f	0.0648204
105	0x3d3f0315	0.0466338
106	0x3d06aa20	0.032877088
107	0xbda48523	-0.08033206
108	0x3db7b78f	0.08970558
109	0xbcae3b13	-0.021268403
110	0x3d6e66a5	0.05820336
111	0xbd29166e	-0.041281156
112	0x3c3b6400	0.011437416
113	0x3d7e30b3	0.062058162
114	0xbd658f2d	-0.056044746
115	0x3ce970d9	0.028496193
116	0x3d0a4aae	0.033762626
117	0x3b5e4a97	0.003391897
118	0x3ca76f39	0.020438777
119	0xbd367572	-0.0445456
120	0xbdd33b3c	-0.103140324
121	0xbc6bf428	-0.014401473
122	0xbdb20f3e	-0.086943135
123	0xbcd53511	-0.02602628
124	0x3da5f4f1	0.081033595
125	0x3da1aace	0.078939065
126	0x3bff611e	0.0077935597
127	0xbbe06b53	-0.0068487315
128	0xbd42c1f6	-0.047548257
129	0x3dc1f92a	0.094713524
130	0x3d00aa77	0.031412568
131	0x3cce01bf	0.025147317
132	0x3d93139d	0.07181475
133	0x3db42793	0.08796611
134	0xbd0e26ff	-0.03470516
135	0xbda5c3b6	-0.080939695
136	0xbc4eddd2	-0.012626128
137	0x3d07dc21	0.033168916
138	0x3d5e6584	0.05429603
139	0xbd1526b8	-0.03641388
140	0x3ccbcd38	0.02487813
141	0xbd6b450d	-0.0574389
142	0xbda2da5a	-0.079518035
143	0xbd8f259a	-0.06989594
144	0xbb786183	-0.0037899918
145	0xbda795e5	-0.08182887
146	0x3cb72fb4	0.022361614
147	0x3dc8bd49	0.09801728
148	0x3d98e126	0.07464819
149	0xbd80aede	-0.06283353
150	0x3d944fd5	0.07241789
151	0xbd7af969	-0.061273012
152	0x3dcad4d6	0.099038765
153	0x3d2daabb	0.04239915
154	0x3ce0deea	0.027450044
155	0xbd66a2e0	-0.056307673
156	0xbd31316c	-0.043260023
157	0x3bcf85b2	0.0063330764
158	0x3dc83e43	0.097775005
159	0x3bdb8c52	0.006700077
160	0x3dccdf71	0.100035556
161	0x3db731d4	0.08945051
162	0x3d6ff113	0.058579516
163	0xbd084add	-0.03327452
164	0xbd3fd068	-0.04682961
165	0x3b593e2a	0.0033148625
166	0x3d40f20f	0.047105845
167	0xbad78cdc	-0.0016445178
168	0x3d0e9005	0.034805316
169	0x3d7ccbb1	0.061717693
170	0xbcb50c93	-0.022100722
171	0xbcf7de28	-0.0302573
172	0xbd4e3485	-0.050343055
173	0xbdb1e903	-0.086870216
174	0x3d85ccb1	0.065331824
175	0x3bb5a64a	0.005543505
176	0xbb908593	-0.0044104545
177	0xbd966207	-0.07342916
178	0x3d455517	0.04817685
179	0xbd52149f	-0.051289197
180	0x3ccc13c4	0.024911769
181	0x3c625b00	0.013815641
182	0x3dad9236	0.08475153
183	0xbda8f811	-0.0825044
184	0x3d87e411	0.06635297
185	0x3ce76b89	0.028249519
186	0x3d988a28	0.07448226
187	0x3dc5dc2b	0.09661134
188	0xbd063c8f	-0.032772597
189	0xbca0bc8a	-0.019621152
190	0xbd486b43	-0.048930418
191	0xbc652351	-0.013985471
192	0x3d29c50b	0.04144768
193	0xbb8d72b9	-0.0043166545
194	0x3c33ebcc	0.010981511
195	0x3ce4ce93	0.027930534
196	0xbc279ae7	-0.010229803
197	0xbc80369a	-0.015651036
198	0xbdab5482	-0.08365728
199	0xbda413b5	-0.08011571
200	0x3da196a9	0.07890064
201	0x3d83de23	0.064388536
202	0xbbe31cf3	-0.0069309413
203	0xbcc383d8	-0.023866579
204	0x3d9a440f	0.075325124
205	0xbd9ed87c	-0.07756135
206	0xbc20779b	-0.009794141
207	0x3bc33c10	0.0059580877
208	0x3d2c54c7	0.042073037
209	0xbda169eb	-0.078815304
210	0xbaf1452a	-0.0018407453
211	0x3d0dd1ce	0.034623913
212	0xbadca2cc	-0.0016833185
213	0xbd12b482	-0.035816677
214	0xbcd3b322	-0.025842253
215	0xbdb607f5	-0.088882364
216	0x3d1140f5	0.03546234
217	0xbc836c7f	-0.016042946
218	0x3cd1c4c6	0.025606524
219	0x3dc95112	0.09829916
220	0xbd92176c	-0.071333736
221	0x3ce578cf	0.028011708
222	0x3db91af0	0.09038341
223	0xbd8f76a6	-0.07005052
224	0x3d9102c0	0.07080603
225	0x3cf4e24c	0.029893063
226	0xbd3aedb3	-0.045636844
227	0xbdb07ef0	-0.086179614
228	0x3db260b0	0.08709848
229	0xbdc70ab2	-0.09718837
230	0xbd7632ff	-0.060107227
231	0xbd159ba8	-0.0365254
232	0xbd273ead	-0.040831257
233	0x3db5fd03	0.08886149
234	0xbd09e52a	-0.033665814
235	0xbd6f9de0	-0.05850017
236	0x3db64176	0.088992044
237	0x3db7a926	0.089678094
238	0xbc6b1ab8	-0.014349632
239	0x3d14dbd6	0.036342464
240	0x3b834ff2	0.004007333
241	0x3cb103a3	0.02160818
242	0x3db5ba92	0.08873476
243	0x3d7cd058	0.06172213
244	0x3b0a9e5c	0.0021151518
245	0x3d73ab81	0.05948973
246	0x3c462343	0.012093368
247	0x3ce82539	0.028338062
248	0xbc86f2cc	-0.016473196
249	0x3d3f1651	0.046652142
250	0x3bcf3f0a	0.0063246535
251	0x38d4d690	0.00010148913
252	0xbb7146bb	-0.003681584
253	0x3d534bdc	0.051586017
254	0x3dd6c7cc	0.10487327
255	0xbcf2d764	-0.029643722

gnn_layer_0.gconv.u_fc.bias f4 [64]
0	0x3c4b4bc7	0.012408203
1	0xbd749e88	-0.0597215
2	0x3ae0bf0e	0.0017146782
3	0x3d9c6f14	0.07638374
4	0xbd5c5313	-0.053790163
5	0xbdb2b092	-0.08725084
6	0x3d950dff	0.0727806
7	0xbc88f154	-0.016716637
8	0x3c9457a3	0.018108195
9	0x3bed102a	0.007234593
10	0x3b949e9a	0.0045355083
11	0x3cb1e401	0.021715166
12	0x3d80e1fd	0.06293104
13	0x3dc5487c	0.09632966
14	0x3db5de7e	0.08880328
15	0x3d377ecb	0.044798654
16	0xbce3fa8d	-0.027829433
17	0x3dc1d815	0.094650425
18	0xbc8451b6	-0.016152244
19	0x3d9e5a39	0.07732052
20	0x3d9b886c	0.0759438
21	0x3d2ec410	0.04266745
22	0xbdb19153	-0.086702965
23	0x3be09e50	0.00685481
24	0x3d9632d3	0.07333913
25	0x3c21c9eb	0.009874801
26	0x3cedcde4	0.02902884
27	0x3c1eeec0	0.009700477
28	0xbda506cf	-0.08057939
29	0xbd66103f	-0.056167837
30	0x3c4a6a49	0.012354442
31	0xbbc95718	-0.0061444156
32	0xbd4c0d04	-0.0498171
33	0xbcad2f4a	-0.021140713
34	0xbd1e62b0	-0.038668334
35	0x3d99de2c	0.07513079
36	0xbdaec1ac	-0.08533034
37	0xb8f71725	-0.00011782189
38	0xbdae6597	-0.085154705
39	0xbd66589e	-0.056236856
40	0x3cc4626f	0.023972718
41	0xbbecf917	-0.0072318423
42	0xbd97c71f	-0.07411026
43	0xbd92c638	-0.071667135
44	0x3cc19c6f	0.023634164
45	0x3de3a9fc	0.11116406
46	0xbc845543	-0.016153937
47	0x3d6003fe	0.054691307
48	0xbd1acc12	-0.037792273
49	0xbc9ea1cf	-0.019364266
50	0x3d3d1447	0.046161916
51	0xbd20a12c	-0.039216205
52	0xbc760809	-0.015016564
53	0xbcf4a650	-0.02986446
54	0x3d6e52da	0.058184482
55	0x3ca34270	0.01992914
56	0xbdb42aaa	-0.087972
57	0xbcae8b04	-0.021306522
58	0xbdb90dcc	-0.09035835
59	0x3d7a11ef	0.06105226
60	0x3d420071	0.047363702
61	0x3c98e9dc	0.0186662
62	0xbc32bdcd	-0.01090951
63	0xbcb29c2e	-0.021802988

affinity_0.A f4 [64, 64]
0	0x3f60d228	0.87820673
1	0x3cfb82a8	0.03070195
2	0x3dfb7322	0.12277819
3	0xbd13b5ec	-0.036062166
4	0x3ca73e30	0.020415395
5	0x3d9ef3ee	0.0776137
6	0xbd04e09c	-0.032440767
7	0x3de45abc	0.11150119
8	0x3c1d23f0	0.009591088
9	0x3d443b00	0.04790783
10	0x3d1165d0	0.035497487
11	0x3b9f3aa0	0.0048592836
12	0x3d86ca32	0.065815344
13	0xbdc05b52	-0.09392418
14	0xbd134c6c	-0.035961553
15	0x3d86a22c	0.065739006
16	0x3c8b4c48	0.017004147
17	0xbccbfdf8	-0.024901375
18	0xbdfb99a2	-0.122851625
19	0xbdbe1428	-0.09281188
20	0x3debf030	0.115204215
21	0xbce438d0	-0.027859122
22	0xbdb63adc	-0.08897945
23	0xbd7e1e3c	-0.062040552
24	0xbcefa438	-0.02925311
25	0x3d760dc4	0.06007172
26	0xbdd7d6b8	-0.10539001
27	0xbd872682	-0.06599142
28	0xbd49c1a8	-0.04925695
29	0xbce2c798	-0.027683064
30	0xbcbe63d0	-0.023240954
31	0x3d8dbc36	0.06920664
32	0x3dafed32	0.08590163
33	0xbda1bc4c	-0.07897243
34	0xbd6081c4	-0.054811254
35	0xbddb9b82	-0.1072302
36	0xbdc411e2	-0.095737234
37	0xbcbb1358	-0.022836372
38	0x3d740b70	0.05958122
39	0xbdb10b7e	-0.0864477
40	0xbd663020	-0.05619824
41	0xbd148164	-0.03625621
42	0x3b79ca00	0.0038114786
43	0xbda719f4	-0.08159247
44	0xbdc5438e	-0.09632026
45	0x3d7293c4	0.05922295
46	0x3d453a80	0.048151493
47	0xbd590a5c	-0.052988395
48	0x3c961e70	0.01832506
49	0xbd8545d2	-0.06507458
50	0x3d7878d4	0.060662106
51	0xbda1acd4	-0.078942925
52	0xbd51838c	-0.051150844
53	0x3d5b767c	0.053579792
54	0x3c869d10	0.016432315
55	0x3cd0e030	0.025497526
56	0x3db36260	0.08758998
57	0x3cc941c0	0.024567485
58	0x3ddbb982	0.10728742
59	0xbdf516e0	-0.11967254
60	0xbc7d5370	-0.015461788
61	0x3abc5700	0.001436919
62	0xbd31d8cc	-0.043419644
63	0xbd66ad70	-0.056317747
64	0x3d297918	0.04137525
65	0x3f78eccc	0.97236323
66	0x3dba3060	0.09091258
67	0x3d624f38	0.05525133
68	0xbb887ce0	-0.004165277
69	0xbdc05c2c	-0.093925804
70	0xbd22c434	-0.039737895
71	0x3cd99440	0.026559949
72	0xbd5a8fe0	-0.053359866
73	0xbca5aaa0	-0.020222962
74	0xbdcc5e56	-0.09978931
75	0xbd9e5106	-0.07730298
76	0x3dd757e8	0.10514814
77	0xbdf62f44	-0.12020734
78	0xbd7325dc	-0.059362277
79	0xbd45b570	-0.048268735
80	0x3db3c840	0.08778429
81	0x3dfa25c4	0.122142345
82	0x3dcc70f2	0.0998248
83	0x3d5243e8	0.05133429
84	0xbdcdda36	-0.10051386
85	0x3d92ff94	0.07177654
86	0x3d705948	0.058678895
87	0x3d055308	0.032549888
88	0x3ca162f8	0.019700512
89	0xbb84a7c0	-0.0040483177
90	0x3da8718c	0.08224782
91	0xbdbdf524	-0.092752725
92	0xbcbf8ac0	-0.02338159
93	0xbd2ea7c4	-0.042640463
94	0x3d2b599c	0.041833505
95	0xbd254e98	-0.040358156
96	0x3dd7c0e6	0.10534839
97	0xbda63822	-0.08116175
98	0xbdd0bca4	-0.1019223
99	0x3daa9378	0.08328909
100	0xbdcd1354	-0.10013452
101	0xbd1783d8	-0.03699097
102	0xbcf365f0	-0.029711694
103	0x3dec66c2	0.11543037
104	0x3da67bbe	0.08129071
105	0x3d0afdf8	0.03393361
106	0xbb009000	-0.001961708
107	0xbdfd589e	-0.12370418
108	0x3df4e2d4	0.119573265
109	0xbd125a10	-0.03573042
110	0xbd5f2284	-0.054476276
111	0xbc91a8a0	-0.017780602
112	0xbc2d2a60	-0.010569185
113	0xbde5d138	-0.11221546
114	0x3ded6a5a	0.115925506
115	0x3d387b5c	0.04503952
116	0xbcd1f1e8	-0.025628045
117	0x3da69b52	0.08135094
118	0x3df8c844	0.12147573
119	0xbd06409c	-0.03277646
120	0x3de24102	0.110475555
121	0x3da56f22	0.080778375
122	0x3d90e13e	0.070742115
123	0xbda26e28	-0.07931167
124	0xbd944856	-0.072403595
125	0x3dd9eb4a	0.10640581
126	0x3de79ccc	0.113092035
127	0xbd561d90	-0.052274287
128	0xbd258dbc	-0.04041837
129	0xbcc02290	-0.02345398
130	0x3f77c47b	0.9678418
131	0xbd928cb2	-0.07155742
132	0x3cc44fd0	0.023963839
133	0x3ca42d40	0.020041108
134	0xbddead50	-0.108729005
135	0x3d824e14	0.063625485
136	0x3da5adee	0.08089815
137	0xbdfea3be	-0.12433575
138	0xbdeac278	-0.11462873
139	0x3d0d5850	0.03450805
140	0xbd6ef704	-0.05834104
141	0xbdff4e74	-0.124661356
142	0xbdffc422	-0.12488581
143	0x3cca5e90	0.024703294
144	0xbd2d4118	-0.042298406
145	0xbd78b62c	-0.060720608
146	0xbd2c6fa8	-0.04209867
147	0x3d13e774	0.036109403
148	0xbc24af50	-0.010051563
149	0xbc7f4d90	-0.015582457
150	0x3c56dee0	0.013114661
151	0xbd9d942e	-0.07694279
152	0x3d28d5e0	0.041219592
153	0x3d9c278c	0.076247305
154	0x3d338548	0.04382828
155	0x3d13c68c	0.03607802
156	0xbd50528c	-0.050859973
157	0xbdd0b564	-0.101908475
158	0x3d9145d8	0.070934
159	0x3b440480	0.0029909909
160	0xbd89a158	-0.06720227
161	0x3d23b91c	0.039971456
162	0x3dc37da4	0.095454484
163	0xbd15d188	-0.036576778
164	0x3dfa0f1c	0.12209913
165	0xbd531074	-0.051529363
166	0xbd837daa	-0.06420453
167	0x3d5634c8	0.05229643
168	0xbd162938	-0.036660403
169	0xbdd7797e	-0.1052122
170	0x3df5d068	0.12002641
171	0x3ca49148	0.020088807
172	0x3db073c8	0.086158335
173	0x3d17b6d8	0.037039608
174	0x3dc054ec	0.093911976
175	0x3cad97b0	0.021190494
176	0xbc92b960	-0.01791066
177	0x3d09fee4	0.03369035
178	0xbd94563a	-0.07243009
179	0xbdecc4d0	-0.115609765
180	0xbc9e9e58	-0.019362614
181	0xbdb4efb8	-0.08834785
182	0xbc033f90	-0.00801076
183	0x3ce95138	0.02848111
184	0x39f8ec00	0.0004747808
185	0x3dd85468	0.10562974
186	0x3db28f12	0.08718695
187	0x3b86b180	0.004110515
188	0xbdf8938a	-0.12137516
189	0x3def8112	0.1169454
190	0x3def8e68	0.11697084
191	0x3cab3128	0.020897463
192	0x3dc51de8	0.09624845
193	0xbd444fc4	-0.047927633
194	0xbd94e300	-0.07269859
195	0x3f8b8d98	1.0902586
196	0xbd8e750c	-0.06955919
197	0x3c6215d0	0.013799146
198	0xbde1025a	-0.10986777
199	0x3c517e10	0.012786403
200	0xbd92f1f0	-0.07175052
201	0xbd95032a	-0.07275994
202	0xbc59adc0	-0.013286054
203	0xbdaf323a	-0.08554502
204	0x3a303500	0.0006721765
205	0x3b646f00	0.00348562
206	0x3d3c833c	0.046023592
207	0xbd706df8	-0.058698624
208	0xbd683d84	-0.05669929
209	0xbd3bc574	-0.045842603
210	0x3ddda3b8	0.108222425
211	0xbd83afa2	-0.06429984
212	0x3d94f84e	0.07273923
213	0x3d2d18d8	0.04226002
214	0xbde33c82	-0.11095525
215	0xbd87cf14	-0.06631294
216	0x3db5af74	0.08871356
217	0xbd442f7c	-0.047896847
218	0x3cb9e880	0.022693872
219	0x3db13134	0.08651963
220	0xbd8ed53c	-0.06974265
221	0x3dcd199a	0.10014649
222	0x3bfd8400	0.007736683
223	0x3d440400	0.047855377
224	0x3d932768	0.071852505
225	0xbc602210	-0.013679996
226	0x3d54a094	0.05191095
227	0x3d1baa00	0.03800392
228	0xbdd88fd2	-0.105743065
229	0xbd15f38c	-0.036609218
230	0x3d104428	0.03522125
231	0x3ddf9068	0.10916215
232	0x3aae0a00	0.0013278127
233	0xbca11788	-0.01966454
234	0xbafab680	-0.0019127876
235	0x3ca40f28	0.020026758
236	0xbda05946	-0.078295276
237	0xbd82b428	-0.06382018
238	0xbd85d1b4	-0.06534138
239	0x3d8aec86	0.067833945
240	0x3bb19f20	0.0054205805
241	0x3c9dbb00	0.019254208
242	0xbdbdb3b0	-0.09262788
243	0xbdf736a6	-0.1207097
244	0x3d34eec8	0.044173032
245	0xbc3af480	-0.011410832
246	0xbd4a04a8	-0.049320847
247	0xbcf85658	-0.03031461
248	0xbd1729f8	-0.03690526
249	0xbdad689c	-0.08467218
250	0xbd2ac734	-0.04169388
251	0x3d354b24	0.044261113
252	0xbb944da0	-0.004525855
253	0x3cf6b5e8	0.030116037
254	0x3d21b8e8	0.03948298
255	0x3de45cee	0.111505374

gnn_layer_1.gconv.a_fc.weight f4 [64, 64]
0	0xbd6cbebf	-0.057799097
1	0x3dbf87de	0.093520865
2	0xbcce59e2	-0.025189344
3	0xbdc8920c	-0.09793481
4	0xbdb5ed2e	-0.08883129
5	0xbd959fd2	-0.07305874
6	0xbc2581fd	-0.010101792
7	0x3d81fbf4	0.06346884
8	0x3db9b716	0.09068124
9	0xbd8c2ad2	-0.06844105
10	0xbd2b945d	-0.041889537
11	0x3b48bf8e	0.0030631754
12	0xbd32c050	-0.043640435
13	0x3d5b6f0b	0.053572696
14	0x3d82751b	0.06369992
15	0xbd48dca8	-0.04903856
16	0xbd0597d8	-0.032615513
17	0x3de2c05d	0.11071847
18	0xbdf30ba8	-0.11867458
19	0xbc758401	-0.014985085
20	0x3d0793e5	0.033100028
21	0x3d7763b8	0.060397834
22	0xbdd1fc5a	-0.1025321
23	0xbdab2e2a	-0.083584145
24	0x3d1a858c	0.037725016
25	0x3df5f7a8	0.12010127
26	0x3c8ab137	0.016930206
27	0x3dd4da36	0.10393183
28	0x3c2f8bc5	0.010714476
29	0xbd0cd46d	-0.034382273
30	0xbd7afb12	-0.061274596
31	0x3dcd4180	0.10022259
32	0x3c8ed858	0.017437145
33	0xbdc3b28d	-0.0955554
34	0xbc0087ff	-0.007844924
35	0xbdebfb40	-0.115225315
36	0x3d04a81d	0.032386888
37	0x3a65d8ed	0.0008767981
38	0xbc8b787f	-0.01702523
39	0xbd53eebc	-0.051741347
40	0x3d1d382c	0.038383648
41	0xbdabe2da	-0.08392878
42	0x3c8c2b78	0.017110571
43	0xbdfc8b7a	-0.123312905
44	0xbdc41b5a	-0.095755294
45	0xbce47e30	-0.027892202
46	0x3dd5ed6f	0.104456775
47	0x3de338fb	0.110948525
48	0x3d802a0a	0.06258018
49	0xbdb24e39	-0.08706326
50	0x3c814a6d	0.01578256
51	0xbcda17ff	-0.02662277
52	0xbabb495a	-0.0014288828
53	0x3d6004be	0.054692023
54	0xbdc4a93d	-0.09602592
55	0xbd92055b	-0.07129928
56	0x3d923a40	0.071400166
57	0x3b9818c0	0.0046416223
58	0xbdb510aa	-0.08841069
59	0x3de75689	0.11295802
60	0xbd739be5	-0.059474844
61	0x3dcae454	0.099068314
62	0x3d5aec0c	0.053447768
63	0xbda44d34	-0.08022538
64	0x3c3f1e92	0.011665003
65	0x3ddd8833	0.108169936
66	0xbdd53de4	-0.10412195
67	0x3dfa34d7	0.1221711
68	0xbd896a6a	-0.0670975
69	0x3d11bef2	0.03558249
70	0xbca08f03	-0.019599443
71	0x3ddc9368	0.10770303
72	0xbde98f0e	-0.11404239
73	0xbd32cb48	-0.043650895
74	0x3dc5f960	0.09666705
75	0xba0b619a	-0.0005316973
76	0x3d566800	0.052345276
77	0xbd82aaf1	-0.06380261
78	0x3dae4938	0.08510059
79	0x3dda64b1	0.106637366
80	0x3d9439b7	0.07237571
81	0xbdbb3320	-0.09140611
82	0x3de1c479	0.11023802
83	0xbc2dc42f	-0.010605856
84	0xbdbe9675	-0.09306041
85	0x3d79369f	0.060843106
86	0x3c174d40	0.009234726
87	0x3d8420f6	0.06451599
88	0xbcd1aecc	-0.025596045
89	0x3da47cc3	0.08031609
90	0xbdca5282	-0.09879018
91	0xbdf02d8d	-0.11727438
92	0xbd338382	-0.043826587
93	0x3c86ce9d	0.016455943
94	0x3d207984	0.039178386
95	0x3d917a00	0.07103348
96	0xbc9605a0	-0.01831323
97	0xbd550a20	-0.05201161
98	0xbd6c00c4	-0.057617918
99	0x3de64389	0.1124335
100	0x3cb2fe0a	0.02184965
101	0xbd787560	-0.060658813
102	0xbd6e21f1	-0.058137838
103	0xbdbef981	-0.09324933
104	0x3dcbd909	0.099535055
105	0xbb47d7a5	-0.0030493524
106	0xbd8ef636	-0.06980555
107	0xbda2e770	-0.079542994
108	0xbc74e8d6	-0.014948091
109	0xbd71a520	-0.058995366
110	0x3c1a2db1	0.009410308
111	0xbdcc044a	-0.099617556
112	0xbddc5b97	-0.10759657
113	0xbde540e0	-0.111940145
114	0x3dfb8c60	0.12282634
115	0x3d940c0d	0.07228861
116	0x3be2a238	0.0069163106
117	0x3d523856	0.051323257
118	0x3dc9dbe1	0.09856392
119	0xbdfa7450	-0.12229216
120	0xbdc28ce5	-0.0949953
121	0x3d887427	0.06662779
122	0xbc0a7400	-0.008450508
123	0x3d630a7f	0.05542993
124	0xbd681e3a	-0.05666945
125	0xbd8eaab8	-0.06966156
126	0x3dcb860a	0.09937675
127	0xbd0a280f	-0.03372961
128	0xbc18096a	-0.009279588
129	0x3daa9f73	0.08331194
130	0xbd860b4d	-0.06545124
131	0xbbebe2d1	-0.0071986695
132	0xbdf53b74	-0.119742304
133	0x3d994c43	0.07485249
134	0x3c424b21	0.011858732
135	0xbd7921a1	-0.060823087
136	0x3cd21dc8	0.025648966
137	0x3db1f06c	0.08688435
138	0x3d0da8fe	0.03458499
139	0xbc1136d5	-0.008863171
140	0x3dfaa698	0.122388065
141	0xbdf93803	-0.121688865
142	0x3cb825e1	0.022479
143	0x3db93e58	0.09045094
144	0x3ddc94c9	0.10770566
145	0x3bb624c5	0.0055585825
146	0x3d33851a	0.043828107
147	0xbdc84cff	-0.09780311
148	0x3d7083f4	0.05871959
149	0xbc8d420a	-0.017243404
150	0xbd0909dd	-0.033456672
151	0xbd069bb3	-0.03286333
152	0xbde78245	-0.11304144
153	0x3df2ed41	0.11861659
154	0x3dae9937	0.08525317
155	0x3df622c6	0.12018351
156	0x3d506dba	0.050885893
157	0xbde61566	-0.1123455
158	0xbd8e01c7	-0.06933933
159	0xbb2f7e00	-0.0026777983
160	0x3df0b84e	0.11753903
161	0x3d9b87fb	0.075942956
162	0xbde390ef	-0.11111628
163	0x3c7eb1b2	0.015545296
164	0xbdd61ed8	-0.10455102
165	0x3d2f68b1	0.04282445
166	0xbdbfb629	-0.09360916
167	0xbda34931	-0.079729445
168	0xbd39a08f	-0.045319136
169	0xbde8cc8e	-0.11367141
170	0x3df49ab8	0.11943573
171	0x3d78a05e	0.060699813
172	0x3d8b60b9	0.06805558
173	0xbd3d27d1	-0.04618055
174	0xbc7ae1fc	-0.015312668
175	0x3d8386af	0.06422173
176	0x3df7c45c	0.120979995
177	0xbd5acb38	-0.05341646
178	0x3dc1aa74	0.094563395
179	0xbdf667e2	-0.12031533
180	0xbdf7f66b	-0.121075474
181	0x3df56bbd	0.1198344
182	0x3d9b958f	0.075968854
183	0xbde92696	-0.11384313
184	0xbd8a3f08	-0.067503035
185	0x3ba301d5	0.0049745836
186	0x3d577088	0.052597553
187	0x3de21633	0.110393904
188	0x3c8e6b3b	0.017385116
189	0x3de4519a	0.11148377
190	0xbd4453a5	-0.047931332
191	0x3d7d676a	0.0618662
192	0x3d22d67a	0.039755322
193	0x3d87bf74	0.06628314
194	0x3dc7f7d2	0.09764065
195	0x3d733259	0.059374187
196	0x3dd75974	0.10515109
197	0xbdb4cd32	-0.088282004
198	0xbae7593a	-0.0017650493
199	0x3d45329a	0.04814396
200	0x3ddc1052	0.107453
201	0x3cb7a279	0.02241634
202	0xbde46e7e	-0.11153887
203	0xbde11d01	-0.1099186
204	0x3d8a24c6	0.06745295
205	0x3dc5b388	0.096533835
206	0xbbee7260	-0.007276818
207	0xbdf4c81a	-0.11952229
208	0x3c80502a	0.015663225
209	0xbd1396ab	-0.03603236
210	0xbd2b58fd	-0.041832913
211	0x3dcd840d	0.10034952
212	0xbd5a097b	-0.053231698
213	0xbddb201c	-0.10699484
214	0xbd50cca2	-0.050976403
215	0x3c861f25	0.016372273
216	0xbd66afa8	-0.056319863
217	0x3cda7963	0.02666921
218	0x3d896b3c	0.067099065
219	0xbcf68a63	-0.030095285
220	0x3d966304	0.073431045
221	0x3c47900b	0.012180339
222	0xbd56e4ef	-0.05246442
223	0xbde10b70	-0.1098851
224	0x3db7fc7f	0.08983707
225	0x3d96b8ee	0.07359491
226	0x3ddc525d	0.10757897
227	0xbcf856c2	-0.030314807
228	0x3cae2b97	0.02126102
229	0x3de58d9f	0.11208653
230	0x3dff73ed	0.12473283
231	0x3c83ead6	0.01610319
232	0x3deacd18	0.114649
233	0x3c2b3355	0.01044925
234	0x3cb97678	0.022639498
235	0xbc51a6cd	-0.012796116
236	0xbca07382	-0.019586328
237	0x3d3050a9	0.043045674
238	0xbdad171c	-0.084516734
239	0x3dfb2daf	0.12264573
240	0xbd841028	-0.06448394
241	0xbddaeda5	-0.10689858
242	0x3d7cc264	0.061708823
243	0xbdaceda2	-0.08443762
244	0x3db49a17	0.08818453
245	0x3cb48eef	0.022040812
246	0xba20b472	-0.0006130404
247	0x3df7918e	0.12088309
248	0xbda3b8da	-0.07994242
249	0x3d71ad6e	0.059003286
250	0x3d5db440	0.054126978
251	0x3d5feb03	0.054667484
252	0x3d2adc3d	0.04171394
253	0xbcf15871	-0.029461117
254	0x3caadbe4	0.020856805
255	0x3dfa69f4	0.1222724

gnn_layer_1.gconv.a_fc.bias f4 [64]
0	0xbd808cce	-0.06276856
1	0xbda99b8d	-0.08281622
2	0xbd45e9dc	-0.04831873
3	0x3db4495f	0.08803057
4	0x3da293f0	0.07938373
5	0xbd051038	-0.03248617
6	0xbdcb2832	-0.09919776
7	0xbd119f77	-0.03555247
8	0xbcba95b3	-0.02277646
9	0x3d301242	0.042986162
10	0x3d85b4d2	0.06528629
11	0xbd9fc71d	-0.0780165
12	0x3de86007	0.11346441
13	0x3cfd563d	0.03092491
14	0xbd99f0e2	-0.07516648
15	0xbc6debd9	-0.0145215625
16	0xbdfa60bc	-0.12225482
17	0x3e184e2a	0.14873567
18	0x3d79ddd0	0.061002553
19	0xbd1b2623	-0.037878167
20	0xbd91a8e9	-0.07112295
21	0xbd9e2383	-0.07721617
22	0xbdd4d1da	-0.103915885
23	0x3df5e2a3	0.12006118
24	0x3d96839d	0.07349322
25	0x37ccf309	2.4431867e-05
26	0xbd107e38	-0.03527662
27	0x3dbecce1	0.09316421
28	0x3e015055	0.126283
29	0x3e0037d9	0.12521304
30	0x3d125b2d	0.035731483
31	0x3dd9cc56	0.10634677
32	0x3da96545	0.08271269
33	0xbd826ba2	-0.063681856
34	0xbd856b55	-0.065146126
35	0xbdc088f6	-0.09401123
36	0xbd3a77bc	-0.045524344
37	0x3d66664c	0.0562499
38	0x3d8e4844	0.06947377
39	0x3dcc3fe4	0.09973124
40	0x3dd96fc4	0.10617021
41	0xbdd27601	-0.10276414
42	0xbdcf1620	-0.10111642
43	0xbd13d071	-0.036087457
44	0xbdde3896	-0.10850637
45	0xbd120991	-0.035653654
46	0x3d46f92e	0.04857748
47	0x3d3e5c95	0.04647501
48	0xbd063fde	-0.032775752
49	0xbdc4021a	-0.09570713
50	0x3e0827cb	0.1329643
51	0x3d8fa771	0.07014359
52	0x3e092644	0.13393503
53	0xbd66b940	-0.056329012
54	0x3ddca558	0.10773724
55	0xbe0a6b05	-0.13517387
56	0xbd57d256	-0.052690826
57	0xbcecb2c3	-0.028893834
58	0x3d6a7710	0.057242453
59	0x3e140fed	0.144592
60	0x3ceaa465	0.028642843
61	0xbca02791	-0.019550117
62	0x3dbfe13e	0.093691334
63	0xbdfab32d	-0.12241206

gnn_layer_1.gconv.u_fc.weight f4 [64, 64]
0	0x3dcde373	0.10053148
1	0xbd5477e5	-0.051872153
2	0xbd975022	-0.07388331
3	0xbdfc0154	-0.12304941
4	0x3ba0f687	0.004912201
5	0x3db6f353	0.08933129
6	0x3c9da2fc	0.019242756
7	0xbd9a6ce2	-0.07540299
8	0x3c934ba2	0.0179804
9	0x3cafd18d	0.021462226
10	0x3ba46a01	0.0050175195
11	0x3db691ed	0.08914552
12	0x3d03a9ac	0.032144234
13	0xbcf3bbb5	-0.029752592
14	0x3d37b91e	0.044854276
15	0x3d9fae70	0.07796943
16	0x3dfcdfb3	0.12347355
17	0xbd43e45c	-0.047825202
18	0x3dde9f84	0.10870269
19	0xbd74b839	-0.059746
20	0x3cab7247	0.020928515
21	0x3dd78b9f	0.105246775
22	0x3dc9c4f8	0.09852022
23	0xbd10006a	-0.035156645
24	0xbcb9d4ee	-0.02268454
25	0x3d729734	0.05922623
26	0x3c631ad2	0.013861375
27	0x3dd4d288	0.10391718
28	0x3d93e2c9	0.0722099
29	0xbd7a2f3a	-0.061080195
30	0xbac928ba	-0.001534722
31	0x3d6fde80	0.058561802
32	0xbd35cfea	-0.044387735
33	0xbdf890a6	-0.121369645
34	0xbc2b1fc5	-0.010444586
35	0x3c9790cb	0.01850166
36	0x3ddfd6c3	0.109296344
37	0xbdb92bbf	-0.09041547
38	0xbd8172f3	-0.06320753
39	0xbda91328	-0.08255607
40	0xbdf15f36	-0.11785738
41	0x3db33924	0.08751133
42	0x3b2b8d80	0.002617687
43	0x3d1e24b9	0.03860924
44	0xbd5ed8c3	-0.05440594
45	0x3dbbb62d	0.09165607
46	0xbd58f002	-0.052963264
47	0xbda5e6f2	-0.0810069
48	0x3c199beb	0.009375553
49	0xbc4fc19b	-0.0126804365
50	0xbd3e374d	-0.046439458
51	0xbc045ef4	-0.008079279
52	0x3d4d8a7e	0.050180905
53	0xbcb76157	-0.022385282
54	0x3d2938c7	0.041313913
55	0x3d8614e3	0.065469526
56	0x3d9d0430	0.07666814
57	0x3c1cf5e9	0.009580114
58	0xbd882274	-0.066471964
59	0x3db0e46a	0.086373165
60	0xbc4c084d	-0.012453151
61	0xbc972098	-0.01844816
62	0xbda83cb7	-0.082147054
63	0x3d52cf8a	0.051467456
64	0x3de0a766	0.10969429
65	0xbcebc525	-0.02878053
66	0x3caeaf13	0.021323716
67	0xbc8d8896	-0.017277043
68	0x3c9bdf69	0.019027429
69	0xbdbe570d	-0.09293947
70	0xbce8c3e8	-0.028413728
71	0x3d6fdaec	0.05855839
72	0xbdc47776	-0.09593098
73	0x3d5ddfc8	0.054168493
74	0xbd8c7a2a	-0.068592384
75	0x3c84720b	0.016167661
76	0x3cfad8b0	0.030620903
77	0x3dea0010	0.11425793
78	0xbda3210c	-0.079652876
79	0x3b17871c	0.0023121303
80	0x3dfc6653	0.12324204
81	0x3adf258b	0.0017024738
82	0xbd59064b	-0.052984517
83	0x3be58001	0.0070037846
84	0xbd987d61	-0.07445789
85	0xbd83d43f	-0.06436967
86	0x3d58b704	0.052908912
87	0xbdcee85e	-0.10102914
88	0x3e08f27c	0.1337375
89	0xbd8f64f1	-0.07001675
90	0x3d9b15bc	0.07572505
91	0xbd25d295	-0.04048403
92	0x3e08d2c3	0.13361649
93	0x3df0631e	0.11737655
94	0x3dc8c961	0.09804035
95	0x3df35eb0	0.118832946
96	0xbddce5af	-0.10785996
97	0x3d4f1178	0.05055377
98	0xbd48667a	-0.048925854
99	0x3d101e6b	0.03518526
100	0xbdd4521a	-0.10367222
101	0xbc1ce421	-0.009575875
102	0xbd28ad77	-0.041181054
103	0x3d9a1194	0.07522884
104	0x3db7fe5c	0.08984062
105	0x3da8ca10	0.08241665
106	0xbdef377a	-0.11680503
107	0x3d2fbba1	0.042903546
108	0x3d02ec53	0.031963658
109	0xbd5e8d02	-0.054333694
110	0x3d86b0fb	0.06576725
111	0xbde82937	-0.11335986
112	0x3c9d7d92	0.019224916
113	0xbcc592d7	-0.02411787
114	0xbdb33620	-0.08750558
115	0x3cba659a	0.022753526
116	0xbbbaacca	-0.0056968676
117	0x3da901f6	0.08252327
118	0xbca06300	-0.019578457
119	0x3d70c2ac	0.058779404
120	0x3b1d5d2e	0.0024011838
121	0x3b8c84e6	0.0042883037
122	0x3be49c60	0.006976649
123	0xbcb3603a	-0.02189647
124	0xbd21ab02	-0.039469726
125	0x3d85756e	0.065165386
126	0x3d8f8757	0.07008236
127	0x3c25b4be	0.010113893
128	0xbca12780	-0.019672155
129	0x3d0e634c	0.034762666
130	0xbd5c20c4	-0.053742185
131	0x3dfb908a	0.12283428
132	0xbd2198d8	-0.039452404
133	0xbd8604b0	-0.06543863
134	0xbd221454	-0.039570168
135	0x3d915d0e	0.07097827
136	0xbd970c74	-0.07375422
137	0xbdda3c12	-0.10655989
138	0xbd09ff58	-0.03369078
139	0x3da38570	0.079844356
140	0xbdf04a82	-0.11732961
141	0x3d80ae74	0.06283274
142	0xbdd09d54	-0.10186258
143	0x3d96556c	0.07340512
144	0xbcf06ce0	-0.02934879
145	0xbdd9d4a0	-0.10636258
146	0x3db33c22	0.08751704
147	0xbda34126	-0.079714105
148	0xbde386e2	-0.11109711
149	0xbd8573d4	-0.06516233
150	0xbc9aa2e8	-0.018876508
151	0xbbd73d20	-0.006568566
152	0x3d8d65de	0.06904195
153	0x3db319da	0.08745165
154	0x3daaf26a	0.08347018
155	0xbd749930	-0.059716403
156	0xbdba70c0	-0.091035366
157	0xbda2516a	-0.07925685
158	0xbdebb62e	-0.115093574
159	0xbd49e6c8	-0.049292356
160	0xbbaeee80	-0.00533849
161	0xbdbb220a	-0.09137352
162	0x3d799eec	0.060942575
163	0xbc8c5d38	-0.017134294
164	0xbd338400	-0.043827057
165	0x3c246a00	0.010035038
166	0x3d7ed438	0.062214106
167	0x3dabcdba	0.083888486
168	0xbdfa7376	-0.12229054
169	0x3df5e92e	0.12007366
170	0xbc275610	-0.01021339
171	0xbdaf4dd2	-0.08559765
172	0xbde0168c	-0.109418005
173	0x3cf14178	0.029450163
174	0x3dae411e	0.08508514
175	0xbd661868	-0.05617562
176	0x3dd4fe22	0.104000345
177	0xbd498f44	-0.049208894
178	0xbdeb1504	-0.11478618
179	0xbceb9ef8	-0.028762326
180	0xbd1f8524	-0.038945332
181	0xbce8b288	-0.028405443
182	0xbcdd9928	-0.02705057
183	0x3c7075d0	0.014676526
184	0xbd38bd54	-0.045102432
185	0xbd1785b0	-0.03699273
186	0xbddf398c	-0.10899648
187	0x3c860a10	0.01636222
188	0xbdddb3aa	-0.10825284
189	0x3c277c50	0.0102225095
190	0x3cd528c8	0.026020423
191	0xbd37d034	-0.044876292
192	0x3dfc1c8c	0.123101324
193	0x3db8df65	0.09026984
194	0xbd671d1e	-0.056424253
195	0x3c256417	0.010094664
196	0x3dbb5a1b	0.09148046
197	0x3da2fa91	0.07957948
198	0xbc35af3a	-0.011089141
199	0x3d5e7d64	0.0543188
200	0xbdf0d1ba	-0.11758752
201	0x3be94e57	0.0071199345
202	0x3de7fc0d	0.11327372
203	0x3dd567a5	0.10420159
204	0xbcd01010	-0.025398284
205	0x3b6aa978	0.0035806578
206	0x3d4427bb	0.047889452
207	0xbcd89bbd	-0.02644145
208	0x3d3fc879	0.046822045
209	0xbcc025f4	-0.023455597
210	0xbdccaa8c	-0.09993467
211	0xbd413518	-0.047169775
212	0xbe00a759	-0.12563838
213	0xbd6652b1	-0.056231204
214	0xbdfe8afa	-0.124288514
215	0xbcf806a3	-0.030276602
216	0xbce96322	-0.028489653
217	0x3df382f9	0.118902154
218	0xbd02d737	-0.031943526
219	0xbdcf2eeb	-0.10116371
220	0xbde18fa6	-0.11013727
221	0xbdd327ea	-0.103103474
222	0x3cca5fe7	0.024703933
223	0xbda6b072	-0.08139123
224	0xbde6067f	-0.11231708
225	0x3dac58c9	0.08415372
226	0x3df76031	0.12078894
227	0x3d7f5a1d	0.062341798
228	0x3d4789a2	0.04871524
229	0x3d8b11f9	0.067905374
230	0xbc887559	-0.016657518
231	0x3d2939cc	0.041314885
232	0xbdac9abc	-0.08427951
233	0xbd448ddf	-0.04798686
234	0xbdce6c1e	-0.100792155
235	0x3a868fd3	0.0010266252
236	0xbe0e42b5	-0.13892634
237	0xbd8efb68	-0.06981546
238	0xbc636c9c	-0.013880875
239	0xbc36842b	-0.01113991
240	0x3dd924eb	0.10602745
241	0x3d089e80	0.033354282
242	0x3db89bfb	0.09014126
243	0xbe187814	-0.14889556
244	0x3da3323d	0.079685666
245	0xbdbef56c	-0.09324154
246	0x3d8aab0b	0.06770905
247	0x3dd28c6c	0.102806896
248	0x3d3ef389	0.046618972
249	0x3dd49bec	0.10381302
250	0x3d27324c	0.04081945
251	0xbcfc7407	-0.030817045
252	0xbd4a1e44	-0.04934527
253	0xbdc066c0	-0.09394598
254	0x3dbcad0e	0.09212695
255	0x3d1f87d0	0.03894788

gnn_layer_1.gconv.u_fc.bias f4 [64]
0	0xbd991125	-0.07473973
1	0xb9060317	-0.00012780387
2	0xbdd3248e	-0.10309707
3	0xbac12446	-0.0014735542
4	0x3d0b0198	0.033937067
5	0x3d219f32	0.03945846
6	0x3db66db0	0.0890764
7	0x3d8d46c0	0.0689826
8	0xbdaa9219	-0.08328647
9	0xbc34f6a1	-0.011045129
10	0xbd68866f	-0.05676883
11	0x3e0e9976	0.13925728
12	0x3c11e012	0.00890352
13	0xbc81f721	-0.01586491
14	0xbd817174	-0.063204676
15	0xbd2513c4	-0.040302053
16	0x3dcc5b8e	0.099784
17	0xbdc8036e	-0.09766279
18	0x3dbf3fa4	0.0933831
19	0xbc4c2257	-0.012459359
20	0x3dc6d43b	0.097084485
21	0xb9ba1387	-0.00035491234
22	0xbd33ab1c	-0.043864354
23	0x3df201f1	0.118167765
24	0xbdeea03c	-0.11651656
25	0x3d799b3d	0.060939062
26	0x3dade9a3	0.08491828
27	0xbd6ba851	-0.057533566
28	0x3d9b7eb1	0.07592524
29	0xbdc8e064	-0.09808424
30	0xbc1462ca	-0.009056756
31	0xbdbd55a1	-0.09244848
32	0x3cda94d3	0.026682293
33	0x3c869e7d	0.016432995
34	0x3de1237f	0.109930985
35	0x3dd3c1c7	0.103396945
36	0x3db77c19	0.089592166
37	0xbdc83a5e	-0.09776758
38	0x3df80883	0.121109985
39	0xbc835b6f	-0.01603481
40	0x3c78950b	0.015172253
41	0x3dbb2a17	0.091388874
42	0x3d7c8bec	0.061656877
43	0x3dc8389d	0.09776423
44	0x3d0ce45f	0.03439748
45	0x3d9136d9	0.070905395
46	0xbd61fafd	-0.055171
47	0xbd769901	-0.06020451
48	0x3ddbd102	0.107332245
49	0xbddf4da8	-0.10903484
50	0x3c337680	0.010953546
51	0xbb9c1a0b	-0.0047638468
52	0x3d7ee9c0	0.06223464
53	0x3e03d7ae	0.12875244
54	0xbd6d60c9	-0.05795363
55	0xbdb758a0	-0.08952451
56	0x3d713af9	0.05889413
57	0x3db11821	0.0864718
58	0x3dc5d2f6	0.09659378
59	0x3c405ca7	0.01174084
60	0x3db90167	0.090334706
61	0xbc1b95aa	-0.009496132
62	0xbdd5ebba	-0.10445352
63	0xbd10990e	-0.035302214

affinity_1.A f4 [64, 64]
0	0x3f8b92ff	1.0904235
1	0x3cdd0f68	0.026984885
2	0x3c0c8660	0.008576959
3	0xbda8bf4e	-0.082396135
4	0x3bef3760	0.0073003024
5	0x3aed3800	0.0018098354
6	0xbd0a0e64	-0.03370513
7	0xbdf86ac0	-0.12129736
8	0x3df63e76	0.12023632
9	0xbdc6bd56	-0.09704082
10	0x3deace88	0.11465174
11	0x3d7d8d48	0.061902314
12	0xbd5a0dcc	-0.053235814
13	0xbde4514e	-0.1114832
14	0xbdfa721e	-0.122287974
15	0xbd78eb94	-0.06077154
16	0xbdbaf7a8	-0.09129268
17	0x3dc7a6c4	0.09748605
18	0xbadb8e80	-0.0016750842
19	0x3dee8744	0.116468936
20	0xbdfa059a	-0.122081
21	0xbb78b000	-0.00379467
22	0x3d90a93e	0.070635304
23	0x3def2df4	0.11678687
24	0x3cca12c8	0.024667159
25	0x3daa2484	0.08307746
26	0xbd04b824	-0.032402173
27	0xbdec0dce	-0.115260705
28	0x3c0eab60	0.008707851
29	0x3d2e3a64	0.042536154
30	0xbbf5d9e0	-0.0075027794
31	0x3d3fdfc8	0.046844274
32	0x3dc2fe46	0.09521155
33	0xbda22488	-0.07917124
34	0xbdb5c9b2	-0.08876361
35	0x3cfd9990	0.030957013
36	0xbdda2c8e	-0.106530294
37	0xbc8d9dc8	-0.01728715
38	0xbda5e898	-0.08101004
39	0xbdca5fac	-0.09881529
40	0x3d89c0ca	0.06726225
41	0xbdd2b6a6	-0.10288744
42	0x3d55b7f0	0.05217737
43	0xbda19550	-0.07889807
44	0x3c78ad00	0.015177965
45	0xbdfc4376	-0.12317555
46	0xbd95aef4	-0.0730876
47	0xbcafb7b8	-0.021449909
48	0x3dd73ede	0.10510038
49	0x3c67ccf0	0.014147982
50	0xbd1f0640	-0.03882432
51	0xbd8d69fe	-0.06904982
52	0xbda2b4d0	-0.079446435
53	0xbd866a0c	-0.065631956
54	0xbd457718	-0.04820928
55	0xbc6e6b90	-0.014552012
56	0x3dba8ca2	0.09108855
57	0xbdbc6db0	-0.09200609
58	0x3a3f0e00	0.0007288158
59	0xbd29e860	-0.041481376
60	0x3c84c0e0	0.016205251
61	0xbd98b440	-0.07456255
62	0x3cc7e628	0.02440174
63	0x3d9531ee	0.07284914
64	0x3df3361c	0.11875555
65	0x3f632dfc	0.8874204
66	0xbcf966b8	-0.030444488
67	0x3d0a8a60	0.03382337
68	0x3bd0a900	0.0063678026
69	0xbc36e8f0	-0.011163935
70	0x3db6daca	0.089284495
71	0x3c94c7d8	0.0181617
72	0x3dc28e92	0.094998494
73	0xbdce2a4c	-0.10066661
74	0x3db3cc8c	0.087792486
75	0x3dda7e76	0.10668652
76	0xbda38162	-0.07983662
77	0x3d479ba8	0.04873243
78	0x3a481b00	0.0007633418
79	0xbdbc8f68	-0.0920704
80	0xbdd1c5da	-0.10242815
81	0x3d18ef34	0.037337497
82	0xbde026cc	-0.109449
83	0xbddb1b5a	-0.10698576
84	0xbd7b2d90	-0.06132275
85	0x3d8ca2e2	0.06867005
86	0xbd8539ec	-0.06505188
87	0xbc669ff0	-0.014076218
88	0x3d77e66c	0.06052248
89	0xbdf0b072	-0.11752404
90	0x3dac75c4	0.084208995
91	0xbdb9713c	-0.09054801
92	0xbb859e60	-0.0040777177
93	0xbd46b9c0	-0.04851699
94	0xbd11087c	-0.035408482
95	0xbd2061c4	-0.039155737
96	0xbd8984ea	-0.067148045
97	0xbc4519f0	-0.01203011
98	0xbd2d2f3c	-0.042281374
99	0x3c8fec18	0.017568633
100	0x3c26cdd0	0.010180905
101	0x3c80e2b0	0.015733093
102	0x3da06004	0.078308135
103	0x3d2bdef4	0.04196067
104	0x3d3c5174	0.045976117
105	0xbd5c8a34	-0.05384274
106	0xbdce4998	-0.10072631
107	0x3d6e971c	0.058249578
108	0xbd624e44	-0.05525042
109	0xbd5701a8	-0.052491814
110	0x3dd12eec	0.10214028
111	0xbcdb27d0	-0.026752383
112	0x3d063ee8	0.032774836
113	0x3d9af25e	0.07565759
114	0x3d8ec8de	0.06971906
115	0xbc136b20	-0.008997709
116	0x3ca19850	0.019725949
117	0xbdf7daa0	-0.12102246
118	0xbbbc4400	-0.005745411
119	0xbd6ee798	-0.058326334
120	0x3d33c2f0	0.04388708
121	0xbdb9ea72	-0.0907792
122	0x3d4c2564	0.049840346
123	0xbd8f489e	-0.069962725
124	0x3da1a248	0.07892281
125	0xbd1365fc	-0.03598593
126	0x3d3b1f00	0.04568386
127	0xbc11eba0	-0.008906275
128	0x3d5ddbbc	0.054164633
129	0x3db8ec62	0.090294614
130	0x3f8b34a6	1.0875442
131	0xbcd94cd8	-0.0265259
132	0x3ddb7aba	0.107167676
133	0xbccd75d8	-0.025080606
134	0x3db94e4e	0.090481386
135	0xbdd3035a	-0.10303374
136	0xbcf6ee38	-0.030142888
137	0x3d925db8	0.07146782
138	0xbd866910	-0.06563008
139	0x3d911920	0.0708487
140	0x3dce9b96	0.100882694
141	0x3c46fd80	0.0121454
142	0x3d81d1b0	0.06338823
143	0xbd5ff3a4	-0.054675713
144	0x3da4aeac	0.080411285
145	0xbd64ba34	-0.05584164
146	0x3d9a3594	0.075297505
147	0x3de78baa	0.11305936
148	0x3cc542e8	0.024079755
149	0x3dd88b50	0.10573447
150	0xbdbaa3a8	-0.09113246
151	0x3d5d0ab4	0.053965285
152	0xbd5f85b8	-0.054570884
153	0xbd9395ba	-0.072062925
154	0x3d291dd0	0.041288197
155	0xbd21b1dc	-0.03947626
156	0x3dd84ed2	0.10561909
157	0x3daedbf4	0.085380465
158	0xbd952314	-0.07282081
159	0xbd879968	-0.06621057
160	0xbd70dcb4	-0.05880423
161	0x3c86fb18	0.016477153
162	0xbc2cc740	-0.010545552
163	0xbc4f23c0	-0.012642801
164	0x3cb96ee8	0.022635892
165	0x3d8223f8	0.06354517
166	0xbd42d068	-0.047562033
167	0x3dbfe5b8	0.09369987
168	0x3dd8af40	0.10580301
169	0xbdeffd42	-0.11718227
170	0xbcd21328	-0.0256439
171	0x3db2c0c6	0.08728175
172	0xbd881056	-0.06643741
173	0xbdd0c232	-0.1019329
174	0xbdf2814c	-0.11841068
175	0x3c5073f0	0.012722954
176	0x3d73634c	0.05942087
177	0x3da01852	0.07817139
178	0xbd245bac	-0.040126488
179	0xbddc7d82	-0.10766126
180	0xbddc5a9c	-0.1075947
181	0x3db870a0	0.090058565
182	0x3d736510	0.059422553
183	0xbda23d60	-0.079218626
184	0xbd763404	-0.0601082
185	0xbc6e6d60	-0.014552444
186	0x3de23212	0.110447064
187	0xbd9eedc0	-0.07760191
188	0xbd844c28	-0.06459838
189	0xbde740d6	-0.11291663
190	0x3d48c8dc	0.04901968
191	0xbdf0445c	-0.117317885
192	0x3d6ff714	0.05858524
193	0x3ddb3236	0.10702936
194	0x3d690cb8	0.056896895
195	0x3f7e1453	0.9924976
196	0x3db54b60	0.08852267
197	0xbcf42ca0	-0.029806435
198	0x3dca0a06	0.09865193
199	0x3dbe931c	0.09305403
200	0xbdc06f26	-0.093962
201	0x3ccc1328	0.024911478
202	0xbd4a2578	-0.04935214
203	0xbd98ba94	-0.07457462
204	0xb95aa000	-0.00020849705
205	0xbddc9544	-0.10770658
206	0x3dfef7a4	0.124495775
207	0x3da5d97a	0.08098121
208	0x3dc08138	0.093996465
209	0x3c080c50	0.008303717
210	0x3dc0432a	0.093878105
211	0x3d8ee5f8	0.06977457
212	0xbdcd58a8	-0.100266755
213	0x3dd256ac	0.102704376
214	0xbc2c9e00	-0.010535717
215	0xbd52af60	-0.051436782
216	0x3ab6bd80	0.0013941973
217	0x3cec8678	0.028872713
218	0x3d4bbc40	0.049740076
219	0x3df51f56	0.119688675
220	0x3d12f16c	0.03587477
221	0x3da5d64e	0.08097516
222	0xbd37870c	-0.044806525
223	0x3d0d218c	0.03445582
224	0xbdb0d652	-0.08634628
225	0x3d2d7d98	0.042356104
226	0x3ddff0cc	0.109346
227	0x3a02d500	0.0004990846
228	0xbd2d33b4	-0.042285636
229	0xbce62a48	-0.028096333
230	0x3cb589e0	0.02216047
231	0xbd611d4c	-0.05495958
232	0x3d49ba60	0.049250007
233	0xbd201ee8	-0.039091974
234	0x3db8727c	0.09006211
235	0xb9862a00	-0.00025589764
236	0x3c8e6d90	0.017386228
237	0xbbf86400	-0.0075802803
238	0xbd400c98	-0.04688701
239	0x3d9f367a	0.077740625
240	0xbdb55190	-0.088534474
241	0xbde33580	-0.11094189
242	0x3d39e4d0	0.04538423
243	0xbd1b2138	-0.037873477
244	0xbc4646e0	-0.012101859
245	0xbd8046b8	-0.062634885
246	0xbd35c58c	-0.04437785
247	0xbc51e2f0	-0.012810454
248	0x3d6e3900	0.05815983
249	0x3d2bb474	0.04192014
250	0xbd91ce16	-0.07119386
251	0xbdeb628a	-0.11493404
252	0xbcbeb4d8	-0.023279592
253	0xbba78580	-0.00511235
254	0xbd93bf2e	-0.07214199
255	0x3d18e594	0.037328318
