ThinkMatch/exp_aaai/ngm/CV3/saved_models/model.pt (torch, 207121 bytes, 25 tensors)

affinity_layer.lambda1 f4 [64, 64]
00000000: 5bd0 d13e 427e 7a3d 32f1 3abd 5bb4 9ebd
00000010: 154a 03bc 63d0 09bd 0d23 1bbd d971 06bc
00000020: 58d2 653d 32ee f3bb 4425 0dbd 334e 013d
00000030: 9ee0 933d 9a80 c8bc 501b 203c caaf 853c
00000040: 17d8 723d 7760 c3bb 872a b6bc b975 22bc
00000050: d7f6 413d 90fe 58bd c2c7 aabd eb12 19bd
00000060: 64b1 18bd cf75 a9bd 2d0e 093d 5e8b 70bd
00000070: 36d5 6a3d e3ae 99bd 0a4a 04bc dd8c 623d
00000080: 07f1 453c cdb3 563d 100f 323d 232a ee3c
00000090: 9748 783c e118 093d 0134 3dbd 2ea5 85bd
000000a0: 3e3f 90bd ea4a 9fbc 5910 83bd 0a3c db3c
000000b0: 7fb4 7bbd b63d 5f3c d4fd 1abd 43f7 8e3d
000000c0: dd21 3b3c e433 9ab9 6611 82bd 8bef 50bc
000000d0: 20db 5bbd 3394 0b3d c531 1b3d a0db a43d
000000e0: 518f e03b 4db5 5abd 7e59 5c3c abe7 45bc
000000f0: 0a87 993d bc2d 623d 7ecc 3b3d c467 59bd
00000100: 2c2a 183d 86ee 2a3e 6d70 793c 8080 bcbb
00000110: db5d 0cbd 796a 703d ce02 c03c 6ab3 89bc
00000120: 3e47 cebc a305 8ebb a486 a0bd 1f0d 8a3d
00000130: e60b 8ebd c7f0 a1bc de69 223d 3875 7b3d
00000140: c35f 9c3d 984f 753a 6f43 5cbc bea8 01bc
00000150: 77da babc 5150 9b3c e163 883c f88e bf3d
00000160: e797 e2bc 7028 23ba 41fe 4dbb b0e2 c73c
00000170: 4a7b eabc 2df4 643d f45c f6bc 59ea 33bd
00000180: df8f 09bd 6966 613d 9fb8 1a3e 776d 86bd
00000190: 4eff 75bd 8109 763d dffb 483c a10b 92bd
000001a0: 1694 003c 3959 0a3d 9b7d 673d 22f5 d4bc
000001b0: e579 c0bc b036 1e3a 9cf9 e8ba d7ff 4abc
000001c0: 973a 463d db5e 713e 41c1 98bc b30d f33d
000001d0: 8af1 32bd f4a8 4a3b 5ff9 08bc 166d 8abd
000001e0: 91dd e2bc f514 9ebc b6ec 963c e850 523d
000001f0: b9d5 1ebd c626 9abd 2792 3d3b cb52 633d
00000200: 941a 8c3b 0570 133d 57b6 043f 8fe6 66bb
00000210: df27 2c3d 6b89 79bd 5bc2 49bc 69d4 56bd
00000220: ec6d 0b3d 2dd3 0cbd c471 563d 6b9d afbd
00000230: fbf2 22bd 2970 b4bd a2b7 013c 23db 5b3d
00000240: a13c 77bd 89ba d4ba a411 79bd fd61 c8bc
00000250: 724b 29bd 9cee 383d af47 52bb 5882 a13c
00000260: 061e 45bd c55b b1bd 2646 533d dfef f13d
00000270: c40b 5b3d 123e c03d 0381 7bbd 74ea d6bc
00000280: 86d1 48bd 86d7 a43b d407 91bd 6363 9e3d
00000290: cadb 65bc 7505 f43c 2a5f 8b3d 563e 123d
000002a0: ccd1 42bd 04ee 2fbc 9976 4ebc b727 acbd
000002b0: d37f 21bd b74d af3b b4ff 6abd cdb1 663d
000002c0: d65f 48bd 4737 d2bc e92e a0bc 65f7 77bd
000002d0: 9d25 0e3d 928a b3bd 1e77 26bd 9825 683d
000002e0: b04e 353d fc80 833d 973a b2bd d8c3 823d
000002f0: e049 2e3c 6ccb 79bc 1075 95bc de6d 443d
00000300: 8a28 80bd 7bcc 9dbd c513 9d3d 18b8 123f
00000310: 105c 023d 020d 41bd 92c9 183e 7f13 57bc
00000320: 9066 ad3d 2421 793b 8eff a3bd f79f 113d
00000330: dcaf c8bc f3a1 33bd 2220 ba3d e952 85bc
00000340: 936a 62bc 81f1 133d 007d 7bbd b1f7 14bd
00000350: e90d c83c 5c5e bf3c fcaf 413d 12f0 523d
00000360: 5ebe 413d efb0 853d 643f 96bd 595b 233e
00000370: d97c 6cbd 55d7 ffbb 924d a33d c658 9e3c
00000380: 5491 d2bc b909 063d 3565 123d c1fd 3bbd
00000390: 561c 6dbd c3d1 6f3d 432f f93c f246 dc3b
000003a0: 76cc 943b 03f3 cb3c 916e 34bc 49f1 9abc
000003b0: 397f 8c3d ff27 26bc d574 4bbd ccad 25bc
000003c0: e586 8e3d 6b5e c2bc 612c e23c 2d9a 5b3e
000003d0: ec76 4fbc 3a70 adbd 737d 793c f7b0 483b
000003e0: c48c 9c3d 03de 56bd 2eb0 b139 c991 8cbd
000003f0: 3613 853c 56e9 0fbd 0737 b73d 009d b3bd
0.40979275 0.061155565 -0.045640178 -0.07749244 -0.008013268 -0.033646 -0.037875224 -0.008205854
0.056108803 -0.0074441666 -0.034459367 0.031568717 0.07220577 -0.024475385 0.009772137 0.016319174
0.05928811 -0.0059624272 -0.022237075 -0.009915763 0.047354545 -0.052977145 -0.08338882 -0.037371557
-0.037278548 -0.08274423 0.033460785 -0.05872666 0.05733224 -0.0750406 -0.008074293 0.05531012
0.012081391 0.052417565 0.043471396 0.029072827 0.0151540255 0.033470992 -0.046192173 -0.06525646
-0.070433125 -0.019444901 -0.063996024 0.026762027 -0.06145143 0.013625553 -0.037839726 0.06980755
0.011421648 -0.0002941183 -0.06350975 -0.012752424 -0.05367577 0.03407688 0.03788926 0.08049703
0.006853022 -0.05339556 0.013449071 -0.01207916 0.0749646 0.055219397 0.045849316 -0.053077474
0.037149593 0.16692552 0.015224558 -0.005752623 -0.034269195 0.05869529 0.023438837 -0.016809184
-0.025180455 -0.004334168 -0.07838181 0.06740784 -0.06935863 -0.019768132 0.039651744 0.061391085
0.076354526 0.00093578687 -0.013443812 -0.007913766 -0.02280925 0.018959196 0.016649188 0.09353441
-0.027660323 -0.0006223982 -0.0031432065 0.024400085 -0.028623242 0.055896927 -0.03007362 -0.043924663
-0.03358447 0.055029307 0.1510949 -0.065638475 -0.06005793 0.060067657 0.012267082 -0.07131124
0.007847806 0.033776496 0.05651627 -0.025995795 -0.023495624 0.0006035371 -0.0017774585 -0.012390099
0.04839572 0.2357134 -0.018646838 0.11867847 -0.04368738 0.0030923458 -0.008360236 -0.06759088
-0.027693542 -0.019297102 0.01842342 0.05134669 -0.03877804 -0.07526927 0.0028926225 0.05549888
0.0042756293 0.035995502 0.5184073 -0.0035232638 0.04203021 -0.060922068 -0.012314404 -0.052448664
0.034040377 -0.03438108 0.05235459 -0.08574947 -0.039782505 -0.08810455 0.007917317 0.053675782
-0.060360555 -0.0016229908 -0.06080784 -0.024460787 -0.041331716 0.04514943 -0.0032086184 0.019715473
-0.048124336 -0.08660082 0.05158057 0.1181333 0.053478017 0.09386839 -0.061402332 -0.026234843
-0.049027942 0.005030575 -0.07081571 0.077338 -0.014029453 0.029787758 0.068052605 0.03570398
-0.04756336 -0.0107379 -0.012601518 -0.084060125 -0.039428543 0.0053498405 -0.057372764 0.056321908
-0.04891952 -0.025661124 -0.019553619 -0.06053867 0.03470384 -0.087666646 -0.040640943 0.056676477
0.044264495 0.06421086 -0.087025814 0.063850105 0.01063773 -0.015246253 -0.018244296 0.04795634
-0.06257732 -0.07705017 0.07669786 0.57312155 0.03182608 -0.047131546 0.14920643 -0.013127207
0.08466828 0.0038014138 -0.080077276 0.035552945 -0.024497919 -0.04385562 0.0908816 -0.016274886
-0.013819355 0.036118988 -0.061398506 -0.03636903 0.024420695 0.023360424 0.047286972 0.05149848
0.04730069 0.06527888 -0.073363096 0.15952815 -0.05773625 -0.007807652 0.0797378 0.01932944
-0.025704063 0.032724116 0.03574105 -0.045896295 -0.05788835 0.058549654 0.030418044 0.0067223245
0.004540975 0.02489615 -0.011012689 -0.018913882 0.06860203 -0.010141372 -0.049671967 -0.010112237
0.06959323 -0.023726663 0.027609052 0.21445532 -0.0126626305 -0.08468671 0.015227663 0.0030623057
0.076440364 -0.05245782 0.00033891335 -0.06863744 0.016244512 -0.035134636 0.089460425 -0.0877018

affinity_layer.lambda2 f4 [64, 64]
00000000: d9d5 103f 78f5 a93d 6c82 4f3d 48a6 82bd
00000010: bcea df3b 0017 b93d 160a acbd 2469 963d
00000020: e35d be3b 6b76 db3c 1aac 853d 58dd 28bb
00000030: a2bd ab3d 5137 0c3d d707 a9bc 49a6 d6bc
00000040: eec4 743c 5c16 52bc 872c 82bd e1b1 f0bc
00000050: 9102 50bd 9f5b 15bd 4403 8abd b99e b5bc
00000060: c8d2 9cbc e927 52bd 85bd 5b3c ac92 793d
00000070: 5328 7fbd 45a1 b2bd 82e4 68bb afac a13d
00000080: 714e 8c3d 3679 33bd bf28 33bd 47f7 e8bc
00000090: 0af8 393d 4b78 88bd 7e0b 8ebd 7454 e33c
000000a0: bfd2 a7ba 4b0a dabc aebd 693d 3dc8 a1bc
000000b0: a6f5 943c 55a0 2f3b 1db5 ef3c 0fc5 a63d
000000c0: 4c8e a6bd 187d 953d 6df6 44bd 04a3 93bd
000000d0: 9f57 7d3d edad d53c eab7 f0bc 42ed 50bd
000000e0: 1701 2dbd b371 603d 642c 97bd c1a1 47bd
000000f0: c155 143b 13f4 52bd 69d8 9d3b f6c6 a2bd
00000100: 581d 8abd 408f 273f 1b57 f43b 518c 88bd
00000110: 739a 94bd 73ff aebd f3a4 23bd 7c5c 003c
00000120: 7026 923d 3005 3e3c acfe 85bc 5024 ab3c
00000130: 80fd cebc b54e 933c 8ce6 44bd e2bf 2dbc
00000140: bc9b 0e3d 8db2 64bc e206 76bc e944 b73c
00000150: c46b e8bb 7ee4 01bc 28f4 6b3d f723 6d3d
00000160: 094e 913d a1a8 143e 67fe 843d ec21 973d
00000170: fdb3 a53d fc0b 01bd 5f37 8a3c 895a 2cbc
00000180: 9fd1 ec3c fc2c 3a3c b0d2 f53c 2448 9e3c
00000190: c610 d63c 7c30 ffbc eb34 dcbc f3e2 49bc
000001a0: 3679 ac3d f7c5 e73e eb48 51bd 2040 6c3d
000001b0: b37f 0d3d c4a5 103d 84e7 8abc 0808 afbb
000001c0: 900a 3dbd f53a fa3c e9e8 8e3b 3dd6 be3c
000001d0: 167f f1ba fe8e 6f3d cdcf 203d 4af4 a7bc
000001e0: ced0 813c 0232 9c3d 302b 8b3d e3a1 f33c
000001f0: 9b1c 3f3d 68d4 683d dd69 963d fa3d b63c
00000200: 7185 10bc a0af 873d 9bf9 f13e 6e8f 733d
00000210: 582b c03d 5395 643b d33c 90bd 03ad 113d
00000220: 443b 0fbd e50c f63c bbac 193b 6ad1 2c3d
00000230: 294f 55bd 8e06 d73d 29be 84bc d8de 143d
00000240: 98ba bc3c 1317 3abc b24e 1a3c 3fd4 3dbd
00000250: 6907 d5bc 4b42 873d 47c6 ce3c 7dd9 97bd
00000260: c0c6 6ebd a3f7 53bd 193b 5bbd a48a b2bd
00000270: 9f9f fe3c ddbf 21bd 8a5c f43c 4890 9e3c
00000280: dd8b 10bc 90e2 913c ba2b 863d 6752 a4bd
00000290: 524e b33c e643 ac3c f3c0 84bd 933a 53bd
000002a0: db56 c73c 4c7e 15bc d582 1abd e0b2 893d
000002b0: da54 8cbd 26a3 e23c 8128 20bd 6188 2c3d
000002c0: 6c11 aabd b24d 58bd 9627 92bc 879b 033d
000002d0: 206d 8b3d cea2 b3bd 5038 953d 3ed3 89bd
000002e0: a7ef 2fbd e9da 47bd f217 6abc cc38 923c
000002f0: 5f21 b4bd 2e77 593d 0112 073c 7af2 3a3d
00000300: e445 c6bc fb31 66bd fe29 2c3d 2fc8 ed3e
00000310: 263b 8abd 74b5 c33c 8b37 a5bd fc76 2cbb
00000320: 0240 87bd 3330 013d fa9d 38bd ddc4 dd3b
00000330: 504e b5bc b9de a5bd a91f d3bc 5500 e33b
00000340: 0010 22bd 1147 19bd aa9c 43ba 8f38 74bd
00000350: 28fa 77bd 383a 033c 2e2a a5bc bf21 6f3c
00000360: 202e 403d 7fc7 48bd 6ed5 60bd 5f30 20bd
00000370: 3423 c5bc 5482 1cbd 9d5a f5bc f74e 54bc
00000380: 0a7c 30bb 81f2 863d 8b35 5f3d bb0f 843c
00000390: c5a1 ac3d 5528 833b b901 4abc 71bf 6d3c
000003a0: 11c9 f3bb d237 80bd 9e1e a9bd ccd1 91bd
000003b0: cdfb 1b3d fb9f 84bc 8f86 6e3d 05c5 693d
000003c0: d172 61bd 2855 323c 0c92 3bbd d981 5a3c
000003d0: e6a5 593d 33bf 873d bf41 8e3d bf8b b0bd
000003e0: cde4 eebc 5632 2b3d 79d0 33bd c22f 713d
000003f0: db8a 51bd a4a2 e23a cbd2 9e3c da1e 793d
0.56576306 0.082987726 0.05066149 -0.06379372 0.0068334024 0.0903759 -0.08400361 0.07344273
0.005809532 0.026789865 0.065269664 -0.0025766697 0.08385779 0.03423244 -0.020633621 -0.026202338
0.01493953 -0.012822714 -0.06356149 -0.029381694 -0.050783698 -0.03646433 -0.06738904 -0.022170411
-0.019143477 -0.051307593 0.013411884 0.060930893 -0.062294316 -0.08722166 -0.0035536592 0.07894265
0.06850899 -0.043816768 -0.04374003 -0.028438224 0.045402564 -0.06663569 -0.06935786 0.027750231
-0.0012803896 -0.026616236 0.05706566 -0.019748801 0.01818354 0.0026798446 0.029261166 0.08143055
-0.0813261 0.0729925 -0.048086572 -0.07208827 0.06185114 0.02608391 -0.029384572 -0.051007517
-0.042237367 0.054795932 -0.07381514 -0.048738245 0.002263412 -0.0515023 0.004817058 -0.07948105
-0.06743878 0.6545296 0.007456673 -0.06667388 -0.07256021 -0.08544817 -0.03995223 0.00783455
0.071362376 0.0115979165 -0.016356789 0.020891339 -0.025267363 0.017981866 -0.04807143 -0.01060483
0.03481649 -0.013958585 -0.015016289 0.022371726 -0.007092925 -0.007928012 0.057605892 0.057895627
0.07094962 0.14517452 0.06493836 0.07379517 0.08090971 -0.03150557 0.016872106 -0.010519632
0.028908549 0.011363264 0.03000769 0.019321509 0.026131045 -0.031151049 -0.026880702 -0.012322175
0.08421557 0.45268223 -0.05109493 0.057678342 0.03454561 0.035314336 -0.016956098 -0.0053415336
-0.04615265 0.030545691 0.004361261 0.023295516 -0.0018424715 0.058485977 0.039260674 -0.020502228
0.015846636 0.07626726 0.06795347 0.02974028 0.04665814 0.05684319 0.073444106 0.02224635
-0.008820877 0.06625295 0.47260746 0.059462957 0.09383267 0.0034879043 -0.07042851 0.035565387
-0.03496863 0.030035445 0.0023448903 0.0421919 -0.052077446 0.10499297 -0.016203957 0.036345333
0.023038194 -0.01135804 0.0094181765 -0.04634499 -0.02600451 0.06604441 0.02524103 -0.074145295
-0.05829501 -0.051749837 -0.053523157 -0.0871785 0.031081973 -0.039489616 0.029829282 0.019355908
-0.0088224085 0.017808229 0.06551309 -0.080235295 0.021887932 0.02102847 -0.06482115 -0.051569533
0.024333408 -0.00912435 -0.037722427 0.06723571 -0.06852122 0.027665686 -0.039101128 0.04212225
-0.08304104 -0.05280847 -0.017841142 0.032130744 0.06807923 -0.08771287 0.072861314 -0.067297444
-0.04295316 -0.048792753 -0.014287936 0.017849348 -0.087954275 0.053092174 0.008244039 0.0456414
-0.024203248 -0.05620001 0.042032234 0.4644179 -0.06749563 0.023890235 -0.080672346 -0.0026316037
-0.066040054 0.031540107 -0.045072533 0.0067678527 -0.022132069 -0.080991216 -0.025771933 0.00692753
-0.03956604 -0.03742129 -0.00074620044 -0.05962425 -0.060541302 0.008009486 -0.020161714 0.014595448
0.04691899 -0.04901838 -0.054891042 -0.03910863 -0.024064638 -0.038210228 -0.029950434 -0.01295828
-0.0026929402 0.06589223 0.054494422 0.016120782 0.084292926 0.0040026107 -0.012329512 0.014510975
-0.0074397405 -0.06260647 -0.08257793 -0.07120094 0.038081933 -0.016189566 0.058233794 0.057072658
-0.055041138 0.010884561 -0.045793578 0.013336622 0.05313673 0.06628265 0.06946134 -0.086204045
-0.029161835 0.04179605 -0.043899987 0.058883436 -0.051157814 0.0017290902 0.019387623 0.060820438

node_layers.mlp_0.weight f4 [64, 121]
00000000: 0994 5bbe 16a6 f0bc 20cb 2c3d 0318 aebd
00000010: 6a1e 573c 8b2b 473d 50dc afbc f5ee acbd
00000020: 3a8f a6bd 19f8 703d 7777 08be 6b82 67bc
00000030: 3d15 9f3d 0afe 7ebc 1e7e aabd 8107 d4bc
00000040: 241e cf3b baee b9bc dad0 28bc c43f 9abc
00000050: 4daf f33d 6bb8 e7bc ffe7 c83c 4e71 1a3c
00000060: db56 d73d 7a8b 7cbd 9591 663d 495e 353c
00000070: 7333 6b3d fbd7 d0bd 0a9d 1a3d 8915 963d
00000080: 3fec f43a e610 863d b57c bf3d 77c5 3cbb
00000090: 0113 5f3d 7001 8f3d e44c d43d 498c 20bd
000000a0: 4561 023c fb39 f23c 4667 8fbc bb44 3bbd
000000b0: 9a79 2f3d e839 63bd fabc 30bb 3eae dcbb
000000c0: 5360 223d 91b2 61bd 776f af3d 8220 d63d
000000d0: 7b31 f8bb 0dfc 283d 11a7 bc3d b463 15be
000000e0: 276c d6bc b7d6 063c c727 da3d 6d91 e23c
000000f0: 3a17 993d 538a 17bc 04d3 f83c da42 463d
00000100: 5fda 983d 78cf 47bd 447e c13c 7222 85bc
00000110: 3f30 64bd 95fa 74bd daeb 92bc 1e42 02be
00000120: 5208 a7bb 9c6a a63c b874 ad3d 4e9c 653c
00000130: fad1 bb3d 9fcb 12bb 5906 4b3d c8a2 003d
00000140: 9ede a23c 4905 7b3b 6cab e1ba cb7e c4bd
00000150: 095e 643d 10ea 48bc 5f75 07bd 2159 95bd
00000160: f414 86bc de2e a63d 261d 68be 298c a83d
00000170: ffc7 af3d b315 483e 17fd 673e 645b bc3d
00000180: 6ba5 943c 76da 65be f232 55be 00cf 843c
00000190: 89de 9c3d 6ce1 2abc 59cb dcbd 2975 b2bd
000001a0: 2944 e8bd 7492 333d e36f a03d f146 693d
000001b0: 7f4d 143e 5547 d43d fb25 563d c1a6 f73c
000001c0: ed0c c7bc a8cc 3b3d cb50 2c3d 85f6 143d
000001d0: 9f3a 173e ce87 e43d 0545 32be 6d89 723d
000001e0: 4d73 01be cc10 40bd cc19 37bd 1476 35bd
000001f0: a9ce 42bd a504 123e 6e81 603d 37fc 8437
00000200: b203 503e 66de 963c c64f 2e3d 8566 01bd
00000210: 113f 8d3c fcf1 3f3d 7fce a73d 450a 2abd
00000220: 41e9 96bd afe4 033d c09e a439 3459 f73c
00000230: ccbe 3b3d b94f 1d3c ce73 7abd cc9a fbbc
00000240: b09d 463d 0a28 acbb dfd9 64bd 4421 123e
00000250: f499 b83d 10fc e13d 375d 153d c3a5 12bd
00000260: 1153 343b 028d dcbd 873e b6ba 98d1 01bb
00000270: 1c2e 533e 39bf 833d f783 aa3c d989 db3d
00000280: 6a31 1dbd 801d a73d 1700 bbbd 831e bcbc
00000290: 3abf a53c 89eb e23c 5e67 eebd bfa6 d93d
000002a0: 7f01 113d d869 bfbb 20e5 963b 4a17 41bd
000002b0: 0039 af3d 2d42 30bd eebc 283c 7bd6 cbbd
000002c0: 62d4 4bbe 8225 2fbe 52dc d3bc 69a6 a73d
000002d0: adbd 26be 639e d53c 2ce2 3c3d f315 ec3d
000002e0: 23ff 72bd 8241 ba3d 5b1e 8f3d ac2f e43d
000002f0: 7051 98bd af6b 30be 6aad 99bc dc32 413c
00000300: 1693 24be 571e a5bc f014 07bd a86b 11bd
00000310: 7ea7 103d b0a7 653d 3f4d 0d3d b5f2 8b3d
00000320: 483b 42bd 37f5 903d 9203 0ebe 3409 5dbd
00000330: 8a6b 9f3d 1730 ffbd 9939 263c ec75 0c3e
00000340: 0da6 6bbd 4fee 843d 1c52 8a3c 5489 d8bd
00000350: 94c4 0c3e 6059 9abd 1555 e53c 7f73 1a3e
00000360: 7525 0ebe 69ae 14be 24a1 f1bd bf4f cebc
00000370: f713 db3d 1cf3 8a3c f2eb dfbd ac5d 773d
00000380: 8aac de3d c57a 1cbd 5600 0fbe e441 0a3d
00000390: e846 273d bc59 be3d cffb 753d 2b49 233d
000003a0: 92f2 a6bd 0f83 85bd de8c ddbc 7bce 213e
000003b0: 9f28 14bd 5e62 063e af84 cf3d 5432 353d
000003c0: cacd 2a3e 6b90 d13c 6c62 993c bac8 473d
000003d0: a815 f03a 0e84 40bc 4f4b c5bd e474 1b3c
000003e0: 0315 40bd d7ac 753d 6280 4f39 e7e5 393d
000003f0: 9562 803c 5f9a c63c dd63 dcbc 7ff1 203d
-0.2144319 -0.029376071 0.042185903 -0.085006736 0.01312981 0.04862551 -0.021467358 -0.08444015
-0.08132787 0.058830354 -0.13326822 -0.014130215 0.07767723 -0.015563497 -0.08324836 -0.025882484
0.0063207317 -0.022696842 -0.0103037 -0.018829234 0.1189867 -0.02828618 0.024524687 0.009426428
0.10514613 -0.061656453 0.05629118 0.011069843 0.057422113 -0.10197445 0.03774742 0.07328326
0.001868613 0.06546192 0.09349958 -0.0028804222 0.054461483 0.06982696 0.10366228 -0.039196286
0.007957761 0.029568663 -0.0175053 -0.045719843 0.042840578 -0.055475146 -0.0026968108 -0.0067346385
0.039642643 -0.055101935 0.08566182 0.10455419 -0.007574258 0.041256 0.09211553 -0.14588815
-0.026174618 0.008229903 0.10652118 0.027657235 0.07475133 -0.009249288 0.030374058 0.0484036
0.07463526 -0.048781842 0.023619778 -0.016251776 -0.055710074 -0.059809286 -0.017934728 -0.12720534
-0.0050974274 0.020314507 0.08469528 0.014014317 0.09170909 -0.00223992 0.0495666 0.03140524
0.019881543 0.003830271 -0.0017217225 -0.09594496 0.05575374 -0.012262836 -0.03307092 -0.072923906
-0.016367413 0.08114408 -0.22667369 0.082298584 0.08583068 0.19539528 0.2265514 0.09197119
0.018145284 -0.22446617 -0.20820215 0.016211987 0.07659633 -0.010429721 -0.10780973 -0.08713753
-0.113411255 0.04384084 0.07833841 0.05695242 0.14482687 0.10365168 0.052282315 0.030230882
-0.024298156 0.045849472 0.042069238 0.03636791 0.14768456 0.11158715 -0.17409141 0.05921309
-0.1264164 -0.04689102 -0.044702336 -0.04430206 -0.047560368 0.14259584 0.054810934 1.5853073e-05
0.2031391 0.018416595 0.042556547 -0.03159191 0.017241986 0.046861634 0.08193683 -0.0415137
-0.073687084 0.03220051 0.00031398796 0.030193903 0.045836255 0.009601527 -0.061145596 -0.030713461
0.048490226 -0.0052537965 -0.05587184 0.14270502 0.09013739 0.11034405 0.03646585 -0.035802614
0.0027515332 -0.107690826 -0.0013904133 -0.0019808766 0.20623058 0.06432957 0.020814879 0.10719652
-0.038377203 0.081599236 -0.091308765 -0.022963768 0.020232785 0.027700203 -0.116408095 0.106275074
0.035401817 -0.005841475 0.0046049505 -0.04714135 0.08555794 -0.04303186 0.010298951 -0.09953018
-0.19905236 -0.17104152 -0.025861893 0.08186037 -0.16283293 0.026076501 0.04611413 0.11527624
-0.05932535 0.09094526 0.06988212 0.11141905 -0.07437408 -0.17228578 -0.018759448 0.011791911
-0.16071734 -0.020156069 -0.032978952 -0.03550306 0.035315983 0.056068122 0.034497496 0.06833402
-0.047419816 0.07078021 -0.1386855 -0.053963855 0.07784183 -0.12460344 0.010145568 0.13716859
-0.057531405 0.06490766 0.016884856 -0.10573068 0.13746864 -0.07536578 0.027994672 0.15083121
-0.13881476 -0.14519657 -0.11798313 -0.02518451 0.10697167 0.016961627 -0.10933675 0.060392067
0.10872753 -0.03820302 -0.13964972 0.033754244 0.040839106 0.09294459 0.060054597 0.0398647
-0.08151735 -0.06519138 -0.02704471 0.15801422 -0.03617155 0.13123462 0.10132729 0.04423745
0.16680065 0.02558156 0.018723689 0.048775412 0.0018317001 -0.011750234 -0.096335046 0.009488318
-0.04689504 0.059979286 0.00019788885 0.045385268 0.015672008 0.024243532 -0.026903087 0.03929281

node_layers.mlp_0.bias f4 [64]
00000000: d3e1 b4bd eb4c 773c 4660 443d 9266 69bd
00000010: e888 35bd e592 a03d ce11 0e3d e01a 47bd
00000020: efb5 2d3c ad65 d33c 08b1 113d 14c8 c93d
00000030: c42d 31bc e50e aa3d 8df7 993c db35 c2bd
00000040: ec15 193d 236b d53c 7d47 cabd 3df4 183d
00000050: 3262 98bc 466d 2c3b 3792 51ba 8b7f ad3b
00000060: 3dc9 623d 00d0 e83b 1d97 e13c f698 b2bc
00000070: 4472 9abb b7af 8b3d 3048 87bd 2112 89bd
00000080: 2507 b83d 5817 a1bc c3e0 a93c f59a a43d
00000090: 86c3 b0bd 5aa4 60bd 6746 383d c0be 7c3d
000000a0: 1a26 583c 1b0d 06bd 7da9 a2bd 7b3a 6b3d
000000b0: 464f 98ba a6c7 0f3d 6256 87bd a34a 54bc
000000c0: d042 d8bc 992f 1dbc 1682 f7bb 46ef 53ba
000000d0: d1ff 923c 2e8f b9bd 22ab 153d 1c0e 29bc
000000e0: 085e 873d 5f71 09bd 7cc2 66bc a056 763d
000000f0: e491 7fbc 0225 313d 3046 a93d 5247 383d
-0.08832135 0.015094022 0.047943376 -0.056982584 -0.044320017 0.07840518 0.03468495 -0.048609614
0.010602458 0.025805319 0.03556922 0.09852615 -0.010814134 0.08303622 0.0187948 -0.09482928
0.037374422 0.026052063 -0.098769166 0.0373423 -0.01860151 0.002631025 -0.0007994505 0.0052947453
0.055367697 0.0071048737 0.027537877 -0.021801453 -0.0047133286 0.06820624 -0.066055655 -0.06692911
0.08985738 -0.019664451 0.020737058 0.08037368 -0.08631043 -0.054844238 0.044989016 0.06170535
0.013192678 -0.032727342 -0.079424836 0.05742882 -0.0011620305 0.03510251 -0.06608273 -0.012957248
-0.026399046 -0.009593868 -0.0075533492 -0.0008084666 0.017944248 -0.090605125 0.036540158 -0.010318305
0.06609732 -0.033555385 -0.014084455 0.060141206 -0.015598748 0.043248184 0.0826534 0.04498989

edge_layers.mlp_0.weight f4 [64, 121]
00000000: b4d3 afbd 3e13 923d 74d4 a4bd 91b5 bcbd
00000010: 7d0c b9bc b351 353d 51c8 9bbd e1d3 043c
00000020: 703d b3bd af5c 4ebc 96b5 9bbc 4e53 3b3d
00000030: aa13 8c3d 7dcc 97bd 197e d53c b0f0 753d
00000040: 38fb 9c3d 81c5 afbd fe09 9fbd c1ef 36bd
00000050: 66ca 3dbd 9def 17bc 6e8f 55bd f92b 55bd
00000060: 2d66 90bc 1db6 86bd 15e4 00bd be42 7d3c
00000070: eab5 363d d71e a1bd 9446 523b 7a36 243b
00000080: e635 d1ba f738 be3c 5f4a 283c 4197 cebd
00000090: a6de 91bd 1e28 acbd 3949 a23c 2430 773d
000000a0: c65a 923d 0306 473c 5b64 13bd e6fa 4c3c
000000b0: d781 aabd c41c f13b 0b73 03bc 5e7f 803d
000000c0: 2e65 9abd c274 babd adea 02bd 57f5 d8bb
000000d0: 9be9 6cbc 8ec5 5c3c c947 bf3c 26bd 8d3d
000000e0: 83e8 603d 420c 0a3d 7b4a 61bd 8a34 c8bd
000000f0: 97ec 11bc 14b5 3e3d 08a5 67bd 3e2b 6f3d
00000100: 4091 4d3c f8ca c8bd 9b11 95bc 3afe 9dbd
00000110: 1fc7 9cbb 9f7b 48bd c0f5 15bc 6555 3e3d
00000120: 49bf 88bc bf7d 23bd 5cb7 f7bc 281b ecbb
00000130: 835d 843d 3606 14bd 2ce4 ddba 4540 b6bd
00000140: af11 e43c a456 313c 46c2 613d aed9 7bbd
00000150: 63b2 fb3c 0631 cebd 898d 4dbd 7124 323c
00000160: 83e4 cebc 88e8 85bd 2f33 ffbc 3d0c 803d
00000170: 7b4d c3bd c75d 97bd 0a53 63bd 0fab 593d
00000180: b5b9 333d dbfd 943c c0ca 863d 5089 a6bd
00000190: 7fe5 a5bd 3234 65bd ba16 843d 16f9 9c3d
000001a0: 7d30 95bd 1641 3abd 3fde 5bbd 1f4c 4f3d
000001b0: be7a 15bb d671 a4bc 6f10 e33b 2aaa 48bc
000001c0: 288b be3b d472 463d 9d58 9dbd 215a 013d
000001d0: 5313 253d 528c c9bd c6ab 143d d689 c3bd
000001e0: 788b 3ebd bfe6 2e3d 4a3b 293e f40c e53c
000001f0: c980 2fbe ba11 0fbe a347 dd3c 9439 d0bb
00000200: fab5 9ebd 1726 22be 7c45 21bd 0035 86bc
00000210: 2497 8a3c 17ea 303c 8c5b 79bd 0bc1 70bd
00000220: 1085 4fbc 5a50 d6bd df2b ddbd d354 4c3d
00000230: 18a2 69bb 8d4c efbd 0206 083e e38c 64bd
00000240: 1c79 50bc e070 d33c 7917 b93c bb76 dc3d
00000250: 09f1 a13d 90e4 943d 5099 0c3d b554 413d
00000260: 4bf4 4b3d d398 1abd b1b2 193e e434 263b
00000270: c11a 0f3d bb34 a1bd 5a55 2abd adf2 363d
00000280: 5fec 79bc 35f4 63bd bd70 05be 0db7 9a3d
00000290: 1518 22bc eb25 3c3d 2afb ea3d 6243 8f3d
000002a0: 0f55 593d 6067 563e c5b7 2d3d e41b b8bc
000002b0: f462 a53d dae4 adbb d041 fcbc 58fc 37bd
000002c0: 00ea a43d 0a4e 0d3b 3427 b3bd ef62 0cbc
000002d0: 9556 aabb 3af9 a8bd b6ec fd3c 6218 323d
000002e0: a91f 80bd 4a93 093e 49fe 99bd 36d6 c23c
000002f0: cf00 8dbd 51f7 c3bd 799c cebd 86f4 0a3c
00000300: 9acd bb3d 8a25 8c3d 370a c5bd 12f3 18bd
00000310: 16ca 643d 8cd9 703c 6e31 ddbd 13d8 603d
00000320: 6baf 32bd 93ee febd f751 083d a456 cc3d
00000330: 0632 2abc 43c8 a5bd f2dc ab3b 136b c03b
00000340: 689e 883d 7058 b53d e0fa 603d a30c d13e
00000350: 7329 17bd a799 0bbe dc5d 733c 4867 89bd
00000360: 7686 ed3d 3b26 703e 008d 7e3c 2189 5fbd
00000370: 4a66 233e b70d 8fbd 96f6 a63d 0b70 003e
00000380: 4cd7 6d3d d0c7 af3d 03e8 b33c 171e 8fbd
00000390: 2c0a 01bc eb82 463d 9aaf d0bd 7db5 b6bd
000003a0: 1b18 84bd 2bd5 8e3d 5abd 953d c61c 30bc
000003b0: 9dbe 7dbd 92ed 0a3e b691 00be a0ef 25bd
000003c0: d4c3 0ebe 8953 173d af96 8cbd c7f7 abbd
000003d0: 629d 9bbd 1faa f1bb e203 6c3d cdfa b4bd
000003e0: 679f 5ebd e6b0 663c b613 6abd aede 74bd
000003f0: 34b2 cbbd 3191 9abd d8d4 09bd 46fb 17bd
-0.08585301 0.071325764 -0.08048335 -0.092143185 -0.022588963 0.044267368 -0.07606567 0.0081071565
-0.08751953 -0.01259534 -0.019007485 0.045733742 0.06839688 -0.0741205 0.026061105 0.06004399
0.07665104 -0.08582593 -0.07765578 -0.04466224 -0.0463356 -0.009273437 -0.05213874 -0.05204389
-0.017626846 -0.06577704 -0.031467516 0.015457807 0.04460708 -0.0786721 0.0032085525 0.0025056885
-0.0015961498 0.023220522 0.010271638 -0.10087443 -0.07122545 -0.08406089 0.019810306 0.060348645
0.0714622 0.012147429 -0.03598438 0.012510991 -0.08325546 0.0073581655 -0.008023034 0.06274293
-0.0753883 -0.09104301 -0.031962086 -0.0066210437 -0.014459993 0.013474835 0.02334966 0.06920843
0.05490924 0.033703096 -0.05500267 -0.09775646 -0.008906505 0.04655941 -0.05655387 0.05839085
0.012546837 -0.09804338 -0.018196872 -0.077145055 -0.0047844793 -0.04894602 -0.00915283 0.046468157
-0.016692774 -0.039914843 -0.0302388 -0.0072053857 0.064631484 -0.036138736 -0.0016928962 -0.08898977
0.027840463 0.010823879 0.055116914 -0.061486892 0.03072471 -0.10067944 -0.050183807 0.010872946
-0.025255447 -0.065384924 -0.031152336 0.06252334 -0.095362626 -0.073909335 -0.055499114 0.05314165
0.043878276 0.018187454 0.0658164 -0.08131659 -0.081004135 -0.05595798 0.06449647 0.07664697
-0.07284639 -0.045472227 -0.053678747 0.050609704 -0.0022808756 -0.020073812 0.0069294493 -0.0122476015
0.0058149286 0.048449352 -0.07682917 0.031580094 0.040301632 -0.09841217 0.03629663 -0.095477745
-0.046519727 0.042700525 0.16526523 0.027960278 -0.17138971 -0.13971606 0.027011698 -0.00635452
-0.07749553 -0.15834843 -0.039372906 -0.016382694 0.016917773 0.010797999 -0.06087832 -0.05877785
-0.012666002 -0.104645446 -0.10799383 0.049885582 -0.0035649594 -0.11684523 0.13283542 -0.055798423
-0.012724187 0.025810659 0.0225942 0.107648335 0.07907302 0.07270157 0.034325898 0.047199924
0.049793523 -0.0377434 0.15009572 0.0025361115 0.034937624 -0.07871386 -0.041585304 0.044665027
-0.015254109 -0.055652816 -0.13031287 0.075544454 -0.009893437 0.0459346 0.11473687 0.06995274
0.053059634 0.20937872 0.042411584 -0.022474237 0.080755144 -0.0053068222 -0.0307931 -0.044918388
0.080524445 0.0021561407 -0.08747712 -0.0085685095 -0.0051983097 -0.08250661 0.030996662 0.043480285
-0.06256039 0.13435093 -0.07519204 0.023783784 -0.0688492 -0.09568656 -0.100884385 0.0084811505
0.09170075 0.068430975 -0.09621089 -0.037341185 0.055856787 0.014700305 -0.108004436 0.054893564
-0.043624323 -0.12447848 0.033281293 0.09977463 -0.010387903 -0.080948375 0.0052448446 0.0058721392
0.066708386 0.08854759 0.054926753 0.40829954 -0.036904763 -0.13632832 0.014853921 -0.067091525
0.11597912 0.23452084 0.015536547 -0.054574136 0.15956989 -0.06985038 0.08152501 0.12542741
0.05806665 0.08583033 0.021961218 -0.06988161 -0.00787596 0.048464697 -0.10189743 -0.08921335
-0.0644991 0.06974252 0.073115066 -0.010749048 -0.06194936 0.13567188 -0.12555584 -0.040511727
-0.1394189 0.0369449 -0.06864678 -0.08396869 -0.07598378 -0.0073750163 0.05762089 -0.08836899
-0.054351237 0.014080262 -0.057147704 -0.059782676 -0.09946099 -0.07547224 -0.03365025 -0.037104867

edge_layers.mlp_0.bias f4 [64]
00000000: 68ff 97bc 0c34 983c 0a2d 1d3d 2f58 4d3d
00000010: 3d9b 09bc c230 943c c0b5 063d 0c75 aebc
00000020: 2f69 4a3c c30f 87bb 2f9b 5d3a f03e edbc
00000030: 5d89 29bc 0e79 debb 2d14 76bd c407 a1bd
00000040: 7868 11bd 439e 54bd 3d4a 3a3d 367a a6bd
00000050: 53eb 1d3d c982 ee3c c9a0 a5bd 10f3 0fbc
00000060: 1c4e a5bd 1629 323d b16a 3dbd a9ab 4cbc
00000070: 6f22 dcbc 26f5 f63c 266e 473d 3b10 7cbd
00000080: 0c80 6ebd cd21 353d 9de0 cc3d 8b8c 263d
00000090: 3a38 583c 8205 8ebd 4dd2 be3c f4f4 d4bc
000000a0: dbb0 2ebd e83e 923c c65b c63c c797 cfbd
000000b0: ec7d 8bbd d24c 893c 6b54 5a3d 450a 8a3d
000000c0: c478 bebc f952 3cbd f464 263d 415a 973d
000000d0: 413d 243c 1fab 3abd 2b4c 79bd c43b 38bd
000000e0: 0d16 633d a3a9 593d 45e1 6d3d 7af0 ccbd
000000f0: 624d 4bb8 7ffd 02bd d4f6 a4bd 5ce1 89bc
-0.018554404 0.018579505 0.03837303 0.050132927 -0.008398828 0.018089656 0.032888174 -0.021296047
0.012354179 -0.004121752 0.0008453605 -0.028960675 -0.010347691 -0.006789333 -0.060077835 -0.07862809
-0.03550002 -0.051908743 0.045480955 -0.08128779 0.0385545 0.029115098 -0.08087308 -0.008785978
-0.08071539 0.043496214 -0.046244327 -0.012492099 -0.026871888 0.030146193 0.04868903 -0.061538916
-0.058227584 0.044221688 0.10003779 0.040661376 0.013196999 -0.06934644 0.023293639 -0.025995709
-0.04264913 0.017852262 0.024213683 -0.10136371 -0.06811127 0.016760264 0.053303163 0.0674024
-0.023250945 -0.045977566 0.04062362 0.073902614 0.01002437 -0.04557335 -0.060863655 -0.044978872
0.05544095 0.053140294 0.058076162 -0.10006805 -4.847104e-05 -0.031980034 -0.08054891 -0.016831093

gnn_layer_0.classifier.weight f4 [1, 64]
00000000: d880 1a3c 5e60 73bd d773 34bd 40e1 2fbd
00000010: d0cf 2dbe 01f0 76bc 5be3 223d 6526 aabd
00000020: 8ea6 96bd 42cb fc3c e9b0 153d e16e 103c
00000030: d18b 0b3e 3107 f13d 8423 f9bb 20d9 27bd
00000040: 500c b83d d8fe 58be 4459 1b3e d024 883d
00000050: 7e5a 783b ed79 cbbd c031 353b e61d 3b3d
00000060: 0af3 a9bc 5dfa 0abc e254 f9bd bbf9 2abb
00000070: 54d7 d1bd feb5 cbbd 84ae a93b 72ce 8dbd
00000080: 4518 2e3d 975b f03c 74e8 923c a05e cfbc
00000090: 7249 eabd 5010 67bc d697 fe3d 47c4 86bd
000000a0: 34ce 04be 3c28 ae3d 107f 1b3d be3c d2b9
000000b0: a51f 2f3d 8b9b 273c e61b d6bd 9a91 483e
000000c0: 9f23 16bc 0b09 1fbd 608a 54bd d4f5 5f3d
000000d0: 76e7 2bbd 27a6 f53c f0ae 983c 24f9 a73c
000000e0: e065 4d3d 2c08 83bc 884b b53d 4d41 823d
000000f0: a11a b5bd ccf0 63bd 6a87 22bd 3ba8 dcbd
0.009430133 -0.059418075 -0.044055786 -0.042939425 -0.16973805 -0.01507187 0.039767604 -0.083081044
-0.073559865 0.03085864 0.036545668 0.008815498 0.13627554 0.1176895 -0.0076031107 -0.04097855
0.089867234 -0.21190965 0.15170771 0.066476464 0.0037895734 -0.09935365 0.0027648062 0.04568281
-0.020745773 -0.008482543 -0.12174393 -0.0026088792 -0.10246149 -0.09946822 0.0051782746 -0.06924142
0.042503614 0.029340548 0.017933108 -0.025313675 -0.1143979 -0.01410301 0.12431304 -0.06580406
-0.12969285 0.08503768 0.037962973 -0.00040099578 0.042754788 0.010229955 -0.1045454 0.19586793
-0.009163766 -0.038826983 -0.051889777 0.0546778 -0.041968785 0.029986454 0.018638104 0.020504542
0.050145984 -0.015995108 0.08852297 0.063601114 -0.0884297 -0.055649564 -0.039679922 -0.10774275

gnn_layer_0.n_func.0.weight f4 [64, 1]
00000000: 6893 62be d0b0 f43d fbc4 abbe 4c90 5cbe
00000010: 1026 7abe 9ef4 acbe a148 0e3f 94b5 2dbf
00000020: 7882 833e 57c8 b1bd d7aa 06bf 681c 19be
00000030: 285c 723f db11 44bd 5ff7 77be c2e2 183f
00000040: 0145 d3bd 8c40 1f3f 4085 43be dcd3 04bf
00000050: 0568 5bbf 83f0 8bbe 21f1 1f3e ca11 3c3f
00000060: ae1a 46bf 5037 5cbe 1217 4fbf 805b c03e
00000070: eb4a f1be 7c59 743f fb1b d9be 6467 f93c
00000080: 3b28 eb3e 8e48 663f baec 043d 8c8e 2cbf
00000090: a39f 84be 4922 563f d8a8 073f 18d8 15be
000000a0: ca4f 2f3e 1c57 7b3f 6904 81bf e810 07bf
000000b0: a016 143e f2c7 d83e 010b 303f 9d60 f83e
000000c0: a415 5a3f 58bb 1fbf 77bb dbbe 1f8e c73e
000000d0: 8815 5d3e c8c1 4f3f 482b abbe 157c 463f
000000e0: 7600 55bf c7e4 6d3f 7898 76be 131b 5b3f
000000f0: 4015 383d 1cff 16bf 4450 24be 61f6 323e
-0.22126544 0.11947787 -0.33548722 -0.2153942 -0.24428582 -0.33780378 0.5557957 -0.6785519
0.25685477 -0.0868079 -0.5260443 -0.14952242 0.9467187 -0.04786859 -0.24215458 0.59721005
-0.10315896 0.62207866 -0.190938 -0.5188577 -0.85705596 -0.27331933 0.15619327 0.73464644
-0.7738446 -0.21505475 -0.8089458 0.3756981 -0.4712747 0.9544904 -0.4240416 0.030444808
0.4592913 0.8995446 0.032452323 -0.6740501 -0.25903043 0.83646065 0.5299201 -0.14633214
0.17120281 0.98179793 -1.0079471 -0.5276017 0.14461756 0.42340046 0.6876679 0.4851121
0.8518927 -0.6239524 -0.42916462 0.38975617 0.21590245 0.8115506 -0.33431458 0.77533084
-0.8320383 0.9292721 -0.240816 0.85588187 0.04494214 -0.58983016 -0.16046244 0.17476799

gnn_layer_0.n_func.0.bias f4 [64]
00000000: c831 d6be 1a9d 29bf a4e1 f43d 8006 e83e
00000010: e29d 44bf 8260 753f 9542 2b3f 60e6 58bd
00000020: 3f61 b23e 7853 293b 267f 5a3f 2082 63bf
00000030: 8e06 1abf a3c3 b83e a2ce 373f ce9d 80bf
00000040: 9b3b 853e c74c 073f c04b 0bbf 9060 4fbe
00000050: 3f1d ce3d 3958 133f 61a6 4f3f 203b 263e
00000060: 0f42 163f ec50 bfbe b097 bebd 2260 85be
00000070: 9a82 d53e ac2a 6cbf d494 e23e 44e3 333f
00000080: f367 afbd ec33 d4bd a1d3 5d3f 2400 f0be
00000090: be12 003e fe78 5abd 01d7 f23d dc74 a1be
000000a0: 8ab4 b83d 0d99 2cbf 4013 cd3e 4af3 5ebf
000000b0: 2af0 68bf 2b29 5d3f 4280 6abe 3ba0 243e
000000c0: 253d 05be f42a 693f 6d4a 723f 6f5c 323f
000000d0: 97be 5e3f 1acf c9be ac1a b9be 193c 5c3f
000000e0: 7859 f73d a676 99be de11 77bf e841 dd3e
000000f0: 6643 1bbf e43e c7be c6cc 8b3e a684 adbe
-0.41834855 -0.6625534 0.119571 0.4531746 -0.7680341 0.95850384 0.6689847 -0.052954078
0.34839818 0.0025837105 0.85350263 -0.8887043 -0.6016625 0.3608676 0.7179967 -1.0048158
0.26022038 0.5285153 -0.5441246 -0.2025168 0.10064172 0.5755649 0.8111325 0.16233492
0.5869455 -0.37366426 -0.09306276 -0.26049906 0.41701204 -0.9225261 0.44254172 0.70268655
-0.085647486 -0.10361466 0.86651045 -0.46875107 0.1250715 -0.053338043 0.11857415 -0.3153447
0.0901881 -0.67421037 0.4005375 -0.8708998 -0.9099146 0.8639094 -0.22900489 0.16076748
-0.13011606 0.91081166 0.94644815 0.6967229 0.8700957 -0.39415818 -0.36153162 0.860292
0.12077612 -0.29973334 -0.9651164 0.43214345 -0.60649717 -0.3891517 0.27304667 -0.33890265

gnn_layer_0.n_func.2.weight f4 [64, 64]
00000000: d023 293d 4e0b a1bd 12e1 b5bd 84d9 75bd
00000010: 1625 f3bd da0f 9cbd 3689 c13d 5224 e53d
00000020: c88e c0bc 887b 0dbd 066b cabd acf0 c9bd
00000030: 384c ec3d 46b2 91bd 5246 c7bd 0008 3bbb
00000040: ec28 9e3d a0e5 6dbd e45d 00bd 1cea 13bd
00000050: 6851 8f3d d0bc a03d d887 90bc 0aa2 f8bd
00000060: 9846 cbbc 201d 07bc fcba 98bd a88a d13c
00000070: ce0d 903d cc7b b33d 94c5 c83d d2a3 c03d
00000080: f451 93bd a01e 3fbd ecc2 e0bd 501b 51bd
00000090: 8036 9d3d d0ef 58bc 4e88 883d 68fe 44bd
000000a0: 50b7 cf3c 2874 e3bd 502e bebd 8cbf 4cbd
000000b0: d0b2 8a3d 10a3 51bd c019 e83d f23f 81bd
000000c0: 5482 ddbd c0d5 403b 5400 923d 5897 4bbd
000000d0: 5e6d b43d ac58 70bd 20cf d53c 1047 bb3d
000000e0: 540b c9bd 7860 bcbd f0ba ac3d d04a 323c
000000f0: 8abe a63d 3c9f bf3d c8dc f3bd c090 693d
00000100: aca9 3f3d c443 7a3d f654 983d 53ed ca3d
00000110: 88ac 803d 10c3 a9bd fbf3 443d 208d 1c3d
00000120: 5e78 be3d 27c0 e0ba e77b 5dbd 36ef c3bd
00000130: 1cc8 bc3d 2c1d 48bd 29e1 dcbd b142 dfbd
00000140: a1d2 f2ba 70cd bdbc b813 20bd 3cbc 563d
00000150: f4fe 223d 2b5c 283d b4e4 2dbc ddb9 dcbd
00000160: ce20 303d 403f 8cbb 6041 093d 3235 19be
00000170: 7b2c 533d 97e0 9bbd 4921 c639 c199 d0bd
00000180: fa75 963d 1529 5c3d 9055 003c d887 c1bc
00000190: edbd c73c 38c2 93bd f14f 47bd f4c0 7cbd
000001a0: 74bb e63a b438 38bd ba0d abbd ecc8 cc3d
000001b0: 26f7 b83d 53ad 15bd eaa0 ee3c 67b6 01be
000001c0: 93f4 7d3d 96d2 083c 02c5 19bd d5f1 163d
000001d0: c800 14bd 4ae7 963d 788e d7bc 90e0 68bd
000001e0: f16c 2ebe cb2e f23d 7eba 92bd ee35 973d
000001f0: c8ea c33c 526d 99bd 11e3 163d 3678 d53d
00000200: 00cb f9ba 1498 3e3d 960d c23c 01be 683d
00000210: 80c6 f3bd 9aa9 0e3e 110e 593d e06d 8cbb
00000220: be88 013d 1afa c33d bc03 4c3a b4a4 083d
00000230: b0bf 7cbe 1809 ae3d 3c4b 903d b7b7 2e3d
00000240: 9626 083e 07e8 423d 6c91 003d 2c9c e33d
00000250: 4372 d73c ab80 053c 6b9b 83bb 8fa4 403b
00000260: 4879 ee3d 5031 413d 4025 50bc 83dc 1a3c
00000270: 8040 0e3e e428 8b3e 9c57 ebbc 2f37 253b
00000280: 565f 01be d349 cb3c a9ba ce3d f0af b1bc
00000290: 1d49 ec3d eae7 383c b694 bf3d a040 5abc
000002a0: 4e24 ac3d e71a b23c afde 18bc 5096 e23d
000002b0: 50c4 013d d33e 953d bb1d bbbd 0c27 7abd
000002c0: 4118 93bb aed7 653d 4d01 88b9 db2c b13c
000002d0: 76ad a3bd ec4e 2ebe 182f e53c acec 45bd
000002e0: 2178 953d 3b1b eebd d898 cebc fc2a 1b3d
000002f0: 2a27 ff3d b822 a13d bd04 623d 0358 5ebd
00000300: b0c2 803c ac8d 1d3d 6808 a33c 9841 cbbd
00000310: e074 343c 3065 0fbd 3424 9dbd aa95 f93d
00000320: e087 a3bc 50d4 673c 001d 9dbb 4049 8fbd
00000330: b43c 7abd 4085 ad3d d847 edbd 800e 4f3b
00000340: ccb1 c8bd e086 e03c f645 df3d e0a2 b2bd
00000350: a01d f1bc 2062 5cbd e021 623c ee6d b6bd
00000360: f857 183d 86e5 973d 44c3 23bd 308e 963d
00000370: a0eb a13d 0c2c 8c3d c02b 013c 9c50 dcbd
00000380: 0e68 e8bd 6afd 8f3d b601 bdbd 2480 823d
00000390: 500c 273c 36c3 de3d 66ac 963d a2d7 a8bd
000003a0: 6067 773d f682 f2bd 0097 213b eacd e8bd
000003b0: 30e1 6a3d a4cf e3bd fc03 80bd 1c28 943d
000003c0: f418 e2bd 547c 29bd 783f c9bd 94c6 263d
000003d0: 487a dabc 2256 f03d 72ce e53d 1c60 18bd
000003e0: c0a4 143c 78e3 9cbd f04a 223d 7234 fdbd
000003f0: f069 ccbd 60c9 72bd 6459 03bd d276 953d
0.04129392 -0.07863484 -0.088808194 -0.060021892 -0.11872308 -0.07620211 0.09449999 0.11188568
-0.023505583 -0.034541637 -0.09883694 -0.09860358 0.11537975 -0.07114081 -0.097302094 -0.0028538704
0.07722649 -0.058080316 -0.03133954 -0.036111936 0.06997949 0.07848513 -0.0176429 -0.121402815
-0.024813935 -0.00824669 -0.074575394 0.025578812 0.07033883 0.08763847 0.0980331 0.09406246
-0.07193366 -0.046660066 -0.109746784 -0.051051438 0.07676411 -0.0132407695 0.06666623 -0.048094183
0.025355965 -0.111061394 -0.09286177 -0.04998736 0.06772387 -0.0511809 0.113330364 -0.06311025
-0.10815874 0.002942428 0.07128969 -0.04970488 0.08809923 -0.058678314 0.026099741 0.091444135
-0.09816614 -0.091980875 0.08434093 0.0108820945 0.08141811 0.093565434 -0.11907345 0.05702281
0.04679267 0.061099783 0.0743808 0.09908547 0.06282908 -0.08289158 0.04808424 0.038220525
0.09300302 -0.001714711 -0.05407324 -0.0956711 0.09217855 -0.048855945 -0.107851334 -0.10901392
-0.0018525907 -0.02316925 -0.039081305 0.052425608 0.039793923 0.041103523 -0.010613609 -0.10777638
0.043000035 -0.004280001 0.033509612 -0.14961699 0.05155609 -0.076111965 0.00037790302 -0.10185576
0.07346721 0.053750116 0.0078329 -0.023624346 0.024382556 -0.07214779 -0.048660222 -0.061707452
0.0017603473 -0.04497595 -0.083522275 0.0999926 0.09031515 -0.036542248 0.029129464 -0.12667237
0.062000822 0.008350989 -0.037541397 0.036851723 -0.036133558 0.07368334 -0.026313052 -0.056854784
-0.17033745 0.11825331 -0.07164477 0.07383333 0.023915663 -0.07491554 0.03683764 0.10423319
-0.0019057691 0.04653175 0.023688119 0.056821827 -0.11903095 0.13931885 0.05299193 -0.004285559
0.031624548 0.095691875 0.0007782539 0.0333602 -0.24682498 0.08497828 0.070456 0.042655673
0.1329597 0.04758456 0.031388685 0.11113772 0.026299601 0.008148353 -0.00401633 0.002939496
0.11644226 0.04716617 -0.012704194 0.009451988 0.13891792 0.27179635 -0.028728299 0.0025209894
-0.12634024 0.024815476 0.10094196 -0.021690339 0.11537383 0.011285761 0.09354536 -0.013321072
0.08405362 0.021741344 -0.009330436 0.11063826 0.03168136 0.072873734 -0.0913653 -0.061072394
-0.0044889753 0.05611389 -0.0002594091 0.021627834 -0.079920694 -0.17022294 0.027976558 -0.04832141
0.072983034 -0.116262875 -0.025219366 0.03788279 0.12458642 0.0786795 0.0551803 -0.054283153
0.015717834 0.038465187 0.01990147 -0.099246204 0.011014193 -0.03500861 -0.07672921 0.12186749
-0.019962251 0.01414974 -0.004794717 -0.06996393 -0.061093047 0.08472681 -0.11585969 0.0031594336
-0.09799537 0.027408063 0.10902016 -0.08722472 -0.029433072 -0.053804517 0.013802022 -0.08907686
0.03719327 0.07416825 -0.03998114 0.07351339 0.0790627 0.06844339 0.007883966 -0.107575625
-0.11347972 0.07030757 -0.09228842 0.06372097 0.010195807 0.10877077 0.07357101 -0.08244254
0.06040132 -0.11841385 0.0024656653 -0.113674 0.05734366 -0.11123589 -0.0625076 0.07234213
-0.11039916 -0.041378334 -0.09826559 0.040716723 -0.026669636 0.117351785 0.11221017 -0.037201032
0.009072483 -0.07660574 0.039622247 -0.12363519 -0.099811435 -0.059274077 -0.03206767 0.07298054

gnn_layer_0.n_func.2.bias f4 [64]
00000000: 12b4 edbd 3f6c e23d c168 493d 9c83 833d
00000010: a6be 313d 98e4 b43c 10b5 0fbc 609f 9b3b
00000020: 4b62 2abd 7a0c 8dbd 214e b93d a7f5 e5bb
00000030: d205 ad3d 4ca7 db3d 6864 93bd 5cd6 e0bd
00000040: 1602 f2bc 1433 733d 6edb 89bd 586c 973c
00000050: 9076 d43c 46c6 743d 5e52 c6bd b8bb 88bd
00000060: f0ac 1ebc 116c 30bd a490 82bd 20eb cabd
00000070: a6b7 9d3d 36c2 b43d 1826 ac3d 9119 51bd
00000080: 9cf1 09bd e39e 883b 077e e2bc c030 4a3b
00000090: 1026 6abd 40b4 7b3d c18a 423d eee7 ac3d
000000a0: dcef 803d 4896 a43c 9a04 0dbe 65e1 cdbc
000000b0: b64e 523d 48dd f4bc 0fe9 233d 2953 3cbd
000000c0: 3949 c5bd b114 8d3d a88d 0ebd ccaa 9bbd
000000d0: d153 053d 3bcc 04ba 3b2e 183d b48a 0ebd
000000e0: 808a ce3d dc35 903c f285 9a3d d44b 28bc
000000f0: d7da 663c 59cb eabd 8e5b 02bd c9a0 de3d
-0.11606611 0.110558026 0.049172167 0.06421587 0.043394707 0.022081658 -0.008771196 0.0047492236
-0.041597646 -0.06887145 0.09048105 -0.0070178094 0.08448376 0.10725269 -0.07196885 -0.10978386
-0.02954201 0.059374884 -0.06731306 0.01848428 0.025935441 0.0597594 -0.09683679 -0.066764295
-0.009684786 -0.04307181 -0.06375244 -0.09908128 0.07701044 0.08826105 0.08405703 -0.051049773
-0.033677682 0.0041693314 -0.027647985 0.0030851811 -0.057165205 0.061451197 0.047495607 0.084426746
0.062957495 0.020091191 -0.13771287 -0.02513189 0.051344596 -0.029890671 0.040017184 -0.045977745
-0.09633107 0.06888712 -0.034803063 -0.07600936 0.032550637 -0.0005065833 0.037153464 -0.034800246
0.100850105 0.017603807 0.07545079 -0.010271985 0.014090261 -0.11464567 -0.031825595 0.10870511

gnn_layer_0.n_self_func.0.weight f4 [64, 1]
00000000: dc2a 103f 16b2 df3d dc90 4bbf 7986 ffbe
00000010: 7bfb c8bd fd29 d43e a451 a7be 425e 46bf
00000020: 6635 813f 8d7b 113f 8ebe 55bf f0a4 12be
00000030: 4326 0e3f 34b7 50bf 38aa 7dbe b03c f7be
00000040: 97c0 323f 8b5b 0a3f e015 60bf 5fd9 1abf
00000050: dcdf aabe 5ca3 aebe ba5e b4be 9f95 733e
00000060: 9be1 163e a87b 263e 765e 923e 711c 1a3f
00000070: e25e 803e 1dfc 5c3f 00bd 27bf d43c e5be
00000080: 98ca babe 2364 f03e 81d9 d8be 4698 07bf
00000090: 437e 133f fb3e 7ebf 1979 393f 58f1 003f
000000a0: 1037 4fbf 3873 b43e 7f93 8ebf 1447 5c3f
000000b0: f0c9 ae3e 07c7 6c3f c4e9 5a3f 785b bdbe
000000c0: c48e a23c a173 e5be 79e2 a63d 1499 d2be
000000d0: 0520 a93e c619 1f3f cfb2 2c3e 3fa5 05be
000000e0: 59ba de3e 608e eabe 8098 3cbf 5240 2f3f
000000f0: d109 753e a0d6 77bd b9e2 4f3f c322 05bf
0.563154 0.10922639 -0.7951791 -0.49907282 -0.09813591 0.41438285 -0.32679474 -0.77487576
1.0094421 0.5682915 -0.8349389 -0.14320731 0.5552713 -0.81529546 -0.24771965 -0.48288488
0.6982512 0.54045933 -0.8753338 -0.6048793 -0.33373916 -0.34109008 -0.3522852 0.23787545
0.14734499 0.16258109 0.28587693 0.6019965 0.2507239 0.86322194 -0.65522766 -0.4477297
-0.36482692 0.46951398 -0.42353442 -0.52966726 0.57614535 -0.9931485 0.72450405 0.5036826
-0.80943394 0.35244155 -1.1138762 0.86045957 0.3413844 0.9249119 0.8551295 -0.36983848
0.019843467 -0.4481478 0.08148665 -0.41132414 0.3303224 0.621487 0.16865085 -0.13051318
0.43501547 -0.45811749 -0.73670197 0.6845752 0.23929526 -0.060507417 0.81205326 -0.5200617

gnn_layer_0.n_self_func.0.bias f4 [64]
00000000: 0190 043f 7a0f 6cbe 9836 c5be 21cb 2a3f
00000010: 3124 523e 7f2a 2abe a0e9 8bbe e0bf efbe
00000020: 67d2 5cbe 9a5e f33e e805 27be 5486 e9be
00000030: cc79 2f3e 26ce 5b3f 0099 c1bd 78f7 7fbe
00000040: 22f7 d03e cd32 8fbe b791 283f 8f20 2d3f
00000050: 54db a9be 8087 0abf 1d2c 0b3f 17f8 733e
00000060: 2ba6 453f 8c65 d5be ad31 dbbe 4ddf ddbe
00000070: b872 1e3f 7320 29bd 7670 5e3f 6b31 3b3f
00000080: fb6d a13e 446f 1d3f 6523 1f3e f00f 5dbf
00000090: eff8 403e 533f 933e e21e 073f 4d5c 1b3f
000000a0: 10b9 c83e cd05 ac3e b12c c63e a532 1f3f
000000b0: dc8e 1c3f 43c2 0dbf f71a 1cbd 705f 5bbe
000000c0: 46f4 473d 3733 f83e 9def 813e e885 1bbf
000000d0: 8cde 623f 7f1c 9f3e 8058 91bd bc46 3d3f
000000e0: 602c 1cbf c085 a0bc 00e4 51be 7d5b 283f
000000f0: 3a8e 673d 8070 5cbf b312 693f 60e3 fe3e
0.5178223 -0.23052779 -0.38518214 0.667162 0.20521618 -0.16617773 -0.2732668 -0.46826077
-0.21564637 0.47533113 -0.16310847 -0.45610297 0.17136306 0.8586143 -0.094530106 -0.24996746
0.40813547 -0.27968445 0.65847343 0.67627805 -0.33175147 -0.54113007 0.54364187 0.23825108
0.7720668 -0.41679037 -0.42811337 -0.43334427 0.61893797 -0.04129071 0.8689035 0.7312228
0.3152922 0.614979 0.15540846 -0.86352444 0.1884496 0.2875925 0.527815 0.60687715
0.3920369 0.33598176 0.38705972 0.6218665 0.61155486 -0.55374545 -0.038111653 -0.21423125
0.04881694 0.48476574 0.25378123 -0.607512 0.8862083 0.31076428 -0.07096958 0.7393606
-0.6100521 -0.019595027 -0.20497131 0.657646 0.056532122 -0.8610916 0.9104416 0.49782848
