ThinkMatch/exp/ngm/CV3/saved_models/model.pt (torch, 278195 bytes, 34 tensors)

affinity_layer.lambda1 f4 [64, 64]
0	0x3edd3556	0.43204755
1	0x3c4e35e5	0.012586092
2	0xbc0aa11d	-0.008461264
3	0x3d9571c1	0.072970875
4	0xbd88512d	-0.06656108
5	0xbd14f9a3	-0.036370885
6	0xba9daa5d	-0.0012028922
7	0x3d03cf72	0.032180257
8	0xbc22172d	-0.009893221
9	0xbd6604b4	-0.05615683
10	0x3d6ec0f5	0.058289487
11	0x3d279806	0.040916465
12	0x3bc8d65a	0.0061290683
13	0xbc73b999	-0.014875793
14	0x3c2b6514	0.010461111
15	0xbd59e13f	-0.053193327
16	0xbb9be31f	-0.0047572996
17	0xbd3b2f85	-0.045699615
18	0xbd041e20	-0.032255292
19	0xbca884fb	-0.020571223
20	0xbd71982d	-0.058983017
21	0x3d629149	0.055314336
22	0x3db9b0a8	0.09066898
23	0x3df6c7a3	0.120497964
24	0xbd97550a	-0.07389267
25	0x3e185e98	0.14879835
26	0xbce2de31	-0.02769384
27	0xbd0ec15e	-0.034852378
28	0xbd27c87e	-0.04096269
29	0xbcf38491	-0.029726299
30	0xbd7fb1c2	-0.062425382
31	0xbdb30572	-0.08741273
32	0x3d098880	0.033577442
33	0xbd8bd764	-0.06828192
34	0xbcd97ff9	-0.02655028
35	0x3d16ceba	0.036818244
36	0xbd423373	-0.047412347
37	0xbd2a9e1e	-0.0416547
38	0xbcfe7ee0	-0.031066358
39	0x3c94bd09	0.018156545
40	0x3da130b5	0.07870618
41	0x3d272bb7	0.040813174
42	0xbd4cd70f	-0.050009783
43	0x3c5d5e25	0.013511215
44	0x3da5662b	0.080761276
45	0xbd8d383d	-0.06895492
46	0x3acb6e6a	0.0015520577
47	0x3cc9ea6d	0.024647916
48	0x3d7d4e5e	0.061842315
49	0x3d3f298b	0.046670478
50	0x3d44af51	0.048018757
51	0x3d3c10ab	0.045914333
52	0x3d873737	0.06602328
53	0xbc5d08fe	-0.013490913
54	0xbd7ff3df	-0.062488433
55	0xbc1af65e	-0.009458153
56	0xbc829117	-0.015938325
57	0x3d85912b	0.06521829
58	0xbaeeaf38	-0.0018210178
59	0x3d479ef9	0.048735593
60	0xbd89b932	-0.06724776
61	0x3d85ef19	0.06539745
62	0x3d85ffd6	0.065429375
63	0xbda12462	-0.078682676
64	0xbdaf9646	-0.08573584
65	0x3eefc964	0.46833336
66	0x3d94374b	0.07237109
67	0xbd176318	-0.036959738
68	0xbd517fa9	-0.051147137
69	0xbd871b3e	-0.06596993
70	0x3d813889	0.06309611
71	0xbd9ac1c3	-0.07556488
72	0xbd52fcac	-0.051510498
73	0xbd19ab6f	-0.037517007
74	0x3cb50dc4	0.02210129
75	0xbbdae551	-0.0066801687
76	0xbda3fb46	-0.08006911
77	0x3d412f5b	0.047164302
78	0xbbf82bb0	-0.0075735673
79	0xbd9a1e7a	-0.07525344
80	0xbcdb5dbc	-0.026778094
81	0xbd642b0d	-0.05570512
82	0xbd7829aa	-0.06058661
83	0x3d1e7719	0.0386878
84	0xbcb41006	-0.021980297
85	0xbdae53cc	-0.08512077
86	0x3c8bbd3e	0.017058011
87	0x3c96128c	0.01831939
88	0x3cf351cf	0.029702095
89	0xbd219ceb	-0.03945629
90	0x3d78516b	0.06062452
91	0xbd57b3f8	-0.052661866
92	0x3d132ee4	0.03593339
93	0x3bdb705d	0.0066967444
94	0x3d8018ba	0.06254716
95	0xbbeef98a	-0.007292931
96	0xbd71b177	-0.059007134
97	0x3e2ebfab	0.17065303
98	0xbc5e879d	-0.013582137
99	0x3cbf1050	0.023323208
100	0x3c0284f4	0.007966269
101	0xbceb1d37	-0.028700454
102	0x3d4e5395	0.05037268
103	0xbccd11a1	-0.02503282
104	0xbd86d571	-0.065836795
105	0xbd796002	-0.060882576
106	0x3dbfadc6	0.093593165
107	0x3d18f442	0.037342317
108	0x3d83600a	0.06414802
109	0x3cc14fe8	0.023597673
110	0x3dd226d1	0.1026131
111	0x3d710e5a	0.058851577
112	0xbd32f21c	-0.043687925
113	0x3c6e66d4	0.014550883
114	0x3d69929f	0.057024594
115	0x3dcd9f41	0.10040141
116	0x3e2d224b	0.16907613
117	0x3df2c35c	0.11853668
118	0x3d499e1a	0.049223043
119	0x3c2d9703	0.010595086
120	0x3c66fdf8	0.014098637
121	0xbd9d7470	-0.07688224
122	0x3da77a11	0.08177579
123	0x3d1bb377	0.038012948
124	0xbda61cba	-0.08110948
125	0x3c919f00	0.017776012
126	0x3da775b2	0.081767455
127	0xbc238601	-0.0099806795
128	0xbd99d631	-0.07511557
129	0x3da61eb1	0.08111323
130	0x3f10e13d	0.56593686
131	0x3d352baa	0.044231094
132	0xbd7505e2	-0.059820063
133	0x3d70cd3b	0.058789473
134	0x3d90737f	0.07053279
135	0xb83bc7f2	-4.4770488e-05
136	0x3d4d01d5	0.050050575
137	0xbd767d29	-0.060177956
138	0xbd431f92	-0.04763753
139	0xbd57d892	-0.052696772
140	0xbd3b6f9a	-0.04576073
141	0xbd6273eb	-0.05528633
142	0xbd94660a	-0.07246025
143	0xbdac9c9f	-0.084283106
144	0xbd24e7db	-0.040260177
145	0x3c30c774	0.010789741
146	0x3cbea855	0.023273626
147	0xbdadb060	-0.084809065
148	0xbb5b4a68	-0.0033461098
149	0xbd75e8bb	-0.060036402
150	0x3ced487f	0.028965233
151	0xbdabb382	-0.08383848
152	0xbc956b43	-0.018239623
153	0x3dca79ab	0.098864876
154	0x3d61c18f	0.055116232
155	0x3ce06238	0.027390584
156	0xbd97cc9c	-0.07412073
157	0x3d87cf73	0.06631365
158	0x3dec8554	0.11548868
159	0x3bd2dd70	0.006435089
160	0xbd6cc56d	-0.057805467
161	0x3bf93e73	0.0076063215
162	0x3d5ddd33	0.05416603
163	0xbda3d244	-0.07999089
164	0x3d307242	0.043077715
165	0xbd8a31f9	-0.06747813
166	0x3c50b2c9	0.012737938
167	0xbcc250fc	-0.023720257
168	0xb8cbe8e2	-9.723172e-05
169	0x3c40db91	0.011771099
170	0xbce9e89c	-0.0285533
171	0x3e1537e5	0.14572103
172	0xbd01dedb	-0.031706672
173	0xbcfa7d9d	-0.030577475
174	0xbd2eaa76	-0.042643033
175	0x3dff0791	0.12452615
176	0x3ced00ce	0.028931048
177	0xbd0970bc	-0.033554778
178	0x3d61609e	0.055023782
179	0xbd6410bf	-0.055680033
180	0xbb44f398	-0.003005242
181	0xbda47a72	-0.08031167
182	0x3d0d63e7	0.034519102
183	0xbc6f678d	-0.014612091
184	0xbc1b3498	-0.009472989
185	0x3c9529f2	0.018208478
186	0xbd61a6fd	-0.055090893
187	0x3d5ffabd	0.054682482
188	0xbd033fcd	-0.032043267
189	0xbc62c85d	-0.013841716
190	0x3aee8571	0.0018197728
191	0x3dfcdbee	0.12346636
192	0xbd97162c	-0.07377276
193	0x3d16b4fa	0.036793686
194	0xbda24dc5	-0.079249896
195	0x3f051575	0.51985866
196	0xbd732630	-0.05936259
197	0xbd23a657	-0.039953556
198	0xbd7174ee	-0.058949403
199	0x3d2933d2	0.041309185
200	0xbca0c1db	-0.019623687
201	0xbd2033dc	-0.039111957
202	0x3da33637	0.07969325
203	0xbd8936b5	-0.06699888
204	0xbd6cf495	-0.05785044
205	0x3c986440	0.01860249
206	0xbd6d28f9	-0.057900403
207	0xbd987b95	-0.074454464
208	0xbc8a23b7	-0.016862733
209	0x3ce11acb	0.027478596
210	0xbcfb0ad0	-0.030644804
211	0x3df69502	0.1204014
212	0x3de2435f	0.11048006
213	0xbd9760f7	-0.073915415
214	0xbc0921e8	-0.0083699
215	0xbca81701	-0.020518782
216	0xbda52994	-0.08064571
217	0xbcc632c7	-0.024194134
218	0xbd8b2f0c	-0.06796083
219	0x3dafd11e	0.08584808
220	0xbd911fe3	-0.0708616
221	0xbd956a76	-0.072956964
222	0x3b5f2e3a	0.0034054653
223	0x3d37fdc2	0.044919737
224	0xbdb270b2	-0.08712901
225	0xbd668026	-0.056274556
226	0xbcf5f918	-0.030026004
227	0x3d372ebc	0.044722304
228	0x3c3c5d9f	0.01149693
229	0xbc788c0e	-0.01517011
230	0xbdaa82ed	-0.08325753
231	0x3dff3bf7	0.12462609
232	0x3d6dd4cf	0.05806428
233	0x3cf37075	0.02971671
234	0xbc30060f	-0.010743632
235	0x3d1f4b2f	0.03889006
236	0x3cafbfdf	0.021453796
237	0xbd5355a9	-0.051595364
238	0x3d515c1e	0.05111324
239	0x3cf53a05	0.029934892
240	0x3cffdaed	0.031232322
241	0x3cc926dc	0.024554662
242	0xbcc824df	-0.024431644
243	0xbd6f75fe	-0.058462135
244	0xbbb6b621	-0.0055759107
245	0x3d373dd5	0.044736702
246	0xbd8e163f	-0.06937837
247	0xbd56d3c0	-0.052448034
248	0xbce63847	-0.028103007
249	0xbd664e6a	-0.056227125
250	0xbca0742a	-0.019586641
251	0xbd83ab18	-0.06429118
252	0xbd833280	-0.064061165
253	0xbd7e4bb8	-0.06208393
254	0x3da35b30	0.07976377
255	0x3ca8a1d5	0.02058498

affinity_layer.lambda2 f4 [64, 64]
0	0x3f1afcd3	0.6054203
1	0xbc82ccc2	-0.015966777
2	0xbc5fa62c	-0.013650458
3	0xbd9afaf5	-0.075673975
4	0xbd858733	-0.06519928
5	0x3dd5babd	0.10436008
6	0x3d4da88b	0.050209563
7	0x3d13a1d4	0.036043003
8	0x3dc08cc0	0.09401846
9	0xbd0ea504	-0.03482534
10	0x3cd24f05	0.025672445
11	0x3e0dc360	0.13844061
12	0x3cd2b435	0.025720695
13	0xbd9cea90	-0.07661927
14	0xbca01503	-0.01954127
15	0xbda97f6e	-0.082762584
16	0xbdb49908	-0.08818251
17	0x3dc12640	0.09431124
18	0x3d4fc0c6	0.050720952
19	0x3ba33762	0.0049809674
20	0xbdac7006	-0.08419804
21	0xbdac6e51	-0.08419479
22	0x3d90ba9c	0.07066843
23	0x3c2d3973	0.010572779
24	0xbd82f82d	-0.06394992
25	0xbd2b74db	-0.04185949
26	0x3e14c1d2	0.14527062
27	0xbda35b74	-0.07976428
28	0x3dba23a5	0.0908883
29	0x3d50bf2d	0.05096357
30	0xbd5409e5	-0.05176725
31	0x3cd4c96a	0.025974948
32	0xbd9c7b6c	-0.07640728
33	0xbd374e9c	-0.044752702
34	0xbbe61b08	-0.0070222653
35	0xbbe55edf	-0.006999835
36	0xbce84d72	-0.028357241
37	0x3da4f5a5	0.080546655
38	0x3d0826af	0.033240017
39	0xbcad6f09	-0.02117111
40	0x3d4ad56e	0.04951995
41	0x3d92b46e	0.071633205
42	0xbd9b9483	-0.07596686
43	0xbd978c9b	-0.07399865
44	0x3d0bbf00	0.0341177
45	0x3c55a670	0.01304017
46	0x3d7658fa	0.06014345
47	0xbdab9575	-0.08378116
48	0xbd8126a3	-0.063061975
49	0x3dac7dac	0.084224075
50	0x3c00e94b	0.007868121
51	0x3ddd9a12	0.10820402
52	0xbd12c4b1	-0.03583211
53	0xbced58ef	-0.02897307
54	0x3d44e0fd	0.048066128
55	0x3d3b0def	0.045667585
56	0xbd89d051	-0.06729186
57	0xbd9d8f3a	-0.07693334
58	0x3d0dbc88	0.034603626
59	0xbd334e33	-0.04377575
60	0x3d9cdf11	0.07659734
61	0x3cdd8eaa	0.027045567
62	0x3d40ab9c	0.04703866
63	0x3de3409f	0.1109631
64	0x3c81e4c1	0.015856149
65	0x3f1b7fbf	0.607418
66	0xbd99e451	-0.07514251
67	0xbd12f75a	-0.035880424
68	0xbae0bfdd	-0.0017147023
69	0x3d3bc821	0.045845155
70	0x3b09ae1a	0.0021008314
71	0xbd84ceb4	-0.06484738
72	0x3bb3f518	0.005491864
73	0xbcaf853b	-0.021425834
74	0xbc140ae4	-0.0090358
75	0x3d1f4d42	0.03889204
76	0xbd81215c	-0.06305191
77	0x3d8b8aa0	0.0681355
78	0xb8ca6023	-9.6500175e-05
79	0x3d046cd5	0.032330353
80	0xbd519bdf	-0.05117404
81	0xbd9b3f99	-0.0758049
82	0xbd15baa2	-0.03655494
83	0xbd39185a	-0.04518924
84	0x3da61e56	0.08111255
85	0xbc77ae00	-0.015117168
86	0xbda4d8c7	-0.080491595
87	0x3a903f3d	0.0011005175
88	0x3d50909b	0.050919157
89	0xbdb3349a	-0.08750267
90	0xbd1765c5	-0.03696229
91	0xbda0be62	-0.07848813
92	0x3cc3c431	0.023897262
93	0x3c84ecdc	0.016226225
94	0x3df82504	0.12116435
95	0x3d94ef31	0.07272185
96	0x3d0338cc	0.032036588
97	0x3c99a0a5	0.01875336
98	0x3d898565	0.06714896
99	0x3cdda077	0.027054055
100	0xbda26ca8	-0.07930881
101	0xbcfda411	-0.030962022
102	0xbd79ba60	-0.060968757
103	0x3d711a1a	0.058862783
104	0x3cb4fcb5	0.022093156
105	0x3c986cce	0.01860657
106	0xbd0d1693	-0.034445357
107	0xbcb5e92b	-0.02220591
108	0x3dc01ab8	0.09380096
109	0xbce7d31e	-0.02829891
110	0x3d8feb80	0.0702734
111	0x3d9feb5c	0.07808563
112	0x3da11e1b	0.0786707
113	0x3dfb355f	0.12266039
114	0x3ce22e63	0.02761001
115	0xbc46e859	-0.012140357
116	0xbd60b473	-0.05485959
117	0xbdafe444	-0.0858846
118	0xbc3ace13	-0.011401671
119	0x3d896200	0.06708145
120	0x3cb102a1	0.021607699
121	0x3c826540	0.01591742
122	0xbc3d0e69	-0.01153908
123	0x3d33c606	0.04389002
124	0x3d4b743a	0.04967139
125	0xbd8c89f2	-0.068622485
126	0xbcb2c7dc	-0.021823816
127	0xbd13cc9f	-0.036083814
128	0x3c5ebe1f	0.013595133
129	0x3d5d6d72	0.054059453
130	0x3ed1673a	0.40899068
131	0x3d87c6cc	0.06629714
132	0xbd1b4ae7	-0.03791323
133	0xbd8a5a97	-0.0675556
134	0x3d6cd8b1	0.05782384
135	0x3d9e75ac	0.07737288
136	0xbd60eb35	-0.05491181
137	0x3da712fa	0.08157916
138	0x3d3a898a	0.045541324
139	0x3db831bf	0.08993863
140	0x3c8bc3e4	0.017061181
141	0x3c65b62e	0.014020486
142	0xbdaccd8a	-0.08437641
143	0xbc388af4	-0.011263598
144	0xbd85d51a	-0.065347865
145	0xbdad7c43	-0.08470967
146	0xbd94043a	-0.07227369
147	0x3d83450f	0.06409656
148	0xbc6d7954	-0.014494259
149	0x3c2eb014	0.0106620975
150	0xbcc9ebe4	-0.024648614
151	0x3d6c61e9	0.057710562
152	0x3d1bc57b	0.03803013
153	0xbc4e966a	-0.012609104
154	0x3d641d41	0.05569196
155	0xbd59e39d	-0.053195585
156	0x3d96a582	0.07355787
157	0xbab10652	-0.0013505912
158	0xbd09a23f	-0.033601996
159	0x3d0a9601	0.03383446
160	0xbdae294d	-0.08503971
161	0xbc43d617	-0.011952898
162	0x3babfda5	0.0052487426
163	0x3d5b5b59	0.053553913
164	0x3d530de0	0.051526904
165	0x3ce0c88c	0.027439378
166	0x3d8bde71	0.06829537
167	0x3c9ae8a1	0.018909754
168	0xbc7ad39f	-0.015309243
169	0xbd4c93a1	-0.049945477
170	0x3d923d77	0.0714063
171	0x3d14250d	0.036168147
172	0xbd56ce9a	-0.052443124
173	0xbd758558	-0.05994162
174	0x3c97131e	0.018441733
175	0x3d0d9b47	0.034571912
176	0x3d978ccc	0.07399902
177	0xbdb32b0e	-0.087484464
178	0x3e120a1f	0.14261673
179	0xbd0772d9	-0.03306851
180	0x3d245398	0.040118784
181	0xbdabca31	-0.08388174
182	0x3cce1f48	0.0251614
183	0x3e212f42	0.15740684
184	0xbb97772f	-0.004622362
185	0xbd8e224d	-0.06940136
186	0xbd2a9c49	-0.04165295
187	0xbce18f6d	-0.027534211
188	0x3d9076a2	0.070538774
189	0xbd69a6fe	-0.05704402
190	0x3c3029a2	0.010752114
191	0x3cafbf6a	0.021453578
192	0x3d9aa05d	0.07550118
193	0xbc44f1c6	-0.012020534
194	0xbc515b20	-0.012778074
195	0x3edcc72b	0.43120703
196	0x3ab1001c	0.0013504061
197	0x3e13349e	0.1437554
198	0xbc17ba0a	-0.009260664
199	0x3d6f6e22	0.05845464
200	0x3e3239a4	0.174048
201	0x3d9835f4	0.07432166
202	0x3d7b5496	0.061359964
203	0xbd6c625d	-0.057710994
204	0x3c8c0b63	0.017095273
205	0xbd846f92	-0.06466593
206	0x3e0d7388	0.13813603
207	0x3d3e94c1	0.04652858
208	0x3e1a14f4	0.15047055
209	0x3d8e856e	0.069590434
210	0xbdae62ec	-0.085149616
211	0xbd5b7819	-0.05358133
212	0xbce3a4a0	-0.02778846
213	0xbd57ab27	-0.052653458
214	0x3d4c0c82	0.049816616
215	0x3dfe2bc0	0.124106884
216	0xbd859ab2	-0.065236464
217	0xbdae05f7	-0.084972315
218	0x3e4ffa6e	0.20310375
219	0x3ccf3a25	0.02529628
220	0xbd16e593	-0.036840033
221	0x3e09edd0	0.13469625
222	0x3cb6a33e	0.022294637
223	0xbd0a94ac	-0.03383319
224	0x3dfcc6b2	0.123425856
225	0x3e10802f	0.14111398
226	0xbd899514	-0.067178875
227	0x3d9b1f18	0.0757429
228	0x3d31895c	0.043343887
229	0xbccc5efc	-0.024947636
230	0xbc075b5f	-0.008261531
231	0x3d747426	0.05968108
232	0x3d8f1d9b	0.06988069
233	0x3e49ff23	0.19726233
234	0xbcb12b66	-0.02162714
235	0x3c871e29	0.016493874
236	0xbd762323	-0.060092103
237	0x3d3b74f9	0.04576585
238	0x3cdbfb03	0.02685309
239	0xbc2f9edd	-0.010719028
240	0x3ca2c8a7	0.01987107
241	0x3db64296	0.08899419
242	0xbcb3f571	-0.021967622
243	0x3d8c9ee0	0.068662405
244	0xbd70f57d	-0.058827866
245	0xbbd59f0e	-0.006519205
246	0x3b9825ea	0.0046431916
247	0xbcab499d	-0.020909125
248	0x3d6243ab	0.055240314
249	0x3dcc57cb	0.09977683
250	0xbcda4d47	-0.026648177
251	0x3d9f0ad6	0.07765739
252	0xbd3805bd	-0.044927347
253	0x3ba30588	0.0049750246
254	0xbd6ea0ee	-0.058258943
255	0xbd3efdd9	-0.046628807

node_layers.mlp_0.weight f4 [64, 121]
0	0x3da19af8	0.07890886
1	0xbc67fc28	-0.01415924
2	0xbd6c239c	-0.057651147
3	0x3bf639d0	0.007514216
4	0x3d6a644b	0.057224553
5	0xbd6c2748	-0.05765465
6	0xbd4f4b76	-0.050609075
7	0xbd895122	-0.06704928
8	0x3be75446	0.0070596067
9	0x3d05e3b9	0.032687876
10	0x3cbabf8a	0.022796411
11	0xbda1f514	-0.07908073
12	0xbc2c6057	-0.010521016
13	0x3c197532	0.00936632
14	0xbb074a9a	-0.0020643831
15	0xbdac1e36	-0.084042
16	0x3dbf4fef	0.09341418
17	0xbd4429c1	-0.047891382
18	0x3cdbe5a3	0.026842898
19	0x3c972f5f	0.018455205
20	0x3d04bb41	0.03240514
21	0x3d4777e6	0.04869833
22	0xbd1da84d	-0.038490582
23	0x3d17362e	0.036916904
24	0x3d98b10b	0.07455643
25	0x3dab03c2	0.08350326
26	0xbd2f6f7e	-0.042830937
27	0xbc328bcb	-0.010897587
28	0xbda625a4	-0.08112648
29	0x3d37188e	0.04470115
30	0x3ceb514d	0.02872529
31	0x3c1e8dda	0.009677375
32	0x3d2d3e21	0.04229558
33	0x3d87a1a7	0.066226296
34	0xbc59610c	-0.013267767
35	0x3c247074	0.010036577
36	0xbd1871ad	-0.037217785
37	0x3d8ce325	0.06879262
38	0xbd81a211	-0.0632974
39	0xbcdd3e06	-0.027007114
40	0xbd16755f	-0.036733028
41	0xbd8a9dc1	-0.067683704
42	0x3d70d0ac	0.058792755
43	0xbb965d9c	-0.004588796
44	0xbd8ece92	-0.06972994
45	0xbd4a3f97	-0.04937705
46	0xbdd4cc14	-0.10390487
47	0x3dcc1573	0.099650286
48	0x3d7d04a9	0.061772022
49	0xbcb49e01	-0.022047998
50	0xbd9d835b	-0.0769107
51	0xbbc15656	-0.0059001846
52	0x3da0be95	0.07848851
53	0x3c2b3611	0.010449902
54	0x3d254a1f	0.04035389
55	0x3dbaae9c	0.09115335
56	0x3ca66863	0.020313447
57	0xbcd39dab	-0.025832018
58	0xbd2e1b56	-0.04250654
59	0xbd939b67	-0.07207375
60	0xbd889c7c	-0.06670472
61	0x3d028262	0.031862624
62	0xbdc0a53c	-0.09406516
63	0xbda073c5	-0.07834581
64	0xbbaf68f7	-0.005353089
65	0xbccac4b7	-0.024752004
66	0xbc845089	-0.016151683
67	0x3ccb11b6	0.024788719
68	0x3da1ec20	0.079063654
69	0xbc1b92da	-0.009495461
70	0xbd5d7748	-0.054068834
71	0x3d885b72	0.06658067
72	0x3cddd08e	0.027076986
73	0xbd989481	-0.074502
74	0x3d4df6df	0.050284263
75	0x3d221719	0.03957281
76	0xbb922f74	-0.0044612233
77	0x3d9ad812	0.075607434
78	0x3be14c6e	0.006875566
79	0x3d7214d1	0.059101883
80	0x3de20a3a	0.11037107
81	0x3d3cf593	0.046132635
82	0xbc5e431d	-0.013565806
83	0xbd9110d7	-0.0708329
84	0x3d943ebe	0.072385296
85	0xbd3318e2	-0.043724902
86	0x3d9398a8	0.07206851
87	0x3b91b701	0.0044468646
88	0xbd551412	-0.052021094
89	0x3cdcf5be	0.026972648
90	0x3d704bcc	0.058666036
91	0x3d8eb588	0.06968218
92	0x3d901e29	0.070370026
93	0xbd17ddb6	-0.037076674
94	0x3d8e30f1	0.069429286
95	0x3be7d47a	0.0070748897
96	0xbdbd4cb1	-0.09243143
97	0xbd21ac10	-0.039470732
98	0x3d85dad2	0.06535877
99	0x3d92f318	0.07175273
100	0xbde46c3e	-0.11153458
101	0xbaa772fa	-0.0012775355
102	0xbd880063	-0.06640699
103	0xbcee40d6	-0.02908365
104	0x3dbfdcfc	0.09368321
105	0x3ddafd6f	0.1069287
106	0xbb1f8989	-0.0024343452
107	0xbc6510f2	-0.013981091
108	0x3d7b8b9b	0.061412435
109	0xbd1d2142	-0.038361795
110	0x3d9ab588	0.075541556
111	0x3d31c191	0.04339749
112	0xba8de71c	-0.0010826322
113	0x3d0383b0	0.03210801
114	0x3cba3b56	0.022733372
115	0x3d1d7337	0.038439956
116	0x3c84175e	0.016124424
117	0xbd945f85	-0.072447814
118	0x3d35bd08	0.044369727
119	0xbd862645	-0.06550268
120	0xbd98d219	-0.07461948
121	0x3cc38e53	0.023871576
122	0xbd0d3824	-0.034477368
123	0xbc0a683a	-0.008447701
124	0x3d9da2e5	0.07697085
125	0x3d6da94f	0.058022793
126	0xbd2fb1f6	-0.042894326
127	0x3be71659	0.0070522246
128	0xbdd6345e	-0.10459207
129	0x3d6a497d	0.05719899
130	0xbd606ca2	-0.0547911
131	0x3c24a865	0.010049914
132	0xbd6b1284	-0.057390705
133	0xbc45e509	-0.012078532
134	0xbc9f5594	-0.019449987
135	0xbce1d9df	-0.02756971
136	0x3cc001ad	0.0234383
137	0x3db70353	0.08936181
138	0x3d5cc36d	0.05389731
139	0x3d198543	0.037480604
140	0x3d56d32c	0.052447483
141	0xbda87976	-0.08226292
142	0xbd8438f8	-0.064561784
143	0xbd15d22d	-0.036577392
144	0x3cb29aec	0.021802388
145	0xbcc19a39	-0.02363311
146	0x3b0d4979	0.0021558686
147	0x3d2ff223	0.04295553
148	0xbd92dcc9	-0.07171018
149	0xbdc3e07a	-0.095643
150	0x3cb2551e	0.021769103
151	0x3d5685d6	0.05237373
152	0xbb38398e	-0.0028110477
153	0xbd7ee715	-0.062232096
154	0xbd06e490	-0.032932818
155	0xbd6c4d6b	-0.05769102
156	0xbdab32c3	-0.083592914
157	0xbdaf5f40	-0.08563089
158	0x3d858187	0.06518846
159	0x3c5566cd	0.013024998
160	0xbc163e82	-0.009170176
161	0xbd7bae0a	-0.061445273
162	0xbdf047a8	-0.11732417
163	0xbdf1df03	-0.11810114
164	0xbdc3334b	-0.09531268
165	0x3d9af65d	0.07566521
166	0x3c8664b7	0.016405446
167	0xbb7b4e61	-0.0038346278
168	0xbd86f916	-0.06590478
169	0x3b24156d	0.0025037185
170	0xbdbbc689	-0.09168727
171	0xbd75a295	-0.059969503
172	0x3d97cf76	0.07412617
173	0xbd512e4f	-0.051069554
174	0xbb80f1eb	-0.003935089
175	0x3c42ecbd	0.011897263
176	0x3d654eb2	0.055983253
177	0xbe0c792a	-0.13718095
178	0x3cd1b7d2	0.025600348
179	0xbdaaa411	-0.083320744
180	0xbd65cab4	-0.056101516
181	0xbdf112c8	-0.1177116
182	0x3c5b18dc	0.013372626
183	0x3d119506	0.03554251
184	0xbcf29687	-0.029612793
185	0xbd19ce1c	-0.037550077
186	0x3dd21b04	0.10259059
187	0x3b3fa924	0.0029245103
188	0xbce511f6	-0.027962666
189	0x3d9f39c6	0.07774691
190	0xbc8ada1e	-0.01694971
191	0x3d6913b1	0.056903545
192	0xbd82ba7e	-0.06383227
193	0xbd750316	-0.059817396
194	0x3d19701e	0.03746044
195	0x3c907db0	0.017638057
196	0x3d23b9d8	0.039972156
197	0xbd7ea5c3	-0.0621698
198	0xbe11f46c	-0.14253396
199	0xbde20173	-0.11035433
200	0xbd9f688b	-0.07783612
201	0xbe073c5d	-0.1320662
202	0x3d338a6e	0.04383319
203	0x3cf0c511	0.029390844
204	0x3d1523a6	0.03641095
205	0x3d5394cd	0.05165558
206	0xbd3a1965	-0.045434374
207	0x3dcf7ef9	0.1013164
208	0xbdb8141b	-0.0898821
209	0x3d049c2c	0.0323755
210	0xbc996510	-0.018724948
211	0xbd852e2e	-0.06502949
212	0xbd37d5fd	-0.04488181
213	0xbc7d1f37	-0.015449337
214	0xbdaff987	-0.085925154
215	0x3e134183	0.1438046
216	0xbdc93056	-0.098236725
217	0x3d7f87d8	0.06238541
218	0x3d355b23	0.044276368
219	0x3d0cd15c	0.03437935
220	0xbd4c204e	-0.049835496
221	0x3d0e917d	0.034806717
222	0xbc7f3b5f	-0.01557812
223	0x3aacc441	0.0013181047
224	0xbd442043	-0.04788233
225	0x3d9fcae5	0.07802371
226	0x3d5e0139	0.054200385
227	0xbd75ed9f	-0.060041066
228	0x3d65f2a2	0.056139596
229	0xbc048a49	-0.00808961
230	0xbd2ffdf0	-0.042966783
231	0xbda97045	-0.08273367
232	0x3db6a014	0.08917251
233	0xb91d3223	-0.00014991364
234	0xbc75a5ec	-0.014993172
235	0xbdcd7bb6	-0.100333616
236	0x3d49db0a	0.049281158
237	0x3d989d48	0.07451874
238	0x3d321542	0.043477304
239	0x3d5ae250	0.053438485
240	0x3dada068	0.08477861
241	0x3c16c1a1	0.009201438
242	0x3cdeacc7	0.027181996
243	0xbca98f1b	-0.02069812
244	0x3d70bd78	0.05877444
245	0xbdb70021	-0.089355715
246	0xbd89fc25	-0.06737546
247	0xbd719b25	-0.058985848
248	0xbd739a7e	-0.059473507
249	0xbc4caa92	-0.012491839
250	0x3d60af67	0.054854777
251	0xbd9bfb5e	-0.07616304
252	0xb9b5838d	-0.00034621023
253	0xbdc8d3c0	-0.09806013
254	0xbce4127d	-0.027840847
255	0xbcaeb7b5	-0.021327833

node_layers.mlp_0.bias f4 [64]
0	0x3af57f67	0.0018729985
1	0x3d2be9c5	0.041970987
2	0x3d2789ad	0.040902782
3	0xbd460a06	-0.048349403
4	0xbd90c51f	-0.07068848
5	0x3c938d49	0.018011706
6	0x3d4c087c	0.04981278
7	0xbda28608	-0.07935721
8	0xbc0ddae1	-0.008658142
9	0x3ce6e683	0.028186088
10	0xbd903f9e	-0.07043384
11	0x3db64d46	0.089014575
12	0x3cf3d0c9	0.029762642
13	0x3ced9d43	0.029005652
14	0xbb70ad5c	-0.0036724424
15	0x3da7158d	0.08158407
16	0x3ccd4237	0.025055988
17	0xbd8423a5	-0.06452111
18	0x3d9bbb4c	0.076040834
19	0x3da2e450	0.079537034
20	0xbdaf3d78	-0.08556646
21	0x3cf7a9a9	0.030232267
22	0x3bf250c8	0.007394884
23	0x3ca919e6	0.020642232
24	0x3cd32831	0.025776
25	0x3d0b8d79	0.034070466
26	0x3d9754c9	0.07389218
27	0xbd93a950	-0.07210028
28	0x3c78e6c0	0.015191734
29	0xbd751db5	-0.059842784
30	0x3d426dab	0.04746787
31	0xbd8ec808	-0.06971747
32	0xbd8ffa0e	-0.07030116
33	0xbd5f4ad5	-0.054514725
34	0x3da44f2f	0.080229156
35	0x3d400a42	0.046884783
36	0x3d8cd5b1	0.06876696
37	0xbc50a57b	-0.012734766
38	0x3dc4f1f9	0.09616465
39	0x3a7bd68c	0.000960686
40	0xbcc83996	-0.024441522
41	0xbd81e648	-0.06342751
42	0x3d4d314a	0.050095834
43	0xbccd6885	-0.025074253
44	0x3d58e177	0.052949395
45	0xbd8cb0af	-0.06869637
46	0xbc8318ec	-0.016003095
47	0x3d45072a	0.048102535
48	0x3da694a3	0.08133819
49	0x3d6cd917	0.05782422
50	0xbd980de3	-0.07424524
51	0xbd698fd2	-0.057021923
52	0x3d7599d8	0.05996117
53	0xbd8aa682	-0.0677004
54	0xbc6769aa	-0.014124313
55	0x3d21c4a6	0.03949418
56	0x3d06325a	0.032762863
57	0xba32a767	-0.0006815106
58	0xbd277c60	-0.040890098
59	0x3dc04752	0.09388603
60	0xbc99966a	-0.01874848
61	0x3d9c6370	0.07636154
62	0xbdb7b033	-0.08969154
63	0xbd9e4683	-0.07728293

edge_layers.mlp_0.weight f4 [64, 121]
0	0xbd0577e7	-0.03258505
1	0xbdc2ee27	-0.0951808
2	0x3daf32b2	0.08554591
3	0xbd67c325	-0.05658259
4	0xbd5eff82	-0.05444289
5	0xbce702bb	-0.028199544
6	0xbcc89428	-0.024484709
7	0xbd34f157	-0.044175472
8	0x3db66dc1	0.08907653
9	0x3c3a34fd	0.011365172
10	0x3d8a920c	0.067661375
11	0xbaf49602	-0.0018660428
12	0x3d792975	0.060830552
13	0xbc6a8ef8	-0.014316313
14	0x3d767ca8	0.060177475
15	0xbc4dac8b	-0.0125533445
16	0xbc70cb47	-0.014696903
17	0xbdbf11de	-0.0932958
18	0x3ce3888d	0.027775073
19	0x3d43062d	0.04761331
20	0x3d8816a4	0.06644943
21	0xbd93677e	-0.07197474
22	0x3d86fed2	0.06591572
23	0x3d07be71	0.033140603
24	0x3a909103	0.0011029545
25	0xbd82de1c	-0.0639002
26	0xbd1de97f	-0.038552757
27	0xba8dbb70	-0.0010813307
28	0xbd8b34e2	-0.06797196
29	0x3cb8fbe8	0.022581056
30	0x3d467f49	0.048461232
31	0xbda28514	-0.07935539
32	0x3d9054ca	0.07047422
33	0x3d00bedf	0.03143203
34	0xbd6bf4e3	-0.05760659
35	0xbd2d97b3	-0.042381
36	0x3d7c8a82	0.06165553
37	0x3dc239df	0.09483694
38	0xbc20d406	-0.009816175
39	0xbb9e8aa1	-0.004838303
40	0x3d092e6d	0.03349154
41	0x3d67a19b	0.056550603
42	0x3d75e56b	0.060033243
43	0x3d281738	0.041037768
44	0x3dc2fe90	0.0952121
45	0xbd9e2430	-0.07721746
46	0x3d52c4e0	0.051457286
47	0xbca68e42	-0.020331506
48	0xbce2f2e4	-0.02770371
49	0xbd6df7d7	-0.058097687
50	0x3d259cd2	0.04043276
51	0xbcadec3a	-0.021230806
52	0xbd7dad47	-0.06193283
53	0x3cf20cdf	0.029547153
54	0xbda5bc06	-0.08092503
55	0x3d4b088c	0.049568698
56	0xbd6acaaf	-0.0573222
57	0x3d0be78c	0.034156367
58	0xbd1332ae	-0.035937004
59	0x3c129e31	0.008948849
60	0xbda59fd8	-0.080871284
61	0xbc80e1ed	-0.01573273
62	0xbd304af1	-0.04304022
63	0xbd607a73	-0.054804277
64	0xbd6f3af0	-0.058405817
65	0xbd8ca01e	-0.068664774
66	0x3cfa76ce	0.030574229
67	0xbcb87818	-0.022518203
68	0x3d5f8d95	0.054578383
69	0x3d38bee5	0.045103926
70	0xbd07c791	-0.033149306
71	0x3b479610	0.0030454434
72	0x3c532736	0.012887767
73	0x3d9ba837	0.07600444
74	0xbcc7dfd2	-0.024398718
75	0xbd07a25c	-0.033113822
76	0xbd37d734	-0.044882968
77	0x3d25f847	0.04051998
78	0xbc922728	-0.017840937
79	0xbd4aa280	-0.04947138
80	0xbd8887bc	-0.06666514
81	0x3cc1fd83	0.023680454
82	0xbbce6375	-0.0062984773
83	0x3cbfc289	0.023408191
84	0x3cde7829	0.027156906
85	0x3ca93df2	0.02065942
86	0x3d8c26d7	0.068433456
87	0xbd2f134a	-0.042743005
88	0xbbf15e79	-0.0073659983
89	0x3ce8349d	0.0283454
90	0x3d6710ea	0.056412615
91	0x3d3ddaa3	0.046351086
92	0xbc46d02d	-0.012134594
93	0xbc120509	-0.008912333
94	0x3dbcce94	0.09219089
95	0xbd6f682d	-0.05844896
96	0xbd74df65	-0.059783358
97	0xbdaf5c73	-0.08562555
98	0x3d8e6d85	0.06954483
99	0xbada7599	-0.0016667127
100	0x3d3bac42	0.045818575
101	0x3d57096c	0.05249922
102	0x3d2b0b27	0.041758683
103	0xbd07b6cf	-0.033133324
104	0x3d215ac1	0.03939319
105	0xbdd57feb	-0.10424789
106	0x3dc7633e	0.09735726
107	0xb9b51f23	-0.0003454621
108	0xbde485f9	-0.11158366
109	0x3d16075b	0.03662811
110	0x3b4b366b	0.0031007777
111	0xbd66ef19	-0.056380365
112	0xbd25c61a	-0.040472127
113	0xbbf6cfd0	-0.0075320974
114	0xbcac7462	-0.02105159
115	0xbdbe1983	-0.0928221
116	0xbd7567ae	-0.05991333
117	0x3d47b63b	0.048757773
118	0x3db93129	0.0904258
119	0x3d85b8b2	0.065293685
120	0x3c9f29f5	0.019429186
121	0xbdbe8c60	-0.09304118
122	0x3dad9729	0.08476097
123	0xbd9ecc9c	-0.0775387
124	0x3cd44c76	0.025915366
125	0x3d47eb7d	0.048808564
126	0x3d70a61d	0.058752168
127	0xbc95dba1	-0.018293204
128	0x3d416512	0.04721553
129	0x3d39bfdb	0.045348983
130	0xbd846ceb	-0.06466087
131	0x3c9f6da9	0.01946147
132	0x3d76732e	0.060168438
133	0x3d1adfb2	0.03781099
134	0x3bb3d8f1	0.005488508
135	0x3da9ca0d	0.08290491
136	0xbc6c642a	-0.014428178
137	0x3d4445fa	0.047918297
138	0xbda1ddb0	-0.07903612
139	0xba29691e	-0.0006462502
140	0xbd5dc07d	-0.05413865
141	0xbceec590	-0.02914694
142	0xbb581933	-0.0032974004
143	0xbcfe4363	-0.031037992
144	0xbdb015e6	-0.08597927
145	0x3c2b5918	0.010458253
146	0xbd04db9e	-0.032436006
147	0x3d9b0025	0.07568387
148	0xbbbb849c	-0.0057225954
149	0x3a9c44d0	0.0011922363
150	0xbd7268f8	-0.059182137
151	0xbd34435f	-0.044009563
152	0x3d9a9ebc	0.075498074
153	0x3db1d685	0.086834945
154	0x3d6edccf	0.05831605
155	0x3ccddba4	0.025129147
156	0xbd611ee9	-0.05496112
157	0xbc74d5b7	-0.014943532
158	0xbc607d5d	-0.013701764
159	0xbda77640	-0.08176851
160	0x3bf028e8	0.007329095
161	0x39d1e039	0.00040030645
162	0x3d40ed02	0.04710103
163	0xbd1c1909	-0.038109813
164	0xbb82a509	-0.003986959
165	0x3d8beb46	0.06831984
166	0x3cc224f0	0.023699254
167	0x3d484241	0.04889131
168	0xbd2668d2	-0.04062731
169	0x3bcab035	0.0061855563
170	0x3d9480a8	0.07251102
171	0xbb7ed31c	-0.0038883155
172	0x3d36a5d1	0.04459173
173	0x3a7d5983	0.00096645224
174	0x3cc3136e	0.023812976
175	0x3d0659e7	0.03280058
176	0x3dbe2bfa	0.092857316
177	0xbd988464	-0.074471265
178	0x3d6ef45b	0.058338504
179	0x3cf184e0	0.029482305
180	0x3ccde4ae	0.025133457
181	0xbd006580	-0.031346798
182	0x3d0baaff	0.03409862
183	0xbccab375	-0.024743775
184	0xbd95dfce	-0.07318078
185	0xbdfb8c5b	-0.1228263
186	0x3dc734fd	0.097269036
187	0x3d6a8932	0.057259746
188	0x3c3cad27	0.011515892
189	0x3cedbf22	0.029021803
190	0x3d5c105f	0.05372655
191	0xbd0d5e41	-0.034513716
192	0xbd6d943b	-0.05800269
193	0xbdd5a324	-0.10431507
194	0x3da00164	0.07812765
195	0xbca728ab	-0.020405134
196	0xbdf0bb48	-0.11754471
197	0x3db5458f	0.08851158
198	0x3c4d7928	0.012541093
199	0xbc9dafca	-0.019248862
200	0x3dfcc4e2	0.1234224
201	0xbd661786	-0.056174777
202	0x3dab0a06	0.08351521
203	0x3dd2741f	0.102760546
204	0xbba12f8d	-0.0049189986
205	0x3d6ec5a9	0.058293972
206	0x3d854292	0.06506838
207	0xbdd1a258	-0.10236043
208	0xbda64f6a	-0.08120616
209	0xbce9ae86	-0.028525602
210	0x3d60a080	0.054840565
211	0xbc751969	-0.014959672
212	0xbd5d87c4	-0.054084554
213	0xbdb96fb5	-0.090545096
214	0xbbf0d880	-0.0073500276
215	0xbd536279	-0.051607583
216	0xbdd84579	-0.10560126
217	0xbd95e5ab	-0.07319196
218	0x3d8c7ba2	0.068595186
219	0x3da12c48	0.07869774
220	0xbd85e119	-0.065370746
221	0xbd888f2c	-0.06667933
222	0xbd4565c5	-0.048192758
223	0xbd6e6afd	-0.0582075
224	0x3d0a3e23	0.033750664
225	0x3c453320	0.012036115
226	0xbdadefa5	-0.08492974
227	0x3d0d2be2	0.034465678
228	0xbda98ee7	-0.082792096
229	0x3b5d8d55	0.0033806164
230	0x3d793fe3	0.060851943
231	0xbd91011c	-0.0708029
232	0xbcb6ca06	-0.02231313
233	0x3d663336	0.056201182
234	0x3def45f0	0.116832614
235	0xbcff6966	-0.031178188
236	0x3ccba5cd	0.024859333
237	0x3cdc04f1	0.026857825
238	0xbdb087b5	-0.08619634
239	0xbca8b33d	-0.02059328
240	0x3d0b24ed	0.033970762
241	0xbc156f0a	-0.009120712
242	0xbda7e2c9	-0.08197553
243	0x3cb8cff6	0.022560101
244	0x3d6735cb	0.056447785
245	0xbda5bca0	-0.08092618
246	0x3d2297f8	0.03969571
247	0xbd28a7b1	-0.041175548
248	0xbdb96926	-0.090532586
249	0xbc0b6b46	-0.008509463
250	0x3d8ee1d4	0.06976667
251	0xbd450ff3	-0.048110913
252	0x3b685254	0.0035449462
253	0xbd8408c9	-0.06446988
254	0x3dbaf47c	0.09128663
255	0x3cafcf99	0.021461295

edge_layers.mlp_0.bias f4 [64]
0	0x3d62f6be	0.055411093
1	0xbc6c2935	-0.014414121
2	0xbd3f8dd6	-0.046766125
3	0x3dd261e4	0.102725774
4	0xbd84e25a	-0.06488486
5	0x3d2c9e90	0.042143404
6	0xbd969fe1	-0.07354713
7	0xbc0ab9ce	-0.008467151
8	0x3d0aa439	0.03384802
9	0xbd2578c9	-0.040398393
10	0x3cbdb744	0.023158677
11	0x3cc5d2a3	0.024148291
12	0xbcb18e7f	-0.021674393
13	0xbdabab52	-0.08382286
14	0xbd881f3a	-0.06646581
15	0xbd9e5bbc	-0.07732341
16	0x3da3a5f7	0.0799064
17	0x3da99dfc	0.08282086
18	0x3d839ef4	0.06426802
19	0x3d8ebfff	0.06970214
20	0x3d9a378f	0.07530128
21	0x3ca2c3c0	0.019868731
22	0x3cbc13ff	0.022958754
23	0x3d148821	0.036262635
24	0xbd8ca596	-0.068675205
25	0xbcaa22e0	-0.020768583
26	0x3d905956	0.070482895
27	0xbd45a45d	-0.048252452
28	0x3da863e0	0.08222175
29	0xbd5246ee	-0.051337175
30	0xbbd3df4e	-0.006465829
31	0xbd3519c2	-0.044214018
32	0x3d8a115c	0.06741592
33	0x3d336d1e	0.043805234
34	0x3d85f5af	0.06541001
35	0xbce14eb5	-0.02750335
36	0xba9f41b0	-0.0012150314
37	0xbd4ba73e	-0.04972004
38	0xbcd45268	-0.0259182
39	0x3d67757e	0.056508534
40	0x3cb94667	0.022616578
41	0xbc814533	-0.015780067
42	0x3c3bd5a1	0.011464507
43	0xbca4bd2b	-0.020109734
44	0x3d56d850	0.052452385
45	0xbcfc13a1	-0.030771079
46	0x3db539c7	0.08848911
47	0xbaf1e709	-0.0018455695
48	0x3d20ae88	0.039228946
49	0x3dbbd975	0.09172336
50	0x3db85be0	0.09001899
51	0xbc9c3a39	-0.019070731
52	0x3ce1635c	0.027513199
53	0x3d41b406	0.047290824
54	0x3d649664	0.055807486
55	0x3d9cf006	0.07662968
56	0xbd1988d6	-0.037484013
57	0x3cf4132b	0.029794296
58	0xbda00f3a	-0.07815404
59	0xbd0faf17	-0.035079088
60	0xbc326269	-0.010887721
61	0x3dafbbf7	0.08580773
62	0xbd7746cc	-0.06037025
63	0xbd573c4a	-0.05254773

gnn_layer_0.classifier.weight f4 [1, 64]
0	0x3e659abb	0.22422306
1	0xbdaca4bb	-0.08429857
2	0xbc7c00a0	-0.015381008
3	0xbe161b6f	-0.14658903
4	0x3d9e2216	0.07721345
5	0x3c85b928	0.016323641
6	0x3b1921f0	0.0023366176
7	0xbde891c6	-0.11355929
8	0x3dcb3d64	0.09923819
9	0x3cfdad28	0.030966356
10	0x3e369edb	0.17834036
11	0x3bc17eb0	0.005904995
12	0xbdebcd98	-0.11513823
13	0x3d68041c	0.056644544
14	0xbdfeddc2	-0.12444641
15	0xbe106477	-0.14100824
16	0x3e3781b7	0.17920576
17	0xbc9a664c	-0.018847607
18	0xbdfede18	-0.12444705
19	0x3dcf1b25	0.10112599
20	0xb98464c8	-0.0002525209
21	0xbd0967d8	-0.0335463
22	0x3d5a886c	0.05335276
23	0xbd6a3f78	-0.057189435
24	0x3daefd80	0.08544445
25	0x3ca901e6	0.020630788
26	0x3d99e2e2	0.075139776
27	0x3df16212	0.117862836
28	0x3dbccf32	0.09219207
29	0x3e4230f3	0.18963985
30	0xbd1f50ce	-0.03889542
31	0x3df08a30	0.11745107
32	0x3db7a1e6	0.089664266
33	0xbd6534a8	-0.05595842
34	0xbb16edb7	-0.0023029873
35	0xbe050fe8	-0.12994349
36	0x3dd19c5f	0.102349035
37	0xbdd850f9	-0.10562319
38	0x3db09f9e	0.086241946
39	0xbcac8888	-0.021061197
40	0x3e458ba5	0.19291551
41	0xbdc6faad	-0.09715781
42	0x3d85e258	0.06537312
43	0xbce771aa	-0.028252441
44	0x3d8a4272	0.06750955
45	0x3da8dfed	0.082458355
46	0x3daa99fb	0.08330151
47	0xbd22c9a8	-0.039743096
48	0x3c99040e	0.018678691
49	0x3de72ab0	0.11287439
50	0xbd589715	-0.052878458
51	0x3d7b80b7	0.06140205
52	0x3e2b8d31	0.16753079
53	0x3dac39e4	0.08409479
54	0x3d88a7c4	0.06672624
55	0x3dd3d3f7	0.103431635
56	0xbd5ad236	-0.05342313
57	0x3d779b1d	0.060450662
58	0xbc1b1b1b	-0.009466912
59	0x3cad327e	0.02114224
60	0x3d32278d	0.04349475
61	0x3e4aedcb	0.19817273
62	0xbddeea27	-0.10884505
63	0x3e0de4b0	0.13856769

gnn_layer_0.n_func.0.weight f4 [64, 1]
0	0xbe92c0ac	-0.28662622
1	0xbf7d668a	-0.9898459
2	0xbf0d746e	-0.5525578
3	0x3f0db8c5	0.5536006
4	0x3f1884e7	0.5957779
5	0xbf7fb4ae	-0.9988507
6	0x3ee92b5d	0.45540896
7	0xbf42f23c	-0.7615087
8	0x3f79f253	0.9763538
9	0x3f464238	0.7744479
10	0x3f0e5544	0.55598855
11	0xbe934330	-0.28762197
12	0x3f54297f	0.8287582
13	0x3f183632	0.59457695
14	0x3ddcbac0	0.10777807
15	0xbf7beef2	-0.98411477
16	0x3e8c0e5a	0.273547
17	0xbf15e3d6	-0.58550775
18	0x3eeecbbd	0.46639815
19	0x3f5334ff	0.8250274
20	0xbc44e97a	-0.012018556
21	0x3e818c18	0.25302196
22	0x3e92c103	0.2866288
23	0x3f14379f	0.5789737
24	0xbf3e5b64	-0.743582
25	0xbf218698	-0.63096
26	0x3eb3c9f8	0.35115027
27	0x3f18bc8d	0.59662706
28	0x3f7d501b	0.98950356
29	0x3d5da967	0.054116633
30	0xbf39740c	-0.724427
31	0xbf445928	-0.7669854
32	0xbf489b44	-0.78361917
33	0xbd0553e0	-0.032550693
34	0x3e4e8ac3	0.20170121
35	0xbe6e6e60	-0.23284292
36	0xbf4e2abc	-0.8053396
37	0x3d8e7020	0.0695498
38	0xbf0d0e6a	-0.5510012
39	0xbe32c390	-0.17457414
40	0x3f43a776	0.764274
41	0xbf1bf8a6	-0.6092628
42	0xbf2930b0	-0.66089916
43	0x3f19010e	0.59767234
44	0x3f74994f	0.9554643
45	0xbf5972f2	-0.8494102
46	0x3f3bff00	0.73435974
47	0xbe542618	-0.20717657
48	0x3ee12d8d	0.43980065
49	0xbed1d200	-0.4098053
50	0xbd3ed227	-0.046587136
51	0x3f656f4a	0.8962294
52	0xbe647c58	-0.22313058
53	0xbe44d858	-0.19223154
54	0xbcf63740	-0.030055642
55	0x3e27d514	0.16389877
56	0xbf3019d2	-0.687894
57	0x3f3f861e	0.7481402
58	0x3d86f380	0.06589413
59	0x3f3b9686	0.73276556
60	0x3f4c7d88	0.79879045
61	0x3f71fcbd	0.94526273
62	0x3ea4ab2c	0.32161844
63	0x3f147ac5	0.5799983

gnn_layer_0.n_func.0.bias f4 [64]
0	0x3f670e07	0.9025578
1	0xbeac6cb0	-0.33676672
2	0x3ea4cd6c	0.32187974
3	0xbf35a9e8	-0.7096238
4	0xbf1baf00	-0.60813904
5	0x3ebb9fac	0.36645257
6	0xbf05ec2a	-0.5231348
7	0xbe636cf8	-0.22209537
8	0xbdc56b2c	-0.09639582
9	0x3f72cc3d	0.9484289
10	0x3cb26e90	0.021781236
11	0xbe3d3830	-0.18478465
12	0x3eec725b	0.46180996
13	0xbf1e7ce2	-0.61909306
14	0xbf2978b0	-0.6619978
15	0x3d3b4b80	0.0457263
16	0x3f2fb18b	0.68630284
17	0xbebaa524	-0.36454117
18	0x3f3197db	0.6937234
19	0xbe372edf	-0.17888974
20	0x3f5db7a6	0.8660835
21	0xbf4178fe	-0.75575244
22	0xbd6d0887	-0.05786946
23	0x3f7dd66d	0.9915531
24	0x3e1074b8	0.14107025
25	0x3f34d624	0.7063925
26	0xbf56824a	-0.83792555
27	0x3d2d9d00	0.042386055
28	0x3eae34ee	0.34024757
29	0xbd439e27	-0.047758248
30	0x3e92dd20	0.2868433
31	0xbf3c3ab6	-0.73527086
32	0xbb409400	-0.002938509
33	0xbe96de78	-0.29466605
34	0xbf364c1e	-0.71209896
35	0xbf76b7a0	-0.9637394
36	0x3f670e13	0.9025585
37	0xbefa42d4	-0.4887911
38	0x3f2964e8	0.66169596
39	0xbba1f800	-0.004942894
40	0x3f2d7482	0.677559
41	0xbef9df8c	-0.48803365
42	0xbf5f48ec	-0.87220645
43	0xbf55ddea	-0.8354174
44	0xbf433e51	-0.7626696
45	0xbe9a9bcc	-0.3019699
46	0x3f7b012e	0.98048675
47	0xbde817d0	-0.11332667
48	0xbf736243	-0.9507181
49	0x3e619330	0.22028804
50	0x3f28b259	0.65897137
51	0x3dce5f51	0.10076774
52	0xbda9d5c0	-0.08292723
53	0xbe82ac24	-0.25521958
54	0xbee7b624	-0.4525615
55	0x3f1d8169	0.6152559
56	0x3ec79cd4	0.38986838
57	0xbf394ab7	-0.7237963
58	0xbf36619c	-0.7124269
59	0xbe97e86c	-0.2966951
60	0xbea7d129	-0.32776764
61	0x3f7956cf	0.97398084
62	0xbf6a4356	-0.91508996
63	0x3efbc953	0.49177036

gnn_layer_0.n_func.2.weight f4 [64, 64]
0	0x3dde29d8	0.10847825
1	0x3d04d784	0.032432094
2	0x3d5a4ef0	0.053297937
3	0xbdbae77a	-0.09126182
4	0x3d22489f	0.039620038
5	0xbdd58ddc	-0.10427448
6	0x3c22b2a6	0.009930288
7	0x3de88ce6	0.11354999
8	0xbd944198	-0.072390735
9	0x3d19b8c0	0.037529707
10	0x3ce8d6dd	0.028422767
11	0x3c758450	0.014985159
12	0x3da74118	0.081667125
13	0xbc661097	-0.014042041
14	0x3c4023d0	0.011727288
15	0x3da6ec0c	0.08150491
16	0xbdf8925e	-0.12137292
17	0x3df651de	0.12027334
18	0xbdcb51c5	-0.09927706
19	0xbd1a1c54	-0.037624672
20	0xbd49a267	-0.049227145
21	0x3d8a8118	0.06762904
22	0x3db2ba82	0.0872698
23	0xbd0b27c7	-0.03397348
24	0x3d96f7e0	0.07371497
25	0xbe358ff4	-0.17730695
26	0x3dd52dc2	0.10409118
27	0xbd5b0c93	-0.05347879
28	0x3dbf4d91	0.093409665
29	0x3dd42ef6	0.103605196
30	0x3ce866e8	0.028369382
31	0x3da689c6	0.08131747
32	0xbdc3aa52	-0.095539704
33	0x3db0e640	0.08637667
34	0x3dd2ea5f	0.10298609
35	0xbd809c62	-0.06279828
36	0x3cc9b7fe	0.024623867
37	0xbd9d792e	-0.07689129
38	0x3dc86930	0.09785688
39	0xbbcacec0	-0.0061891973
40	0x3dfab0c9	0.1224075
41	0x3dfeaa52	0.1243483
42	0xbdad0bc8	-0.08449513
43	0xbd36ca0f	-0.04462629
44	0xbd8fa229	-0.070133515
45	0x3ca1ff58	0.019775078
46	0xbd8f2c34	-0.06990853
47	0xbd87d618	-0.06632632
48	0x3da6ab69	0.08138163
49	0xbc69ee20	-0.014277965
50	0x3cd8ae38	0.026450261
51	0x3d0c16fe	0.034201615
52	0x3cbbc9e0	0.02292341
53	0x3df49812	0.119430676
54	0xbdd89d04	-0.10576823
55	0xbdc942e8	-0.098272145
56	0x3ddc74aa	0.107644394
57	0xbdf6a486	-0.12043099
58	0x3da07de2	0.0783651
59	0xbd8f1cd5	-0.06987921
60	0x3decf0f6	0.11569397
61	0x3d357c26	0.04430785
62	0x3d8a857b	0.06763741
63	0x3db11b4f	0.08647787
64	0x3d7432d4	0.059618786
65	0x3d2490e4	0.04017724
66	0x3d618904	0.05506231
67	0x3d0ea6c8	0.034827024
68	0xbd81b2cc	-0.06332931
69	0x3c7011e0	0.014652699
70	0x3c8c6958	0.017140076
71	0x3c997a20	0.018734992
72	0x3dddea82	0.108357444
73	0xbdb8eef2	-0.0902995
74	0x3dfcd8fc	0.12346074
75	0xbc38b210	-0.011272922
76	0x3cf6ab60	0.030111015
77	0xbd332600	-0.04373741
78	0xbdd8c3e0	-0.10584235
79	0x3d06ac84	0.032879367
80	0xbbb8b880	-0.0056372285
81	0x3db88698	0.09010047
82	0x3dc5aa7c	0.09651658
83	0x3da74902	0.08168222
84	0xbdaa7560	-0.08323169
85	0xbd86722c	-0.06564745
86	0xbc54ab20	-0.0129802525
87	0xbd8906d6	-0.06690757
88	0xbd44235c	-0.047885284
89	0x3dc58486	0.096444175
90	0x3daba5fe	0.0838127
91	0xbd8c5bb6	-0.0685343
92	0xbd457e84	-0.048216358
93	0x3c924560	0.017855346
94	0xbc984990	-0.018589765
95	0xbc01d560	-0.007924408
96	0x3de37d64	0.11107901
97	0xbdedce20	-0.11611581
98	0x3dcfc3d4	0.10144773
99	0x3d9e38d4	0.07725683
100	0x3cb93608	0.022608772
101	0x3da45b0c	0.08025178
102	0x3dd3bcce	0.10338746
103	0xbdf2dbea	-0.118583515
104	0xbde35aec	-0.11101326
105	0xbd0b974c	-0.034079835
106	0x3d84c236	0.06482355
107	0x3d4b2ba4	0.049602166
108	0x3d8ca554	0.06867471
109	0xbd640134	-0.05566521
110	0xbc9d3730	-0.019191355
111	0x3da67488	0.08127695
112	0x3d90b648	0.070660174
113	0xbc7f3240	-0.015575945
114	0xbdf16e42	-0.11788608
115	0x3c63ac80	0.013896108
116	0x3d553a98	0.052057832
117	0xbdd3ea72	-0.10347451
118	0x3dffcf10	0.12490666
119	0xbdca318a	-0.0987273
120	0xbdec7c5c	-0.11547157
121	0x3dec7a2a	0.115467384
122	0x3daf65ea	0.085643604
123	0xbdba719a	-0.09103699
124	0x3d432588	0.047643214
125	0xbdffd496	-0.124917194
126	0xbde0c47c	-0.109749764
127	0xbcd11698	-0.025523469
128	0x3dcfe634	0.1015133
129	0xbd88ed36	-0.066858694
130	0x3debeb04	0.11519435
131	0x3cc561c8	0.024094477
132	0xbc483da0	-0.012221724
133	0x3de89064	0.11355665
134	0x3db2a3e8	0.08722669
135	0xbd715f34	-0.058928683
136	0xbd9c71dc	-0.076389045
137	0x3d9091f6	0.0705909
138	0xbc95ff00	-0.01831007
139	0xbdf028a2	-0.117265
140	0xbd9eb680	-0.07749653
141	0xbc427b60	-0.011870235
142	0xbda20294	-0.07910648
143	0xbd1bb93c	-0.03801845
144	0x3da5c716	0.08094613
145	0xbda4d3e6	-0.08048229
146	0xbdbd09e2	-0.092304006
147	0xbd68145c	-0.05666004
148	0xbc100390	-0.008789912
149	0x3d5cebe4	0.0539359
150	0x3de8a3be	0.11359356
151	0xbd3a8f04	-0.045546547
152	0xbae72900	-0.001763612
153	0xbde6e45e	-0.11274026
154	0xbd660828	-0.056160122
155	0xbda517a6	-0.08061151
156	0xbdc6e244	-0.097111255
157	0x3c874810	0.016513854
158	0x3db7e4a0	0.08979154
159	0x3d15a160	0.036530852
160	0xbd1ece94	-0.038771227
161	0x3cf01d48	0.029310837
162	0xbc61f3b0	-0.01379101
163	0x3d828e88	0.06374842
164	0xbc202ea0	-0.009776741
165	0xbdcfe71e	-0.10151504
166	0x3c309a60	0.010778993
167	0x3d956422	0.072944894
168	0x3d7f9154	0.062394455
169	0xbc685490	-0.0141803175
170	0xbdf3d60a	-0.11906059
171	0xbdafcab8	-0.085835874
172	0xbd362780	-0.044471264
173	0xbdc997c2	-0.09843399
174	0xbcfb58a8	-0.030681923
175	0x3d88d778	0.066817224
176	0xbdd0106e	-0.10159384
177	0x3c0a04f0	0.008424029
178	0x3d61e01c	0.055145368
179	0xbde128dc	-0.109941214
180	0xbd5f04c0	-0.05444789
181	0x3d8d946a	0.06913073
182	0x3c0fe660	0.008782953
183	0x3dc1084c	0.09425411
184	0xbd18b87c	-0.037285313
185	0xbd0cb724	-0.034354344
186	0x3ce6b6d0	0.028163344
187	0x3d423e3c	0.047422633
188	0x3dd0fce2	0.102044836
189	0xbdb754e6	-0.0895174
190	0xbd6bbfdc	-0.05755602
191	0x3de4243c	0.11139724
192	0xbde81102	-0.11331369
193	0xbc506fe0	-0.012721986
194	0xbd8c0ec0	-0.06838751
195	0x3d285428	0.041095883
196	0xbdb685dc	-0.089122504
197	0x3dd337fe	0.10313414
198	0x3b33d0c0	0.0027437657
199	0x3dcf34e4	0.1011751
200	0x3d5fa11c	0.054597005
201	0x3d9f829c	0.07788584
202	0xbc838290	-0.016053468
203	0xbc08de20	-0.00835374
204	0xbd286114	-0.041108206
205	0xbd78b9e8	-0.06072417
206	0xbdf9ef5c	-0.12203857
207	0xbde2a4ac	-0.11066565
208	0x3d551a00	0.05202675
209	0x3dfc6aa4	0.123250276
210	0xbd15dccc	-0.03658752
211	0xbd9a3dd4	-0.07531324
212	0x3c5711f0	0.013126835
213	0x3dabe59e	0.083934054
214	0x3cd66a98	0.026173875
215	0xbdbdd1b4	-0.09268513
216	0x3d85c16e	0.065310344
217	0xbc5211e0	-0.012821645
218	0x3dda5178	0.1066007
219	0xbc7aeef0	-0.015315756
220	0x3bb6dec0	0.005580753
221	0xbd3ad934	-0.045617297
222	0x3ded8c60	0.1159904
223	0x3d10bbd8	0.03533539
224	0x3cc36c30	0.023855299
225	0xbddd58b6	-0.10807936
226	0x3daaa294	0.083317906
227	0xbd29bf48	-0.041442186
228	0x388c8000	6.699562e-05
229	0x3d7b8d28	0.061413914
230	0x3df0606a	0.117371395
231	0xbd94df76	-0.07269184
232	0xbdd2f286	-0.10300164
233	0x3dc0c2fc	0.0941219
234	0xbd8213da	-0.06351443
235	0xbd9fde28	-0.07806045
236	0xbc38e110	-0.011284128
237	0x3d15574c	0.036460206
238	0xbb98ab20	-0.0046590716
239	0xbc8a3db0	-0.016875118
240	0xbdc0199e	-0.09379886
241	0x3dc145ca	0.09437139
242	0x3d98bf78	0.07458395
243	0x3db3e7a8	0.08784419
244	0xbd979ca8	-0.07402927
245	0xbd2d1c7c	-0.042263493
246	0x3d8f38bc	0.06993243
247	0xbdeaada6	-0.11458902
248	0xbdde519e	-0.10855411
249	0x3d718750	0.058966935
250	0x3c708cb0	0.01468198
251	0xbda4c4d0	-0.080453515
252	0x3d0b85a4	0.034062997
253	0xbd836c8c	-0.06417188
254	0xbcb7bda8	-0.022429302
255	0x3d51a6fc	0.05118464

gnn_layer_0.n_func.2.bias f4 [64]
0	0x3d84f06a	0.06491168
1	0x3d4d434c	0.050113007
2	0xbdf0dff4	-0.11761466
3	0xbde986ea	-0.11402686
4	0xbd389b35	-0.045069892
5	0xbb8dd31c	-0.0043281447
6	0xbcf725a4	-0.030169316
7	0xbd225389	-0.039630447
8	0xbd46c774	-0.048530057
9	0x3d8e8d76	0.06960575
10	0x3de787c7	0.11305194
11	0x3b7964d1	0.0038054476
12	0xbdd4f35c	-0.103979796
13	0xbcd96ad1	-0.026540192
14	0x3d407c78	0.046993703
15	0x3d65aae1	0.056071166
16	0x3cf1c5b8	0.029513225
17	0x3c3380c0	0.010955989
18	0xbdd6a158	-0.10479993
19	0x3d4d01e5	0.050050635
20	0x3dc2dcf2	0.09514798
21	0xbde938ec	-0.1138781
22	0xbd88b9ec	-0.06676087
23	0x3d288076	0.041138135
24	0x3cd976cc	0.026545905
25	0xbdb95da6	-0.09051065
26	0xbd8e268e	-0.069409475
27	0xbd4b96c0	-0.049704313
28	0xbde793c7	-0.11307483
29	0x3de9b3bb	0.11411234
30	0xbd59e020	-0.053192258
31	0xbdb4b012	-0.08822645
32	0x3c959b29	0.018262463
33	0x3d33e394	0.043918207
34	0xbce258a7	-0.027630163
35	0xbd8fa934	-0.07014695
36	0x3dc707af	0.097182624
37	0x3d857538	0.06516498
38	0xbd1f8888	-0.038948566
39	0x3dd5f246	0.104466006
40	0x3dce39fe	0.10069655
41	0xbd4b9e87	-0.04971173
42	0xbc6a7758	-0.01431068
43	0xbdda0798	-0.1064598
44	0xbd92df59	-0.071715064
45	0x3ded1fe9	0.11578352
46	0xbc8b9bfb	-0.01704215
47	0xbdb52016	-0.088440105
48	0x3d78b592	0.060720034
49	0x3d31ada1	0.043378476
50	0x3deec27f	0.11658191
51	0x3b3cb853	0.002879639
52	0xbc84737c	-0.016168348
53	0x3df433cf	0.11923944
54	0xbdd18ded	-0.10232148
55	0xbde0952b	-0.109659515
56	0x3d896578	0.06708807
57	0x3dc905d6	0.09815566
58	0x3d33e033	0.043914985
59	0x3c45dfb1	0.012077258
60	0xbd0d43c7	-0.034488466
61	0xbd2ecba5	-0.04267468
62	0x3d4d5349	0.050128255
63	0x3ceade88	0.028670564

gnn_layer_0.n_self_func.0.weight f4 [64, 1]
0	0xbed6ca88	-0.41951394
1	0xbee72d40	-0.4515171
2	0xbe6d0410	-0.23146081
3	0x3f599efd	0.8500822
4	0xbd9c22d0	-0.076238275
5	0xbb6b8400	-0.0035936832
6	0x3ec3d8d0	0.38251352
7	0xbdd74b27	-0.10512381
8	0xbf54838c	-0.83013225
9	0xbf6b02e8	-0.9180131
10	0xbf200d5c	-0.62520385
11	0x3d88c2b0	0.06677759
12	0xbef5f584	-0.48038876
13	0xbf302676	-0.68808687
14	0x3ebb2b3d	0.36556426
15	0x3f1ca597	0.6119017
16	0xbf0d85b2	-0.5528213
17	0xbe84b45f	-0.25918862
18	0xbda2444b	-0.07923182
19	0xbe12b0c8	-0.14325249
20	0x3df00e70	0.11721504
21	0xbf24c82c	-0.6436794
22	0x3f2a9793	0.66637534
23	0x3f4442d2	0.7666446
24	0x3f3a0325	0.7266105
25	0xbf26b8c0	-0.65125656
26	0xbee2358e	-0.44181484
27	0x3f20e355	0.6284688
28	0xbf0bdab2	-0.5463058
29	0xbf6855ec	-0.90756106
30	0x3f2b2015	0.6684583
31	0xbf281b04	-0.6566622
32	0xbf7d8306	-0.9902805
33	0xbd7ee6e0	-0.0622319
34	0xbe6d4ad8	-0.23173082
35	0xbf49d72a	-0.7884394
36	0x3f5ecb10	0.870286
37	0xbf64c68c	-0.8936546
38	0x3f01899b	0.50600594
39	0x3f711eaf	0.94187444
40	0xbf10c5b2	-0.5655166
41	0xbf6484e2	-0.89265263
42	0x3f2fc3a9	0.6865793
43	0x3f24aaa8	0.643229
44	0x3f01e805	0.5074466
45	0xbf6db1f4	-0.9284966
46	0xbdd08c41	-0.10183001
47	0x3e2a8f9b	0.16656344
48	0xbf491414	-0.7854626
49	0xbeb7e91c	-0.35920036
50	0x3f4f163f	0.8089332
51	0x3f249904	0.64295983
52	0x3e3a776b	0.18209617
53	0x3f6a01d6	0.9140905
54	0xbe0bb38a	-0.13642707
55	0x3df93a38	0.121693075
56	0xbf1b54aa	-0.6067606
57	0xbf729802	-0.94763196
58	0x3f08764c	0.53305507
59	0x3ec7e8b9	0.3904474
60	0xbe8357c4	-0.25652897
61	0x3ea86513	0.32889614
62	0x3f0c14eb	0.5471942
63	0x3e095c3f	0.13414095

gnn_layer_0.n_self_func.0.bias f4 [64]
0	0x3f78c09f	0.97168916
1	0x3e3e9ce0	0.1861453
2	0x3d59ba00	0.0531559
3	0x3f708186	0.9394764
4	0xbdf68cd0	-0.120385766
5	0xbedeb2b8	-0.43495727
6	0x3f3a6981	0.72817236
7	0x3e7e22e2	0.24817994
8	0xbf24847c	-0.64264655
9	0xbe2f75d0	-0.17134786
10	0xbf1fd0b4	-0.6242783
11	0xbefee17c	-0.49781406
12	0x3f615fde	0.88036907
13	0x3ecf0024	0.40429795
14	0x3e05c8f9	0.13064946
15	0x3ecbcd51	0.3980508
16	0xbe65b1c8	-0.224311
17	0x3e972f55	0.295283
18	0x3f10fe8d	0.56638414
19	0xbe878284	-0.26466763
20	0xbf6154bc	-0.8801992
21	0xbdb98f00	-0.09060478
22	0x3e5bbbec	0.21458405
23	0xbef9490c	-0.48688543
24	0x3f373fbd	0.7158163
25	0xbf661ec6	-0.89890707
26	0x3f4e026e	0.8047246
27	0x3eb57036	0.35437173
28	0xbe44f408	-0.19233716
29	0x3e8992dc	0.26869857
30	0xbec4d921	-0.38446906
31	0xbf65efb4	-0.8981888
32	0xbe96a090	-0.29419374
33	0xbf35fc28	-0.71087885
34	0xbe7db180	-0.24774742
35	0xbeb6ea10	-0.3572545
36	0x3f00a88a	0.5025717
37	0xbb1dae00	-0.002406001
38	0x3f0daec8	0.5534482
39	0x3e2be379	0.16785993
40	0xbe10dfe8	-0.14147913
41	0xbf148f02	-0.5803071
42	0xbe7c18c2	-0.2461882
43	0x3f456c22	0.7711812
44	0xbe6bf999	-0.23044433
45	0xbf4bf088	-0.79663897
46	0x3f20431b	0.62602395
47	0xbf09e523	-0.5386526
48	0x3d4136c0	0.047171354
49	0x3e2c2c08	0.16813672
50	0xbf55bf79	-0.8349529
51	0xbe457440	-0.19282627
52	0xbf16a316	-0.588426
53	0x3ee79817	0.45233223
54	0x3e9be4bb	0.30447945
55	0xbcdc2f93	-0.026878154
56	0xbed34af8	-0.41268134
57	0x3f437716	0.76353586
58	0xbd1ea0af	-0.03872746
59	0x3eaeae07	0.34117147
60	0xbf5256bc	-0.82163596
61	0xbe5025e6	-0.20326957
62	0xbf381222	-0.7190267
63	0xbec0af99	-0.3763397
