ThinkMatch/exp/ngm/CV1/saved_models/model.pt (torch, 278195 bytes, 34 tensors)

affinity_layer.lambda1 f4 [64, 64]
0	0x3f046a10	0.5172434
1	0xbb60cf6c	-0.003430332
2	0x3d30d530	0.04317206
3	0x3d038c4a	0.032116212
4	0x3de399ca	0.11113317
5	0xbcac6059	-0.021042036
6	0x3e57ea35	0.21085437
7	0xbd96700d	-0.07345591
8	0xbd88539a	-0.06656571
9	0x3ccabbcf	0.024747757
10	0xbdabf878	-0.08397001
11	0xbd3914c0	-0.045185804
12	0xbd97415b	-0.073855124
13	0xbd119aab	-0.035547893
14	0x3c4398fa	0.011938328
15	0xbcd93cc5	-0.026518235
16	0xbd4da082	-0.0502019
17	0xbdaa2d28	-0.08309394
18	0x3e473bb3	0.19456367
19	0x3e0fbc87	0.14036761
20	0x3ded32e5	0.11581973
21	0x3d05b2c7	0.0326412
22	0x3ca897b3	0.020580148
23	0xbd868828	-0.065689385
24	0x3cba52a9	0.022744494
25	0xbd0e7173	-0.034776162
26	0xbce130fb	-0.027489176
27	0xbd449682	-0.047995098
28	0x3df34077	0.1187753
29	0xbd9e6c76	-0.07735531
30	0x3d01902d	0.031631637
31	0xbd866bea	-0.06563552
32	0xbd8e3d7e	-0.069453225
33	0xbd672449	-0.05643109
34	0x3caee836	0.021350961
35	0x3e0a5dbc	0.1351232
36	0x3d6e7732	0.058219142
37	0x3e0d1cd9	0.13780536
38	0xbc8bbeb2	-0.017058704
39	0xbcb5f39f	-0.022210894
40	0x3d92094b	0.07130679
41	0x3d7e7140	0.062119722
42	0xbd9df90e	-0.07713519
43	0x3d8503c5	0.064948596
44	0x3df14aba	0.11781831
45	0x3dbe9c12	0.09307112
46	0xbd370aba	-0.044687964
47	0x3df759e0	0.12077689
48	0xbd5918ec	-0.053002283
49	0x3dfc8ad7	0.12331169
50	0x3dc4f32a	0.09616692
51	0xbd97027d	-0.073735215
52	0xbd8b8aa3	-0.06813552
53	0xbd168f16	-0.03675755
54	0x3de008c5	0.10939173
55	0xbd5ee658	-0.05441889
56	0xbc277a18	-0.0102219805
57	0xbd2011ff	-0.039079662
58	0xbd767ab2	-0.060175605
59	0x3ddc3e2a	0.10754044
60	0xbd605c95	-0.054775793
61	0xbd9ca15d	-0.07647965
62	0x3dcd70a7	0.10031252
63	0xbb90833b	-0.004410175
64	0xbcf555c1	-0.029948117
65	0x3edf039c	0.4355744
66	0x3de25e08	0.11053091
67	0xbd8ee951	-0.06978095
68	0xbc99daff	-0.018781183
69	0xbd647cec	-0.055783197
70	0x3d55fade	0.0522412
71	0x3cba3eff	0.022735117
72	0xbd812ef2	-0.06307782
73	0xbd5a7795	-0.0533367
74	0xbc03a1b1	-0.008034156
75	0xbd0c88eb	-0.034310263
76	0xbda8fb53	-0.08251061
77	0x3d87d00f	0.06631481
78	0xbc5a305c	-0.013317194
79	0xbd06db13	-0.03292377
80	0xba11e3f7	-0.00055652804
81	0xbc422ade	-0.011851041
82	0xbd82aacc	-0.06380233
83	0xbce1b4b3	-0.027551984
84	0x3de4ac7e	0.11165713
85	0x3c841f3d	0.016128177
86	0x3d3052b4	0.04304762
87	0xbd5f8a76	-0.054575406
88	0xbc21e71c	-0.009881761
89	0x3d1492e2	0.03627289
90	0xbcf416c6	-0.029796015
91	0x3cca25e4	0.02467627
92	0xbd067050	-0.032821953
93	0xbda28245	-0.07935003
94	0x3c8a39d5	0.01687328
95	0xbd8edf91	-0.06976236
96	0xbd102ecc	-0.03520088
97	0x3d6073c6	0.05479791
98	0xbd9091d7	-0.07059067
99	0x3e35bc2f	0.17747568
100	0x3d94d4a9	0.07267124
101	0x3c7c0225	0.015381371
102	0x3a4166fb	0.0007377711
103	0x3d0b98be	0.034081213
104	0xbc98d120	-0.018654406
105	0xbd3ef611	-0.046621386
106	0xbcd4ded1	-0.025985153
107	0xbd878007	-0.06616216
108	0xbd95bcab	-0.07311376
109	0x3dbefb9d	0.09325335
110	0xbd7ffb4b	-0.06249551
111	0x3daf1be9	0.08550245
112	0xbd267bb2	-0.04064531
113	0x3dc9c5c7	0.09852176
114	0x3c60179f	0.013677507
115	0xbd730976	-0.059335195
116	0xbd81c523	-0.06336429
117	0x3cc16327	0.02360685
118	0x3c493507	0.012280709
119	0xbd4906f2	-0.04907889
120	0x3e33f623	0.17574362
121	0xbc976cf7	-0.018484576
122	0xbce5148a	-0.027963895
123	0x3c936b10	0.017995387
124	0x3de7c02c	0.11315951
125	0x3cbed1d1	0.023293408
126	0xbd70985e	-0.05873906
127	0xbd16b7d2	-0.0367964
128	0x3d945798	0.0724327
129	0x3e3937d1	0.18087699
130	0x3ebbc551	0.36673978
131	0x3cc13120	0.023582995
132	0x3dbe8a3d	0.093037106
133	0xbcda8118	-0.026672885
134	0x3d5d09b0	0.053964317
135	0xbd809968	-0.0627926
136	0x3d823444	0.06357625
137	0xbd9c7f54	-0.076414734
138	0x3d51d895	0.05123194
139	0x3b10a809	0.0022072813
140	0x3d01674a	0.031592645
141	0xbdada713	-0.084791325
142	0x3d47afa1	0.048751477
143	0x3e2a5146	0.16632566
144	0xbbe26426	-0.0069089113
145	0xbcac3589	-0.021021621
146	0x3cd4f424	0.025995322
147	0xbd91741f	-0.071022265
148	0xbd89adfc	-0.06722638
149	0xbc28d51b	-0.010304715
150	0xbda529c5	-0.080646075
151	0xbcf2531e	-0.029580649
152	0x3c659f60	0.014015049
153	0x3e42899b	0.18997805
154	0xbd64144b	-0.055683415
155	0x3d098590	0.03357464
156	0x3dda2819	0.10652179
157	0xbdaa6bc9	-0.0832134
158	0xbd34b1e6	-0.04411497
159	0x3b1c5d50	0.002385933
160	0xbd0ac240	-0.033876657
161	0xbbaa8471	-0.0052037765
162	0x3d908d69	0.07058222
163	0x3deddd3d	0.116144635
164	0x3d9dc009	0.077026434
165	0x3d535d48	0.05160263
166	0xbbacf5f4	-0.0052783433
167	0xbd190ee0	-0.0373677
168	0x3cbb04f6	0.022829514
169	0x3c3683d0	0.011139825
170	0x3d8a8054	0.06762758
171	0xbd7ce37b	-0.06174038
172	0x3cdd5d7d	0.027022118
173	0xbd8c172f	-0.068403594
174	0xbdaa29ba	-0.0830874
175	0xbda4b6ad	-0.08042655
176	0x3c567415	0.0130892
177	0x3d454fd9	0.04817185
178	0x3e331770	0.1748941
179	0xbd253b12	-0.040339537
180	0x3bc972d5	0.0061477222
181	0x3d76b23c	0.06022857
182	0x3d61475e	0.0549997
183	0xbd184739	-0.0371773
184	0xbda264ca	-0.0792938
185	0xbd9c2858	-0.076248825
186	0x3caa15a6	0.020762276
187	0x3ce4927d	0.027901882
188	0x3df9f507	0.122049384
189	0xbd51f9ce	-0.051263623
190	0xbd3c1b65	-0.045924563
191	0x3dad1cdc	0.0845277
192	0x3d3172bc	0.04332231
193	0xbdaeff59	-0.085447975
194	0xbcde73e2	-0.027154867
195	0x3f09713b	0.536884
196	0x3cf7eebf	0.03026521
197	0x3d6f0abb	0.058359843
198	0xbd7dfc3c	-0.062008128
199	0xbd51b89b	-0.051201444
200	0x3da64739	0.081190534
201	0xbc3d9065	-0.011570071
202	0x3d48fafd	0.049067486
203	0xbd9de5c8	-0.07709843
204	0xbbf15e54	-0.007365981
205	0xbd4b4737	-0.049628463
206	0x3d017b1c	0.031611547
207	0x3d92866a	0.07154544
208	0xbce6e226	-0.028184008
209	0xbca918ca	-0.020641703
210	0x3cb5b65f	0.022181688
211	0xbd44f1a7	-0.04808202
212	0x3dbbab7f	0.0916357
213	0x3d844255	0.06457964
214	0xbd847bbf	-0.06468915
215	0xbcc4028d	-0.023926998
216	0xbd0d7aa3	-0.034540784
217	0xbd4c336e	-0.049853735
218	0x3cc30e33	0.023810482
219	0xbc83312a	-0.016014654
220	0xbd317486	-0.043324016
221	0xbca4377f	-0.020045994
222	0xbb8b10fd	-0.0042439685
223	0xbdb13cd3	-0.086541794
224	0xbd7ff9b5	-0.062494
225	0x3bf02f5a	0.0073298635
226	0xbb81d276	-0.0039618565
227	0xbcad4b17	-0.02115397
228	0x3b85a443	0.0040784194
229	0x3c3ca9c7	0.011515087
230	0xbcbf391d	-0.023342663
231	0x3d8cb0e0	0.06869674
232	0x3db235f5	0.08701698
233	0x3df34e2b	0.11880144
234	0x3d18da52	0.03731758
235	0xbd204e43	-0.039137136
236	0xbd2e4ad6	-0.042551838
237	0x3d03faf1	0.03222174
238	0x3dbd61e3	0.09247186
239	0xbd2258b0	-0.03963536
240	0x3dc2b4c3	0.09507134
241	0x3def5f5b	0.116881095
242	0x3dbafa36	0.09129755
243	0xbd0bfad1	-0.034174744
244	0xbd85fdf8	-0.06542581
245	0xbd62ddce	-0.05538731
246	0x3c15748c	0.009122025
247	0xbcb3698e	-0.021900918
248	0x3d82d7df	0.063888304
249	0x3ca4b037	0.020103557
250	0x3d99d071	0.0751046
251	0x3dbc773a	0.09202428
252	0xbdb31c70	-0.087456584
253	0xbcc5a095	-0.024124423
254	0x3d9607ee	0.07325731
255	0x3cabf843	0.020992404

affinity_layer.lambda2 f4 [64, 64]
0	0x3f0c1a48	0.547276
1	0x3d94e70b	0.072706304
2	0x3c580683	0.013185146
3	0x3da461bd	0.080264546
4	0xbca5d780	-0.02024436
5	0x3e049436	0.12947163
6	0xbd162878	-0.036659688
7	0xbd040176	-0.032227956
8	0x3db1bafe	0.08678244
9	0xbd8556a0	-0.06510663
10	0xbda14a40	-0.0787549
11	0xbccf9599	-0.025339888
12	0xbd7c2542	-0.06155897
13	0x3c1e2edb	0.009654726
14	0x3b91a974	0.004445249
15	0xbd644066	-0.055725478
16	0xbd5cc8c7	-0.053902414
17	0x3b4480a2	0.0029983898
18	0xbcc55b66	-0.024091434
19	0xbcca69e4	-0.024708696
20	0xbd955638	-0.072918355
21	0x3dd4b91f	0.103868715
22	0xbda5a7c4	-0.080886394
23	0xbc381242	-0.011234822
24	0xbd61f1cf	-0.055162247
25	0xbccbd9b2	-0.024884079
26	0x3cd6814b	0.026184699
27	0xbd1345e5	-0.03595533
28	0xbd37cbd6	-0.044872127
29	0xbd867b11	-0.06566442
30	0x3d8554cb	0.065103136
31	0x3e20b31d	0.15693326
32	0xbcb4eeeb	-0.022086581
33	0xbd034ef9	-0.032057736
34	0x3d1a0db3	0.03761072
35	0xbd23e0ef	-0.040009435
36	0x3c655cff	0.013999223
37	0xbca6a689	-0.020343082
38	0xbd95b9be	-0.07310818
39	0xbce7f8d6	-0.028316896
40	0xbd8162f5	-0.06317703
41	0x3c709b52	0.014685469
42	0x3cb42e64	0.021994777
43	0xbced9a5d	-0.02900427
44	0xbd491d4b	-0.0491002
45	0xbc131bab	-0.0089787645
46	0x3d7879d3	0.060663056
47	0xbcc62876	-0.024189215
48	0x3d5ad479	0.053425286
49	0xbd6db4b7	-0.05803367
50	0xbd6ca60c	-0.057775542
51	0xbc64a90b	-0.013956319
52	0xbb0eb39c	-0.0021774536
53	0xbc4bff54	-0.012451012
54	0x3df08a20	0.11745095
55	0xbd732a99	-0.059366796
56	0x3cfd98b8	0.030956611
57	0x3e02d842	0.12777808
58	0xbd363288	-0.044481784
59	0xbd1623df	-0.036655303
60	0xbd4f1420	-0.050556302
61	0x3d446c9b	0.047955137
62	0x3d29d71c	0.04146491
63	0xbc674229	-0.014114895
64	0xbd95387b	-0.072861634
65	0x3f1f8876	0.623176
66	0x3d9aac6c	0.07552418
67	0xbceaa64a	-0.028643746
68	0xbd0aae81	-0.033857826
69	0x3dba2903	0.090898536
70	0x3ce5135e	0.027963337
71	0xbda6ead4	-0.08150259
72	0x3d5b876a	0.053595938
73	0x3e070b28	0.1318785
74	0x3db0260f	0.08601009
75	0x3b28424e	0.0025674286
76	0x3d975a3a	0.07390256
77	0xbd6c22b2	-0.057650276
78	0xbd050fd6	-0.032485805
79	0xbcdf5f70	-0.027267188
80	0xbd72b149	-0.059251104
81	0xbd9fc80f	-0.0780183
82	0x3ca37058	0.01995103
83	0xbda0d46d	-0.07853017
84	0xbaa76077	-0.0012769838
85	0xbc103408	-0.008801468
86	0xbbb4be98	-0.0055158846
87	0xbd57cf13	-0.052687716
88	0x3d8591f1	0.06521977
89	0xbda571b2	-0.08078326
90	0x3cffd605	0.031229982
91	0xbce4e91f	-0.027943192
92	0xbce6cade	-0.028172906
93	0xbd220786	-0.039557956
94	0x3c821b1c	0.015882067
95	0x3dcffb6b	0.10155376
96	0xbdb4d313	-0.08829322
97	0xbcd52450	-0.026018292
98	0x3c2e3c62	0.010634514
99	0xbdac1e1e	-0.08404182
100	0x3d426545	0.04745986
101	0xbd935a14	-0.071949154
102	0xbd4d0d11	-0.05006129
103	0x3d99960f	0.074993245
104	0xbd793757	-0.06084379
105	0xbb54cf3d	-0.0032472156
106	0x3cd92943	0.026508933
107	0x3dc084e3	0.09400346
108	0xbc67c08e	-0.01414503
109	0xbda233d4	-0.07920042
110	0xbcfc2071	-0.030777188
111	0xbd8cb7bc	-0.06870982
112	0x3d8496ba	0.06474061
113	0x3dc1464d	0.09437237
114	0xbbaa37d3	-0.005194643
115	0xbd98d379	-0.0746221
116	0x3d5840c2	0.052796133
117	0xbd063ca3	-0.03277267
118	0xbd46100d	-0.04835515
119	0x3d50b480	0.05095339
120	0xbbad8489	-0.0052953404
121	0x3d88dd36	0.06682818
122	0xbd91dfa7	-0.071227364
123	0xbd4c7780	-0.04991865
124	0x3c894d4e	0.016760495
125	0x3d9d1abc	0.07671115
126	0xbd2b1267	-0.041765597
127	0xbd120f30	-0.035659015
128	0xbccdea04	-0.025136001
129	0xbd9c0048	-0.07617241
130	0x3f00e324	0.5034659
131	0xbd5fb3e8	-0.05461493
132	0x3d32ef04	0.043684974
133	0xbd261375	-0.0405459
134	0xbd908f52	-0.07058586
135	0xbd00cdba	-0.031446196
136	0xbd1bb002	-0.03800965
137	0x3e0a807d	0.13525577
138	0x3df75b9e	0.120780215
139	0xbc687eae	-0.014190359
140	0x3db8952c	0.09012827
141	0x3d2177af	0.03942078
142	0x3e004a7e	0.12528417
143	0xba150818	-0.0005685105
144	0xbbafb473	-0.0053620874
145	0x3d1d7234	0.03843899
146	0x3d6a1053	0.057144474
147	0x3e2d3a02	0.1691666
148	0x39024f26	0.00012427251
149	0xbd7e27a5	-0.062049527
150	0x3d69a539	0.057042334
151	0x3db67b70	0.089102626
152	0xbd79b737	-0.060965743
153	0x3d928568	0.071543515
154	0x3dc67363	0.09689977
155	0x3d09bc54	0.03362687
156	0xbda78734	-0.08180085
157	0xbc5bd843	-0.01341826
158	0x3cd83aed	0.026395286
159	0x3e26ee11	0.16301753
160	0x3c6faef8	0.014629118
161	0x3c8005b7	0.015627725
162	0xbd55e27b	-0.05221794
163	0xbc91cc8c	-0.01779773
164	0xbda5e035	-0.08099405
165	0x3cd07274	0.0254452
166	0xbc11aaa5	-0.0088907825
167	0xbcfbba50	-0.03072849
168	0x3c1dcaa1	0.00963083
169	0xbc864395	-0.016389647
170	0x3d2f685a	0.042824127
171	0x3e26283a	0.16226283
172	0xbd110b4e	-0.03541117
173	0x3d9d731b	0.0768797
174	0x3b516f1e	0.00319571
175	0x3de1d9be	0.11027859
176	0xbda672b5	-0.081273474
177	0x3c8dbb88	0.017301336
178	0xbd642f4b	-0.055709165
179	0xbc357cf0	-0.011077151
180	0xbdab5b8a	-0.08367069
181	0x3cc90489	0.024538295
182	0x3c643455	0.013928493
183	0x3db99914	0.090624005
184	0xbcdc23d9	-0.026872562
185	0x3db66782	0.08906461
186	0x3d9ea7df	0.077468626
187	0x3c5ee65e	0.0136047285
188	0x3d809b0d	0.062795736
189	0xbd791b6d	-0.06081717
190	0x3bfea991	0.0077716787
191	0xbc1e5871	-0.009664641
192	0xbd1627ec	-0.036659166
193	0xbd955e73	-0.072934054
194	0x3d5f8f42	0.05457998
195	0x3ef4ef53	0.4783884
196	0x3daef181	0.08542157
197	0x3d2a2361	0.041537646
198	0xbd5ddff7	-0.054168668
199	0xbbda1547	-0.0066553685
200	0x3cea0ac8	0.028569594
201	0x3dd4a5ac	0.10383162
202	0xbd12f03f	-0.035873648
203	0xbd9e31fe	-0.07724379
204	0x3d4d5b23	0.050135743
205	0x3be6b353	0.00704042
206	0x3deaf1d8	0.11471909
207	0xbc0e7141	-0.008693994
208	0x3cb80f90	0.022468358
209	0xbc80009a	-0.015625287
210	0xbdabde26	-0.08391981
211	0xbca98900	-0.02069521
212	0xbd086e5b	-0.03330837
213	0x3d02d6b9	0.031943057
214	0xbd7cb4c7	-0.06169584
215	0xbc8daf92	-0.017295633
216	0xbcd46395	-0.02592639
217	0x3d677f69	0.056517992
218	0xbc269b0d	-0.010168803
219	0x3cd47ec0	0.025939345
220	0x3c39ddf3	0.011344421
221	0x3a536ba5	0.00080650515
222	0x3ded338f	0.115821
223	0xbd8cf633	-0.06882896
224	0x3dc9b2f7	0.09848588
225	0x3d9f236f	0.0777043
226	0xbd88dc2e	-0.06682621
227	0x3c99a744	0.018756516
228	0xbd8a9a3e	-0.067677006
229	0x3b01a688	0.0019783098
230	0x3a1cbea0	0.0005979333
231	0xbc6e9acf	-0.014563276
232	0xbd4972ec	-0.049181864
233	0xbd28de2a	-0.041227497
234	0x3d5c8f6d	0.05384772
235	0x3c8adcbb	0.016950956
236	0xbc83c57b	-0.016085377
237	0xbda18b5b	-0.07887908
238	0xbcd78d99	-0.026312636
239	0x3ded99c3	0.11601593
240	0x3d45a1d2	0.048250027
241	0x3c879198	0.016548917
242	0xbd83ac0b	-0.06429299
243	0xbd106ef2	-0.035262056
244	0x3c8ee58b	0.017443439
245	0x3d337aee	0.043818407
246	0xbcf015f0	-0.029307336
247	0x3d5d2149	0.05398682
248	0xbd51906c	-0.051163122
249	0x3cbd3f33	0.023101425
250	0x3d6d1691	0.05788285
251	0x3ad5686d	0.0016281732
252	0x3dc61f51	0.09673942
253	0x3d4d5d61	0.05013788
254	0x3ceaa97e	0.028645273
255	0xbda0f76d	-0.07859693

node_layers.mlp_0.weight f4 [64, 121]
0	0xbdcc6e6e	-0.09982
1	0x3bd52ac9	0.0065053445
2	0x3d9be049	0.076111384
3	0x3b852e3e	0.0040643504
4	0xbd357473	-0.044300508
5	0x3bbc6e01	0.005750418
6	0x3b5ab871	0.0033374096
7	0x3d0af416	0.033924185
8	0xbc9f00ac	-0.0194095
9	0x3a6b06e3	0.0008965565
10	0xb9683e87	-0.00022148537
11	0xbd402a40	-0.046915293
12	0xbd851943	-0.06498959
13	0xbd2c8ba4	-0.04212536
14	0xbd2eee7c	-0.042707905
15	0x3d78c187	0.060731437
16	0x3ce454c9	0.02787246
17	0xbdaab9fa	-0.083362535
18	0xbc819f77	-0.01582311
19	0xbd77cf0b	-0.060500186
20	0xbd8e69d5	-0.069537796
21	0x3dacc88d	0.084366895
22	0x3da766ca	0.08173902
23	0x3c082141	0.00830871
24	0xbd8e29e2	-0.06941582
25	0xbd6c72ba	-0.0577266
26	0xbd9e15b3	-0.077189825
27	0x3d14c826	0.03632369
28	0x3d598420	0.05310452
29	0xbd4a7a00	-0.049432755
30	0x3cde1f30	0.02711448
31	0x3d6a7724	0.057242528
32	0x3d5e6630	0.054296672
33	0xbda182d5	-0.07886282
34	0x3cd61105	0.026131162
35	0x3d9f8aa6	0.07790117
36	0x3d4fed70	0.050763547
37	0xbcfa9343	-0.030587798
38	0x3cff255a	0.03114574
39	0xbd006838	-0.03134939
40	0x399b1dd5	0.0002958613
41	0x3d9e6a90	0.07735169
42	0xbc898417	-0.016786618
43	0x3dd64b26	0.10463552
44	0x3d3e13b2	0.0464055
45	0x3d327225	0.043565888
46	0xbd997c26	-0.074943826
47	0x3dcb8575	0.09937564
48	0xbda98a9a	-0.08278389
49	0xbd253cda	-0.040341236
50	0xbd8c67b4	-0.06855717
51	0xbda1c9ff	-0.07899856
52	0x3d4515aa	0.048116364
53	0x3df66257	0.120304756
54	0xbcc2f43e	-0.023798104
55	0xbd75f72c	-0.060050175
56	0xbd8c6bbd	-0.06856487
57	0x3d9aef48	0.075651705
58	0xbe00827c	-0.12549776
59	0xbd9fe2b8	-0.07806915
60	0xbd8e56da	-0.06950159
61	0x3afe37a2	0.0019395242
62	0x3d420edc	0.047377452
63	0x3d78045b	0.06055103
64	0xbdb35460	-0.08756328
65	0xbbcdfae5	-0.0062860125
66	0xbdb21887	-0.086960845
67	0xbc717e51	-0.014739589
68	0x3dbb28de	0.09138654
69	0xba344ba3	-0.0006877726
70	0xbc831c99	-0.016004847
71	0x3daa6442	0.08319904
72	0x3dd54e08	0.10415274
73	0xbbc21ab8	-0.0059235953
74	0x3ce10c04	0.02747155
75	0xbd469e4b	-0.048490804
76	0xbd95e539	-0.073191114
77	0xbd927a55	-0.07152239
78	0xbe1373d8	-0.1439966
79	0xbd4452cb	-0.04793052
80	0xbe518738	-0.20461738
81	0x3c8d06e9	0.01721521
82	0xbd8d7416	-0.06906907
83	0xbdbe34db	-0.09287425
84	0x3d40b940	0.04705167
85	0x3d00d3e4	0.031452075
86	0x3cb0e983	0.021595722
87	0x3b82e937	0.0039950865
88	0xbd7e0cc1	-0.06202388
89	0xbe0ca1c6	-0.13733587
90	0xbe42ee2f	-0.19036172
91	0xbb618b18	-0.0034415182
92	0xbcc405ef	-0.02392861
93	0xbd2452fb	-0.0401182
94	0x3d8a0a38	0.0674023
95	0xbce23244	-0.02761186
96	0x3dc3aee7	0.09554844
97	0xbd1fb3ae	-0.038989715
98	0x3dc69ad8	0.09697503
99	0x3db624b1	0.08893717
100	0x3d27c882	0.040962704
101	0xbce3b8cc	-0.027798079
102	0xbdb352d3	-0.08756032
103	0xbbbbc1ef	-0.005729906
104	0xbd32575c	-0.043540344
105	0x39f20368	0.00046160375
106	0xbd9e459f	-0.07728123
107	0x3d9d9fac	0.076964706
108	0x3d6e9a8e	0.058252864
109	0xbd2e2eef	-0.042525228
110	0x3d32e0c4	0.043671384
111	0x3d29ec23	0.041484963
112	0xbd69fe0f	-0.057127055
113	0x3d6f483f	0.05841851
114	0x3db4bbc1	0.08824874
115	0x3d999a22	0.075001016
116	0x3d9e3b3e	0.07726143
117	0xbd20f13a	-0.03929255
118	0x3d45aa26	0.04825797
119	0xbdad3fb6	-0.084594175
120	0x3d8199ec	0.063281864
121	0xbd42d4e9	-0.04756633
122	0x3cac443d	0.021028632
123	0xbcd444ec	-0.02591177
124	0x3d92decb	0.07171401
125	0x3dafc6ba	0.08582826
126	0x3d608080	0.054810047
127	0x3d068397	0.032840338
128	0x3d811954	0.06303659
129	0xbd9ebccc	-0.07750854
130	0x3ccea407	0.025224699
131	0x3ca279b7	0.019833429
132	0x3c3c4426	0.011490857
133	0x3cd484f0	0.025942296
134	0x3cda995d	0.026684457
135	0xbc6beca3	-0.01439968
136	0x3d01ed01	0.031720165
137	0x3873e93c	5.815293e-05
138	0x3d9b6181	0.07586957
139	0xbacc4cd4	-0.0015586861
140	0xbd1178a3	-0.03551544
141	0x3cf93a40	0.030423284
142	0xbda08d7c	-0.07839486
143	0xbc9e02e0	-0.01928848
144	0xbd0f328c	-0.034960315
145	0xbd837c9e	-0.06420253
146	0x3d29fc67	0.041500475
147	0xbd9089f0	-0.070575595
148	0x3d9bbee5	0.076047696
149	0xbd5dc8be	-0.05414652
150	0x3da81d52	0.082087174
151	0xbd93dd7d	-0.0721998
152	0xbd65dbe2	-0.0561179
153	0xbda88c14	-0.08229843
154	0x3bb6bf32	0.0055769915
155	0xbd84d0b4	-0.064851195
156	0xbd8d7ab1	-0.06908167
157	0xbcf3417e	-0.029694315
158	0x3bf12a19	0.0073597548
159	0x3dab65fd	0.08369062
160	0xbd04f323	-0.032458436
161	0x3cb4d484	0.022073992
162	0x3ca68614	0.020327605
163	0xbd3f213a	-0.046662547
164	0xbd0c4a8d	-0.034250785
165	0xbd862e7d	-0.06551836
166	0x3d8a108c	0.06741437
167	0x3d15eb65	0.036601443
168	0xbd83318f	-0.06405937
169	0xbdb278ea	-0.08714469
170	0x3d3795ac	0.044820473
171	0x3d59c4ae	0.053166084
172	0xbd85b82e	-0.0652927
173	0xbc3f20e5	-0.0116655575
174	0x3d4e4f48	0.050368577
175	0xbd70c60d	-0.058782626
176	0x3d9c4af8	0.07631487
177	0x3d6a0c21	0.057140473
178	0xbd241729	-0.04006115
179	0xbca1547c	-0.019693606
180	0x3b84dd3c	0.0040546935
181	0xbce4571b	-0.027873566
182	0xbd0b681b	-0.03403483
183	0x3c91f90e	0.017818954
184	0xbd445379	-0.04793117
185	0x3bc43021	0.0059871827
186	0xbd936535	-0.07197038
187	0xba9897d9	-0.0011641934
188	0x3d7533bf	0.059863802
189	0x3d3a363a	0.04546187
190	0xbd4d02de	-0.050051562
191	0xbae99578	-0.0017821034
192	0x3d5ecbc1	0.054393534
193	0x3d01b705	0.03166868
194	0xbbc13d54	-0.0058972035
195	0xbc9de9da	-0.019276548
196	0xbdb375d3	-0.087627076
197	0xbcb32776	-0.021869402
198	0xbcbfe445	-0.023424277
199	0x3d2cb2b7	0.042162623
200	0xbd78a3f9	-0.06070325
201	0xbdaa8ef1	-0.08328045
202	0x3d17a9ff	0.037027355
203	0x3d94a002	0.072570816
204	0x3d9055e2	0.07047631
205	0x3cd6d984	0.026226766
206	0xbc04c6f3	-0.008104074
207	0x3d20f38f	0.039294776
208	0xbc4325a4	-0.01191083
209	0xbc2d6e2b	-0.010585348
210	0x3d45055b	0.04810081
211	0xbd90d98a	-0.07072742
212	0x3da18d72	0.07888307
213	0xbd9bdfe5	-0.07611064
214	0xbc088de9	-0.008334615
215	0xbb6e8e06	-0.003640057
216	0xbcdcb469	-0.026941495
217	0x3ca93021	0.020652832
218	0xbd709625	-0.05873694
219	0x3db6bbff	0.08922576
220	0xbac658c3	-0.0015132654
221	0x3d74beaf	0.059752163
222	0x3d2665a0	0.04062426
223	0xbcf7f469	-0.030267911
224	0x3dabfa25	0.08397321
225	0x3a85a625	0.001019661
226	0xbd85215d	-0.06500504
227	0xbcb8c603	-0.022555357
228	0x3d1ce68f	0.038305815
229	0xbd69b800	-0.05706024
230	0x3d3b18a2	0.04567779
231	0x3d8e2e50	0.06942427
232	0xbd294041	-0.041321043
233	0xbcb85577	-0.02250169
234	0xbd843ddd	-0.06457112
235	0xbd1f388f	-0.038872298
236	0x3d8f63bb	0.07001444
237	0xbbf2cbac	-0.0074095335
238	0xbcfe98bc	-0.031078689
239	0xbd7a7b5a	-0.061152793
240	0xbd79f4a2	-0.061024316
241	0x3c5d0310	0.0134895
242	0xbd4df251	-0.05027992
243	0x3cb50d48	0.02210106
244	0xbd84ab89	-0.0647803
245	0x3cbc9d67	0.023024274
246	0xbdb38545	-0.087656535
247	0xbdaee34d	-0.08539448
248	0x3d45efcd	0.048324395
249	0xbd2c8ca7	-0.042126324
250	0x3d06e8e2	0.032936938
251	0x3d955e53	0.072933815
252	0xbd255fbe	-0.04037451
253	0xbdb0591b	-0.086107455
254	0xbc8d3afb	-0.017240038
255	0x3c9ab9d1	0.018887432

node_layers.mlp_0.bias f4 [64]
0	0xbda5d801	-0.0809784
1	0x3d96165e	0.07328485
2	0x3da8e68f	0.082471006
3	0xbda002a2	-0.07813002
4	0x3d087b8a	0.03332094
5	0xbd861290	-0.06546509
6	0xbcffff40	-0.031249642
7	0x3ca5a411	0.020219835
8	0x3c2feacb	0.010737131
9	0xbca35c0d	-0.019941354
10	0xbd056747	-0.032569196
11	0x3d002b9b	0.031291585
12	0x3d8f4c6b	0.069969974
13	0x3d00cfa8	0.031448036
14	0x3d262357	0.040561046
15	0xbd89b234	-0.06723443
16	0x3daaf121	0.08346773
17	0xbd9d9078	-0.07693571
18	0x3cec8e5e	0.02887648
19	0x3d98a0a3	0.07452514
20	0x3d0f824d	0.035036374
21	0xbd6f78cc	-0.05846481
22	0xbaddc751	-0.0016920363
23	0x3d83a279	0.064274736
24	0x3d9baf45	0.076017894
25	0x3b9c0040	0.004760772
26	0xbd7248a1	-0.059151296
27	0x3d9751ef	0.073886745
28	0x3bd7a652	0.006581106
29	0xbd4c17d5	-0.049827415
30	0x3d969e03	0.07354357
31	0xbcc42778	-0.023944601
32	0xbd80e2ce	-0.062932596
33	0x3cdc58b0	0.026897758
34	0xbd4094d2	-0.047016926
35	0x3d4099c1	0.04702163
36	0xbd16e892	-0.03684289
37	0x3cba3fd5	0.022735516
38	0xbc81307b	-0.015770188
39	0x3abf9b68	0.0014618458
40	0x3d4cc894	0.049995974
41	0x3d51e9f2	0.0512485
42	0xbcc13ab3	-0.02358756
43	0x3dae0d2e	0.084986076
44	0x3da43d6a	0.08019526
45	0xbd79a5b9	-0.06094906
46	0x3db78e59	0.089626975
47	0x3d6e7b4f	0.058223065
48	0x3db5327a	0.08847518
49	0xbd426d51	-0.047467533
50	0x3da36d0e	0.07979785
51	0x3997e5c3	0.0002897215
52	0x3cb14cdd	0.021643097
53	0x3d6a8ca5	0.057263035
54	0x3d594bf8	0.053050965
55	0xbd1a4bff	-0.03767013
56	0xbd82df3b	-0.06390234
57	0x3d37d348	0.044879228
58	0x3d621ba4	0.05520214
59	0x3ce79bd6	0.02827255
60	0xbd802f90	-0.06259072
61	0xbd52809d	-0.051392186
62	0xbdaefe8f	-0.08544647
63	0x3cdd2bbb	0.026998391

edge_layers.mlp_0.weight f4 [64, 121]
0	0xbb04de2c	-0.0020274026
1	0xbd832060	-0.064026594
2	0xbc6dae20	-0.014506847
3	0xbc98f61e	-0.018672045
4	0x3d0e225e	0.034700744
5	0xbd647c13	-0.05578239
6	0x3c974379	0.01846479
7	0x3d7a84c4	0.06116177
8	0x3d35dc4b	0.04439954
9	0xbbd97f7b	-0.0066375113
10	0x3dbc9124	0.09207371
11	0xbd5da3da	-0.05411134
12	0x3c97bfbf	0.018524049
13	0x3dae3daf	0.08507859
14	0x3da4e50f	0.08051502
15	0xbd98b564	-0.074564725
16	0xbcc568d4	-0.024097838
17	0xbd6ed129	-0.05830494
18	0xbd87c84f	-0.06630003
19	0x3d853eac	0.06506094
20	0x3c80f8cf	0.015743641
21	0x3d5254fc	0.05135058
22	0xb9eeb3aa	-0.00045528758
23	0x3dcf8e8d	0.10134611
24	0xbafe0410	-0.0019379873
25	0x3b40de22	0.0029429276
26	0xbd3cbc28	-0.046077877
27	0x3d85f1dd	0.065402724
28	0xbba201ca	-0.004944061
29	0x3d1b56c5	0.037924547
30	0x3d76f510	0.060292304
31	0xbcf6c128	-0.030121401
32	0x3d90b83b	0.07066389
33	0x3d68b824	0.056816235
34	0xbd684996	-0.056710802
35	0xbd46cb99	-0.04853401
36	0x3d9e1747	0.077192836
37	0x3d880e9a	0.0664341
38	0xbd9784d4	-0.07398382
39	0xbd9d8e4a	-0.07693155
40	0x3d3e9ff0	0.046539247
41	0xbb1291c0	-0.0022364706
42	0x3d64ba5a	0.05584178
43	0x3c3429cf	0.010996296
44	0xbd27d2ed	-0.04097264
45	0xbc866b1c	-0.016408496
46	0xbd6ffdd8	-0.058591694
47	0xbd103951	-0.03521091
48	0x3d3748f3	0.044747304
49	0x3d6a49e4	0.057199374
50	0xba241b6d	-0.000626019
51	0x3db7c12a	0.0897239
52	0xbcb2d1a7	-0.021828486
53	0xbcba8697	-0.022769256
54	0xbda83bb0	-0.082145095
55	0x3d405a79	0.04696128
56	0xbdc85084	-0.09780982
57	0x3d651aa1	0.0559336
58	0xbd5c3c69	-0.05376855
59	0x3dacfbf2	0.08446492
60	0xbd4af703	-0.049551975
61	0xbdcc15ae	-0.099650726
62	0x3d22e98e	0.039773516
63	0x3d88734b	0.066626154
64	0xbd7b8f6b	-0.06141607
65	0x3900217a	0.00012219502
66	0xbd0574ef	-0.03258222
67	0x3d8cbd3e	0.068720326
68	0x3d32d7aa	0.043662705
69	0x3dab015c	0.08349869
70	0x3d9d7baf	0.076896064
71	0xbd816a2e	-0.0631908
72	0xbdcbd8b7	-0.099534445
73	0xbd60add2	-0.054853268
74	0xbc23b858	-0.009992681
75	0xbb74e21a	-0.0037366212
76	0x3d37c63a	0.044866778
77	0xbd3e7139	-0.046494696
78	0x3c8bcb67	0.017064763
79	0x3d06e19b	0.032929998
80	0x3d66d2b7	0.056353297
81	0xbd48648a	-0.048924007
82	0xbda00ecd	-0.07815323
83	0x3d3df77c	0.046378598
84	0xbd2ce70b	-0.042212527
85	0xbd005d6c	-0.031339094
86	0xbaccc4c2	-0.0015622603
87	0xbcbbc9b6	-0.022923332
88	0xbb99b686	-0.004690948
89	0x3cb8d9e8	0.022564843
90	0x3ca1f4af	0.019769995
91	0xbe085f2d	-0.13317557
92	0x3cf7325a	0.030175377
93	0xbd23965e	-0.039938323
94	0x3df1a40a	0.11798866
95	0xbd0c33eb	-0.0342292
96	0xbda0c025	-0.07849149
97	0x3ddbd4d7	0.10733955
98	0x3de2a903	0.11067393
99	0xbda683dc	-0.08130619
100	0xbd70547f	-0.05867433
101	0x3d5c5ea9	0.053801212
102	0xbd7e1191	-0.06202847
103	0xbda62f0b	-0.081144415
104	0x3cd4a467	0.0259573
105	0x3c22da8f	0.009939804
106	0x3dbe2a84	0.09285453
107	0x3d3376b5	0.04381438
108	0xbd82a637	-0.06379359
109	0xbc985554	-0.018595375
110	0xbd5fc567	-0.054631617
111	0xbd6c3931	-0.05767173
112	0xbd3523b6	-0.04422351
113	0xbb9e2f3e	-0.004827409
114	0x3cf018cc	0.0293087
115	0x3dc3ef9d	0.09567187
116	0xbaf8bafb	-0.0018976623
117	0x3d149d0e	0.03628259
118	0xbc4e706c	-0.012600046
119	0xbd01f8b8	-0.031731337
120	0xbbc3d098	-0.005975794
121	0xbc90291b	-0.017597726
122	0xbd1a1b60	-0.037623763
123	0xbd8fb991	-0.07017816
124	0x3d8a6f4c	0.067595094
125	0xbdb87cb9	-0.09008164
126	0xbdf9f476	-0.1220483
127	0xbcbcba24	-0.023037978
128	0x3dbc0b3b	0.091818295
129	0xbccced92	-0.025015626
130	0xbd9a27c2	-0.075271145
131	0x3d90fbcf	0.07079279
132	0xbcdf8f94	-0.027290143
133	0xbd21e435	-0.039524276
134	0xbde1c19a	-0.11023255
135	0xbd553dd1	-0.052060906
136	0x3d16c8f8	0.036812752
137	0xbda64d14	-0.0812017
138	0x3d2a8180	0.041627407
139	0xba19ff61	-0.0005874541
140	0xbcdd2048	-0.026992932
141	0x3cfe62c6	0.031052958
142	0x3c74f087	0.014949924
143	0x3d9bee36	0.076137945
144	0xbe10695d	-0.14102693
145	0xbd17f97d	-0.037103165
146	0x3cf5fc16	0.03002743
147	0xbdb00302	-0.08594324
148	0xbd667603	-0.05626489
149	0xbdc0ec3e	-0.094200596
150	0x3c068717	0.008210919
151	0xbd921657	-0.07133167
152	0x3ccfe83e	0.025379296
153	0x3db82ef6	0.08993332
154	0xbce5d7e7	-0.028057052
155	0xbdb7e229	-0.089786835
156	0xbdd3966d	-0.10331426
157	0xbc6fe535	-0.01464205
158	0xbc425f88	-0.011863597
159	0xbd9aee70	-0.075650096
160	0xbdc0386f	-0.09385764
161	0xbd0f00ef	-0.034913
162	0x3cfd64b1	0.030931802
163	0xbd6ece8c	-0.058302447
164	0xbd97cefe	-0.074125275
165	0x3cd1a787	0.025592579
166	0x3ba2d6dc	0.004969461
167	0x3d0a122a	0.03370873
168	0xbdcac369	-0.09900553
169	0xbcdc1889	-0.026867168
170	0xbd110ddd	-0.03541361
171	0x3db60c1d	0.08889029
172	0x3dc832d4	0.0977532
173	0x3d969f55	0.07354609
174	0x3ccb0d17	0.024786515
175	0x3c84d8b0	0.016216606
176	0x3c67c7d9	0.0141467685
177	0x3d80b6bc	0.06284854
178	0x3c927fc5	0.01788319
179	0xbdd5d7a0	-0.10441518
180	0x3df60989	0.120135374
181	0xbc628dda	-0.013827765
182	0xbce691c2	-0.028145675
183	0xbd4df001	-0.050277714
184	0x3d0ab66f	0.03386539
185	0x3c759755	0.014989694
186	0x3cd876b1	0.026423784
187	0xbd382f27	-0.044966843
188	0xbc9cb60d	-0.019129777
189	0x3d8a1b99	0.06743545
190	0xbd5020d2	-0.05081255
191	0x3d42e856	0.047584854
192	0xbd462493	-0.048374724
193	0x3d2f25ad	0.04276054
194	0xbb577cb5	-0.0032880728
195	0xbd36f152	-0.044663735
196	0x3c69dfd7	0.014274559
197	0xbdbf208b	-0.09332379
198	0xbdd0157b	-0.10160347
199	0x3ca08c79	0.019598233
200	0x3e0282a9	0.12745155
201	0xbdc9eaca	-0.098592356
202	0x3da85b46	0.08220534
203	0xbcba851e	-0.022768553
204	0xbd87fc1a	-0.066398814
205	0x3c476bee	0.012171729
206	0xbde86dfc	-0.11349103
207	0x3df9d5fd	0.12199018
208	0xbd87d766	-0.06632881
209	0xbd682464	-0.05667533
210	0x3d86fdf5	0.06591407
211	0xbe1d0752	-0.15334824
212	0xbe0191b7	-0.12653242
213	0xbd7e9bd0	-0.062160313
214	0x3c2ab018	0.010417961
215	0x3d329220	0.043596387
216	0x3d2ffa95	0.042963583
217	0x3c80d41a	0.015726138
218	0x3db428ce	0.087968454
219	0x3dcba397	0.09943312
220	0xbd811808	-0.06303412
221	0xbd944e1a	-0.07241459
222	0xbd81e289	-0.06342036
223	0x3d2dd871	0.042442743
224	0xbd6a77ac	-0.057243034
225	0xbd59d1ff	-0.053178784
226	0xbc8e31c1	-0.017357709
227	0xbc7cc308	-0.015427358
228	0x3c655482	0.013997199
229	0x3cc554e1	0.024088325
230	0xbd9b4f5d	-0.07583497
231	0x3d40c38a	0.04706148
232	0x3ca486a1	0.020083727
233	0x3db79860	0.0896461
234	0x3da7602f	0.081726424
235	0xbd02f547	-0.031972196
236	0x3ceebb25	0.029141972
237	0x3b5e8465	0.0033953425
238	0xbd85beb9	-0.06530518
239	0x3c13989b	0.009008552
240	0x3c87fd6b	0.016600331
241	0x3dbe72c4	0.092992336
242	0xbd96379f	-0.07334828
243	0x3dd4e54f	0.103953
244	0x3baaba75	0.0052102157
245	0x3d9ad4fd	0.075601555
246	0xbcd7b507	-0.026331438
247	0x3d761444	0.06007792
248	0xbc87935d	-0.01654976
249	0xbd72e201	-0.059297565
250	0xbd9e0b1e	-0.07716964
251	0x3ad898c2	0.0016525018
252	0x3cd14aa9	0.025548296
253	0xbd0e0fd6	-0.03468307
254	0x3d532727	0.05155101
255	0x3cd0b56d	0.025477136

edge_layers.mlp_0.bias f4 [64]
0	0x3d7f12d1	0.062273804
1	0xbc4fad0f	-0.012675538
2	0xb9c584e6	-0.00037673785
3	0x3d0b663f	0.034033056
4	0x39d094ad	0.00039783624
5	0xbd25e3f7	-0.040500607
6	0xbc83accb	-0.016073605
7	0x3d0d9454	0.034565285
8	0xbd76e4ed	-0.060276914
9	0x3d0296f5	0.031882245
10	0xbd489cb4	-0.04897757
11	0xbc84bb46	-0.01620258
12	0xbdac117b	-0.08401772
13	0x3c57bccd	0.013167572
14	0xbd03b3a0	-0.032153726
15	0xbcc529b7	-0.024067743
16	0x3dd11e4c	0.10210857
17	0x3d1d82c9	0.038454805
18	0xbd99e93e	-0.075151905
19	0xbd62bd13	-0.055356096
20	0xbd3564bf	-0.044285532
21	0x3dbe6ab4	0.09297696
22	0x3d0933ba	0.033496596
23	0xbd9f18c4	-0.077683955
24	0x3daa39ec	0.08311829
25	0x3c60e07f	0.013725399
26	0x3de97044	0.11398366
27	0xbce50f27	-0.027961327
28	0x3d4f7878	0.050651997
29	0x3d292f67	0.041304972
30	0x3da8f91e	0.0825064
31	0x3cdc4838	0.026889905
32	0x3d690f7f	0.056899544
33	0xbcd477cc	-0.02593603
34	0xbd929896	-0.0715801
35	0x3cb4b2d0	0.02205792
36	0xbc5c1342	-0.013432326
37	0x3d432006	0.04763796
38	0x3d08c0c2	0.033386953
39	0xbda6e7df	-0.08149695
40	0xbbeff80a	-0.0073232697
41	0x3c279bb8	0.010229997
42	0x3c0a2437	0.008431486
43	0x3db129be	0.0865054
44	0xbb209762	-0.0024504294
45	0x3d859adb	0.06523677
46	0xbca7f9b1	-0.020504804
47	0x3d30f69e	0.043203942
48	0x3ac0c147	0.0014706039
49	0xbb734a2f	-0.0037123074
50	0x3dc40711	0.0957166
51	0xba821998	-0.000992584
52	0xbcfb1b8f	-0.03065279
53	0x3dc7c523	0.09754398
54	0x3d324aad	0.043528248
55	0xbd9b13d5	-0.07572142
56	0x3d76a130	0.060212314
57	0x3d440370	0.04785484
58	0xbd6b172d	-0.05739515
59	0xbd225f84	-0.039641872
60	0xbd6065f4	-0.05478473
61	0xbcedbfed	-0.029022181
62	0xbd93485e	-0.07191537
63	0xbd9c452a	-0.076303795

gnn_layer_0.classifier.weight f4 [1, 64]
0	0x3dc0a995	0.09407345
1	0x3d4dc7dc	0.05023943
2	0xbe05a0e1	-0.13049652
3	0xbd3a80f1	-0.045533124
4	0x3d46a721	0.04849923
5	0x3db7a150	0.08966315
6	0x3c5f8a70	0.013643846
7	0xbc9c6652	-0.019091759
8	0x3bdc9531	0.006731652
9	0xbd8805fb	-0.06641766
10	0x3d15f508	0.036610633
11	0xbde09b9a	-0.10967179
12	0x3dc12238	0.09430355
13	0x3dc29661	0.09501339
14	0xbd8a03a4	-0.06738976
15	0x3da8f815	0.08250443
16	0x3d2f4a99	0.04279575
17	0x3dd0082c	0.10157809
18	0xbcd0970b	-0.025462648
19	0x3de75bd3	0.11296811
20	0xbafc0a79	-0.0019229195
21	0x3def7ea9	0.116940804
22	0x3bdfd417	0.006830703
23	0xbc789eea	-0.015174607
24	0x3c19eb40	0.009394467
25	0xbc7db8dd	-0.015485969
26	0xbd78e25d	-0.06076275
27	0xbd84a72b	-0.06477197
28	0xbdc7ad61	-0.09749866
29	0xbdcbc23e	-0.09949158
30	0x3dea9ab5	0.11455289
31	0x3e397197	0.18109737
32	0x3c037d37	0.008025459
33	0x3d1762cb	0.03695945
34	0x3df644a0	0.12024808
35	0xbdc9e330	-0.09857786
36	0x3d25d51d	0.040486444
37	0x3e58a7fa	0.21157828
38	0x3dc0dedc	0.09417507
39	0x3d68c113	0.056824755
40	0x3d96a7a6	0.07356195
41	0x3d7d5ee5	0.061858077
42	0x3e1bed6b	0.15227287
43	0xbc018490	-0.0079051405
44	0x3d0f5e23	0.035001885
45	0xbc2b06e9	-0.010438659
46	0xbde891c0	-0.113559246
47	0xbe11c915	-0.14236863
48	0x3e13a76f	0.1441934
49	0xbdcdbf4e	-0.10046254
50	0xbd84c243	-0.06482365
51	0x3e38d064	0.18048245
52	0xbdaea814	-0.08528152
53	0x3d6fc456	0.05853685
54	0xbd884f6d	-0.06655774
55	0x3c5aa483	0.013344887
56	0x3dbdd532	0.092691794
57	0x3d2879e1	0.041131858
58	0xbd021dc8	-0.031766683
59	0xbe0fbdcb	-0.14037244
60	0x3dfcc8d0	0.123429894
61	0x3e0f7f3a	0.14013377
62	0x3c8ab5be	0.016932365
63	0x3d41012a	0.04712025

gnn_layer_0.n_func.0.weight f4 [64, 1]
0	0xbf42316c	-0.7585666
1	0x3f048f8d	0.5178154
2	0xbf3c99b4	-0.7367203
3	0xbf21f99c	-0.632715
4	0x3f2b7696	0.6697782
5	0x3dc559f6	0.09636299
6	0xbf320dce	-0.69552314
7	0x3f2e4d27	0.68086475
8	0xbf07ee5c	-0.5309808
9	0xbf65033a	-0.8945805
10	0x3f785714	0.9700787
11	0x3dd2b751	0.10288871
12	0xbf13e734	-0.5777466
13	0x3f77de70	0.9682379
14	0x3f5bf77d	0.8592451
15	0xbe6a53d0	-0.22883534
16	0x3ea66274	0.3249699
17	0x3e8f47ed	0.27984563
18	0x3f02e493	0.51130027
19	0x3f5fd60d	0.8743599
20	0x3f6f85db	0.9356362
21	0xbee55f04	-0.44799054
22	0xbef00560	-0.468791
23	0xbe74060e	-0.23830435
24	0xbe72e002	-0.23718265
25	0x3f3275cf	0.6971101
26	0xbea43597	-0.32072136
27	0x3da2fc49	0.07958276
28	0x3f6ee4b1	0.93317705
29	0xbf5f0d4c	-0.87129664
30	0xbeb5a776	-0.35479325
31	0xbf4a1a02	-0.78945935
32	0xbef63585	-0.48087707
33	0x3f710234	0.94143987
34	0xbe4f52e8	-0.2024647
35	0xbf731adc	-0.9496286
36	0xbf19fd00	-0.6015167
37	0xbe9d3a2c	-0.30708444
38	0xbdb36620	-0.08759713
39	0xbf75db5a	-0.9603783
40	0x3ef9afd1	0.4876695
41	0x3f5a8196	0.8535398
42	0xbd7b8120	-0.06140244
43	0x3f201a57	0.6254019
44	0xbf75cd8a	-0.9601675
45	0x3f62fedc	0.88670135
46	0x3ddddc5e	0.10833047
47	0xbf168c21	-0.5880757
48	0x3d12a4b4	0.035801604
49	0x3f663ec0	0.899395
50	0xbece99a4	-0.40351593
51	0xbf371d96	-0.7152952
52	0xbefd178c	-0.49432027
53	0xbd94d960	-0.072680235
54	0xbf014836	-0.5050081
55	0xbdcd3ee0	-0.10021758
56	0x3f442deb	0.76632565
57	0x3f145da9	0.57955414
58	0xbe56ced0	-0.2097733
59	0x3eb1781e	0.34661955
60	0xbf245fa0	-0.6420841
61	0xbe5b7a70	-0.21433425
62	0x3e605ca4	0.2191034
63	0xbf6e1dd0	-0.9301424

gnn_layer_0.n_func.0.bias f4 [64]
0	0xbe90a100	-0.28247833
1	0x3f225904	0.6341708
2	0x3e04e8c0	0.12979412
3	0xbf74645e	-0.9546565
4	0xbf3c4e84	-0.73557305
5	0xbe506d20	-0.20354128
6	0xbea11b00	-0.31465912
7	0x3e681c32	0.22667006
8	0x3b87d200	0.004144907
9	0xbf2d316e	-0.6765355
10	0x3eef2add	0.4671239
11	0x3f148c9c	0.5802705
12	0xbdf01fc0	-0.11724806
13	0xbe97c9ed	-0.29646245
14	0xbf4c292e	-0.79750335
15	0xbf32c088	-0.6982503
16	0x3e9fc4b2	0.31204754
17	0x3f15d2c9	0.5852476
18	0x3e0c2c0a	0.13688675
19	0x3f2049fc	0.6261289
20	0x3f4ee740	0.8082161
21	0x3e94b424	0.29043686
22	0xbe6e0610	-0.232445
23	0x3ebf93b7	0.37417385
24	0x3e69ab1e	0.22819182
25	0xbf63a711	-0.889268
26	0x3f4bb147	0.7956738
27	0xbe039cdc	-0.12852806
28	0x3de5ca32	0.11220206
29	0x3e7b3f80	0.24535942
30	0x3f02751e	0.50959957
31	0x3f0ed326	0.55790937
32	0x3f0fdf0b	0.5619971
33	0x3edf9c90	0.43674135
34	0xbdbef7d0	-0.0932461
35	0x3efc74c8	0.49307847
36	0x3e14ebf0	0.14543128
37	0xbe4b7020	-0.19866991
38	0xbf6979a6	-0.91201246
39	0x3f17b1ec	0.5925586
40	0xbea45f05	-0.32103744
41	0x3eb4d263	0.35316762
42	0xbe21d358	-0.15803277
43	0xbe763c90	-0.2404654
44	0xbf62ab38	-0.8854251
45	0x3e5a3e89	0.21312918
46	0x3f27e0f6	0.6557764
47	0x3f3ca017	0.7368178
48	0x3e73cbc5	0.238082
49	0x3e4874b0	0.19575763
50	0xbf021356	-0.50810754
51	0x3cf07200	0.029351234
52	0xbf634284	-0.8877337
53	0xbf07ebc0	-0.530941
54	0x3edaedc0	0.42759514
55	0x3e95ea58	0.29280353
56	0xbe5c484e	-0.21511957
57	0xbd928d4f	-0.07155859
58	0xbf353724	-0.7078726
59	0x3eb15b38	0.34639907
60	0xbece468c	-0.40288198
61	0xbed2a0ac	-0.41138208
62	0x3f732678	0.94980574
63	0xbe33fe38	-0.17577446

gnn_layer_0.n_func.2.weight f4 [64, 64]
0	0x3d9f7448	0.07785851
1	0x3dda3f9d	0.106566645
2	0xbceccd58	-0.02890651
3	0xbd91855e	-0.07105516
4	0xbdde514e	-0.108553514
5	0xbd101c54	-0.035183266
6	0xbd8cd80a	-0.06877144
7	0x3e00b18d	0.1256773
8	0x3d26a914	0.04068859
9	0x3db2a960	0.08723712
10	0xbd654c5a	-0.055981018
11	0xbd7a7f6a	-0.061156668
12	0xbcc149a8	-0.023594692
13	0x3dd8e31a	0.10590191
14	0x3d6b2cb6	0.057415687
15	0xbd7108ec	-0.0588464
16	0xbb922246	-0.004459652
17	0xbdb5b43d	-0.08872268
18	0x3c47b6f9	0.01218962
19	0x3dc4dde6	0.09612636
20	0x3dfe4447	0.124153666
21	0x3c552bc0	0.013010919
22	0x3d7328f8	0.059365243
23	0xbc8392ee	-0.016061272
24	0xbd664c13	-0.056224894
25	0x3d2a23eb	0.04153816
26	0x3dbeb899	0.09312553
27	0xbc88a0be	-0.01667821
28	0x3d0aac89	0.03385595
29	0xbd4e8f54	-0.050429657
30	0x3c3f0077	0.011657826
31	0xbd562814	-0.052284315
32	0x3d55e28f	0.052218016
33	0xbcfa3f1d	-0.030547673
34	0x3d807eac	0.06274161
35	0x3d1befd4	0.038070515
36	0xbb05fa00	-0.00204432
37	0xbce6dfd8	-0.028182909
38	0xbd4e8444	-0.050419107
39	0x3d192ea4	0.037397996
40	0x3d3b0d9f	0.045667287
41	0x3c378332	0.011200713
42	0xbc5eacc0	-0.0135909915
43	0x3cd31c19	0.025770234
44	0xbd8deacc	-0.069295496
45	0xbc727a7b	-0.014799709
46	0xbdc03fc0	-0.09387159
47	0x3dffafa6	0.12484674
48	0x3df668bb	0.120316945
49	0xbdbd6be1	-0.09249092
50	0xbde68e66	-0.11257629
51	0x3d732388	0.059360057
52	0x3d9f07f0	0.07765186
53	0x3c9a8348	0.018861428
54	0x3d48c8d8	0.049019665
55	0x3c02c2f5	0.007981052
56	0xbde1f642	-0.11033298
57	0x3db4cdb4	0.08828297
58	0x3d936448	0.071968615
59	0x3c17d96e	0.009268148
60	0x3ddbd9de	0.10734914
61	0x3caabf20	0.020843089
62	0xbd0648da	-0.03278432
63	0x3dba3270	0.090916514
64	0xbdf7c0c2	-0.120973125
65	0xbdec5f9c	-0.115416735
66	0xbcc3a930	-0.023884386
67	0xbdee17ec	-0.116256565
68	0x3b857ec0	0.0040739477
69	0xbddfc70c	-0.10926637
70	0x3d91267a	0.07087417
71	0xbdf2bbea	-0.11852248
72	0x3da60072	0.08105554
73	0xbd7b300c	-0.061325118
74	0x3dc9f2bc	0.09860751
75	0xbcacb120	-0.021080554
76	0xbc9520a0	-0.018204033
77	0x3c7a2160	0.015266746
78	0xbd028820	-0.0318681
79	0xbc302b40	-0.010752499
80	0xbd999460	-0.074990034
81	0x3d496150	0.04916507
82	0xbdd3cb0e	-0.10341464
83	0x3d39fe00	0.04540825
84	0xbc3c2b50	-0.011484936
85	0xbd8ac666	-0.06776123
86	0x3ce18d08	0.02753307
87	0xbd0e3374	-0.03471704
88	0x3dbb9e06	0.09161
89	0xbc62f3f0	-0.013852105
90	0x3d244360	0.040103316
91	0x3dedd48e	0.11612807
92	0xbca2c338	-0.019868478
93	0xbc905ff0	-0.017623872
94	0xbdd08516	-0.10181634
95	0xbd307488	-0.043079883
96	0x3d551a30	0.052026927
97	0xbb517800	-0.0031962395
98	0x3db7547e	0.089516625
99	0xbb53d700	-0.0032324195
100	0x3d2b0d54	0.041760758
101	0x3ca99cd8	0.020704672
102	0x3dc42734	0.0957779
103	0xbdd48326	-0.10376577
104	0x3d5b5658	0.05354914
105	0xbd87b98c	-0.06627187
106	0xbd8b4180	-0.067996025
107	0xbd4cbb2c	-0.04998319
108	0xbd90f0b6	-0.07077162
109	0xbdf3f82e	-0.11912571
110	0x3d77e1c8	0.060518056
111	0x3b93c920	0.00451006
112	0x3d8d0424	0.068855554
113	0xbd60c8c8	-0.05487898
114	0xbda66820	-0.08125329
115	0xbdf06856	-0.117386505
116	0xbdc73d46	-0.09728484
117	0xbd0f9a0c	-0.03505902
118	0x3d170270	0.03686756
119	0xbc267d90	-0.010161772
120	0x3d9df5ac	0.07712874
121	0x3d70428c	0.058657214
122	0x3db44b0c	0.088033766
123	0x3d58c1b8	0.05291912
124	0x3dd3faaa	0.10350545
125	0xbda3e6c0	-0.080029964
126	0xbd57b544	-0.052663103
127	0x3d801838	0.06254619
128	0xbbb76fc0	-0.0055980384
129	0x3cdde100	0.027084827
130	0x3cb21088	0.021736398
131	0x3dcb6eea	0.099332646
132	0x3dab0ae7	0.08351689
133	0x3e5f52ca	0.21808925
134	0xbd23a1e8	-0.039949328
135	0xbd9f1819	-0.07768268
136	0x3c00b7f0	0.007856354
137	0x3dfb1976	0.12260716
138	0xbdfaef07	-0.12252622
139	0x3c6ee3fd	0.014580724
140	0xbd511ce4	-0.051052943
141	0x3dbd6fa3	0.09249809
142	0x3d7862bf	0.060641047
143	0x3d9c33b4	0.07627049
144	0xbe00684c	-0.12539786
145	0xbd26db1d	-0.040736306
146	0xbd36bda5	-0.044614453
147	0xbd336b23	-0.043803345
148	0x3d8aef2c	0.067839
149	0xbda6d59c	-0.081462115
150	0x3cac7b90	0.021055013
151	0x3d7bb213	0.06144912
152	0xbdc51b16	-0.09624307
153	0x3db07586	0.08616166
154	0xbdadba39	-0.08482785
155	0x3d5e299f	0.05423891
156	0x3d1eb636	0.03874799
157	0x3d5052d8	0.050860256
158	0x3cddff88	0.027099386
159	0xbd2b92d0	-0.04188806
160	0x3d862df2	0.06551732
161	0xbdddce80	-0.108304024
162	0x3d8a5ed4	0.06756368
163	0x3d0378f0	0.032097757
164	0x3d9ed9cc	0.07756385
165	0xbc9fcbf0	-0.019506425
166	0xbcdf4270	-0.02725336
167	0xbd0b3750	-0.033988297
168	0xbcbef3cd	-0.023309613
169	0x3da070ce	0.07834016
170	0x3df6c74a	0.1204973
171	0x3ddf2114	0.10894981
172	0xbbbfbd40	-0.005851418
173	0x3bd8a377	0.0066112834
174	0x3db4f291	0.08835328
175	0xbdbb5ac4	-0.091481715
176	0xbda4c8bf	-0.08046102
177	0x3cab5d5a	0.020918537
178	0xbd920684	-0.07130149
179	0xbdd8bb7a	-0.10582633
180	0x3ddbad12	0.1072637
181	0x3d1c5ebc	0.038176283
182	0xbd3bca48	-0.045847207
183	0x3db0bbc3	0.08629563
184	0x3d7191d2	0.058976956
185	0x3d730887	0.059334304
186	0xbdf2a050	-0.118469834
187	0x3d4ebf01	0.050475124
188	0x3db719ee	0.089404926
189	0xbb557d40	-0.0032575876
190	0xbddd6c60	-0.108116865
191	0xbd9c0ef2	-0.07620038
192	0xbde7ea2c	-0.113239616
193	0x3da20fa3	0.07913139
194	0x3c1eeb70	0.009699687
195	0xbddf3cf6	-0.10900299
196	0xbd122127	-0.035676148
197	0x3dc563f1	0.09638203
198	0xbd78dd4c	-0.06075792
199	0x3ceb28cf	0.028705982
200	0xbde80bf2	-0.113304034
201	0xbde19640	-0.11014986
202	0x3dc55cc9	0.09636838
203	0xbc95619f	-0.018235026
204	0xbdd55bb0	-0.10417879
205	0x3dd0e02e	0.10199009
206	0x3de18db5	0.110133566
207	0x3d6c68dc	0.05771719
208	0x3dfc7486	0.123269126
209	0xbdee43b6	-0.116340086
210	0xbd979164	-0.07400778
211	0xbd4bb66f	-0.04973453
212	0x3d9b77f7	0.07591241
213	0x3d8e58a8	0.069505036
214	0xbdf36162	-0.11883809
215	0x3c42ae3d	0.011882362
216	0xbdb2acfb	-0.087244
217	0xbd976b2c	-0.07393488
218	0xbd3d7b05	-0.0462599
219	0x3ced31fc	0.028954498
220	0x3d8dddb8	0.06927055
221	0x3c4526b0	0.01203315
222	0xbdb19657	-0.08671253
223	0xbcde3ff8	-0.027130112
224	0x3c7af2e1	0.015316696
225	0xbdb637f8	-0.08897394
226	0xbdf52a96	-0.11971013
227	0xbdcc9862	-0.09990002
228	0x3de5a3ce	0.11212884
229	0xbd8411d8	-0.06448716
230	0xbcb4c148	-0.02206482
231	0xbd964b26	-0.07338552
232	0xbd00b948	-0.031426698
233	0x3db55cea	0.088556126
234	0xbd9edb04	-0.07756618
235	0xbd7d4f23	-0.06184305
236	0x3d772e90	0.06034714
237	0xbd9e1c38	-0.07720226
238	0xbdb12f99	-0.08651657
239	0xbe0c0488	-0.13673604
240	0x3dded965	0.108813085
241	0xbdb92afe	-0.09041403
242	0x3cc48d40	0.023993134
243	0x3daaaf96	0.083342716
244	0x3d821432	0.06351508
245	0xbd113360	-0.035449386
246	0x3cd92798	0.026508138
247	0xbd56b790	-0.052421153
248	0x3d762010	0.06008917
249	0x3daccd9d	0.08437655
250	0xbcf6c5f0	-0.03012368
251	0x3dd174c3	0.10227349
252	0x3df46454	0.119331986
253	0x3dc53a10	0.09630215
254	0x3d8ce301	0.06879235
255	0xbccbe630	-0.024890035

gnn_layer_0.n_func.2.bias f4 [64]
0	0x3d978e81	0.07400227
1	0xbd7f94ac	-0.062397644
2	0x3d5602c1	0.05224872
3	0x3ad6a135	0.0016374948
4	0x3d95e061	0.073181875
5	0x3dae3698	0.08506507
6	0x3dbc5fcc	0.09197959
7	0x3dde98a8	0.108689606
8	0xbd876c23	-0.06612422
9	0x3d99e9d8	0.07515305
10	0x3d74bcdc	0.059750423
11	0xbdbd3362	-0.09238316
12	0xbddb2bc8	-0.1070171
13	0xbdab3cfa	-0.0836124
14	0x3d215c94	0.03939493
15	0xbdc19e8c	-0.094540685
16	0xba415900	-0.0007375628
17	0x3deed1bb	0.11661097
18	0xbdc9900a	-0.098419264
19	0x3d8cb4d4	0.06870428
20	0x3c19311a	0.009350086
21	0xbd4e16ae	-0.050314598
22	0x3dd8d989	0.105883665
23	0xbd879db0	-0.066218734
24	0xbdf3bdfc	-0.11901471
25	0xbdf7b4f3	-0.1209506
26	0x3d9b70ee	0.07589899
27	0xbbc76580	-0.006085098
28	0xbdaafab2	-0.083485976
29	0x3dd8f3e2	0.10593392
30	0x3de86b6f	0.11348616
31	0x3a7c0d81	0.00096150493
32	0xbde49af0	-0.111623645
33	0x3dc2257d	0.094798066
34	0xbdeff102	-0.117158905
35	0x3db9eee6	0.090787694
36	0x3db2381e	0.0870211
37	0xbb9f8b1a	-0.004868877
38	0xbdc506ac	-0.09620413
39	0xbcb89b6a	-0.022535045
40	0x3b4b9875	0.0031066213
41	0x3dcad79e	0.09904407
42	0x3dd68e52	0.10476364
43	0x3dec8140	0.1154809
44	0xbd451d22	-0.048123486
45	0x3cfd1968	0.030895904
46	0xbe075142	-0.13214591
47	0x3de582f6	0.112066194
48	0x3d68f488	0.05687383
49	0xbd4b3705	-0.049613018
50	0x3d878c68	0.06618577
51	0x3d985f7c	0.07440087
52	0xbd74d7d8	-0.059776157
53	0xbcb0ad8a	-0.021567125
54	0x3ccf4540	0.025301576
55	0x3dea3ab5	0.11436979
56	0xbd961e1e	-0.07329963
57	0xbda4ec38	-0.08052868
58	0xbdbf3ac8	-0.093373835
59	0x3da0c1c4	0.07849458
60	0x3d9d6f4f	0.07687246
61	0xbde479cf	-0.11156046
62	0xbde62af0	-0.112386584
63	0xbd24e120	-0.04025376

gnn_layer_0.n_self_func.0.weight f4 [64, 1]
0	0x3f541f47	0.82860225
1	0xbe90b218	-0.28260875
2	0x3f0bbc7e	0.5458449
3	0xbf28fb5e	-0.66008556
4	0xbea92118	-0.3303306
5	0x3e99e367	0.30056307
6	0xbf0f1fe6	-0.5590805
7	0xbe6caac8	-0.23112023
8	0x3f068f2b	0.52562207
9	0x3df24b0f	0.118307225
10	0xbf56cf90	-0.83910465
11	0x3f2ed2db	0.6829049
12	0xbee30eb4	-0.44347155
13	0xbf263920	-0.64930916
14	0xbf343420	-0.70392036
15	0xbec925f0	-0.39286757
16	0x3eb5ebe6	0.3553154
17	0xbeed6139	-0.46363238
18	0xbf6e241e	-0.9302386
19	0x3f2876e4	0.6580641
20	0x3e9d5b88	0.30733895
21	0x3d16bf20	0.036803365
22	0x3d424e20	0.047437787
23	0xbe1a9d38	-0.15099037
24	0x3f255af1	0.6459189
25	0x3f28e7df	0.6597881
26	0xbe6c9928	-0.231053
27	0xbeb9c7f3	-0.36285362
28	0xbf0e23d8	-0.55523443
29	0xbf55a556	-0.8345541
30	0x3f2df6c4	0.6795466
31	0x3e12a746	0.14321622
32	0x3ea574a7	0.3231556
33	0xbdffc330	-0.12488401
34	0x3f007edb	0.50193566
35	0xbe5b0fd8	-0.21392763
36	0x3f2dfb84	0.6796191
37	0x3abc0103	0.0014343563
38	0x3ee0fb31	0.43941644
39	0xbf123350	-0.57109547
40	0xbde5b580	-0.11216259
41	0x3d8bdd80	0.06829357
42	0xbdea3049	-0.11434991
43	0xbf26e792	-0.651971
44	0x3f217286	0.63065374
45	0xbe18cb50	-0.14921308
46	0x3e82c467	0.25540468
47	0xbf5e9d1c	-0.8695848
48	0xbea54e0c	-0.32286108
49	0x3f056cb4	0.5211899
50	0xbe01b750	-0.12667584
51	0xbedb1abc	-0.42793834
52	0xbe7cdddf	-0.24694012
53	0xbe8829b4	-0.26594317
54	0x3f1f5d12	0.6225139
55	0x3ca22521	0.019793095
56	0xbed901ac	-0.42384088
57	0xbec541c0	-0.38526726
58	0x3f17dbb7	0.59319633
59	0xbf63483a	-0.88782084
60	0x3f4fa73a	0.8111454
61	0x3eaf2779	0.34209803
62	0x3e41b3a4	0.18916184
63	0xbf45dc67	-0.7728943

gnn_layer_0.n_self_func.0.bias f4 [64]
0	0x3d910d7b	0.07082649
1	0x3af2dc00	0.00185287
2	0x3e234fd1	0.15948416
3	0x3f22546d	0.63410074
4	0xbf3b00f0	-0.73048306
5	0xbecabc8b	-0.39596972
6	0x3ecca474	0.39969218
7	0xbf65ea00	-0.8981018
8	0x3f34d19d	0.70632344
9	0x3f7e33af	0.9929761
10	0x3d8090d0	0.06277621
11	0x3e5a1cec	0.21300095
12	0xbe0e0460	-0.13868856
13	0xbf4da9ea	-0.80337393
14	0xbf62a97e	-0.88539875
15	0xbcd45400	-0.02591896
16	0x3f789a1b	0.97110146
17	0x3f6abf3b	0.91698045
18	0x3f250964	0.64467454
19	0xbf7c01eb	-0.98440427
20	0xbf5d55fc	-0.86459327
21	0x3eddd189	0.43323925
22	0xbf3de37c	-0.7417524
23	0xbf536956	-0.82582605
24	0xbeec36b4	-0.46135485
25	0xbf2a780a	-0.66589415
26	0xbe37ff90	-0.17968583
27	0x3f4b7ea2	0.794901
28	0xbf0130ec	-0.50465274
29	0xbf544802	-0.82922375
30	0xbeae97bc	-0.3410014
31	0xbced7842	-0.028988007
32	0x3e1a8aef	0.15092061
33	0x3cd70ac0	0.026250243
34	0xbf4f55be	-0.8099021
35	0xbeb5a830	-0.3547988
36	0x3f7ef171	0.9958716
37	0x3f4eb19f	0.8073978
38	0x3de9d22f	0.114170425
39	0xbf3a57a4	-0.7278998
40	0xbf045b44	-0.5170176
41	0xbecefc70	-0.4042697
42	0x3f63f380	0.89043427
43	0x3ea45c9c	0.32101905
44	0x3eb84e36	0.3599717
45	0xbf17dc4c	-0.5932052
46	0xbee33591	-0.44376805
47	0x3ea76114	0.32691252
48	0x3e33e940	0.17569447
49	0xbefdd914	-0.4957968
50	0xbe11c118	-0.14233816
51	0x3f40ff63	0.7538969
52	0x3ee09680	0.43864822
53	0xbf164078	-0.5869212
54	0xbe8e969e	-0.27849287
55	0x3f44a223	0.768099
56	0x3f0017c2	0.5003625
57	0x3e895960	0.26826
58	0xbf62d4bb	-0.8860585
59	0xbe893c04	-0.268036
60	0xbf42e871	-0.7613593
61	0xbf38cfcf	-0.7219209
62	0x3e9e2e3d	0.30894652
63	0x3f697ba3	0.9120428
