ThinkMatch/exp_aaai/ngm/CV4/saved_models/model.pt (torch, 207121 bytes, 25 tensors)

affinity_layer.lambda1 f4 [64, 64]
000000 a2 42 04 3f d1 f5 a7 bd b4 7f a4 bd 96 44 59 bd
       0.51664174 -0.08201183 -0.0803217 -0.053043924
000010 77 5c 44 bd a8 05 e0 3b bc 77 7c bd 05 5f 13 bd
       -0.047939744 0.006836612 -0.061637625 -0.03597929
000020 53 e2 47 bd 00 6a 86 3d a7 67 de 3d 43 3b 79 bd
       -0.048799824 0.06563187 0.10859614 -0.060847532
000030 a4 ce 48 3d eb 97 a1 bd 1b cb 28 3d 4a c2 13 3d
       0.049025193 -0.07890304 0.04120932 0.03607396
000040 28 21 a7 bd ed 4a e9 3c 28 87 37 3a c2 25 23 3d
       -0.08160621 0.02847811 0.0007001036 0.03983093
000050 38 65 13 bd 16 45 09 bc 92 2a dd bc 46 22 6d 3d
       -0.0359852 -0.008378288 -0.026997838 0.057894014
000060 4a fe 30 3b 6d de 81 bc 7e 9d 34 bd da e0 9f 3c
       0.0027007037 -0.015853131 -0.04409551 0.019516397
000070 87 62 74 3c bf 32 a4 3d ef 2c 42 bd 79 6b 7e bc
       0.014916069 0.080174915 -0.047406133 -0.015528553
000080 90 72 59 3d 09 21 2d bd 02 bb a6 3d e5 3b ea 3b
       0.05308777 -0.042267833 0.08141138 0.0071482533
000090 c4 db a1 bd 90 ce a5 bd 55 3b 61 3d 97 1d 9b 3b
       -0.07903245 -0.08096039 0.054988224 0.004733752
0000a0 6d 1d 84 3c b4 e4 7b 3d 09 a6 b3 bd 47 dc 1b bd
       0.016127313 0.061497405 -0.08771903 -0.03805187
0000b0 c7 2a 0d bd cf 66 9c bd b8 8a 69 bc 8b 13 9a bd
       -0.034464624 -0.07636797 -0.0142542645 -0.07523259
0000c0 2f c9 bf bc 6e b3 3c 3e a2 01 a0 bb e9 e0 a3 3c
       -0.023411362 0.18427822 -0.004883007 0.020004706
0000d0 4e b6 b4 bc 9f 1e 8e 3d d9 ce 43 3e 2b 7b 07 bd
       -0.022059586 0.06939434 0.19121875 -0.033076447
0000e0 b4 0a 9d 3d 37 f7 7e 3d d1 2d 9d 3d a0 c1 df bb
       0.07668057 0.06224748 0.076747544 -0.006828502
0000f0 8d c3 b0 bd 81 e9 b8 bc 53 3a 99 bd 53 26 6f 3d
       -0.08631048 -0.02257228 -0.074818276 0.05838616
000100 de bc 9f 3d 6d 4a d1 3e 5b fb 0d bd 23 bd 2e 3c
       0.077996954 0.40877095 -0.03466354 0.010665211
000110 37 38 93 3c 5d 36 0a bd a3 90 15 bd cc 47 8c bd
       0.017971141 -0.03374325 -0.03651489 -0.06849632
000120 ce 74 13 bc 82 c1 b0 bd 5c 0f 58 3d e2 64 1a 3d
       -0.009000016 -0.08630659 0.052749023 0.037693866
000130 c5 72 b2 bd 41 2a a5 3d 1f 27 22 3d 55 a4 8a 3d
       -0.08713297 0.080647 0.03958809 0.06769625
000140 23 cc bd 3a 5d ef 4e 3e 9e 78 26 bc e7 d8 32 bd
       0.0014480393 0.20208497 -0.010160593 -0.043663885
000150 30 77 e4 bb 95 8d 8f bd f1 8b f8 bb 10 5c 9c 3c
       -0.006972216 -0.070094265 -0.0075850417 0.019086868
000160 f0 7e 73 3d a3 db e9 3b 83 bd 62 bd 0e c1 1f bc
       0.05944723 0.0071367784 -0.055356514 -0.009750618
000170 cc 9f 96 3d 88 7a 3d bd 30 cf 86 bd 6f ad 96 bc
       0.073546976 -0.046259433 -0.06582487 -0.018393246
000180 fb fa 87 3d 1d 76 2e 3d 75 cc 6c 3d 23 68 ad bd
       0.066396676 0.04259311 0.057812173 -0.08467128
000190 8d d3 1d 3d 4e cd a1 bc 56 b3 ad 3c 4b 57 78 bc
       0.03853183 -0.019751217 0.021203678 -0.015157531
0001a0 c2 b3 47 3d e6 5a 99 bc bf db e1 bc 52 e4 ab bd
       0.048755415 -0.018720102 -0.027570603 -0.08393158
0001b0 e2 94 00 3e ba 5d 3b bd 82 c8 16 3c bc c1 b7 bc
       0.12556794 -0.04574368 0.009203078 -0.022431247
0001c0 41 0c 95 bd 54 fd 7d bd f0 1c 2b 3e 83 8c 4b 3c
       -0.07277728 -0.06200917 0.16710258 0.012423637
0001d0 53 56 93 bd ad b5 5d 3b 13 32 43 bd 46 8b 75 3d
       -0.071941994 0.003383021 -0.047655176 0.059947275
0001e0 27 f0 63 bd 8f 48 d8 bb 7d 38 ad bd 88 15 5d 3b
       -0.05564895 -0.0066004465 -0.0845804 0.0033734757
0001f0 aa fc 08 bd bc 9b 03 3c 54 98 89 bc d5 20 16 3d
       -0.033444084 0.008032735 -0.016796269 0.036652405
000200 e1 8a 9f 3d 82 4c ea 3c 64 27 a4 3e 2e 0c a5 3d
       0.07790161 0.028600935 0.32061303 0.08058964
000210 95 11 1e bd 61 12 a5 3c c4 dc 87 3b 9d 9e b3 3d
       -0.038590986 0.020150365 0.0041461904 0.087704875
000220 0d 76 55 3c c4 6d 8e 3d 46 12 11 bd c8 74 98 bd
       0.013028634 0.0695453 -0.035417818 -0.07444149
000230 6b 15 a7 bd e3 d2 7e bc 91 4b 2b 3d 4f d7 dc 3b
       -0.08158382 -0.015553209 0.041820113 0.006739534
000240 e0 a5 bf 3c 8e 6b 18 bd 48 ba 95 bd c2 68 38 bd
       0.023394525 -0.037211947 -0.07310921 -0.04502178
000250 dc 2c 76 3d 34 2a 2d 3c 2a 35 b4 bd d0 f1 f3 bb
       0.060101375 0.010569144 -0.08799203 -0.007444598
000260 41 3e 4f bd 0f 62 99 bc d2 b3 94 3c 8e c3 55 bd
       -0.05059648 -0.018723516 0.018152151 -0.05218845
000270 83 47 45 bd d1 ec 01 3c 5b dd 9f 3d 13 8e d6 3c
       -0.048163902 0.007929997 0.07805892 0.026190793
000280 1c 44 23 bd 1a 8b 74 bd 95 c8 3c bc 40 6c 27 bd
       -0.039859876 -0.05970297 -0.011522432 -0.04087472
000290 62 ae 98 3d c8 d1 82 3d 19 a1 2d 3d ad f5 e3 bc
       0.07455136 0.06387669 0.042389963 -0.027827108
0002a0 ce 00 65 bc 1c 84 7a bd 4c 20 db bb d3 06 ae bd
       -0.013977243 -0.061161146 -0.0066871997 -0.08497395
0002b0 c9 19 13 3d 44 83 8d bd e2 d2 31 bd a2 b6 b4 bd
       0.035913263 -0.069098026 -0.043414004 -0.08823897
0002c0 70 fa 9d bd 85 13 1a 3d 77 c5 6f 3c e9 76 63 3d
       -0.07713783 0.03761627 0.014634482 0.055533323
0002d0 c1 e6 63 bc 33 b9 a1 3d a6 eb ef 3b 40 36 97 3d
       -0.0139099965 0.07896652 0.0073217927 0.07383394
0002e0 b0 13 f0 3c 88 3f 69 3d 6d 7e ee b9 d6 af 9a bc
       0.029306263 0.056945354 -0.00045489092 -0.018882673
0002f0 b2 61 53 3e d1 2a 96 bd f4 88 a1 bd 15 64 4a 3d
       0.20642737 -0.07332385 -0.0788745 0.049411852
000300 4c 1c 91 bc 2e b7 97 3c bd 16 4f 3d d9 e2 d3 3e
       -0.017713688 0.018519964 0.050558794 0.4138401
000310 21 eb 64 bd 9e ed 41 3d 54 6e 8a bd 20 11 a0 3d
       -0.0558883 0.04734575 -0.06759325 0.07815766
000320 a8 21 16 3d 31 16 94 3d d6 49 42 3a e8 eb 6c 3c
       0.03665319 0.07230795 0.0007411515 0.014460541
000330 f7 b1 32 bc 46 1f 04 3c ce 8a 8e bd 5f 59 87 bd
       -0.010906688 0.008064097 -0.06960069 -0.06608843
000340 7d f6 f9 bc b0 7f 1c 3d b8 f8 37 3c b2 b2 fc 3c
       -0.030513043 0.03820771 0.011228733 0.030846927
000350 3e 69 2e bd fe 7e ce 3c d6 99 e8 3c 1b 17 9b bd
       -0.042580836 0.025207039 0.028393667 -0.075727664
000360 1c c8 01 bd b1 84 8c 3c 6f 68 e7 3c fe 53 40 bc
       -0.03168498 0.017153116 0.02824804 -0.011738775
000370 4e e0 4f bd 13 e4 42 bc bd a2 82 3d 96 99 c4 3c
       -0.050751023 -0.011895197 0.06378696 0.023999017
000380 9f 3d 58 3d 8c 90 89 bc ba d3 97 bd 08 48 71 3c
       0.05279314 -0.016792558 -0.074134305 0.014726646
000390 3e 93 03 bd 76 23 00 3d 72 4a 28 3d ee c6 a1 bd
       -0.032122843 0.03128382 0.04108662 -0.07899271
0003a0 5a 9a 7e bd f1 bd 29 bd b7 76 5e bc 12 a4 b2 bd
       -0.06215892 -0.041440908 -0.0135781085 -0.087227
0003b0 21 5d cb ba f4 d5 6a 3c 1c bc 23 3d 3f cd 6d 3d
       -0.0015515425 0.014333237 0.039974317 0.058057066
0003c0 f0 aa 91 bd 6c 12 73 bd 9f 19 8f 3b 47 4d 6a 3d
       -0.07112682 -0.05934374 0.004367068 0.057202604
0003d0 8e ac 70 3d 90 24 88 3d a8 52 18 3d 13 ba 47 3d
       0.05875831 0.06647599 0.037188202 0.04876144
0003e0 56 0d 15 3d b6 1f c1 3c 0b 4b a3 3d 76 9b 14 bd
       0.03638967 0.023574691 0.07973298 -0.03628107
0003f0 5b bc 97 bb 80 28 6c 3c 1e 6b 58 bd 04 56 6d 3d
       -0.004630608 0.014413953 -0.05283653 0.05794336

affinity_layer.lambda2 f4 [64, 64]
000000 0c 8e f0 3e 96 3a 66 bd 28 82 87 bd 19 d8 bf bc
       0.46983373 -0.056208216 -0.06616622 -0.023418473
000010 b6 22 92 bb b2 5a 59 3d 00 83 0b 3c 7f 1f 85 bd
       -0.0044597043 0.05306501 0.00851512 -0.06500148
000020 26 18 96 bd eb af 04 bd b5 3f 4d 3d 55 73 0b bd
       -0.07328825 -0.03239433 0.050109584 -0.034045536
000030 17 e4 4b bd 75 2f 73 3d 0b 7d 23 bd 91 70 7b 3d
       -0.04977807 0.05937143 -0.039914172 0.06138665
000040 48 36 00 bd b6 fa 2d bd d3 f3 06 bb 73 b4 a1 bd
       -0.031301767 -0.042475425 -0.0020592108 -0.07895746
000050 7e 22 ab 3d 0b 43 ce 3c 5c 9f fd 3a 09 43 94 3d
       0.08356188 0.025178453 0.0019349861 0.072393484
000060 d4 a2 9f bd 99 c5 84 3d 2a 10 15 3c 71 83 e2 bb
       -0.07794729 0.06483001 0.009098092 -0.0069126417
000070 e7 bc 4b bb 42 73 74 3c 11 8b b8 3d 70 db f6 bc
       -0.0031087936 0.014920058 0.090109 -0.030133933
000080 6c 2f 36 3d cd 9a 95 bb f1 6c 83 3d 24 50 a4 bd
       0.04447882 -0.004565573 0.06417263 -0.08023098
000090 0b 64 8d 3d 32 6e e4 bc 50 9d 3f bd ad 5a 2a bd
       0.06903847 -0.027884576 -0.046780884 -0.04159038
0000a0 8f 77 8f 3c c9 d2 ef bc 4b 74 8d bc 37 ed 0b 3d
       0.017513065 -0.029275315 -0.017267367 0.034161773
0000b0 e9 7e 95 bd 40 b1 c5 3d 15 c6 91 bd 64 5f cf b8
       -0.07299597 0.096529484 -0.07117859 -9.888297e-05
0000c0 46 38 8c 3b 01 41 94 3c 59 a6 b5 bb a0 69 5f bb
       0.0042791693 0.018097403 -0.005543512 -0.0034090057
0000d0 83 f1 00 3d 39 ff 02 bd 7c 58 2f bd ed 68 51 bd
       0.031480324 -0.03198168 -0.042808995 -0.051125456
0000e0 24 d8 ad bd bb df 6f 3c b1 45 1d 3e 4a 9c 14 3c
       -0.08488491 0.014640744 0.15358616 0.009070465
0000f0 93 0c d9 3d a6 3c ab bd b0 00 04 bd 60 0a 9f 3d
       0.105981015 -0.08361177 -0.03222722 0.07765651
000100 fa 7f 2a 3d 99 36 f7 3e c4 19 9d bd e8 79 64 3c
       0.041625954 0.48283842 -0.0767093 0.01394508
000110 75 48 08 3d e9 bc 0f 3e f4 13 95 3d 1c 44 a9 3d
       0.033272225 0.14036907 0.072791964 0.08264944
000120 0c ea 26 3d 3c 16 23 3e ab 78 af 3b ae 4d 07 3d
       0.04075055 0.1592645 0.005354961 0.033033065
000130 5e de 6a 3d 52 c0 7e 3d 99 18 b5 3d 5e 8b ce 39
       0.057340972 0.06219513 0.08842582 0.00039395218
000140 c2 c0 30 bd f2 23 49 bd 2d 0b a2 bd a7 fa 00 3c
       -0.04315258 -0.049106546 -0.07912288 0.00787226
000150 71 14 24 bd 07 0d 97 bd b0 40 0d bd 33 65 a5 bc
       -0.040058557 -0.07375532 -0.03448552 -0.020189857
000160 db 4e 82 bd 34 87 00 bd 91 1d b2 bd d6 a1 05 3d
       -0.06362697 -0.03137894 -0.086970456 0.032625042
000170 e4 7b 65 3c 9c 7e e7 39 79 0d a0 bd 5f 62 de 3d
       0.014006589 0.00044154085 -0.0781507 0.108586065
000180 43 a3 80 3d 8c 31 49 bd b3 b6 aa 3c 1c 12 b3 3d
       0.0628114 -0.049119517 0.02083907 0.087436885
000190 6d e5 3e 3d 68 07 95 bd 4a 52 e3 bc 4e 4c 26 3c
       0.046605516 -0.07276803 -0.0277492 0.010150028
0001a0 d9 18 88 bd 1c 65 a0 3d e4 99 d8 bc 22 6f fe 3c
       -0.06645364 0.07831785 -0.026440568 0.031058852
0001b0 f1 87 50 3c 66 ca 70 bd 22 ee 85 bd ad c2 f4 bc
       0.012727723 -0.058786772 -0.06539561 -0.029877985
0001c0 2d 97 87 3c 5b d2 94 3b 69 5c 4e bd 00 3f 63 bd
       0.016551578 0.004541678 -0.050381098 -0.055480003
0001d0 ab 40 a2 bd 6f f5 0c 3e 92 7f 7b bd 0f 35 eb 3b
       -0.07922491 0.137655 -0.061400957 0.007177956
0001e0 1a 1b 5d 3c b7 5f 9c bd 3e da 37 bd c3 7e 93 3d
       0.013495231 -0.07635444 -0.044885866 0.07201912
0001f0 d3 a3 83 3e c2 f9 28 bd b6 3b 01 3c 56 87 65 3d
       0.25710925 -0.041253813 0.007887771 0.05603727
000200 60 5a ab bd 7c 53 83 3d d6 9b cc 3e 60 9a 09 3d
       -0.08366847 0.06412408 0.39962643 0.03359449
000210 43 a5 08 bb 83 23 86 3c 55 dc 4b 3d a8 b1 4f 3d
       -0.0020850457 0.016374355 0.049770672 0.050706536
000220 91 79 42 bc 8f 11 9e bd 08 1d 61 3b b9 89 2f 3d
       -0.011869804 -0.07718193 0.003434958 0.042855952
000230 d4 e6 39 bd 18 5e a4 bd c2 b5 87 3d 73 d6 1c 3c
       -0.04538615 -0.080257595 0.066264644 0.009572613
000240 cb 1c e3 3c 64 be df 3c 22 c2 8a bd 47 82 54 bc
       0.02772369 0.027312465 -0.06775309 -0.012970514
000250 ac ca 64 3c d6 d2 2f bc 23 67 2d bd 51 89 37 3d
       0.013964336 -0.01073142 -0.042334687 0.04480869
000260 df d6 55 3d 6a 8d 21 bc c3 0b 53 3d 68 2c a1 3d
       0.05220687 -0.009860376 0.05152489 0.07869798
000270 c9 82 93 bd 91 1d e7 3c d2 2b 24 bc 1a b0 af bd
       -0.0720268 0.02821234 -0.010020213 -0.085785106
000280 9d e3 67 bd 60 fc 8f bd 86 b9 af bd 04 0e c0 3c
       -0.056613553 -0.070305586 -0.08580308 0.023444183
000290 4f c7 73 bd e7 d3 22 3c 98 02 53 3d 87 10 90 bd
       -0.059516247 0.009938217 0.051516145 -0.07034402
0002a0 3d 55 a2 bd f8 c8 c2 3d c3 66 0f bd a2 94 4f bd
       -0.07926414 0.09510988 -0.03501011 -0.050678857
0002b0 96 35 d1 3d ec 9c 88 bd 5f 1f 85 bd 30 8d 9c bc
       0.10215299 -0.066705555 -0.06500124 -0.019110292
0002c0 75 34 98 3c 02 c0 fc 3d e5 fb 4c 3d 87 ec 8a bd
       0.018579701 0.1234131 0.050044913 -0.06783395
0002d0 75 c2 98 3d e8 40 16 bd 03 70 f5 3c b0 d6 83 bd
       0.07458965 -0.036682993 0.029960638 -0.06437433
0002e0 e9 77 dd bb b4 42 22 3e 3b 05 ae bd ef ca 0e bd
       -0.006758679 0.15845758 -0.084970914 -0.0348615
0002f0 85 f7 1b 3a 1a 3d a0 bd 82 4b 87 bb 87 32 a1 3d
       0.0005949664 -0.07824154 -0.0041288743 0.078709655
000300 47 9f 98 3d dc 03 7c 3d e1 72 39 bd 61 da fc 3e
       0.07452255 0.061527118 -0.045275573 0.4938536
000310 c0 3d 60 3d 6d 15 f3 3b e5 f0 64 3d ed 0f 91 bd
       0.05474639 0.0074183256 0.055893797 -0.07083116
000320 24 f9 05 3d 73 c1 24 bd 03 1b 09 3d 3f f6 0e 3d
       0.032708302 -0.04022355 0.033473026 0.034902807
000330 85 cf b8 bc 80 86 39 bc c4 da 57 bb de 15 f2 3c
       -0.02255989 -0.011323571 -0.003293679 0.029551443
000340 5f 95 9d 3c 9c 3f a9 bd a5 44 6a bd 21 d4 07 3d
       0.019236265 -0.08264086 -0.05719437 0.033161286
000350 f8 74 a9 bd 34 5c 1b bd 47 c4 92 3c 82 bf 0d bd
       -0.08274263 -0.03792973 0.017915858 -0.034606464
000360 49 37 06 3c 30 77 e4 3b 97 8d 58 bd 64 62 42 bd
       0.008191892 0.006972216 -0.052869406 -0.047457114
000370 00 20 d2 3b f7 47 43 3d 9e 8c 9d 3d d8 ed 23 3d
       0.006412506 0.047676053 0.07692836 0.040021747
000380 36 0f ae bd 48 00 f5 3b 3f e1 1e bd b7 33 3a bd
       -0.08498995 0.00747684 -0.03878903 -0.045459475
000390 6d 59 98 bc 3f 8a 99 bd d8 2b 9c 3d 9c 2b 33 3d
       -0.018597329 -0.074970715 0.0762555 0.04374276
0003a0 b9 bd a6 bd 44 86 99 3d 03 43 a4 3d 79 87 94 3d
       -0.081416555 0.07496312 0.08020594 0.07252402
0003b0 7c 81 94 bd 81 c0 9e bd a5 fe 9e bd 97 df 53 3d
       -0.0725126 -0.07751561 -0.07763413 0.051726904
0003c0 03 ae 23 bb 69 21 30 3d 48 f1 5e 3d 93 42 a4 bd
       -0.0024975545 0.043000612 0.054429322 -0.080205105
0003d0 1b 76 80 bd 04 e8 86 bd 8d 66 0a 3c ec c8 9c 3d
       -0.06272527 -0.06587222 0.008447302 0.0765551
0003e0 cb a7 97 bd eb bd a5 3d 73 89 8c bd 5d 5d 87 bd
       -0.07405051 0.080928646 -0.06862154 -0.066096045
0003f0 ae f2 98 bd 65 0f 10 bc 6a 94 0b 3d 04 cb 1a 3d
       -0.074681625 -0.008792733 0.034077086 0.037791267

node_layers.mlp_0.weight f4 [64, 121]
000000 2f d7 fa bc 95 5c 8b bd 78 21 77 bd f3 b2 86 3d
       -0.030620186 -0.06804768 -0.060334653 0.065771006
000010 6f 93 8a bc 3c 66 a0 3d af e8 18 3d a0 ef ad 3d
       -0.016916005 0.07832 0.03733128 0.084929705
000020 69 78 50 bc a2 55 82 3d cc da a1 bd 96 4d ab bd
       -0.0127240205 0.063639894 -0.0790306 -0.08364408
000030 5d 32 39 3b f9 9c b2 bd bd d1 39 bd 0a 2b 84 3d
       0.0028258779 -0.087213464 -0.045366038 0.064535215
000040 f2 82 41 bd f5 09 18 3d b5 09 08 bd 03 8e 44 3d
       -0.04724402 0.03711887 -0.033212382 0.047986995
000050 2f 1f 49 3d fb 7c da 3c cf 1b b8 3d e9 44 2d 3c
       0.049102005 0.026670923 0.08989679 0.0105755115
000060 e9 09 9a 3b d2 86 9e bc e6 ae 83 bd 99 7c ae bd
       0.0047008884 -0.019351397 -0.064298436 -0.08519859
000070 46 d2 a5 bc a3 f3 59 bc 3e 1b 53 bd 72 cc a6 bd
       -0.020241868 -0.013302716 -0.051539652 -0.081444636
000080 95 fc 35 bd b8 f8 12 3d a3 c3 33 ba a5 ee 8e 3d
       -0.044430334 0.035881728 -0.000685746 0.069791116
000090 d2 31 3f 3c 68 71 88 3d 22 ba 9c bd 3b d4 a7 3c
       0.011669593 0.066622555 -0.076526895 0.020486942
0000a0 c3 d8 5c bd 63 06 d3 bc 56 12 b7 3d 73 d1 8a 3d
       -0.053917658 -0.025759881 0.08939044 0.067782305
0000b0 92 44 0a 3d d2 2d ba 3b 20 33 3d 3d 45 2e a7 bd
       0.0337568 0.0056817317 0.046191335 -0.08163122
0000c0 35 22 d5 3c cb cc a6 3d 58 f9 86 bc 75 e0 e5 bb
       0.026017288 0.0814453 -0.016476318 -0.0070152828
0000d0 72 51 90 bd c6 b2 dc 3c 63 b7 19 bd 98 5a b8 3c
       -0.070467845 0.026940715 -0.037528407 0.022504136
0000e0 92 e6 fd 3c df cc a9 3d a3 6d 23 3d 1d 3c 0b bd
       0.030993734 0.08291029 0.03989948 -0.033992875
0000f0 5d 2c 95 3c 3d 79 4f 3d 2d be 83 bd 3a ea 15 bc
       0.01820963 0.05065273 -0.064327575 -0.009150082
000100 75 f2 97 3b c6 a4 f9 bc 63 70 cf 3c 8c 3f 96 bd
       0.0046370574 -0.030474078 0.025322145 -0.07336339
000110 10 95 b0 bd e6 ae 80 3d 8c 6e 6b 39 00 5c 06 bb
       -0.086221814 0.06283359 0.00022452528 -0.0020501614
000120 78 55 b3 3d 92 e7 36 bd 29 56 de bc 23 c0 79 3d
       0.08756536 -0.044654436 -0.027140694 0.06097425
000130 ff 0f 97 3d 06 87 f9 bc c6 89 5b bc 28 80 b3 bd
       0.07376098 -0.030459892 -0.013399547 -0.08764678
000140 2f 71 59 3d f2 36 86 3d d2 e1 90 3c d9 4d b4 bd
       0.053086456 0.06553449 0.017685805 -0.08803911
000150 78 31 15 3d 06 57 d1 3c de dd f7 3c 9f 28 99 3d
       0.03642413 0.025554191 0.030257162 0.07478451
000160 bb fe b9 3c e0 08 a1 bd 60 bd 2d bd 29 41 a1 bc
       0.022704473 -0.07863021 -0.04241693 -0.019684391
000170 32 3a 6a bd 2f 4a f4 bb b2 94 6e 3d 76 49 9e bd
       -0.057184406 -0.0074551324 0.058247276 -0.07728855
000180 18 f2 32 bd 0f f2 65 bd 4a 5c 9b bd 46 8c 86 3c
       -0.04368791 -0.05613905 -0.07585962 0.01642431
000190 d0 c0 85 3d f9 f4 b7 bd ba 6f 03 bd 80 6a 18 3c
       0.06530917 -0.08982272 -0.032088973 0.009302735
0001a0 5e 83 7e bc 23 49 0d bd f2 b0 73 bd 23 17 14 bc
       -0.01553425 -0.034493577 -0.05949492 -0.009038719
0001b0 36 f7 89 bd 58 ef 0e bd 6f 69 d1 3c 43 40 6c bd
       -0.06736605 -0.034896225 0.02556297 -0.057678472
0001c0 b8 8b 1c 3d 09 60 60 3d c0 6f 3f 3d 0f 43 a8 3d
       0.038219184 0.054779086 0.046737432 0.082159154
0001d0 0f aa 4e bd f6 18 b6 bd 8c 9c 37 bb ff 9a 8f bd
       -0.05045515 -0.0889148 -0.0028016893 -0.07011985
0001e0 23 25 75 bc 13 e9 eb 3a 33 02 eb 3d 9e 0e ab 3d
       -0.014962467 0.0017998539 0.11475029 0.083523974
0001f0 d7 db ca bd 2d ca 81 bd 54 19 2f 3d 45 16 d7 3d
       -0.099052124 -0.0633739 0.042748764 0.105022945
000200 1c c1 9b bd 2c 9d 17 bb 79 ac 99 3d 36 66 df 39
       -0.07605192 -0.0023134453 0.075036 0.00042610028
000210 79 0f 19 bd 18 db e7 3c 8e 5f 4e bc 41 42 1e 3d
       -0.03736827 0.028302714 -0.012596024 0.038637403
000220 b9 8c 37 bc 14 45 80 3c 5f 6b 83 bc e8 04 3d bc
       -0.0112029845 0.015657939 -0.01604241 -0.011536814
000230 43 27 1c bd a8 70 f2 bc 00 e6 38 bd 4a 75 28 3d
       -0.03812338 -0.029594734 -0.04514122 0.04112748
000240 54 2c 0c bd 6b 46 42 3d 92 5e 5e bc 5b 96 a4 bb
       -0.034221962 0.047430437 -0.013572352 -0.0050228066
000250 2d 36 6d bd cf a3 31 3d 98 78 84 3d 38 f3 05 3c
       -0.057912994 0.04336911 0.06468314 0.008175664
000260 ea bb 1e bc f1 7f 42 3d f4 d8 02 3d e8 6d 06 bb
       -0.009688357 0.047485296 0.031945184 -0.0020512287
000270 be b8 68 bc fb 25 9c 3b fc 1f 12 bd 99 a0 c7 3d
       -0.014204202 0.00476527 -0.035675034 0.097474284
000280 de ff ec 3c 93 6c ee 3c bc cc 2a 3d 99 42 c4 3c
       0.0289306 0.029104507 0.041699156 0.023957537
000290 6d 90 0c 3d 0f cc 1f bd 72 a4 e5 3d fc bb 1e bc
       0.034317423 -0.039012965 0.11213006 -0.009688374
0002a0 10 a9 e1 3b ae 7f f6 3b 93 c1 b4 bc 46 03 88 3d
       0.006886609 0.007522545 -0.02206496 0.06641249
0002b0 2e 63 8a bc 11 0c 6b 3c 45 21 0b 3d be d0 8b bd
       -0.016892996 0.014346139 0.033967275 -0.06826924
0002c0 a4 3c f1 bd 60 7b f6 bd 56 8d f1 3a 9c ae 7a bc
       -0.117791444 -0.12035251 0.0018428962 -0.015300419
0002d0 c8 51 a0 3d b5 fb 6f bd ac 21 a4 3d d8 61 a7 bb
       0.078280985 -0.058589656 0.08014235 -0.0051080994
0002e0 b8 25 0a bd e1 b2 0f bc e6 83 9b 3c fc ff 6b bc
       -0.033727378 -0.008770675 0.018983793 -0.014404293
0002f0 b8 ad ac bc 10 a5 75 3d 12 50 b0 3d 45 bd 58 3d
       -0.02107893 0.05997187 0.08609022 0.052914876
000300 65 d0 48 3d b4 f1 c1 bd d2 9a 47 3d a3 8b 0d 3c
       0.049026866 -0.09469929 0.048731633 0.008639249
000310 6e 5b ff 3c 84 b3 e7 3c 59 fe ef bc 24 83 97 bd
       0.031171527 0.028283842 -0.029296087 -0.0739806
000320 b6 5e 91 bd a6 90 22 bc 75 4d 49 bc c1 58 66 bc
       -0.07098143 -0.009922182 -0.012286534 -0.0140592465
000330 67 77 d3 bc 91 b6 ab bd 22 5d 6f 3d 10 34 83 bd
       -0.025813771 -0.08384431 0.058438428 -0.064064145
000340 cd 76 ab 3b a6 67 61 3d 33 59 a9 3d 37 8a f9 bd
       0.005232668 0.055030487 0.082689665 -0.121845655
000350 32 a0 4e bb 40 aa c2 3c 76 39 b5 bc 75 4b 1c bd
       -0.003152859 0.023762822 -0.022122126 -0.0381579
000360 c2 9a a6 bd 8f 4f fe bc c2 20 35 3d b5 46 a5 bd
       -0.081349865 -0.031043796 0.044220693 -0.08070127
000370 72 e2 71 bc fa b0 3e 3d 4f 6f ae 3d 23 52 66 bd
       -0.014763461 0.046555497 0.08517324 -0.056230675
000380 d4 50 85 bd 63 68 34 bd fd 68 fc bb 7b 32 a5 3c
       -0.06509557 -0.044044863 -0.0077029453 0.020165673
000390 cb 75 d0 3c be bf 77 3d 88 3a 52 bd ab 1c 7b 3d
       0.025446793 0.060485594 -0.05132535 0.061306637
0003a0 8d 6f f5 bc 8a b0 24 3c 39 f3 1c bb c4 bc 01 bd
       -0.029960418 0.010051856 -0.0023948683 -0.03167416
0003b0 a6 e2 c0 3d 81 f8 e7 3b b1 4c 4c bd b6 f5 3f bd
       0.0941823 0.0070791845 -0.049877826 -0.046865188
0003c0 02 0d 63 3d e9 7b da bc a8 f3 b4 3c c9 c3 a9 bd
       0.055432327 -0.026670413 0.02208884 -0.08289296
0003d0 0d 83 a7 bd 86 b2 75 3d 5a f0 d1 3c 5d 2a 81 bd
       -0.08179293 0.059984706 0.025627304 -0.06306908
0003e0 cf 44 9c 3d 64 97 7a 3d d8 f4 2a 3d 30 81 83 bd
       0.07630312 0.061179534 0.041737407 -0.06421125
0003f0 6b 6e 61 3d 4e a1 9a bd ee 16 90 bd 2c f1 a2 3c
       0.055036943 -0.07550298 -0.070356235 0.01989039

node_layers.mlp_0.bias f4 [64]
000000 0c ee 6b bc 24 cf 33 bd 77 bd a3 bd bf 60 7c bd
       -0.0144000165 -0.043898717 -0.07995122 -0.0616157
000010 c3 0e 8e 3d ce 90 d8 ba 83 21 1f bd 5a 32 75 3d
       0.06936409 -0.0016522647 -0.03885032 0.059862472
000020 d2 dd c8 bb c2 7c 06 bd 4c 48 5b bd 08 ce 0c 3d
       -0.0061299587 -0.032833822 -0.053535745 0.034376174
000030 55 c7 72 bd bf c1 5a 3d 77 79 9c 3c 17 6a 92 bd
       -0.05927213 0.053407427 0.019100888 -0.07149141
000040 98 12 66 bd 50 4f 7b 3d e5 a4 0b bd 82 c8 64 3d
       -0.056170076 0.061354935 -0.034092803 0.05585528
000050 cd 99 5a 3b 6a 64 49 3d 48 c0 98 bc 0a de 36 3d
       0.0033355833 0.049168028 -0.018646374 0.044645347
000060 ea 6c 48 bd 25 55 55 3d 5b 84 81 bd 18 60 75 bd
       -0.048931994 0.052083153 -0.06324073 -0.059906095
000070 0c 0a d3 3c 3f 64 4a bc 9e e3 80 3d 6c 23 80 bd
       0.025761627 -0.012353002 0.062934145 -0.06256756
000080 bf 42 2a bd 34 be bb bd cb b4 32 bd dc d8 ba 3d
       -0.04156756 -0.09167138 -0.04362945 0.09123394
000090 ce f0 89 3d 9c 35 4d 3c e9 a1 76 bc 8a 2f 2f 3c
       0.06735383 0.0125249885 -0.015053251 0.010692487
0000a0 64 0e 39 3c c0 f8 89 3c 2e be 9e 3c 2a 54 60 bd
       0.011294935 0.016842246 0.019377794 -0.054767765
0000b0 4f 5c 77 bd a8 5f 0b 3d ee ea 70 3c ec c3 7a 3d
       -0.060390767 0.03402677 0.014704449 0.061222002
0000c0 0c 50 fc bc fb 64 a0 bd 9e 45 24 bd 94 d5 bb bd
       -0.030799888 -0.078317605 -0.040105455 -0.09171596
0000d0 50 48 3d bc 4f c4 25 bd 4d 31 98 bd 42 31 73 bc
       -0.011552885 -0.040470418 -0.074312784 -0.014843287
0000e0 9c 90 80 3d 56 02 6b bc e6 5a dd 3c ae 1e 6d 3d
       0.06277582 -0.014343819 0.027020883 0.057890587
0000f0 26 92 2f bd 1e d1 64 3d 93 11 61 bd fa fa 8c 3d
       -0.042863987 0.055863492 -0.0549484 0.068838075

edge_layers.mlp_0.weight f4 [64, 121]
000000 1a f1 ae bc 35 79 79 3d 1b bb 02 3d 1e b4 6f 3d
       -0.0213552 0.060906608 0.03191672 0.058521383
000010 5f d8 0c ba 47 dc b5 3c 3c 1c e3 bd a3 4b 2f 3d
       -0.0005372818 0.022199763 -0.1108937 0.042796742
000020 6f 1c 51 bc 14 9b 43 bd a5 d6 82 3c b3 47 b3 bd
       -0.012763127 -0.047755316 0.015971491 -0.0875391
000030 b5 ef 52 bc 95 c8 8a 3d 39 51 73 bb 4d cf 22 3b
       -0.012874533 0.06776539 -0.003712727 0.00248428
000040 87 62 3e bd a3 99 45 3d ca 48 bc 3d 78 37 3e 3d
       -0.04648068 0.048242223 0.09193571 0.046439618
000050 61 f8 4a 3d ed 4a 7e 3a 74 bb 99 bc 80 7f b8 bc
       0.04955328 0.0009700496 -0.018766142 -0.022521734
000060 3d 40 4d 3d 05 ec 45 bd df 98 61 bd 37 f5 8e bc
       0.05011009 -0.04832079 -0.05507743 -0.017450912
000070 17 87 49 3d 2f 6f b0 bd c4 63 a8 bb 68 66 b1 3d
       0.049201097 -0.086149566 -0.005138846 0.086621106
000080 84 06 9c 3d 8e 84 94 bc 9a 1b 40 3c 53 b9 94 3d
       0.0761843 -0.018129613 0.011725331 0.0726191
000090 73 9a 6b bd 3a a5 84 bd 11 17 45 3d 47 92 3f bd
       -0.05752034 -0.06476827 0.0481177 -0.04677036
0000a0 59 41 89 3d 2c 7a b0 bb 9c 2d 01 bc d9 38 db bd
       0.06701917 -0.005385658 -0.007884409 -0.10704202
0000b0 85 96 70 bd 0a 28 cf bc 98 c5 a3 3d 90 f0 27 bc
       -0.058737297 -0.025287647 0.079966724 -0.010250226
0000c0 9c 52 e6 bc d5 a4 a5 bd 02 59 99 bd 15 b5 80 3d
       -0.028115563 -0.0808808 -0.0748768 0.06284539
0000d0 ac d5 86 bd 4c ef c4 3c d2 99 61 3d 21 86 bf bc
       -0.065837234 0.024039887 0.055078335 -0.023379387
0000e0 47 cc 8d 3d aa 1a d4 bd 7d e5 27 bd 10 8b 89 3c
       0.069237284 -0.10356648 -0.04099034 0.016789943
0000f0 7f 2e 9d 3c 7f 05 a4 3d b6 d7 2a bb 2c 90 ca ba
       0.01918721 0.08008861 -0.0026068515 -0.0015454344
000100 f9 cd c2 3d cf 9b 40 bd f4 73 50 3d dd 72 8a bd
       0.095119424 -0.04702359 0.05089183 -0.0676019
000110 59 30 8f bd 71 e6 5a 3d 31 bc b3 3d 4f 65 93 bd
       -0.069916435 0.053442422 0.08776129 -0.071970575
000120 43 b9 66 3d 40 fc 1f bd 03 c2 b0 bd 3e df 5d bd
       0.056329023 -0.039058924 -0.08630755 -0.05416798
000130 c4 7d 8c bd 05 88 a2 3d 94 ee a9 3d cd fe d5 3d
       -0.068599254 0.079361 0.08297458 0.1044899
000140 5d da c7 3d 42 7b 8d 3d de 54 a2 bd 46 17 51 3c
       0.09758446 0.06908275 -0.079263434 0.0127618965
000150 fc c8 d1 bd e8 49 73 bd ae ee 47 bc e4 44 a1 3d
       -0.10243413 -0.059396654 -0.012202902 0.07874468
000160 57 55 43 bd 2d 2c ba bd 93 39 02 bd 4c 70 f7 bd
       -0.04768881 -0.09090457 -0.03179319 -0.12081966
000170 22 22 4b 3d 67 4d 47 bd a6 d1 01 be b3 0d e7 3c
       0.0495931 -0.0486578 -0.12677631 0.028204774
000180 f6 8a 86 bd 64 54 7c 3d 02 42 35 3b ec 33 80 3c
       -0.065694734 0.06160392 0.0027657752 0.015649758
000190 18 cd 5b 3d e6 b6 90 3c 41 bb e1 3d 9e 2e e5 bc
       0.05366239 0.017665338 0.11022044 -0.02797633
0001a0 a5 dc 66 bd f7 ae 0d bd 04 98 90 bd a6 9e 5e 3b
       -0.056362767 -0.034590688 -0.07060245 0.0033969074
0001b0 e2 ec 30 be 02 c7 75 3d 2e 5b b5 bc 02 02 64 3d
       -0.17277864 0.06000424 -0.022138204 0.055665977
0001c0 f5 cb cd bd 44 55 6e 3d 96 9b a5 3d 11 f6 f6 bb
       -0.10048667 0.058186784 0.08086316 -0.0075366576
0001d0 ec 7b 2c bb f4 b1 e7 bc 0d ce 2e 3d ed cf 14 3d
       -0.002631898 -0.028283097 0.042676974 0.036331106
0001e0 16 42 8c 3d 48 08 fe 3c 33 a8 b0 bd ca b3 c0 bd
       0.068485424 0.031009808 -0.086258315 -0.09409292
0001f0 8b 88 a1 bd 6b 9d 9f bd 2b 3e 50 3d 53 02 57 bd
       -0.07887372 -0.07793697 0.050840538 -0.05249245
000200 92 78 e4 bd 40 d2 38 3c 81 bb 3f bd 97 1a 5f bd
       -0.111558095 0.011280596 -0.046809677 -0.054468717
000210 6b 1b a7 bd 76 a7 5c bd 7c 99 d2 b9 47 e8 78 3d
       -0.081595264 -0.05387064 -0.00040168676 0.060768392
000220 df 0a 00 3d 56 29 cd bd f5 d5 53 3c 7d da 55 bd
       0.031260367 -0.1001765 0.012929429 -0.05221032
000230 eb 0d 8b 3c f6 9d a5 3d 2c a8 98 bc 3c ff 81 bd
       0.01697441 0.08086769 -0.018634878 -0.0634751
000240 89 65 7b bc 81 e5 d2 bc 33 81 b3 bc 4e 5d 51 3d
       -0.015344032 -0.025744202 -0.021912193 0.051114373
000250 56 37 d9 3c 54 d9 88 3d a0 9d c2 bd ac a0 4d 3d
       0.026515644 0.06682077 -0.09502721 0.050202057
000260 b4 a4 8e bb b0 50 3e 3d d3 55 68 3d e6 4b 64 bc
       -0.0043531302 0.04646367 0.056722473 -0.013934111
000270 a1 9c 1a bd 5a b1 82 3d 82 f2 d6 3c fb da fc bb
       -0.03774703 0.063814834 0.026238684 -0.007716534
000280 7c c7 dd 3c bb 4d b9 bd c2 e9 52 3d 9b fb 30 bc
       0.02707266 -0.09048029 0.05149246 -0.010802175
000290 ef a2 d2 bc 15 d8 89 3c b7 88 83 3c b3 eb 9c 3c
       -0.025712458 0.016826669 0.016056402 0.019155359
0002a0 b4 1b 9e bc 0d 93 d7 bc ef 85 a3 bd c3 57 6e 3d
       -0.01930032 -0.026315236 -0.0798453 0.058189165
0002b0 ae 8c a2 3b ba f6 72 3d 4a 38 de 3b ac cf 9a 3b
       0.004960618 0.059317328 0.0067816125 0.0047244634
0002c0 47 73 35 3c fd c5 42 bc 5c ac f7 bb 2c bb 2a 3c
       0.011074848 -0.011888024 -0.0075583886 0.010420602
0002d0 fc 02 3a 3d ef 47 26 ba 57 86 44 3d 00 1a 11 3d
       0.045413002 -0.00063431164 0.04797968 0.035425186
0002e0 7c 95 2d 3d f6 7b bf bd 50 63 e4 3b 03 c2 7c 3c
       0.042378888 -0.093498155 0.006969847 0.015427115
0002f0 aa 3d 67 bd ec a9 1b 3c b3 88 ae bd d7 1e 23 bd
       -0.05645529 0.009500962 -0.08522167 -0.039824333
000300 8d 15 9a bd 6c d1 6c bd 79 2a 8d 3c 57 e5 7a bd
       -0.07523642 -0.057816908 0.017232167 -0.06125387
000310 45 f8 93 3c 40 fd e6 bd 68 43 28 bd 6a c5 d8 3d
       0.01806272 -0.11278772 -0.04107991 0.10584529
000320 ef 9e fa 3d e3 40 ee 3d f4 03 a2 3d b0 67 37 3b
       0.122373454 0.1163347 0.0791091 0.0027985387
000330 ed e0 8e 3d 74 02 2c 3d 80 a8 0c 3a f7 eb d8 bc
       0.06976495 0.041994527 0.00053656846 -0.026479704
000340 e9 55 11 3d 15 01 36 3d 63 8b d9 3d dd 3e b0 bb
       0.03548232 0.044434626 0.10622289 -0.0053785876
000350 4a 97 89 3d b1 cd a6 3c ef d9 69 3d 83 ef 48 bd
       0.06718309 0.020361753 0.057092603 -0.04905654
000360 51 53 05 3c 46 b2 3b 3d 37 31 a7 3d ef ec 7c 3d
       0.00813754 0.04582431 0.08163684 0.061749395
000370 4a 30 28 bd c3 60 7e bd 94 78 70 3d a9 99 d3 bd
       -0.041061677 -0.062103998 0.058708742 -0.10332043
000380 0b f9 89 3d 03 20 1d 3d 05 4d c1 bd a4 1a 8b 3b
       0.06736954 0.038360607 -0.094385184 0.004245119
000390 5f c6 c6 bd b8 d4 05 be c7 e8 ad bc 43 d5 0d bd
       -0.09705805 -0.13069427 -0.021229161 -0.03462721
0003a0 f1 5f 20 bd c8 f6 a2 bd 05 d5 97 3d ff 44 39 3c
       -0.039153997 -0.07957226 0.07413677 0.011307954
0003b0 0e d1 30 3d 7c 91 d7 3d 58 1b da ba 68 a8 cc bd
       0.04316812 0.10525796 -0.0016640229 -0.099930584
0003c0 18 48 4e bd f1 1b f2 bb f9 8b d8 bb a0 21 20 3d
       -0.050361723 -0.007388585 -0.006608483 0.039094567
0003d0 e7 4b de 3d 67 0d 9e bd 0b ce 87 bd 7d 54 4b 3d
       0.10854321 -0.077174 -0.066310965 0.04964112
0003e0 14 7b d1 bc 79 24 a2 3c 96 44 af 3c 59 e9 31 3d
       -0.025571384 0.019792782 0.021395009 0.04343543
0003f0 81 76 1a bd ac e0 3f bd 0c d1 4b bc 1b f5 10 3d
       -0.03771067 -0.046845123 -0.012439977 0.03539

edge_layers.mlp_0.bias f4 [64]
000000 30 28 e4 3b 8e 1c 88 3d 7d 0c 06 3d 72 0a 81 bd
       0.0069627985 0.066460714 0.032726754 -0.063008204
000010 25 5c 0d 3b 14 09 40 3d 7a a1 90 bc c6 67 64 3d
       0.0021569815 0.046883658 -0.017655123 0.05576303
000020 48 54 e4 3c 1d a2 d9 bc 6e d8 4f bd e7 f2 af 3d
       0.02787222 -0.02656656 -0.050743513 0.08591252
000030 d0 5c 66 bd 1b b1 36 bd e4 9a bb bd 32 9d 47 bd
       -0.056240857 -0.044602495 -0.091604024 -0.048733898
000040 2b b9 66 3d 8d a8 a4 bb aa fe 91 bd b9 b1 96 3c
       0.056328934 -0.0050249756 -0.071286514 0.018395292
000050 26 ca b9 bd 2b be 3d bd 79 76 0f 3d bc 8e ec 3c
       -0.0907176 -0.046323936 0.035025094 0.028876655
000060 f6 e6 7c 3d 97 07 a7 ba d7 f4 da 3c 43 7f 05 bb
       0.0617437 -0.0012743351 0.026728077 -0.0020370043
000070 03 07 32 3d 8d df e3 3c 45 90 e4 bc e2 dc a7 3d
       0.04346372 0.027816558 -0.027900824 0.08196427
000080 48 11 6a bd b0 d7 85 3d 52 2d aa bd f6 77 f1 bc
       -0.057145387 0.0653528 -0.083094254 -0.029476147
000090 a2 19 75 3d 58 e1 36 3d 52 c8 d7 bc cc b9 88 bd
       0.0598389 0.0446485 -0.026340637 -0.06676063
0000a0 ff 26 82 3d a3 40 50 3c 65 f2 8e 3c 8f 35 3b bd
       0.06355094 0.012710723 0.017449567 -0.045705374
0000b0 42 7f ad 3d 0b 3d 83 bb e4 3b 07 3d 49 6d b5 bd
       0.08471538 -0.0040050796 0.0330161 -0.08858735
0000c0 2e b7 16 bd 1e d9 57 bd eb c9 4a bc ea 84 d0 3b
       -0.036795788 -0.052697293 -0.012377243 0.006363501
0000d0 70 09 30 3d 00 b2 2b 3d 18 40 3e 3d 08 a7 ac bd
       0.04297775 0.0419178 0.046447843 -0.08430296
0000e0 4c 43 f4 3c 27 e0 c4 3d 99 bb 83 3d 8d c2 68 bd
       0.029817246 0.09613066 0.06432266 -0.056826163
0000f0 89 3e 83 3d 1e d5 9e 3d 7e b2 32 bd 0a e5 a6 bc
       0.06408412 0.07755493 -0.043627255 -0.020372886

gnn_layer_0.classifier.weight f4 [1, 64]
000000 e7 55 03 bd 6f 2d e2 bd 38 89 ec bd ec 8b 27 3e
       -0.032064345 -0.11043822 -0.1154961 0.1636197
000010 30 43 06 3e c6 7c 7b 3d 6b 41 5e bc ff b5 aa 3d
       0.13111567 0.06139829 -0.013565402 0.08335494
000020 1f 43 b0 3c 4e 49 1c bd c2 6e 4f 3d 52 d9 3e 3d
       0.02151638 -0.038155846 0.050642736 0.04659397
000030 04 60 ee 3d 8c a3 20 3d ac 24 d4 bd f4 56 08 3d
       0.11639407 0.03921847 -0.10358557 0.03328605
000040 e0 7a e2 3c 6c 26 85 3d bc 44 ea bd 81 09 81 bd
       0.027646482 0.06501469 -0.11438891 -0.06300641
000050 37 7a 15 bd 9e 94 9e bd a2 da a7 bd c4 3d d4 bd
       -0.036493506 -0.0774319 -0.08195998 -0.10363343
000060 c6 e3 e0 bd e3 91 b6 3d 1e bc 07 be e8 8e 8b 3c
       -0.10980944 0.089145444 -0.13255355 0.017035916
000070 6f 9e dc bd 63 7c 18 bd 5f 9f 7b bd ad 1d ab bd
       -0.10772406 -0.037228 -0.061431285 -0.083552696
000080 90 c6 cf bd 1b 0a b8 3d 5d e2 28 bd a1 4a d9 bd
       -0.10145295 0.089863025 -0.0412315 -0.106099375
000090 0f 3f 67 bd c0 09 66 bb d2 7a 05 be 87 66 27 bd
       -0.05645662 -0.0035101026 -0.13035133 -0.040869262
0000a0 98 8a 9e bc f5 3f 67 bd 75 aa 01 bd 8e d6 10 3d
       -0.019353196 -0.05645748 -0.0316567 0.035360865
0000b0 5b c7 d8 3d a8 96 a1 bc 26 ef 7e bc c9 fa 36 be
       0.10584899 -0.019725159 -0.015559947 -0.17869104
0000c0 46 f3 22 bc 57 c0 e7 3d aa 0b 9d 3c 78 7e 25 3d
       -0.009945696 0.11315983 0.0191706 0.040403813
0000d0 f0 65 31 3e 92 d8 6c bc a2 ea d8 bd 18 93 9e bc
       0.17324042 -0.014455931 -0.10591628 -0.01935725
0000e0 c5 02 d0 bd 3a 3f c3 bb 85 c7 12 3d dc 9c ba 3d
       -0.10156778 -0.005958465 0.035834808 0.0911195
0000f0 ba f6 ae 3b 0b e8 17 3e 1d 68 59 3e 4c 34 4e 3e
       0.0053394707 0.14834611 0.21231122 0.20137137

gnn_layer_0.n_func.0.weight f4 [64, 1]
000000 73 dc 20 3f 7a be 55 bf 68 8a b4 bd 3b 5c 41 3f
       0.6283638 -0.8349377 -0.088154614 0.7553136
000010 79 21 7d bf da ab 21 bf 38 0e b4 be c9 f5 61 3f
       -0.988792 -0.6315285 -0.35167098 0.88265663
000020 fc 88 9b be 2d 5d 5a bf 4d 80 b1 3e f8 e7 da be
       -0.30377948 -0.85298425 0.34668198 -0.42755103
000030 64 94 50 bf 18 96 59 3e 30 b8 6d 3e d4 96 80 3e
       -0.81476426 0.21248662 0.23214793 0.25115073
000040 00 e1 79 bd e0 0e 1b be 18 0a 33 3e 40 50 1c be
       -0.061005592 -0.15142393 0.17484319 -0.15264988
000050 70 c3 da bd f1 38 10 3f 78 bc 24 bf 93 18 e9 be
       -0.10681808 0.56336886 -0.6435008 -0.4552656
000060 12 da d9 3e ab 05 10 3f 2d c4 2b 3f ad 05 2d 3f
       0.42549187 0.5625865 0.67096215 0.67586786
000070 bc ee 0a 3f ba 1c 29 3f 68 2e 46 be 1c ce 30 bf
       0.5427053 0.6605946 -0.1935364 -0.690645
000080 26 bb 1f 3f a0 f0 00 bf bc 1b b3 be 9e ed 59 bf
       0.6239494 -0.50367165 -0.34982097 -0.851282
000090 28 7e bb be 80 82 06 bf 8d 6a 38 3f ec 73 3b bf
       -0.36619687 -0.5254288 0.72037584 -0.7322376
0000a0 7d 70 b9 be 25 88 b9 3e 00 06 04 be 42 be 50 bf
       -0.36218634 0.36236683 -0.12892914 -0.8154031
0000b0 77 89 6f 3f ff e9 26 3f b8 e1 7b 3f 66 e6 4e 3e
       0.9356913 0.652008 0.98391294 0.20205078
0000c0 8e 7b 5d bf 4c 2e a2 be 5e 26 60 bf b8 f3 22 be
       -0.86516654 -0.31675947 -0.87558544 -0.15913284
0000d0 4c 58 dc be 8c c4 67 bf 2a 31 0f 3f 70 e1 36 bf
       -0.43036115 -0.9053428 0.55934393 -0.7143774
0000e0 02 97 36 bf bf f0 fd 3e 00 17 9c 3c 05 0a 33 3e
       -0.7132417 0.49597737 0.019053936 0.17484291
0000f0 a5 35 60 3f c8 e8 50 bf 0c 75 79 bf 83 6a 6c be
       0.87581855 -0.81605196 -0.97444224 -0.23087506

gnn_layer_0.n_func.0.bias f4 [64]
000000 a7 62 a0 be 80 14 fd bd d5 f9 12 3d 43 49 7a 3f
       -0.31325266 -0.12357426 0.03588279 0.9776804
000010 c9 b3 6e 3f f0 19 cc bd cc e4 ad be d7 12 49 3f
       0.9324308 -0.09965885 -0.3396362 0.7854437
000020 92 68 16 bf fe d1 c5 3e 2f bc 5a bf fb e2 5e 3f
       -0.5875331 0.38636774 -0.85443395 0.87065095
000030 dd 40 75 3f e8 38 78 bf 96 51 54 bf 79 99 e6 3e
       0.958021 -0.9696183 -0.8293699 0.45038965
000040 52 49 6c bf ca dd 42 bf 3c 64 52 bf 48 e9 09 be
       -0.9229938 -0.76119673 -0.82184196 -0.13467896
000050 46 f9 21 bf 88 8c 78 bf 20 38 2a 3e 80 a5 5d 3f
       -0.63270986 -0.97089434 0.16622972 0.8658066
000060 67 39 88 be cd c2 df be 7c 0a 5d 3f 39 f2 f2 bd
       -0.26606295 -0.4370331 0.8634412 -0.118626066
000070 71 96 4b 3e 8b 38 47 bf f4 44 ef be 40 24 61 be
       0.19881608 -0.7782065 -0.46732295 -0.21986485
000080 12 a3 ab 3e f9 86 9e 3e 48 33 e7 be b2 88 51 3f
       0.3352285 0.3096235 -0.45156312 0.81849205
000090 52 4b 56 bf 3c 17 7c 3f 85 e4 0b 3f 5e a7 46 bf
       -0.8370868 0.9847295 0.5464557 -0.7759913
0000a0 67 5b ff 3e 12 21 31 3d 84 25 88 be 2d e3 04 3f
       0.49874422 0.04324443 -0.26591122 0.5190914
0000b0 11 1e 17 bf b0 cf 6a bf 29 ba c8 be 38 a5 e2 3c
       -0.5903025 -0.91723156 -0.3920453 0.027666673
0000c0 64 10 bf be d5 02 84 3e 30 56 95 3d cc 0c 59 3f
       -0.37317193 0.2578341 0.072918296 0.8478515
0000d0 d0 97 64 bf 88 b9 97 be 04 52 7b be 6c db 31 bf
       -0.8929415 -0.29633737 -0.24543005 -0.69475436
0000e0 90 55 0b 3e 5a 2d 11 be c0 4c 3f bf 56 f4 94 3d
       0.13606858 -0.14177456 -0.74726486 0.07273166
0000f0 08 b7 28 bf 4c 2d b0 3e 80 91 54 be 97 ab 44 3e
       -0.65904284 0.3440956 -0.20758629 0.19206081

gnn_layer_0.n_func.2.weight f4 [64, 64]
000000 14 2a b1 3d d0 5b a1 3d dd fb b6 3d dc d5 e0 bc
       0.08650604 0.0787884 0.08934758 -0.027445726
000010 e3 47 3d 3d 08 f8 f3 3d a0 e1 89 bd 1d db 80 3d
       0.046211135 0.119125426 -0.06732488 0.062917925
000020 40 89 e3 3d 56 f8 b3 3d e2 99 8f bd d0 15 8c 3d
       0.11110163 0.08787601 -0.07011773 0.06840098
000030 e4 d0 95 bd e8 dd 0b 3d 58 40 b3 3d f6 4d cd bd
       -0.07315233 0.034147173 0.08752507 -0.100246355
000040 54 c2 f6 3d 9a 32 d5 bd 14 16 e9 3d 76 fb f7 bd
       0.12048784 -0.10410042 0.11381164 -0.12108509
000050 56 19 de 3d 7a dc af bd aa c4 f8 3d 62 de aa bc
       0.10844676 -0.085869744 0.12146886 -0.020857994
000060 a8 cb 5e 3d f8 71 b3 3b a5 2b db bd d7 b9 e3 3c
       0.05439344 0.0054762326 -0.10701684 0.027798576
000070 6c 8e d7 3c d7 6e 16 bd 54 84 bf 3d 40 41 14 3b
       0.02631303 -0.0367268 0.093514115 0.00226219
000080 b7 01 f0 bb 70 c8 d9 bc 58 21 c2 bd c6 61 e2 3d
       -0.007324423 -0.026584834 -0.09479016 0.11053805
000090 cc 72 f3 3d 53 4f 8a bd 1d 96 21 3d 2c f7 fc bd
       0.1188713 -0.06753411 0.0394498 -0.12351832
0000a0 84 3a 3a 3d f8 11 98 3d 00 ef d9 3a c8 1b ee bd
       0.04546596 0.07425302 0.0016627014 -0.116263926
0000b0 9d 51 e6 bc 2f 9f d3 3c 92 dc b9 bd 1b 89 a1 bd
       -0.028115088 0.02583274 -0.090752736 -0.07887479
0000c0 2a 7c e3 bd 19 57 a5 bb 32 f5 9b bd ac e6 c3 bd
       -0.11107667 -0.0050457832 -0.07615127 -0.095654815
0000d0 38 fc a2 3c 70 1f 22 bc ef 11 8f 3d 60 34 41 bd
       0.019895658 -0.009895191 0.069858424 -0.04716909
0000e0 04 83 37 3d 98 ac 5a bd e4 71 71 3d cf a0 2e 3d
       0.04480268 -0.053387254 0.058946505 0.042633828
0000f0 aa 27 83 3d fa 9a ab bd 58 10 5a bd 80 76 e7 bd
       0.0640405 -0.08379169 -0.053238243 -0.11301899
000100 2c 8e 7a bd 5c 9f ce bd 12 63 9d 3d cc 01 4f bd
       -0.061170742 -0.10088989 0.07684912 -0.050538823
000110 20 57 8a bd f0 42 9e 3c 20 ed d3 bb be 1f a1 bd
       -0.06754899 0.019319028 -0.0064674765 -0.078673825
000120 9c e0 6a 3d 74 c4 00 3d 14 16 92 3d cc d0 5d bd
       0.05734311 0.031437352 0.07133117 -0.054154202
000130 da d6 fa 3d d8 32 fc 3d c4 c4 a7 3d 8c 82 85 3d
       0.12248011 0.12314385 0.08191827 0.065190405
000140 2e 52 c9 bd b0 99 ff 3d 20 e0 e8 3c b0 1a 41 3d
       -0.09830128 0.124804854 0.028427184 0.04714459
000150 a4 b4 40 bd a8 78 ef bd c0 12 b1 bb e0 3c ce bb
       -0.047047272 -0.11692935 -0.0054038465 -0.006293878
000160 c8 f1 0f 3d 5e 8b d1 bd ec ef 98 bd 74 14 66 bd
       0.03514269 -0.1023166 -0.074676365 -0.05617185
000170 aa 99 d2 bd 26 06 ca 3d d0 3e 65 bd b0 a0 b6 3d
       -0.10283215 0.09864454 -0.055968106 0.089173675
000180 64 40 87 bd ea eb d5 bd 76 27 b6 bd 54 d0 a5 3d
       -0.066040784 -0.10445388 -0.08894245 0.08096376
000190 60 db 48 3d d0 f7 17 3c e2 85 ef bd 50 3f 62 3c
       0.049037337 0.009275392 -0.11695458 0.01380904
0001a0 20 92 41 bc d0 82 60 bd 6a 2b 9a 3d e6 de a0 3d
       -0.011814624 -0.054812253 0.07527812 0.078550145
0001b0 e2 75 b9 3d 24 78 4d 3d 80 41 73 bc 52 e8 cc 3d
       0.090556875 0.050163403 -0.014847159 0.10005249
0001c0 a0 a9 99 3d e0 d1 e4 3b 44 af e6 bd fc 21 34 bd
       0.075030565 0.006983027 -0.11263898 -0.043977723
0001d0 4e 2c c8 3d f0 55 46 bd 18 e9 46 3d e0 d8 67 3c
       0.097740754 -0.0484218 0.04856214 0.014150828
0001e0 7c a9 e7 3d a4 7e 7b bd e0 4a cb bb 40 24 a0 bc
       0.113116235 -0.06140007 -0.006203994 -0.019548535
0001f0 34 7e 48 3d d4 89 3a bd 80 bd aa 3d 3e 71 a5 3d
       0.04894848 -0.0455416 0.083369255 0.0807824
000200 90 0e 52 3c 6c 8d e1 bd e4 7e 19 bd bc 4b 15 3d
       0.012820855 -0.11013302 -0.037474528 0.03644918
000210 0c d8 b1 3d b0 d0 63 bd 56 c4 ba 3d e2 34 93 bd
       0.08683786 -0.05561894 0.09119479 -0.07187821
000220 e0 3c 55 3d 3a e5 f8 3d 10 69 53 bd 7c 12 9d 3d
       0.052060008 0.121530965 -0.051613867 0.07669541
000230 02 7b ad bd 70 b9 3c bc d0 00 dd bd 8e 22 8b 3d
       -0.084707275 -0.011518821 -0.107911706 0.067937
000240 1c 2f c3 3d 00 96 cf 3d 10 73 ca bc e0 e9 ff 3b
       0.0953047 0.10136032 -0.02471307 0.0078098625
000250 64 ec b5 bd 12 cb a0 bd e4 95 48 3d d2 f5 a4 3d
       -0.088829786 -0.078512326 0.04897107 0.08054699
000260 0e 06 e9 3d f8 de a4 3c d6 82 e8 bd c0 29 12 3c
       0.11378108 0.020125851 -0.1135308 0.008921087
000270 ae 41 96 bd 74 04 f4 3d 24 8f 53 3d 16 28 fc bd
       -0.07336746 0.11914912 0.05165018 -0.12312333
000280 a8 b3 89 3c cc d0 86 3d c8 df 8d bd 20 70 10 3d
       0.0168093 0.065827936 -0.069274485 0.03526318
000290 f6 23 d3 bd 90 98 45 bc e4 6f 15 bd b0 e8 ba bd
       -0.103095934 -0.0120602995 -0.03648366 -0.09126413
0002a0 84 e4 0d 3d 88 23 37 3d e6 97 cb 3d a8 75 bb bc
       0.034641758 0.04471162 0.09941082 -0.022883251
0002b0 50 bb 75 bc 1e cf 9c 3d 9a e0 ad 3d 58 44 06 bd
       -0.014998272 0.07656692 0.08490105 -0.03278002
0002c0 26 d3 a4 bd 80 0d a0 3b c0 56 01 bd 90 58 41 3d
       -0.08048086 0.004884422 -0.031576872 0.0472036
0002d0 d2 1a 89 bd 04 16 1c 3d b8 eb 7d 3d 66 6c b9 bd
       -0.06694569 0.038106933 0.061992377 -0.090538785
0002e0 20 2e 82 3d c0 f1 39 3c 56 57 b6 bd 58 f9 4b 3d
       0.06356454 0.011349142 -0.08903377 0.04979834
0002f0 24 fe f9 bd 2a 69 d1 3d b0 dd 51 3d 98 fa 29 3d
       -0.122066766 0.102251366 0.05123681 0.04149875
000300 85 a6 fb bd d6 2d ed bd 6c 9c ce bc f3 71 9e 3d
       -0.122876205 -0.11581008 -0.025221072 0.07736578
000310 b0 e0 80 bd 38 d2 9a 3d 08 96 a4 3c a5 7a d7 3d
       -0.06292856 0.07559627 0.020091072 0.105214395
000320 48 be d8 bd fa c0 dd 3d 8e 41 30 3d e7 2c 3a 3e
       -0.10583168 0.10827823 0.043031268 0.18181191
000330 f4 8a 08 3e d8 8a a3 bc 90 62 4f bc 08 97 46 3d
       0.13334256 -0.019963667 -0.0126577765 0.04848388
000340 78 59 51 3d 28 ba e1 bd 80 4e 8d 3a 64 30 25 3d
       0.051110715 -0.110218346 0.0010780841 0.040329352
000350 38 20 89 3c 36 e4 83 3d 38 f6 75 bd 49 1e 3a 3e
       0.016738996 0.06440012 -0.060049266 0.18175615
000360 70 55 bf 3d 72 2d 18 3d 92 f2 75 bd b2 0b 05 3d
       0.09342468 0.037152715 -0.060045786 0.032481857
000370 f1 99 f4 3d 0e 05 36 bd d8 32 c6 bd 58 b1 3a bd
       0.119434245 -0.044438414 -0.096776664 -0.045579284
000380 56 12 0d bb 8a fb 61 be 14 c3 54 bd f2 ac bb bb
       -0.0021525822 -0.22068611 -0.051943853 -0.005727404
000390 12 39 ae bd 40 16 3b 3e 42 e3 40 3d b0 2b ad 3d
       -0.08506979 0.18270206 0.04709173 0.08455598
0003a0 35 da b8 3c 1f df f4 bc d8 9e a3 3d bf 73 e9 bd
       0.022564987 -0.029891549 0.079892814 -0.1139903
0003b0 0e 09 0b be b2 81 12 bd 8a f9 ef bd 35 44 12 3d
       -0.13577673 -0.03576822 -0.11717518 0.03570958
0003c0 f2 af ec bd 87 41 d6 3d 9c 1b ec bd 5e 05 77 bd
       -0.115569964 0.10461717 -0.115287036 -0.060307853
0003d0 a4 02 60 bd 70 ed 5a 3c f0 d5 18 3c 1e c5 a0 3d
       -0.05469002 0.013362274 0.00932835 0.07850097
0003e0 9c ef fb bd 30 ea a8 3c 60 5d 1e 3c fc 8c e6 bd
       -0.12301561 0.020619482 0.009665817 -0.112573594
0003f0 9b 67 f6 bc e6 63 c8 3d 1a c0 86 3d 92 45 14 bd
       -0.0300787 0.09784679 0.06579609 -0.03619916

gnn_layer_0.n_func.2.bias f4 [64]
000000 be 5a a7 3d 60 2e 27 bc 60 4a db bb cc c6 c2 bd
       0.081716046 -0.010203928 -0.006692216 -0.09510574
000010 f2 ee 0c 3d 0c 37 cd bd 7a ec 9a bd c4 7f 6c 3d
       0.034407564 -0.10020265 -0.075646356 0.057739034
000020 53 f9 29 3c c4 a1 47 bd ca 99 ad 3d 27 94 5a 3d
       0.010374385 -0.048738256 0.084765986 0.053363945
000030 cd 7c d0 3d 15 96 9c bd 00 3d 56 bd 03 7c 8f bd
       0.10180054 -0.076458134 -0.052304268 -0.07006075
000040 a4 aa d8 bd 3c 89 b3 3d f6 ad a7 3d 6f 62 be bd
       -0.10579422 0.0876641 0.08187477 -0.092961185
000050 a1 4c 9b bd 40 3a 69 3c 3b 80 cc 3d ce 28 96 3d
       -0.07582975 0.014235079 0.099853955 0.073320016
000060 a2 f2 85 3c 9f af 37 3c 90 e0 f6 bd e6 2c b8 bd
       0.016351048 0.011211305 -0.12054551 -0.08992939
000070 e8 f6 c6 3d 5f d6 a7 3d b2 28 48 3c 42 7b cc bd
       0.097150624 0.08195185 0.012216734 -0.09984447
000080 2b 87 66 bd be 3c 40 3d 49 39 86 bd a2 68 fa bd
       -0.05628125 0.04693293 -0.06553895 -0.122269884
000090 e7 d6 a5 3d 20 17 f5 bb 78 c5 65 bb 4a 94 e0 bd
       0.0809763 -0.0074795634 -0.0035060328 -0.10965784
0000a0 99 05 07 3e 75 2f 87 bd b2 4f 13 3d 25 a0 52 bd
       0.13185729 -0.066008486 0.035964675 -0.051422257
0000b0 26 4c b4 3d 5c 43 35 3d b2 8b 9b 3d 2d 53 2d 3d
       0.08803587 0.044253692 0.07595004 0.04231565
0000c0 cf a8 7d 3d ff 09 54 3d e4 c1 50 3d 0e 9c ad 3d
       0.061928567 0.051767346 0.05096616 0.08477031
0000d0 80 9a cf 3a e0 f3 90 3b 1c 10 ae 3d 22 d6 e4 bd
       0.0015838891 0.0044236034 0.08499166 -0.11173655
0000e0 d3 7d ac 3d 66 da 90 3d a6 a0 51 3d c2 d9 80 3d
       0.084224366 0.07072906 0.051178597 0.06291534
0000f0 e0 34 5e 3d f0 ff bb 3c 00 bd a6 bc 05 6a f8 bd
       0.054249644 0.022949189 -0.020353794 -0.121295966

gnn_layer_0.n_self_func.0.weight f4 [64, 1]
000000 5c 10 18 bf 26 bd 0d bf 9a 5c 72 bf ac 77 66 bf
       -0.5939996 -0.5536674 -0.9467255 -0.90026355
000010 1b 51 62 3d 9a 84 49 3f e3 77 15 3f a0 83 4c 3f
       0.05525313 0.7871796 0.5838606 0.79888344
000020 1f 94 7c 3f d4 d5 76 bf 26 c6 5f 3f 09 a8 4a 3f
       0.98663515 -0.96420026 0.87411726 0.7916265
000030 9e e8 8d ba b5 7a 0c 3f b4 e3 e8 be 3c c0 08 3e
       -0.0010826772 0.54874736 -0.45486224 0.13354582
000040 8f 12 13 3f e7 8f 46 3f 75 13 9c 3d 0c 51 62 bf
       0.57450193 0.7756333 0.07620899 -0.8840492
000050 c9 a5 e0 3d fc 42 14 3f 54 77 a8 be bc 68 a7 be
       0.10969121 0.5791471 -0.3290354 -0.32697093
000060 d4 f9 e2 be 8c 96 2e bf 1e 7a 84 3e c2 d8 69 3f
       -0.4433123 -0.68198466 0.25874418 0.9134637
000070 76 34 8c 3e a4 ad 34 bd fb 74 40 3e fa 36 7f bf
       0.27383775 -0.04411091 0.18794625 -0.9969326
000080 12 14 ad 3e ba f4 e5 be f0 e6 b7 3e b8 57 fa be
       0.33804375 -0.44913274 0.3591838 -0.4889505
000090 00 a4 42 bf 93 af 24 bf e0 4f 8e bd 9e 66 3e 3f
       -0.76031494 -0.64330405 -0.06948829 0.7437533
0000a0 06 16 70 bf 9f cc 23 3f f2 75 18 3f 98 86 28 bf
       -0.93783605 0.639841 0.5955497 -0.65830374
0000b0 7e fc d7 3e 3f fa 2b 3f 91 88 48 bf 74 7f 6f bf
       0.42184824 0.6717872 -0.78333384 -0.93553853
0000c0 13 d8 08 3f 80 6f aa be 72 57 44 bf 86 f3 99 be
       0.53454703 -0.33288193 -0.7669593 -0.30068606
0000d0 14 af c6 be a6 7f 82 be 20 90 1d bd 41 f6 11 bf
       -0.3880545 -0.25488013 -0.038467526 -0.5701638
0000e0 40 f7 05 bf a8 38 8a 3e 7c a8 6e bf 1a 70 e8 3e
       -0.523304 0.2699635 -0.93225837 0.45398027
0000f0 34 a4 73 3f 04 c2 b7 be e8 27 23 be a0 a8 18 be
       0.9517243 -0.3589021 -0.15933192 -0.14908075

gnn_layer_0.n_self_func.0.bias f4 [64]
000000 ea 49 20 bf c1 43 3b 3f 28 a7 49 bf 3b 09 41 3f
       -0.62612784 0.7315026 -0.78770685 0.7540471
000010 c6 17 da 3e ce cc 89 3e da ca 60 bf 02 7c 3d bf
       0.42596263 0.26914066 -0.87809527 -0.74017346
000020 33 23 51 bf 3a 41 58 bf 22 ec 3f 3f 09 8e 58 3e
       -0.81694335 -0.8447453 0.74969685 0.21147932
000030 b0 2d 75 3f da 25 98 be 48 77 17 be a3 1f 50 3c
       0.9577284 -0.29716378 -0.14791596 0.012702855
000040 97 41 a8 be 56 eb 78 3f ee 78 e8 3d 58 aa 18 be
       -0.3286254 0.97234094 0.113511905 -0.14908731
000050 a2 af e5 3e 5f 8a 2c be 7c 52 47 bf 00 ec f4 3a
       0.4486056 -0.1684966 -0.77860236 0.0018686056
000060 64 bb c6 be de ee 34 bf 89 01 25 bf c6 c3 7f 3e
       -0.38814843 -0.7067698 -0.6445547 0.24977025
000070 75 3b d9 3e 8a c2 52 3f 2d f5 1d 3d c0 5d eb 3e
       0.42428175 0.82328093 0.038563896 0.45969963
000080 e8 10 80 3f 04 04 80 3f 3f 95 2f 3f 48 68 6d bf
       1.0005159 1.0001225 0.68587106 -0.92737246
000090 61 1a 81 3f 10 8c f2 3e f2 52 02 bf 4e 4b d5 be
       1.0086175 0.47372484 -0.50907815 -0.41659015
0000a0 a8 89 bc 3e 66 20 bb 3d d7 b8 1d bf 11 df f5 3e
       0.36823773 0.09137039 -0.6161017 0.4802175
0000b0 3c 45 73 3f 7e a2 12 bf 35 cd 82 3f 8a fe 50 bf
       0.9502752 -0.57279193 1.0218874 -0.81638396
0000c0 29 85 a4 3e 10 65 8f 3d 96 fa 3e bf fa 6f d3 3d
       0.32132843 0.07001698 -0.74601114 0.10324092
0000d0 c0 a4 a2 3d 65 0d 0e 3f 44 2b 30 bf 3b 6e e9 3e
       0.0794158 0.5548919 -0.6881602 0.45591912
0000e0 55 e6 33 3f 2e 58 55 bf 39 7d 47 3f 1e a4 74 bf
       0.70273334 -0.83337677 0.7792545 -0.9556292
0000f0 c0 e5 82 3f a0 1d 55 be 02 03 19 bf d4 ab 48 bf
       1.0226364 -0.20812082 -0.59770215 -0.7838719
