ThinkMatch/exp_aaai/ngm/CV0/saved_models/model.pt (torch, 207121 bytes, 25 tensors)

affinity_layer.lambda1 f4 [64, 64]
0.44652486 0.0610297 -0.049095083 -0.02123277 0.003313722 0.03800557 -0.08390584 0.05875812
-0.061779745 -0.013742011 0.0070393034 0.032035228 -0.06364165 0.036041573 0.06504961 -0.007894157
-0.035097755 -0.0666728 0.022489527 0.06800273 -0.011589846 0.04381364 0.0676487 -0.0531924
-0.07001907 0.059263546 -0.031633895 -0.057398558 -0.006732327 -0.06820382 -0.004787977 -0.027497426
-0.0075179967 -0.03714915 0.01258135 0.038304657 -0.010443188 -0.072713815 -0.077191934 -0.0087556075
0.087610856 -0.03254763 -0.040419247 -0.019810895 0.035368793 -0.0381088 -0.08638549 0.04505397
0.050662376 0.0058545237 0.0010778529 0.04675236 -0.07520993 0.07548465 0.048327472 0.08630938
0.07122615 -0.07624371 -0.043153316 0.030580014 0.07038932 0.044118784 0.0068168626 0.06821126
-0.053378236 0.5012372 0.0010298793 0.042579338 0.060393177 -0.017554162 -0.041083366 0.05977761
-0.037151415 0.032116625 -0.07675385 0.0573911 -0.06374672 0.017665092 -0.02233039 -0.031119673
0.044172585 -0.07090025 0.053231943 0.07134892 0.027647141 0.01757139 -0.08121033 0.078571826
0.06882006 0.07658364 0.07820264 -0.027264785 -0.059297442 0.031084733 -0.020666644 -0.03793745
0.032931186 -0.028440345 -0.06977602 -0.038590793 0.00048012636 -0.045611065 -0.0019081037 -0.014729365
-0.04181195 0.036640044 -0.01456338 -0.0541901 0.083052516 -0.078322805 -0.031985287 -0.03233855
-0.024762895 0.037175078 0.015634995 0.02762905 -0.053693146 0.040106844 -0.046641324 0.065243185
0.05025808 -0.04780186 0.080939375 -0.068512954 0.06788648 0.0148617895 0.08349387 0.08704891
0.041629653 -0.07264951 0.5683694 -0.083493285 -0.022233905 -0.07264123 -0.04963139 0.071898766
-0.019554788 -0.031234229 0.076809704 -0.002433898 -0.06801009 0.021479571 -0.0046082153 -0.008496562
-0.070135035 0.055095464 -0.07441825 -0.06289995 0.004270308 -0.06740146 -0.06476373 0.002353638
3.117813e-05 -0.07882709 0.004332164 0.02275325 0.05662348 -0.025029326 0.086708106 -0.061144162
-0.0430103 -0.017985834 -0.07631914 -0.0133336615 -0.06289266 0.0173689 0.059265606 -0.0065693767
-0.068889275 -0.05458908 -0.01103449 0.04749293 -0.056577306 0.07581347 0.03354044 0.045262206
-0.08705087 0.01088376 0.065624766 0.01948473 -0.008951021 -0.0016598377 0.07010314 0.046730295
0.08223532 0.016830554 -0.0841536 -0.0053877295 -0.0012548591 -0.06854751 -0.016951509 -0.008706894
-0.012765553 -0.080834135 0.033417825 0.5239873 -0.013925835 -0.0013411443 0.037465133 0.018656028
0.052754756 0.061384767 0.020227052 -0.07244888 -0.038188826 0.053291474 0.08721872 0.083099075
-0.019237887 -0.045718055 -0.008637027 -0.013145891 -0.010577478 -0.0274916 0.005491123 0.024228739
-0.014997594 0.04088365 0.05118133 -0.078535646 0.011254831 -0.05252729 -0.0045701335 -0.085253485
0.02425137 0.04076016 0.05247224 -0.030115929 -0.013371509 0.071505845 0.004011133 0.08738685
-0.006435339 0.07959415 0.062048584 -0.040635113 -0.043590702 0.008723275 0.0035860562 -0.06637757
-0.07754095 0.028775718 0.046312314 0.034718897 -0.025744084 -0.019308778 -0.030269265 -0.05764768
-0.08236819 -0.087804414 -0.007971658 0.013982164 0.014441788 -0.030300917 0.0010491817 -0.015950501
00000000: e89e e43e 47fa 793d ed17 49bd 59f0 adbc
00000010: 082b 593b bbab 1b3d d3d6 abbd 5bac 703d
00000020: c20c 7dbd 2c26 61bc f5a9 e63b 5f37 033d
00000030: 8e56 82bd 54a0 133d bb38 853d 7f56 01bc
00000040: aac2 0fbd c08b 88bd f53b b83c 0445 8b3d
00000050: 56e3 3dbc ee75 333d 678b 8a3d 46e0 59bd
00000060: 2866 8fbd 55be 723d 8b92 01bd c01a 6bbd
00000070: da9a dcbb 72ae 8bbd 76e4 9cbb 4842 e1bc
00000080: 8759 f6bb b529 18bd 0222 4e3c 58e5 1c3d
00000090: e819 2bbc fbea 94bd ce16 9ebd ae73 0fbc
000000a0: 526d b33d aa50 05bd a78e 25bd 754a a2bc
000000b0: dede 103d f917 1cbd e0ea b0bd 838a 383d
000000c0: 5a83 4f3d 4ed7 bf3b be46 8d3a 677f 3f3d
000000d0: aa07 9abd b297 9a3d 07f3 453d f9c2 b03d
000000e0: 04df 913d aa25 9cbd 88c1 30bd f082 fa3c
000000f0: 4728 903d e6b5 343d fd5f df3b 58b2 8b3d
00000100: 23a3 5abd 1551 003f 04fd 863a ac67 2e3d
00000110: d65e 773d bfcd 8fbc 0847 28bd 5ed9 743d
00000120: 152c 18bd b98c 033d 1f31 9dbd ee12 6b3d
00000130: a48d 82bd 62b6 903c 39ee b6bc afee febc
00000140: 50ee 343d 2634 91bd bd09 5a3d 621f 923d
00000150: 427c e23c e0f1 8f3c 9a51 a6bd 44ea a03d
00000160: 88f1 8c3d e2d7 9c3d b528 a03d 665a dfbc
00000170: e0e1 72bd 69a5 fe3c 184d a9bc 4d64 1bbd
00000180: dae2 063d bafb e8bc bbe6 8ebd 6111 1ebd
00000190: 78b9 fb39 abd2 3abd 5619 faba 6f53 71bc
000001a0: 0243 2bbd df13 163d 3e9b 6ebc 70f6 5dbd
000001b0: 7017 aa3d b567 a0bd 0103 03bd 6d75 04bd
000001c0: 8edb cabc e544 183d f614 803c 5156 e23c
000001d0: 58ed 5bbd 1347 243d f90a 3fbd 389e 853d
000001e0: 6bdb 4d3d e2cb 43bd 8bc3 a53d 8550 8cbd
000001f0: 1108 8b3d dd7e 733c d6fe aa3d b346 b23d
00000200: db83 2a3d 44c9 94bd a880 113f 87fe aabd
00000210: e123 b6bc edc4 94bd 494a 4bbd a93f 933d
00000220: 5d31 a0bc edde ffbc 684e 9d3d 0882 1fbb
00000230: e048 8bbd edf5 af3c 8300 97bb 2a35 0bbc
00000240: f5a2 8fbd c8ab 613d 9868 98bd b0d1 80bd
00000250: f1ed 8b3b c709 8abd d9a2 84bd 7e3f 1a3b
00000260: 43c5 0238 1970 a1bd d3f4 8d3b 0665 ba3c
00000270: 06ee 673d 4d0a cdbc 0594 b13d 4d72 7abd
00000280: 912b 30bd 0757 93bc 364d 9cbd 6e75 5abc
00000290: decd 80bd 3949 8e3c 7ec0 723d ed43 d7bb
000002a0: d215 8dbd cd98 5fbd 01ca 34bc f287 423d
000002b0: 9bbd 67bd 1844 9b3d b361 093d dd64 393d
000002c0: ba47 b2bd cc51 323c 4766 863d 719e 9f3c
000002d0: 4ea7 12bc e98e d9ba 3c92 8f3d 4468 3f3d
000002e0: fe6a a83d 3be0 893c b958 acbd 8d8b b0bb
000002f0: 167a a4ba a362 8cbd e4dd 8abc 5ca7 0ebc
00000300: 9c26 51bc 5e8c a5bd 21e1 083d 0824 063f
00000310: 2f29 64bc 56c9 afba 0a75 193d 87d4 983c
00000320: 5f15 583d 986e 7b3d 34b3 a53c 1460 94bd
00000330: e36b 1cbd 2948 5a3d ba9f b23d d92f aa3d
00000340: c698 9dbc db42 3bbd 5182 0dbc dd61 57bc
00000350: 294d 2dbc 1036 e1bc e1ee b33b 597b c63c
00000360: 78b8 75bc 9d75 273d 84a3 513d 4cd7 a0bd
00000370: 2f66 383c db26 57bd 0fc1 95bb 6199 aebd
00000380: cfaa c63c 20f4 263d 22ed 563d aeb5 f6bc
00000390: 2c14 5bbc a871 923d d36f 833b e0f7 b23d
000003a0: 89df d2bb 4202 a33d a826 7e3d 0171 26bd
000003b0: 2a8c 32bd 11ec 0e3c 0a04 6b3b f7f0 87bd
000003c0: cacd 9ebd 0ebb eb3c fbb1 3d3d 6735 0e3d
000003d0: 42e5 d2bc 712d 9ebc 40f7 f7bc f91f 6cbd
000003e0: a7b0 a8bd cdd2 b3bd 8f9b 02bc 7215 653c
000003f0: 409d 6c3c a139 f8bc b284 893a a0aa 82bc

affinity_layer.lambda2 f4 [64, 64]
0.57969713 -0.027409907 0.011059838 0.042517982 -0.03277716 0.045307197 0.017752388 -0.07294878
-0.008974571 0.07905773 0.046471335 0.07858416 -0.07439576 -0.036263537 -0.048349388 0.008632149
-0.056561556 -0.086987846 0.053284153 0.031846516 -0.001591054 -0.029478254 -0.05989307 -0.0066369483
0.017936412 -0.055137582 0.059655692 -0.07337393 0.073320754 0.020023715 0.038983833 -0.07024746
-0.0033090755 -0.050174717 0.084640354 0.029250134 0.037685394 -0.077022426 -0.031339776 0.001587303
0.084316894 -0.014167663 0.037571102 0.037476156 -0.028153356 -0.0695492 0.025374478 0.006492448
0.08631923 -0.05521509 -0.018080924 0.06699355 -0.06653564 0.078733355 0.0014069144 -0.025630835
-0.057307627 -0.0631627 0.05598213 -0.03621174 0.038949892 0.0720927 0.05531901 -0.034732133
-0.041417476 0.55024475 -0.07697979 0.052520074 -0.053432994 -0.054166034 -0.06827657 -0.039551657
-0.03621023 0.07979317 -0.07548737 0.039751958 -0.017020604 -0.014620689 -0.023500513 -0.04904244
0.052617706 0.012608778 0.0011169441 0.006121556 0.045274872 0.03436652 0.027443519 0.022342497
0.032818288 -0.08196216 -0.07257718 -0.0005634507 -0.0230118 0.08704606 0.0375874 -0.0314274
0.08219357 0.046268366 0.04208405 0.058809634 -0.061044134 -0.030876812 0.05364773 -0.06067023
0.0876656 -0.040373288 -0.023282003 -0.062919445 0.04758808 0.045318346 0.085578665 -0.058672532
0.038010094 0.020757943 -0.03653669 -0.06578039 -0.0060407603 -0.073699914 0.010964165 0.031324707
0.087363675 -0.025680305 0.011674497 -0.07971544 0.029958948 0.08691752 0.011382989 0.06473674
0.032276604 -0.06747559 0.48305857 -0.00195233 0.027802326 0.04136396 0.06755198 -0.012089676
0.01587071 0.08348279 -0.008508174 -0.048339136 -0.015729345 0.044278014 0.044105 0.07775278
-0.007668292 -0.044713844 -0.07337271 -0.03494396 -0.014702717 -0.05715848 -0.0067741363 0.090722844
0.07716017 -0.07997393 -0.032047957 0.0653502 -0.037796095 0.0828488 -0.08378487 0.027791737
0.031559676 -0.004279073 0.023075609 0.043853417 0.060275327 -0.045975015 -0.081150025 0.03791537
0.085030325 0.009320986 -0.021796232 0.069295 -0.066297464 -0.038079087 0.013791028 0.09197367
0.045062438 0.009851857 -0.02103525 0.020408671 0.026476081 -0.06989125 -0.04445799 0.059219554
-0.06611083 0.06263553 0.040622924 0.05273205 -0.008672681 -0.038145438 0.009184852 -0.085187875
-0.025969138 -0.070753 0.07722262 0.48533502 0.06608423 0.025550483 -0.04630414 0.0339015
0.033237606 0.06273316 0.019981315 -0.070755824 -0.023883112 0.08558088 0.07441907 -0.06958833
-0.044408288 -0.024214631 -0.04011728 -0.07093899 0.009223405 -0.037387248 0.051287528 0.057999346
-0.021270271 -0.003742735 -0.023266694 -0.06898881 -0.019775392 -0.05255601 0.022308094 0.030137409
-0.031288736 -0.0070159812 0.02668819 -0.05903837 0.04399328 -0.048920933 -0.06699575 -0.029604347
0.046254057 0.04692036 0.047318604 -0.041481487 0.052020084 -0.029228492 -0.07370808 0.0148288105
-0.07510385 -0.01974859 -0.044939563 -0.07170062 0.0788867 -0.07566333 0.007883926 0.047805738
-0.005251406 0.069377236 0.019733196 0.0048037395 -0.010281334 -0.06806709 -0.086734936 -0.0070388922
00000000: 0867 143f be8a e0bc 5334 353c 5627 2e3d
00000010: 5841 06bd 0a94 393d 756d 913c 2c66 95bd
00000020: 140a 13bc 05e9 a13d ba58 3e3d bbf0 a03d
00000030: ce5c 98bd 1389 14bd 020a 46bd db6d 0d3c
00000040: 17ad 67bd af26 b2bd 7c40 5a3d 7e71 023d
00000050: ea8a d0ba 617c f1bc 7052 75bd c27a d9bb
00000060: 62ef 923c f2d7 61bd 8759 743d 1245 96bd
00000070: 3129 963d c608 a43c 83ad 1f3d e6dd 8fbd
00000080: 13dd 58bb 0184 4dbd ec57 ad3d fa9d ef3c
00000090: 005c 1a3d efbd 9dbd 235e 00bd 0d0d d03a
000000a0: 56ae ac3d 7c1f 68bc 28e4 193d 9980 193d
000000b0: dea1 e6bc d06f 8ebd 23de cf3c 9abe d43b
000000c0: 23c8 b03d 3829 62bd 721e 94bc ea33 893d
000000d0: d643 88bd f43e a13d 3768 b83a c2f7 d1bc
000000e0: 67bb 6abd 725b 81bd 854d 653d c352 14bd
000000f0: ec89 1f3d 56a5 933d 3096 623d 4843 0ebd
00000100: 5fa5 29bd d7dc 0c3f 95a7 9dbd 4a1f 573d
00000110: 8edc 5abd 34dd 5dbd 96d4 8bbd eb00 22bd
00000120: 2e51 14bd 9a6a a33d 1f99 9abd f3d2 223d
00000130: cb6e 8bbc 9d8b 6fbc 2684 c0bc bae0 48bd
00000140: aa85 573d 0c95 4e3c 6d66 923a 5597 c83b
00000150: 2572 393d e8c3 0c3d 3bd1 e03c 9d07 b73c
00000160: 786c 063d c7db a7bd 58a3 94bd 89b4 13ba
00000170: 3e83 bcbc 3445 b23d 3ff5 193d 04ba 00bd
00000180: 1a55 a83d e683 3d3d 5360 2c3d 5fe2 703d
00000190: 6a09 7abd 5ef1 fcbc b9bd 5b3d 5981 78bd
000001a0: 068a b33d 765e 25bd e6b9 bebc e9db 80bd
000001b0: b8eb 423d bb9f 393d de43 af3d 9c52 70bd
000001c0: 79b0 1b3d 900c aa3c 7fa7 15bd deb7 86bd
000001d0: 92f1 c5bb fbef 96bd 0ba3 333c 564e 003d
000001e0: baeb b23d 815f d2bc 6446 3f3c d941 a3bd
000001f0: 786c f53c d001 b23d b77f 3a3c b294 843d
00000200: 7934 043d a430 8abd 7453 f73e 53e5 ffba
00000210: b4c1 e33c 416d 293d b158 8a3d c713 46bc
00000220: 4b03 823c 06f9 aa3d de65 0bbc 42ff 45bd
00000230: d4da 80bc dd5c 353d 72a7 343d d93c 9f3d
00000240: 4c46 fbbb dd25 37bd 6e44 96bd 6621 0fbd
00000250: aae3 70bc 031f 6abd 93f9 ddbb e6cc b93d
00000260: 2706 9e3d 5fc9 a3bd b844 03bd 53d6 853d
00000270: 14d0 1abd a2ac a93d 6797 abbd 7fab e33c
00000280: b844 013d 7737 8cbb 0f09 bd3c a49f 333d
00000290: 43e3 763d 4c50 3cbd fc31 a6bd 264d 1b3d
000002a0: 6124 ae3d 0db7 183c 038e b2bc 89ea 8d3d
000002b0: f7c6 87bd d1f8 1bbd c4f3 613c b15c bc3d
000002c0: 6493 383d af69 213c 1e52 acbc 1630 a73c
000002d0: 5ee4 d83c 2523 8fbd 9519 36bd 3490 723d
000002e0: 1d65 87bd 0f47 803d 3964 263d 90fd 573d
000002f0: dc17 0ebc 643e 1cbd 107c 163c fb76 aebd
00000300: 3bbd d4bc f3e6 90bd e526 9e3d d57d f83e
00000310: 2b57 873d 3f4f d13c 69a9 3dbd 4ddc 0a3d
00000320: 2824 083d 3e7a 803d dbaf a33c 6ee8 90bd
00000330: 84a6 c3bc 0745 af3d 0669 983d 5484 8ebd
00000340: 77e5 35bd c35d c6bc 0452 24bd 7648 91bd
00000350: c41d 173c 5f23 19bd df12 523d b990 6d3d
00000360: fe3e aebc ac48 75bb cb99 bebc 014a 8dbd
00000370: 0100 a2bc f944 57bd 77bf b63c bae2 f63c
00000380: 9e28 00bd 51e6 e5bb 31a1 da3c 38d2 71bd
00000390: 4c32 343d 5161 48bd 1135 89bd d184 f2bc
000003a0: e574 3d3d 902f 403d 27d1 413d 7ee8 29bd
000003b0: 0313 553d 9770 efbc 43f4 96bd 8af4 723c
000003c0: 0cd0 99bd ccc7 a1bc 8c12 38bd c6d7 92bd
000003d0: 5a8f a13d 60f5 9abd 952b 013c f3cf 433d
000003e0: fd13 acbb a715 8e3d 83a7 a13c b068 9d3b
000003f0: 0a73 28bc c266 8bbd 16a2 b1bd 82a6 e6bb

node_layers.mlp_0.weight f4 [64, 121]
0.024034219 0.048071384 -0.049813587 0.02976617 0.07660128 0.0032710922 0.027110806 -0.0874334
0.04826214 0.028836207 0.07467637 0.005712477 0.029567037 -0.06503928 -0.019651001 0.040755045
0.004880082 -0.08113796 0.03146448 0.047268186 -0.004009431 0.03943438 0.014263533 -0.074979104
0.0386629 -0.08676252 0.058080945 0.00022317063 0.022673283 -0.031386353 0.087676875 -0.09042349
-0.029607167 -0.08390171 -0.088692844 -0.05827025 -0.06616491 0.03273215 0.009812962 -0.018455582
-0.073637344 -0.05842417 -0.020235723 0.032733366 0.053413533 0.010787087 0.052647095 0.028774977
0.034571983 -0.014600321 0.035227038 -0.028369287 0.060256418 -0.022879872 -0.030729197 -0.08131508
-0.084721304 0.023502914 -0.015930556 -0.042251382 0.048561584 -0.01483124 0.024764886 0.024332969
0.014491027 -0.029064255 -0.08359551 0.05011315 0.07779123 -0.087250255 -0.039798856 0.0062246756
0.03132882 -0.0127398325 0.02779861 0.059092015 -0.0017287841 0.056831796 0.009215464 -0.026303422
-0.0122976955 0.045692954 -0.01634187 0.029786024 0.0057509923 0.033457506 -0.07998223 0.0045627356
-0.08557548 -0.08173382 -0.018620145 -0.038131673 -0.042647798 0.046944067 -0.057380795 0.035750326
0.07731285 -0.08724086 0.08183366 0.06582355 0.009275816 0.079135016 -0.06623997 -0.08032655
-0.01109858 -0.0112892715 -0.022786954 0.08003177 -0.06756529 0.08517569 0.06378669 -0.067803815
0.022708265 -0.07333952 0.08361094 0.0098266825 -0.025470095 -0.068738386 -0.07323982 -0.05423325
0.09061277 0.03826848 -0.002097699 0.027463216 0.021433258 -0.05527631 0.056640837 0.035987105
-0.0073455004 0.044864234 0.032514807 0.08292005 -0.041145205 -0.011636649 0.07791677 0.0699212
0.03135455 -0.07769053 -0.033616964 -0.04518471 0.07278346 -0.020032443 -0.053995155 -0.027489413
0.03370865 0.013466441 -0.035801098 0.016410388 -0.054589763 0.04156902 -0.03291755 0.030058185
0.011667287 -0.036297645 0.05952774 0.02347709 0.024180412 -0.0015400203 0.03734845 0.004004487
0.071196154 0.046045054 -0.061755724 -0.045280367 0.062949024 -0.037290044 0.0745965 -0.0036120461
0.06280962 0.023428172 0.05568113 -0.02488563 0.08955549 -0.058649935 -0.021366851 -0.04575334
-0.014036184 0.029078709 0.044848647 0.041375924 0.009977034 -0.03184742 0.083302066 0.0127933705
0.030336749 -0.052652106 -0.085965544 -0.00508587 -0.08364492 -0.061018966 -0.08708403 -0.012680862
-0.067275174 -0.04494068 -0.035602048 -0.05468301 -0.050080776 0.02848237 0.07712326 0.037976198
-0.09172924 0.06269927 -0.082301535 -0.0844682 0.0017256862 -0.018622072 0.031563148 0.07754628
0.078600585 0.017886205 0.012230062 0.08655184 0.07588186 -0.012618066 -0.03586613 -0.063764155
0.047782626 -0.019133255 0.07735063 0.06641316 0.029896796 -0.04592062 -0.026290502 -0.092130184
0.007995764 0.005824229 0.080437094 0.03284614 -0.026595056 0.021488888 -0.023008408 0.06881511
0.06669785 -0.07261342 0.0238922 0.04969242 0.033500087 0.000348057 -0.060669836 0.03061795
0.057278182 -0.059921283 -0.02106892 -0.020369962 0.07081271 0.035663795 0.005490355 -0.05063788
-0.07493356 -0.07383851 6.977068e-05 -0.04319031 0.08146226 -0.016107598 -0.09138198 0.02581594
00000000: 69e3 c43c 80e6 443d 5509 4cbd 2fd8 f33c
00000010: 22e1 9c3d d25f 563b 7b17 de3c 4810 b3bd
00000020: 86ae 453d e939 ec3c edef 983d bb2f bb3b
00000030: 9236 f23c 5033 85bd 23fb a0bc c3ee 263d
00000040: 18e9 9f3b a92b a6bd e6e0 003d 499c 413d
00000050: 8c61 83bb f285 213d 98b1 693c a58e 99bd
00000060: fd5c 1e3d 8cb0 b1bd 49e6 6d3d e902 6a39
00000070: 52bd b93c fa8e 00bd ef8f b33d f32f b9bd
00000080: bb8a f2bc a9d4 abbd 98a4 b5bd c9ac 6ebd
00000090: 7881 87bd 2612 063d 8cc6 203c 2930 97bc
000000a0: 2dcf 96bd 2f4e 6fbd 63c5 a5bc 6c13 063d
000000b0: 26c8 5a3d 52bc 303c 7ba4 573d 80b9 eb3c
000000c0: 5a9b 0d3d 2f36 6fbc 3a4a 103d b566 e8bc
000000d0: 6fcf 763d 926e bbbc ccbb fbbc 8588 a6bd
000000e0: 5d82 adbd 2f89 c03c cc80 82bc c90f 2dbd
000000f0: 83e8 463d bbfe 72bc bbdf ca3c ef55 c73c
00000100: c66b 6d3c 2918 eebc 1f34 abbd 7243 4d3d
00000110: 0251 9f3d 43b0 b2bd 2004 23bd 5df8 cb3b
00000120: a652 003d bbba 50bc e9b9 e33c 780a 723d
00000130: 5e98 e2ba 75c8 683d 75fc 163c 467a d7bc
00000140: 467c 49bc 8928 3b3d 63df 85bc d201 f43c
00000150: d272 bc3b bd0a 093d b9cd a3bd 0083 953b
00000160: 3242 afbd 1064 a7bd 4689 98bc f52f 1cbd
00000170: 75af 2ebd 6c48 403d 2008 6bbd ef6e 123d
00000180: 3356 9e3d 56ab b2bd 6898 a73d 7fce 863d
00000190: 98f9 173c 8a11 a23d d2a8 87bd 3f82 a4bd
000001a0: d2d6 35bc a3f6 38bc b5ab babc b2e7 a33d
000001b0: ac5f 8abd 9870 ae3d 99a2 823d badc 8abd
000001c0: af06 ba3c 0833 96bd 363c ab3d 1800 213c
000001d0: a9a6 d0bc b6c6 8cbd c2fe 95bd af23 5ebd
000001e0: 3093 b93d 69bf 1c3d 8d79 09bb 8afa e03c
000001f0: cd94 af3c 6969 62bd 3900 683d 3767 133d
00000200: 86b2 f0bb 8fc3 373d 3f2e 053d fdd1 a93d
00000210: e087 28bd a5a7 3ebc d492 9f3d d932 8f3d
00000220: a16d 003d 361c 9fbd f1b1 09bd 9a13 39bd
00000230: 7f0f 953d 141b a4bc 062a 5dbd 7a31 e1bc
00000240: 1512 0a3d 59a2 5c3c 2ca4 12bd 146f 863c
00000250: 8499 5fbd 4744 2a3d 8ed4 06bd 953c f63c
00000260: 2628 3f3c d7ac 14bd 5cd3 733d 0753 c03c
00000270: 0016 c63c 82da c9ba b0fa 183d 1238 833b
00000280: 4acf 913d bd99 3c3d 92f3 7cbd e877 39bd
00000290: 6beb 803d 72bd 18bd 0dc6 983d 14b8 6cbb
000002a0: 54a2 803d 70ec bf3c e611 643d f3dc cbbc
000002b0: de68 b73d ea3a 70bd 8909 afbc db67 3bbd
000002c0: 06f8 65bc 7936 ee3c 37b3 373d cd79 293d
000002d0: b776 233c 7172 02bd 469a aa3d 499b 513c
000002e0: c684 f83c bca9 57bd b40e b0bd 5fa7 a6bb
000002f0: 074e abbd 06ef 79bd 1d59 b2bd 64c3 4fbc
00000300: 91c7 89bd b813 38bd 74d3 11bd 4bfb 5fbd
00000310: 8021 4dbd dc53 e93c cdf2 9d3d ee8c 1b3d
00000320: 8adc bbbd 7a68 803d b58d a8bd aafd acbd
00000330: 6c30 e23a 518d 98bc 5c48 013d 96d0 9e3d
00000340: 58f9 a03d 1786 923c 9960 483c 1742 b13d
00000350: f367 9b3d 01bc 4ebc 5de8 12bd c896 82bd
00000360: b7b7 433d 58bd 9cbc 026a 9e3d 9f03 883d
00000370: 20ea f43c 4317 3cbd 2e5f d7bc c0ae bcbd
00000380: aa00 033c 2dd9 be3b 34bc a43d ad89 063d
00000390: e0dd d9bc 7709 b03c 217c bcbc f0ee 8c3d
000003a0: e298 883d 58b6 94bd 93b9 c33c 478a 4b3d
000003b0: 6337 093d 6b7b b639 ef80 78bd 7fd2 fa3c
000003c0: 879c 6a3d 0570 75bd ba98 acbc e8de a6bc
000003d0: 4106 913d 3314 123d 70e8 b33b aa69 4fbd
000003e0: c476 99bd a538 97bd d951 9238 53e8 30bd
000003f0: afd5 a63d 15f4 83bc 7a26 bbbd f37b d33c

node_layers.mlp_0.bias f4 [64]
-0.038595114 0.05497186 0.0049220948 -0.048290435 0.015457415 -0.02752608 -0.07964887 -0.016916327
-0.032460693 0.059772212 -0.009581349 0.020386588 -0.053102802 -0.06039607 0.0655356 0.051038973
-0.09240131 0.10082806 -0.053217236 0.010081911 0.023349687 0.047137953 -0.022558257 -0.09338229
-0.015097828 -0.062624715 0.048069485 -0.08127647 -0.013638492 0.0784582 0.060604945 0.027319625
0.010875185 -0.017839609 -0.054970246 0.011172914 0.02420636 0.061248045 0.035051424 -0.05947987
-0.040453088 -0.0361993 -0.08627007 0.061080884 -0.065654404 0.0153583465 0.03714755 0.0021881703
-0.049421813 -0.028016394 -0.09051316 0.09040769 0.03191131 -0.026956735 -0.07769594 -0.055855133
-0.027168972 0.033804066 -0.04643175 0.07141544 0.023698596 -0.054413706 -0.03175167 0.09149761
00000000: e915 1ebd 2c2a 613d 8649 a13b 31cc 45bd
00000010: 1941 7d3c 607e e1bc f21e a3bd 1c94 8abc
00000020: 81f5 04bd b5d3 743d 17fb 1cbc c601 a73c
00000030: 5382 59bd df61 77bd 8737 863d 3e0e 513d
00000040: e63c bdbd f17e ce3d 51fa 59bd 9a2e 253c
00000050: d847 bf3c ba13 413d 18cc b8bc 373f bfbd
00000060: e15c 77bc 6341 80bd 82e4 443d 4774 a6bd
00000070: fb73 5fbc b1ae a03d e43c 783d 68cd df3c
00000080: d52d 323c 5f24 92bc 7b28 61bd 990e 373c
00000090: 6b4c c63c 3bdf 7a3d 1592 0f3d 2aa1 73bd
000000a0: 23b2 25bd b845 14bd 5dae b0bd f32f 7a3d
000000b0: d175 86bd 93a1 7b3c 0828 183d 6867 0f3b
000000c0: 876e 4abd a382 e5bc f75e b9bd ab27 b93d
000000d0: 6fb5 023d 5fd4 dcbc 0d1f 9fbd 5ac8 64bd
000000e0: 7791 debc 2276 0a3d 382f 3ebd 4242 923d
000000f0: 8f23 c23c e8e0 5ebd 0a0e 02bd 1963 bb3d

edge_layers.mlp_0.weight f4 [64, 121]
0.07763907 -0.067449085 -0.034699917 -0.07514266 -0.080677696 -0.07131723 -0.038239695 0.054666433
-0.06859824 -0.08334944 -0.063630454 -0.07267244 0.08184222 -0.04534052 -0.029644642 0.0006114353
-0.060647726 0.07869227 -0.0103812 -0.043726597 -0.06253144 -0.010296714 -0.08651001 0.049643528
-0.05195118 -0.058717124 -0.03906524 0.02097352 -0.051813833 0.02316669 0.08829305 0.060383733
-0.04806573 0.062672585 0.010525974 -0.07475191 0.03762383 -0.06419377 -0.011210084 0.04583502
0.07129225 -0.040173445 0.089988634 -0.039932795 -0.08985192 -0.088761754 0.053913962 0.068657435
0.08926121 -0.020224594 -0.008911881 -0.061266296 0.04135909 0.05521369 0.048644412 0.01411631
0.061818276 -0.05203688 -0.016615218 -0.056217045 -0.039622795 0.0024066514 -0.056064002 0.006832405
0.012641571 -0.058492836 -0.090260945 -0.057126414 0.070070714 0.0654482 0.0041861427 -0.032629013
-0.06848888 0.025813548 -0.05406965 0.052863643 -0.054658175 0.0120610865 0.08991219 0.0007053072
-0.047405362 -0.06931321 -0.017354239 0.004501603 -0.034470614 0.016662555 0.042129572 0.082945645
0.0327421 0.042881437 -0.05170369 -0.06596603 -0.07466751 0.014159322 0.08053178 0.089007325
0.06975622 0.078274794 -0.073537275 0.017213399 -0.06382996 -0.08268687 -0.0006010858 -0.08203012
-0.016840622 -0.084495544 -0.06453089 0.025337568 -0.054631107 0.012342247 -0.030837592 -0.029389014
0.07555051 -0.053421576 -0.028655443 0.0021756128 0.07535901 0.053753898 0.041056775 -0.054150064
0.012622779 0.05093318 0.044530284 0.003398776 -0.07822861 -0.008890098 -0.029961327 0.028213935
0.015702205 -0.08375661 -0.020026002 -0.05071069 -0.0766519 0.083878934 -0.012361917 0.07517521
-0.03061274 -0.026178502 -0.08804712 -0.04474834 -0.04788805 -0.069036596 -0.0014365911 -0.0065758014
-0.02522965 0.009182291 0.010982373 -0.06045553 -0.022345912 -0.04987746 -0.053607076 0.021735733
-0.075577565 -0.0903649 -0.0769784 -0.030023055 -0.061407372 0.001892079 0.021355381 -0.04497373
-0.06781819 0.022873878 -0.0856146 0.015663885 -0.027983418 -0.049788367 0.03846083 0.070783876
-0.09059829 0.09055483 0.045233045 0.0584625 -0.052763075 -0.038251497 0.0599467 0.014272603
-0.06300519 0.044059463 0.018484334 -0.0022362254 -0.006689126 0.06891331 0.051926095 -0.06061682
0.011273655 0.020503793 -0.015466192 -0.009078492 -0.010741993 -0.0561503 0.033612903 0.00535486
-0.07172114 -0.078617945 -0.019766495 0.053269647 -0.0025153703 -0.032753903 0.021933286 0.0656148
-0.06573696 0.039144993 0.022875851 -0.028991353 0.058741864 -0.024135644 0.0057234657 -0.069993794
0.014806542 -0.02098531 -0.008423296 0.05916291 0.03638289 -0.08726387 0.066186234 0.06338878
-0.06499583 -0.04010397 -0.06311476 -0.055249844 -0.066673234 -0.08331296 -0.004505656 0.014649793
-0.06398224 -0.032903206 -0.024711901 0.042452823 -0.08907885 0.001954718 -0.032992102 0.05115273
0.00482634 -0.07110925 0.06562902 -0.031957638 0.023351073 -0.0456789 -0.007371458 0.038141295
-0.03140908 -0.047770847 0.013882608 0.027594447 -0.0109208245 0.048727803 0.051805437 0.030887624
-0.079673186 0.021978475 -0.053900376 0.026748925 0.050373767 0.05777592 0.009924523 0.018473849
00000000: 3c01 9f3d bf22 8abd 8021 0ebd 65e4 99bd
00000010: 593a a5bd c50e 92bd 3aa1 1cbd e9e9 5f3d
00000020: 3c7d 8cbd 1cb3 aabd af50 82bd 4ad5 94bd
00000030: e59c a73d fbb6 39bd 52d9 f2bc ba48 203a
00000040: c069 78bd 6a29 a13d e915 2abc a91a 33bd
00000050: 7c10 80bd 8cb3 28bc 292c b1bd 0357 4b3d
00000060: c3ca 54bd 5e81 70bd e002 20bd a9d0 ab3c
00000070: be3a 54bd 12c8 bd3c fdd2 b43d ef54 773d
00000080: 92e0 44bd 7c5a 803d 2375 2c3c 8817 99bd
00000090: 721b 1a3d 0678 83bd 80aa 37bc 80bd 3b3d
000000a0: ac01 923d e98c 24bd f64b b83d 9290 23bd
000000b0: 4904 b8bd b9c8 b5bd e3d4 5c3d 459c 8c3d
000000c0: 95ce b63d 0cae a5bc 2303 12bc 5ef2 7abd
000000d0: 2668 293d c027 623d 5d3f 473d 1848 673c
000000e0: 2935 7d3d a024 55bd a31c 88bc d843 66bd
000000f0: 834b 22bd e9b8 1d3b 5ea3 65bd 5ee2 df3b
00000100: 981e 4f3c 2f96 6fbd bbda b8bd 63fd 69bd
00000110: 3c81 8f3d b509 863d e92b 893b 00a6 05bd
00000120: e643 8cbd ef76 d33c 2378 5dbd 8c87 583d
00000130: 40e1 5fbd dd9b 453c e223 b83d 5de4 383a
00000140: 202c 42bd 16f4 8dbd 7a2a 8ebc 2f82 933b
00000150: 0f31 0dbd e97f 883c 0f90 2c3d 68df a93d
00000160: 951c 063d 72a4 2f3d 40c7 53bd 3319 87bd
00000170: 48eb 98bd 80fc 673c d9ed a43d 7949 b63d
00000180: 59dc 8e3d 894e a03d b69a 96bd 1d03 8d3c
00000190: 48b9 82bd bc57 a9bd 2f92 1dba 68ff a7bd
000001a0: 58f5 89bc 000c adbd c528 84bd bb90 cf3c
000001b0: dec4 5fbd 2337 4a3c 1e9f fcbc 3bc1 f0bc
000001c0: 3aba 9a3d 95d0 5abd d2be eabc ba94 0e3b
000001d0: d355 9a3d 0c2d 5c3d 262b 283d 75cc 5dbd
000001e0: c6cf 4e3c 4f9f 503d 6365 363d 00be 5e3b
000001f0: 5236 a0bd c6a7 11bc 7571 f5bc e920 e73c
00000200: e9a1 803c 9688 abbd 920d a4bc 03b6 4fbd
00000210: acfb 9cbd b8c8 ab3d a389 4abc 76f5 993d
00000220: 92c7 fabc 4c74 d6bc 0c52 b4bd 094a 37bd
00000230: 4326 44bd 0f63 8dbd 004c bcba d279 d7bb
00000240: 69ae cebc 5271 163c 69ef 333c 38a0 77bd
00000250: c60e b7bc 4f4c 4cbd 1893 5bbd 230f b23c
00000260: 69c8 9abd 3c11 b9bd daa6 9dbd e9f2 f5bc
00000270: 4c86 7bbd a3ff f73a 7bf1 ae3c 6036 38bd
00000280: 43e4 8abd 0062 bb3c b556 afbd 8c51 803c
00000290: 7b3d e5bc e3ee 4bbd 1a89 1d3d 23f7 903d
000002a0: 998b b9bd d074 b93d 4946 393d 6076 6f3d
000002b0: 181e 58bd 9aad 1cbd ac8a 753d a3d7 693c
000002c0: dd08 81bd b277 343d 756c 973c a38d 12bb
000002d0: 7530 dbbb 6c22 8d3d 75b0 543d 5849 78bd
000002e0: 23b5 383c 92f7 a73c e965 7dbc f5bd 14bc
000002f0: 2fff 2fbc dbfd 65bd afad 093d d277 af3b
00000300: 88e2 92bd 7202 a1bd 58ed a1bc 4631 5a3d
00000310: e9d8 24bb f528 06bd 6fad b33c 0d61 863d
00000320: 19a1 86bd 8056 203d 2366 bb3c 467f edbc
00000330: 4f9b 703d 1db8 c5bc e98b bb3b e858 8fbd
00000340: 2397 723c 63e9 abbc dd01 0abc cf54 723d
00000350: 3a06 153d 66b7 b2bd a68c 873d fad1 813d
00000360: 891c 85bd 0f44 24bd 5042 81bd a94d 62bd
00000370: fa8b 88bd fc9f aabd 2fa4 93bb af05 703c
00000380: 1f09 83bd 83c5 06bd 9d70 cabc 03e3 2d3d
00000390: f96e b6bd ba1a 003b ba22 07bd 8685 513d
000003a0: 4626 9e3b baa1 91bd 8268 863d 03e6 02bd
000003b0: c04a bf3c cc19 3bbd 468c f1bb 0c3a 1c3d
000003c0: cfa6 00bd 5dab 43bd e173 633c c00d e23c
000003d0: 42ed 32bc ce96 473d f031 543d 0b08 fd3c
000003e0: b22b a3bd 340c b43c a4c6 5cbd 9020 db3c
000003f0: b954 4e3d 71a6 6c3d 779a 223c 7856 973c

edge_layers.mlp_0.bias f4 [64]
-0.05780128 0.0827752 0.00081428036 -0.008079996 0.004013478 0.025472533 -0.04598442 0.0079480475
-0.07912321 -0.0601423 0.025009187 -0.022358224 0.07190222 0.011442207 0.04813299 -0.019360945
0.08918784 0.060974132 0.014154384 -0.016687699 -0.04283929 -0.058284044 -0.08696438 -0.012955765
-0.00079924543 0.07913452 0.004574675 0.05324178 0.014308046 -0.058159925 0.063601404 -0.031666957
0.07031355 0.038881145 0.039562885 -0.08698484 0.038232557 0.06778559 0.04554956 -0.06370593
-0.043171935 -0.057258684 0.044400048 -0.017612329 -0.08085444 -0.069051065 0.032983195 -0.048481103
-0.031313203 0.033741117 -0.035655078 0.08267676 0.03524433 0.07484201 0.06784209 -0.009254441
0.034392655 0.01491324 -0.043984078 -0.075535215 -0.07732313 -0.08866599 -0.02917004 0.044586126
00000000: 09c1 6cbd 0b86 a93d 6e75 553a f661 04bc
00000010: 7e83 833b c6ab d03c 295a 3cbd 8738 023c
00000020: 590b a2bd c657 76bd 11e0 cc3c 9828 b7bc
00000030: 7941 933d 1878 3b3c 1927 453d d89a 9ebc
00000040: 1da8 b63d 03c0 793d cae7 673c a4b4 88bc
00000050: 4078 2fbd 40bb 6ebd 621a b2bd 6b44 54bc
00000060: 7484 51ba 4711 a23d 28e7 953b 0d14 5a3d
00000070: 4b6c 6a3c 1a39 6ebd 7441 823d 36b5 01bd
00000080: 8d00 903d d641 1f3d b10c 223d 1c25 b2bd
00000090: be99 1c3d 2cd3 8a3d 2d92 3a3d 4178 82bd
000000a0: 0ed5 30bd 1588 6abd d3dc 353d bb47 90bc
000000b0: 0397 a5bd a56a 8dbd 6319 073d 1f94 46bd
000000c0: 4642 00bd 2034 0a3d 0f0b 12bd 6f52 a93d
000000d0: 5c5c 103d c546 993d cbf0 8a3d f09f 17bc
000000e0: 50df 0c3d aa56 743c a628 34bd 35b2 9abd
000000f0: 975b 9ebd 8496 b5bd 02f6 eebc f19f 363d

gnn_layer_0.classifier.weight f4 [1, 64]
0.053226635 0.104917325 -0.10292203 0.017287545 0.009128526 0.029318728 0.02794294 0.056178898
-0.09273026 -0.06490214 -0.0739107 0.034256045 -0.08637742 0.031247111 0.064363204 -0.11496188
-0.08365112 -0.008215833 0.06668438 -0.0091333315 0.09482482 -0.09605159 -0.001717213 0.10905219
0.10516465 0.08149905 0.003887996 0.01203629 0.02199388 -0.03989997 -0.0434507 0.010548717
-0.033230986 -0.040100753 -0.06758277 -0.024867704 -0.12125333 -0.07368593 -0.08391654 0.053504974
-0.06067852 0.010253914 -0.08030164 -0.058777347 -0.06744372 0.018884392 0.109222844 0.09968606
-0.025822861 0.028338974 0.0013865486 0.06354892 0.02901968 -0.050300583 -0.11812837 0.0959623
-0.10197724 -0.050390314 -0.10031446 -0.13266039 0.034046367 -0.09964341 -0.10215364 0.09982453
00000000: 2c04 5a3d e5de d63d c9c8 d2bd 9c9e 8d3c
00000010: d08f 153c d42d f03c 98e8 e43c d81b 663d
00000020: 5de9 bdbd 6aeb 84bd 7e5e 97bd 1150 0c3d
00000030: a5e6 b0bd f1f9 ff3c dbd0 833d 2271 ebbd
00000040: 4751 abbd b49b 06bc d291 883d f8a3 15bc
00000050: 8433 c23d b2b6 c4bd 1b14 e1ba c156 df3d
00000060: 9060 d73d f9e8 a63d c0cd 7e3b dc33 453c
00000070: 822c b43c 276e 23bd 5cf9 31bd 87d4 2c3c
00000080: 371d 08bd b040 24bd d668 8abd 5bb7 cbbc
00000090: aa53 f8bd a6e8 96bd 6fdc abbd 0828 5b3d
000000a0: 0a8a 78bd 0800 283c 3075 a4bd 84c0 70bd
000000b0: ef1f 8abd 71b3 9a3c 3ab0 df3d 3428 cc3d
000000c0: 778a d3bc 2327 e83c dabc b53a f025 823d
000000d0: aeba ed3c fc07 4ebd 49ed f1bd e287 c43d
000000e0: 71d9 d0bd 1366 4ebd ab71 cdbd 20d8 07be
000000f0: 3474 0b3d d811 ccbd ed35 d1bd ce70 cc3d

gnn_layer_0.n_func.0.weight f4 [64, 1]
-0.81750035 -0.5596962 -0.027625442 0.75689715 0.3830749 0.75044376 -0.9853326 -0.38654283
-0.941241 0.3387341 -0.3380139 -0.32281148 -0.10038992 -0.32463992 -0.50379026 -0.05331835
0.89260155 0.14922163 0.039848894 0.1378508 0.5912332 -0.410869 -0.19502103 -0.57548535
-0.9689007 -0.25138426 -0.082966566 0.13046296 0.4570697 0.8562497 0.39079875 -0.973071
-0.31852183 -0.243433 0.42147058 -0.88850296 0.96825534 0.39814746 0.91387445 0.58019817
-0.02734115 0.99214643 -0.98884976 0.4304908 -0.0954504 -0.31489384 0.6357419 -0.55326855
0.6426072 0.21519269 -0.41547596 -0.64467597 -0.43982363 -0.045881215 -0.7045734 0.16323124
-0.18492572 -0.1892202 -0.08487785 -0.46748364 0.8372066 -0.7080101 0.90193564 0.20910303
00000000: b447 51bf 4048 0fbf c04e e2bc 03c4 413f
00000010: 6522 c43e 151d 403f c23e 7cbf f1e8 c5be
00000020: 2cf5 70bf 8e6e ad3e 2810 adbe 8c47 a5be
00000030: 3b99 cdbd 3437 a6be 66f8 00bf 5864 5abd
00000040: 8981 643f 8ecd 183e 9838 233d c328 0d3e
00000050: 0f5b 173f 6c5d d2be 98b3 47be 0253 13bf
00000060: e009 78bf 70b5 80be 60ea a9bd 1598 053e
00000070: 0a05 ea3e 2e33 5b3f c616 c83e 2e1b 79bf
00000080: 4b15 a3be 8046 79be feca d73e ee74 63bf
00000090: 95df 773f fcd9 cb3e adf3 693f de87 143f
000000a0: 8cfa dfbc 4ffd 7d3f 4225 7dbf 4a69 dc3e
000000b0: 807b c3bd c439 a1be fbbf 223f 02a3 0dbf
000000c0: e881 243f 795b 5c3e 44b9 d4be 7c09 25bf
000000d0: 9030 e1be f1ed 3bbd ec5e 34bf 1726 273e
000000e0: 2b5d 3dbe f1c2 41be 70d4 adbd 045a efbe
000000f0: 2c53 563f 2640 35bf 41e5 663f 1b1f 563e

gnn_layer_0.n_func.0.bias f4 [64]
0.635602 -0.96189713 -0.2433896 0.793037 0.6172729 -0.26056254 0.77904856 0.53766716
-0.042432666 0.28944862 0.3756678 -0.021535158 0.7120946 0.13483179 0.0101310015 0.37313625
-0.0017628593 -0.5316841 0.17563699 0.07276531 -0.9037051 -0.09428394 0.043290496 0.2226454
0.4389869 -0.8403982 -0.86626685 0.30429336 -0.11473237 0.8276327 0.2889931 -0.33736634
0.6235605 0.016468287 -0.34217572 -0.7271359 0.41928995 -0.22580607 0.95497185 0.3072248
0.880985 0.07022294 0.30757833 0.13899298 -0.4542675 0.73020816 0.8205918 -0.9210948
-0.3302996 0.79148555 -0.8036046 0.19297719 0.34521115 0.6883506 -0.30767703 0.032811087
0.78724235 0.35897192 -0.20999587 0.08278799 0.9456371 0.2008121 -0.009557985 -0.9039712
00000000: d0b6 223f e43e 76bf 203b 79be 7904 4b3f
00000010: 9905 1e3f 7468 85be ba6f 473f 8ea4 093f
00000020: e0cd 2dbd 9c32 943e 8857 c03e 806a b0bc
00000030: d54b 363f 5811 0a3e 80fc 253c b70b bf3e
00000040: be0f e7ba 731c 08bf 2fda 333e fb05 953d
00000050: 3859 67bf f017 c1bd 6051 313d 28fd 633e
00000060: e4c2 e03e 5624 57bf aac3 5dbf 57cc 9b3e
00000070: cef8 eabd bddf 533f e7f6 933e 48bb acbe
00000080: a9a1 1f3f 80e8 863c a831 afbe 9425 3abf
00000090: 2cad d63e b539 67be 0979 743f 924c 9d3e
000000a0: 3c88 613f 0bd1 8f3d e87a 9d3e 2d54 0e3e
000000b0: c095 e8be ecee 3a3f 4e12 523f decc 6bbf
000000c0: 071d a9be cc9e 4a3f 08b9 4dbf d09b 453e
000000d0: 84bf b03e bf37 303f d887 9dbe eb64 063d
000000e0: b788 493f 2bcb b73e 2809 57be c08c a93d
000000f0: 4615 723f b0a1 4d3e 1899 1cbc a86a 67bf

gnn_layer_0.n_func.2.weight f4 [64, 64]
-0.02828984 -0.018762946 -0.01826194 0.048111964 -0.015457056 0.05703609 -0.04293196 -0.118991554
-0.03409116 0.063755274 -0.0027415156 0.08331117 -0.09346409 -0.0017963946 0.029083148 -0.0327136
0.029060112 -0.0075433697 -0.07038321 -0.10884762 0.032855112 -0.058185473 -0.009645447 -0.092010796
-0.02199182 -0.112014055 0.032317817 -0.046112873 0.077116445 0.004813713 -0.102609634 0.10591781
0.03743344 0.02112256 -0.090225846 0.04639712 -0.10403537 -0.02009285 0.08840642 0.07107692
0.11087827 -0.08486694 -0.08260195 0.09564576 -0.012602687 0.13135527 0.11417339 0.045328125
-0.13003911 -0.11393343 -0.02780652 0.027252272 -0.02790296 -0.034783598 -0.026444972 0.100200936
0.06495332 -0.009259403 0.0062783957 0.071358114 0.11743862 -0.06304221 0.03648063 -0.06488917
0.0715446 -0.050559863 0.022218242 -0.0057112575 0.0017711371 0.1046596 -0.06837118 -0.07520479
-0.019822642 -0.04568173 0.106692195 0.1163598 -0.016678616 -0.019647136 0.004388392 -0.080572546
0.11210653 0.06515849 -0.1152868 0.057187468 -0.06099543 0.017072037 -0.046490207 -0.12374297
-0.07746455 0.027748063 -0.12048069 -0.021440819 -0.11730552 -0.037236273 -0.036571026 -0.040411696
-0.0466924 -0.0072167814 0.015596956 0.07393205 -0.09685157 -0.07758647 0.013921693 -0.08551495
0.08031705 -0.083214164 0.056096137 -0.0978957 0.11434078 0.0741958 -0.11615668 0.0656645
-0.08240573 -0.05328369 -0.03697306 0.11381148 0.031033188 0.09426136 -0.012445256 0.033989802
0.012222007 -0.123618424 0.003118515 0.06314753 0.041062057 -0.030046001 0.021077499 0.10504176
-0.017273441 0.0015983433 0.06443542 0.07717791 -0.039954383 0.090906896 0.04423614 0.07177714
-0.09069751 0.052168783 0.06779583 0.047287494 -0.10775656 -0.11009738 -0.0010048151 0.073966734
0.10447939 -0.05926504 -0.049075797 0.017490234 -0.042625085 0.0232376 -0.023935229 -0.09878442
-0.013650611 -0.009921581 0.044091165 0.09489377 0.08559309 0.06642296 -0.021562932 0.071973756
0.11365603 0.020341009 0.05136678 0.037032977 0.028856553 0.018173303 -0.10155193 -0.0730494
0.08080015 -0.007665914 0.031541094 0.00715079 0.07117875 0.091685414 0.064614356 -6.28382e-05
-0.039642055 0.012449132 -0.0042713583 -0.047796726 0.089133084 0.07201971 0.119543955 0.12009026
-0.07164964 0.044071868 -0.0021823198 0.03171867 0.023445591 -0.0005578697 0.010202611 -0.09044278
0.1158874 0.03098701 0.0027245134 0.003357485 -0.070080936 -0.004633218 -0.017102271 0.08221255
0.016582474 0.11552368 -0.0852738 0.08713728 0.0905073 -0.037373498 0.069722086 -0.12046966
-0.0836761 0.10577904 0.0013158619 -0.021846518 -0.033805102 -0.112076506 0.0668973 0.12421821
0.014406443 -0.008744597 -0.05445485 0.10603997 0.06386399 0.039186656 -0.006911099 -0.11726999
0.01990749 -0.10780519 -0.08866209 0.044541568 -0.0572951 0.025296107 -0.10694744 0.0023493916
-0.09512247 0.07783899 -0.046262622 -0.108759135 0.093239844 0.03271769 0.03088209 -0.09779687
-0.10889469 -0.025777563 -0.060764655 0.02285771 0.0077057034 -0.057127118 0.05779645 0.10027468
0.014559999 -0.021197483 0.045296684 -0.037694454 0.054025263 -0.11283846 0.012071192 0.11024937
00000000: 18c0 e7bc c0b4 99bc 109a 95bc 0d11 453d
00000010: 983f 7dbc ad9e 693d 6cd9 2fbd d8b1 f3bd
00000020: 2ca3 0bbd 2092 823d 00ab 33bb 0c9f aa3d
00000030: 1a6a bfbd 0075 ebba c83f ee3c b2fe 05bd
00000040: 790f ee3c 5f2e f7bb 1325 90bd 80eb debd
00000050: 1593 063d e453 6ebd f007 1ebc 2870 bcbd
00000060: 3028 b4bc a067 e5bd b05f 043d dae0 3cbd
00000070: 3aef 9d3d 5abc 9d3b 0025 d2bd 70eb d83d
00000080: cf53 193d 3809 ad3c 54c8 b8bd e80a 3e3d
00000090: 7f10 d5bd c399 a4bc 6d0e b53d c790 913d
000000a0: 2514 e33d b8ce adbd 362b a9bd ede1 c33d
000000b0: 807b 4ebc ff81 063e bdd3 e93d fca9 393d
000000c0: f928 05be ee55 e9bd 80ca e3bc 2840 df3c
000000d0: c094 e4bc 3f79 0ebd 20a3 d8bc 2636 cd3d
000000e0: 3f06 853d c0b4 17bc 00bb cd3b 3424 923d
000000f0: a983 f03d 461c 81bd b76c 153d 9de4 84bd
00000100: fa85 923d dc17 4fbd 0803 b63c 8025 bbbb
00000110: 8025 e83a c657 d63d 3006 8cbd f804 9abd
00000120: 1863 a2bc c41c 3bbd 7081 da3d 0c4e ee3d
00000130: 98a1 88bc 08f3 a0bc 80cc 8f3b 3803 a5bd
00000140: 1c98 e53d d071 853d 7c1b ecbd 683d 6a3d
00000150: 58d6 79bd a8da 8b3c 846c 3ebd f46c fdbd
00000160: bca5 9ebd e84f e33c 94be f6bd a8a4 afbc
00000170: e03d f0bd 1085 18bd 80cb 15bd bc86 25bd
00000180: 8840 3fbd c07a ecbb 608a 7f3c b069 973d
00000190: 1e5a c6bd a8e5 9ebd d017 643c 7622 afbd
000001a0: 447d a43d 306c aabd 10c5 653d 8a7d c8bd
000001b0: 802b ea3d f8f3 973d 8ee3 edbd 1c7b 863d
000001c0: 56c4 a8bd 0040 5abd 1071 17bd fe15 e93d
000001d0: 5039 fe3c 1a0c c13d 30e7 4bbc e438 0b3d
000001e0: d03e 483c a82b fdbd 0060 4c3b 7e53 813d
000001f0: b030 283d 0823 f6bc b8aa ac3c 2220 d73d
00000200: 0881 8dbc 807f d13a b8f6 833d 740f 9e3d
00000210: 35a7 23bd 652d ba3d f430 353d e5ff 923d
00000220: 9ebf b9bd efae 553d 8ad8 8a3d 88b0 413d
00000230: 79af dcbd bc7a e1bd 00b4 83ba df7b 973d
00000240: 4af9 d53d e6bf 72bd b403 49bd ae47 8f3c
00000250: a497 2ebd c85c be3c d013 c4bc 7c4f cabd
00000260: d0a6 5fbc 208e 22bc f098 343d aa57 c23d
00000270: 6e4b af3d c308 883d bfa4 b0bc fa66 933d
00000280: 7ec4 e83d 30a2 a63c f965 523d e4af 173d
00000290: 9464 ec3c 2ee0 943c 75fa cfbd ec9a 95bd
000002a0: 8d7a a53d 5932 fbbb 3c31 013d 2d51 ea3b
000002b0: 2ac6 913d 90c5 bb3d 8854 843d 00c8 83b8
000002c0: b55f 22bd 72f7 4b3c c0f6 8bbb 80c6 43bd
000002d0: 688b b63d 127f 933d 76d3 f43d e2f1 f53d
000002e0: 0cbd 92bd b484 343d 4005 0fbb 70eb 013d
000002f0: f810 c03c 003e 12ba da28 273c 103a b9bd
00000300: 6056 ed3d 78d8 fd3c c08d 323b 4009 5c3b
00000310: 9886 8fbd 40d2 97bb 101a 8cbc 0e5f a83d
00000320: f8d7 873c ae97 ec3d 08a4 aebd 0875 b23d
00000330: e45b b93d f414 19bd 74ca 8e3d ccb8 f6bd
00000340: 605e abbd aea2 d83d 0079 ac3a 78f7 b2bc
00000350: 3877 0abd 5e88 e5bd 7401 893d 1e66 fe3d
00000360: 0009 6c3c 8045 0fbc 0c0c 5fbd 7c2b d93d
00000370: 20cb 823d 3082 203d 8076 e2bb 402b f0bd
00000380: 0815 a33c f8c8 dcbd 7894 b5bd 3871 363d
00000390: 44ae 6abd c839 cf3c 4207 dbbd 40f8 193b
000003a0: 92cf c2bd 0c6a 9f3d e07d 3dbd 1cbd debd
000003b0: 88f4 be3d fc02 063d 70fc fc3c ba49 c8bd
000003c0: 2e04 dfbd 782b d3bc 5ce4 78bd 1840 bb3c
000003d0: 2080 fc3b 20fe 69bd f8bb 6c3d d05c cd3d
000003e0: 108d 6e3c 58a6 adbc 0489 393d 8065 1abd
000003f0: 9849 5d3d da17 e7bd 40c6 453c 6cca e13d

gnn_layer_0.n_func.2.bias f4 [64]
-0.11777278 -0.077965066 0.00026204486 0.032165453 0.01757068 -0.078079954 -0.08742286 0.011359662
0.020352574 0.043617994 0.019957617 -0.022020215 0.022137672 -0.124925606 -0.07878606 0.07606402
0.046801243 -0.09420116 -0.011504253 -0.017047595 0.12377843 -0.103440896 0.093877584 -0.110107146
-0.0012012364 -0.086102165 -0.08747591 -0.07314986 0.09875656 0.027549073 -0.11435269 -0.049837157
-0.00038945163 0.022906244 0.009492602 -0.09400554 0.0011781305 -0.12443207 0.036946 -0.05432196
0.046664074 0.10797598 0.025766507 -0.104102015 0.04644896 -0.08026882 -0.026776612 0.032899264
-0.10545462 0.1050192 -0.09309736 -0.0032746345 -0.039879333 -0.026789978 -0.06722562 0.0015843809
0.11938122 0.0386895 0.013854952 -0.013728648 -0.11298044 0.006697172 0.08933376 -0.016498059
00000000: db32 f1bd 26ac 9fbd 1163 8939 ecbf 033d
00000010: 63f0 8f3c 62e8 9fbd c20a b3bd e01d 3a3c
00000020: 71ba a63c c8a8 323d 287e a33c bd63 b4bc
00000030: 105a b53c ffd8 ffbd 965a a1bd 74c7 9b3d
00000040: a9b2 3f3d 8aec c0bd 567c 3cbc 66a7 8bbc
00000050: 8c7f fd3d d2d8 d3bd e442 c03d db7f e1bd
00000060: ce72 9dba 5556 b0bd 9226 b3bd 98cf 95bd
00000070: e140 ca3d 98ae e13c be31 eabd 0c22 4cbd
00000080: 502f ccb9 e0a5 bb3c dc86 1b3c fa85 c0bd
00000090: 806b 9a3a 3ed6 febd b054 173d b480 5ebd
000000a0: d422 3f3d 8322 dd3d 4814 d33c 7033 d5bd
000000b0: 4441 3e3d fb63 a4bd a05a dbbc 61c1 063d
000000c0: 98f8 d7bd 4e14 d73d d4a9 bebd 409b 56bb
000000d0: 8358 23bd a876 dbbc 96ad 89bd 00ab cf3a
000000e0: 247e f43d e278 1e3d e1ff 623c 20ee 60bc
000000f0: 4a62 e7bd f373 db3b 9ef4 b63d f026 87bc

gnn_layer_0.n_self_func.0.weight f4 [64, 1]
0.5125405 -0.9344915 0.04053719 -0.8125737 -0.9355618 -0.81442297 0.3918349 0.42519647
-0.020801734 -0.18146756 -0.49581385 -0.50792944 0.8760942 -0.6973859 0.6875262 0.18791348
-0.7650012 -0.5339409 0.7994986 -0.31926182 -0.86441505 -0.6559775 -0.8426926 -0.8547962
0.22237197 -0.81945014 0.46848643 0.059173115 -0.14980114 -0.21027184 0.039533388 0.05474918
-0.7904546 -0.13625038 -0.34216845 0.5739333 0.94981766 -0.8395457 0.38082293 0.5500202
0.23823088 0.10132346 -0.52669257 0.9232066 -0.8898407 -0.5968932 -0.41020548 0.95051444
-0.2908014 -0.43319154 -0.5756842 -0.09486592 0.25551885 -0.33176756 -0.6808586 0.9618229
0.82419443 0.4788983 -0.25926864 -0.67199886 -0.69090986 -0.113799065 -0.057920337 -0.25499392
00000000: db35 033f d63a 6fbf 530a 263d d404 50bf
00000010: fa80 6fbf 067e 50bf 969e c83e 5ab3 d93e
00000020: 6668 aabc a2d2 39be 50db fdbe aa07 02bf
00000030: b647 603f e287 32bf b801 303f 646c 403e
00000040: 1ed7 43bf 5ab0 08bf f1ab 4c3f 4976 a3be
00000050: 4e4a 5dbf 24ee 27bf b4ba 57bf ecd3 5abf
00000060: 7ab5 633e 7cc7 51bf 74dd ef3e 825f 723d
00000070: 7865 19be 8051 57be c3ed 213d ad40 603d
00000080: 3c5b 4abf 3885 0bbe b430 afbe 4bed 123f
00000090: 4027 733f 78ec 56bf 39fb c23e 20ce 0c3f
000000a0: ccf2 733e ad82 cf3d 53d5 06bf 4557 6c3f
000000b0: 9acc 63bf fecd 18bf 7406 d2be ea54 733f
000000c0: ece3 94be 48cb ddbe 0a60 13bf 1049 c2bd
000000d0: 5ed3 823e 70dd a9be c04c 2ebf 073a 763f
000000e0: 68fe 523f 2832 f53e dcbe 84be 1e08 2cbf
000000f0: 78df 30bf 7c0f e9bd e03d 6dbd 908e 82be

gnn_layer_0.n_self_func.0.bias f4 [64]
-0.8050022 -0.17235088 0.53600365 -0.3764323 -0.28008652 -0.3240701 0.91067624 -0.78822935
0.65442604 0.73205346 -0.5662017 -0.03792441 0.65670246 0.7225336 -0.8642003 -0.71416116
-0.8343382 -0.10103738 -0.7145431 0.89994854 -0.32777405 -0.1823188 -0.44135964 -0.8688384
0.8909521 -0.77072644 0.23941725 0.4821671 -0.35351288 -0.3831601 0.25561753 -0.22806361
0.37956977 -0.042634726 0.6902522 -0.24626678 -0.36265367 0.4119177 -0.4637193 0.35621476
-0.64711666 0.69289297 0.8750397 -0.60429615 -0.058077097 0.9513534 -0.0972147 0.4035809
-0.097764015 -0.58597255 0.56153965 -0.5833545 -0.17717828 -0.63733625 0.8102971 0.6641561
-0.19366279 -0.91310495 0.21174216 0.13711822 -0.7413211 0.6610152 -0.083284736 -0.9792408
00000000: a014 4ebf c07c 30be 8937 093f bcbb c0be
00000010: 8067 8fbe 84ec a5be 1422 693f 66c9 49bf
00000020: 7788 273f db67 3b3f 98f2 10bf a056 1bbd
00000030: a71d 283f f6f7 383f 3b3c 5dbf 44d3 36bf
00000040: 3097 55bf b0ec cebd 4cec 36bf 0763 663f
00000050: 00d2 a7be c8b1 3abe e4f9 e1be 326c 5ebf
00000060: 7015 643f 544e 45bf cc29 753e 9bde f63e
00000070: a4ff b4be 902d c4be 4de0 823e 8289 69be
00000080: f856 c23e c0a1 2ebd 5eb4 303f 5c2d 7cbe
00000090: bead b9be e0e6 d23e 9e6c edbe c861 b63e
000000a0: 70a9 25bf 6f61 313f 9a02 603f 27b3 1abf
000000b0: 40e2 6dbd e58b 733f 8018 c7bd 28a2 ce3e
000000c0: 8038 c8bd 4c02 16bf 10c1 0f3f b856 15bf
000000d0: 396e 35be 7828 23bf a16f 4f3f 2206 2a3f
000000e0: 8a4f 46be 3fc1 69bf f0d2 583e b868 0c3e
000000f0: 38c7 3dbf 4b38 293f 3091 aabd 86af 7abf
