ThinkMatch/exp/ngm/CV2/saved_models/model.pt (torch, 278195 bytes, 34 tensors)

affinity_layer.lambda1 f4 [64, 64]
00000000: 5be6 0d3f b991 24bd bb53 32bd 3cad 8bbd
00000010: b661 f9bc 4997 09bd bc2e 463c 7cea a63d
00000020: ad39 8a3d be5d a13b 2946 263d 6828 94bd
00000030: f7ae 953d 56c9 103e 663f 043d 3f0d b2bd
00000040: cd9b 30bd 7e01 67bd d01d dc3d 1a8b 46bd
00000050: d49d 07bd 3f21 72bd 5712 8fbd bb8e 253d
00000060: dc31 7c3e e2a5 59bd 79d3 a2bd 4610 8b3d
00000070: 02a9 263e ff51 8fbd fbd5 c3bc 3688 b0bb
00000080: f86d 53bb 72bd a2bd c603 05bd f918 043d
00000090: 2adc 91bc 1a8f 5fbc 6333 c9bc 272d 81bd
000000a0: 13cc 96bd 7558 2bbd a56b 4c3d 9442 743d
000000b0: 0c88 9b3c 20ab df3d 05a1 f0ba b21e ab3c
000000c0: 3d96 ec3d 2b93 d23d 1686 6c3d 0dac 153e
000000d0: 0cee 82bd 3412 81bd b23b 24bd 815f 1e3d
000000e0: 6371 a73d 97a0 3bbb 80ae 39bc e8d2 2f3d
000000f0: fd96 acbd a8c8 c7bc 3508 50bc 01ef 623d
00000100: a33d 243d 5ebc c93e 88a1 963c 09a6 8e3d
00000110: 3abd afbc 15ce 1bbd cb80 003e 8199 2dbc
00000120: 966d ed3d 5c6f 95bd dd82 063e cabb 25bd
00000130: 4208 11bd b2c4 81bc 77f3 243d 3533 073d
00000140: 9d7f 96bd e5a4 aabd 262f cc3d afd4 f23c
00000150: 4e54 10bd bef0 a9bb fbf2 0a3d bb76 173c
00000160: 7585 3b3d 5e4f f83c 6fb1 f6bc 6297 103d
00000170: a804 a5bd 0856 a3bc 7229 303d 863d 1fbd
00000180: 063a 1c3d cffb 393d 3750 09bd d624 9ebd
00000190: e0fa 0dbc adf5 b4bd 0676 52bd ca2b d8bc
000001a0: 6946 823d 8899 7cbd 8760 e23d 2b52 a7bd
000001b0: 3a0b 5f3b d3b1 9e3d ba32 973d 8ba2 593e
000001c0: 244f 433e 7a57 94bd b961 37bd 9f7f d43c
000001d0: b01b 76bd b532 65bd 7a7e 013e e972 5abd
000001e0: f5be 23bd aad5 14bd c0f4 6fbd 7c31 1cbd
000001f0: 6adb 8fbd 3f9b 8c3d b53f 5fbd 10cb 3bbd
00000200: 5c47 79bd e2b8 99bc b626 003f baee a2bb
00000210: 5dfd 7b3a 34f9 02bd c5ec 85bd cbc3 0f3c
00000220: aae4 00bd ed4f 1f3d 9903 463b 6872 aebd
00000230: 9ee7 01bd 8b05 2dbd 4008 95bd 0e5f 88bd
00000240: a79d 91bd c374 bf3d 14a3 26bd 4c1d 0c3e
00000250: d402 87bc 4a8e bcba 2139 0c3d 0809 01bd
00000260: d483 ab3d ef04 0abd c316 a5bd 5c12 ab3d
00000270: 4065 7ebd c5b7 e73d ef7d 1f3d 6bb6 a7bb
00000280: bbda f9bc f419 b03c 3587 22bd d8f6 333e
00000290: 1bd9 cebc c6e1 95bd c440 503d a530 fb3c
000002a0: 3a6e abbb 557d 86bd d80f ddbb 2076 03bc
000002b0: c66a bdbc 3888 403d 29ab 23bd 0153 27bd
000002c0: eb3a 95bd a781 813d ded1 95bd a2eb a2bc
000002d0: 1583 8f3c 91b0 9e3c bc78 3cbd e08e 383d
000002e0: e88e 60bd c215 7c3d fa9f f3bc 1274 2f3b
000002f0: 64f2 ef3d 8afa 26bd 122b ba3d bd78 ef3c
00000300: ad0e 693d 0535 793d 6e9b 87bc 5251 093f
00000310: 4b44 883c 2503 82bd f82a a23c e014 21bb
00000320: eec6 373d 43ac 8ebc 9d2c 9e3d af12 3b3d
00000330: 26c3 4fbd 57c0 1f3e 25c3 d43d f04b aabc
00000340: 4ff4 973d adaf 97bd 3ce1 99bd 4412 323e
00000350: 06f4 5ebd 6c2f 86bc 7927 143d 034e 1cbd
00000360: abb1 ce3c a739 923c 9dbf 37bd 3420 25bd
00000370: eb2e 0a3e d9f2 fb3d fe1f 94bd 0317 603d
00000380: fc94 b83d 1fe7 85bd 663c a7bb 001c 0e3e
00000390: ba9e 21bd d35c 103d 8016 863b ad2d 3dbd
000003a0: 433c acbd 6ce7 c6bc d0c2 723d e175 4ebd
000003b0: f092 e9bc 2a15 8abd 02df 6ebd fa54 fe3c
000003c0: d4a0 033e 610b 923d f693 01bc 1a53 36bd
000003d0: 1968 203d 8116 6abc 6b8b 163d f31e 90bd
000003e0: f423 cabc 3862 513d cdcd 13bd 4890 d03d
000003f0: 3ec0 93bd 7b73 e6bc 7360 683d 74fe f039
0.5542962 -0.040178034 -0.043536883 -0.06820151 -0.0304421 -0.033591542 0.012096103 0.08150193
0.06749282 0.004924505 0.040594254 -0.072342694 0.073087625 0.14139304 0.032287024 -0.08693933
-0.043117333 -0.056397907 0.10747874 -0.0484725 -0.0331095 -0.059113737 -0.0698592 0.04041932
0.24628395 -0.053136714 -0.079504915 0.06790213 0.16275409 -0.069980614 -0.023905745 -0.0053873314
-0.0032261591 -0.0794629 -0.0324743 0.03225038 -0.017805178 -0.013644958 -0.024560636 -0.0630744
-0.07363143 -0.041832406 0.049907345 0.059633806 0.01898577 0.109213114 -0.0018358534 0.02088866
0.11552093 0.10281976 0.05774506 0.14616413 -0.0639306 -0.063023 -0.040095992 0.0386653
0.08175924 -0.0028629655 -0.011333108 0.042925745 -0.08427236 -0.024387673 -0.012697269 0.055403713
0.040097844 0.39401525 0.018387571 0.069652624 -0.021452535 -0.038038332 0.1254913 -0.01059568
0.115931675 -0.07296631 0.13135858 -0.040462293 -0.035408266 -0.015840862 0.04027125 0.03300782
-0.07348559 -0.083322324 0.0996993 0.029642431 -0.03523665 -0.0051861694 0.03392313 0.009244616
0.04578157 0.030311283 -0.030113904 0.03530062 -0.08057529 -0.019938484 0.043008275 -0.038877033
0.038141273 0.04540616 -0.033523764 -0.0772187 -0.00866577 -0.088359214 -0.051382087 -0.026388068
0.06361086 -0.061669856 0.110535674 -0.08169969 0.003403379 0.07748761 0.07382722 0.21253411
0.19073159 -0.07243247 -0.04477093 0.02593976 -0.060085 -0.05595656 0.12645903 -0.053332243
-0.039977033 -0.03633658 -0.05858302 -0.03813313 -0.07024272 0.06865548 -0.054504115 -0.045847952
-0.06085907 -0.018764917 0.5005907 -0.004972306 0.0009612644 -0.03197594 -0.06539301 0.008774708
-0.03146807 0.038894583 0.0030214547 -0.08517915 -0.031715028 -0.042241614 -0.07276964 -0.06658755
-0.07110148 0.093484424 -0.040682867 0.13683051 -0.01648084 -0.0014385667 0.03423417 -0.031502753
0.083747536 -0.03369611 -0.08060982 0.08353111 -0.06210828 0.11314348 0.03893846 -0.0051181815
-0.030499807 0.02149675 -0.039679725 0.17574632 -0.025250008 -0.073184535 0.050843015 0.030662844
-0.005231646 -0.06566874 -0.0067462735 -0.008023769 -0.023122203 0.04700491 -0.039958153 -0.040850643
-0.07286628 0.06323557 -0.073154196 -0.01988775 0.01751856 0.019371303 -0.04601358 0.04505813
-0.054823786 0.061544187 -0.029739369 0.0026772064 0.11716154 -0.040766276 0.09090246 0.029232377
0.05689876 0.06084158 -0.016553607 0.5363971 0.016634127 -0.06348256 0.01979588 -0.0024579093
0.04486745 -0.017416125 0.07723353 0.045672115 -0.050723217 0.15600716 0.10388783 -0.020788163
0.07419645 -0.07406554 -0.07513663 0.1738978 -0.054431938 -0.016380034 0.036170457 -0.038160335
0.025231203 0.017849756 -0.04486047 -0.040313914 0.1349446 0.12302179 -0.072326645 0.054709446
0.090127915 -0.065382235 -0.0051036356 0.13877869 -0.039458014 0.035244774 0.0040920377 -0.046186138
-0.084099315 -0.024280272 0.05926782 -0.050405387 -0.028512448 -0.06742318 -0.058318146 0.03104638
0.1285432 0.071310766 -0.007908812 -0.044512846 0.039161775 -0.014287592 0.036754053 -0.07037153
-0.024675347 0.05111906 -0.03608494 0.101837695 -0.07214402 -0.028131237 0.056732606 0.0004596595

affinity_layer.lambda2 f4 [64, 64]
00000000: 734d 023f 84cc 083e 3d66 34bd 0ff0 a9bc
00000010: e793 25bd 071e 0a3d 238f 89bd e933 34bd
00000020: 6c62 97bc 614f 0ebd 21c0 d33d 6af9 df3d
00000030: b00e ae3d aa00 98bd c424 05bd 473c 423d
00000040: 364d 233c 0fba f4bc 5d4f 24bc efe2 90ba
00000050: ec33 9d3a 8829 803d 2466 863d 7f34 c1bc
00000060: 3011 7c3c 20ef e33d 1b28 963d 1cfd 093d
00000070: af25 bc3c c3cb 9bbc d761 8bbd 6f68 a83d
00000080: 967b 063d 6a4a 6dbd dd7a e43d c9c6 233e
00000090: d7ef 3e3d c02b ebbc 81b1 683c 4f66 20bc
000000a0: d80f 823d c7ac 273d ae41 8a3d 3385 1e3d
000000b0: c418 66bd a21a e83c 917a 6e3d abc5 aebd
000000c0: 17b3 85bd 3555 cebc f26f 0e3e 09f5 13bd
000000d0: 6785 78bc 81f1 a3bd 5cb0 023d e967 0d3d
000000e0: e016 f7bc dcd7 ec3d 7d91 64bd 712e a1bc
000000f0: 0f3b 46bd da96 75bd 8598 81ba 6551 01bc
00000100: ce04 ff3c 8d7f 043f e1ee 0b3e e7fd 23bd
00000110: 00bc 453c 42f1 67bd fb44 73bd 96b3 7ebd
00000120: 5817 ae3c ec41 0c3d 76bd 37bc 6629 61bd
00000130: 9b11 e73d 518f 163d 9b06 59bd 64dc 1bbd
00000140: 2883 ee3c 9db2 00bd 4b50 873d 89df db3d
00000150: 5762 f7bc 0f7a b2bc 4171 923c e412 15bd
00000160: a7c4 d23d 8170 18bc 435e be3c b470 ee3c
00000170: 3fc9 423d 7ece e03c cfdd 2c3d 90e8 033e
00000180: dcec 78bd 7367 1b3d 3def afbd af8c 9bbc
00000190: 8319 cb3d 2663 9cbc 8100 4a3d 1895 ee3d
000001a0: c0c1 5b3d bae1 9d3d 08af a1bc ff99 6bbc
000001b0: 6d10 87bd ecdf adbd 61b9 993d 2e2e 89bd
000001c0: 3abf 403d 35d3 06bc 6883 ee3d ec4c f43c
000001d0: d2ad 5ebd 8336 283d e1e6 2bbd ea7a 31bd
000001e0: de5b 373b e345 90bd 2e17 5a3c dcac 9dbd
000001f0: ae53 913c 514e 063e 6c1d 803d 8f88 d4ba
00000200: 5166 853c ae88 123e 2a1e 0b3f 7e4f 3a3d
00000210: 4d2b 653d 9af0 3c3d 8357 633d d577 a23c
00000220: 5039 23bc 0847 2f3d 0b6c 0d3c 1d5e b0bc
00000230: 15c3 e0bc 3637 a63a 086b 23bd 4584 683d
00000240: 6273 ab3d 0c27 65bd 4fdc 51bd a29f 3dbc
00000250: a00e 92bd c873 c13c f629 ad3d 41e7 743d
00000260: d248 463d 6267 a2bd 0eae f5bc ad7a 1fbd
00000270: b88a ef3c 1949 34bd 6eca 9ebd 5822 d53d
00000280: 9b57 39bc f4f6 a9bd 699c 77bb 3512 dbbc
00000290: 409e 153c 893f 92bc bde7 4c3d 2550 dfbc
000002a0: 2c92 b03d a619 47bd a43f 2c3d 7c75 493d
000002b0: c8cc 903b 7dfe 443e f3e6 43bd 7ffb b2bc
000002c0: cccc 3f3d 7fbc fabc 5798 7ebd 6713 133e
000002d0: 7733 843d d78d 5e3d 4613 313d c574 b93d
000002e0: 18f9 0c3d 36e7 7d3d f144 5fbc efaf ff3c
000002f0: 89f2 9dbd 1aad 3fbd d419 4d3d 27e2 7a3b
00000300: 0f14 a6bd aea5 233d d1dc a43d 91e2 fe3e
00000310: 0000 d2bb d9bc a4bd c35b 1f3d 9c59 e63b
00000320: f00f 953d d36a 8fbd 81da 79bd 9785 5cbd
00000330: 5245 b93d 7a93 a03d 4e45 cc3a 7782 2c3d
00000340: 4499 483d 12eb 7cbc a011 3ebd dd51 b2bd
00000350: 9ca2 4bbc 9131 93bd 3421 a6bc cb83 a2bd
00000360: cad0 0f3e cb28 83bd 24ae 78bb 90ee 04bd
00000370: 0a91 bd3d 42bc a3bd 87ac b9bc e92b 493c
00000380: ed33 b3bd 06f0 5cbd 3eee 2dbc 0ab2 0f3d
00000390: 9de3 a5bd 2608 4bbd 5ec5 a8bd 9d16 9ebd
000003a0: d343 a73c 16f7 7fbd 155e 653d 1f54 3e3d
000003b0: 2ff4 20bd 8106 973d 7cc5 c13d e0aa 31bd
000003c0: 19a4 cdbb 48e5 223d 29d8 b83c e0b9 d13d
000003d0: db7a e4bc 1cf4 5dbc e333 1dbd e672 f1ba
000003e0: 2495 8e3d f73e 513d 7bc9 633d 3120 16bd
000003f0: c6ef 81bd dbb2 813d 15d7 673d f868 853d
0.5089943 0.13359267 -0.044042815 -0.020744352 -0.040424254 0.033720043 -0.06716754 -0.043994818
-0.018479548 -0.03474367 0.1033938 0.10936244 0.08498895 -0.07422002 -0.032505766 0.047420766
0.009967139 -0.029873876 -0.010028687 -0.001105396 0.0011993623 0.062579215 0.065624505 -0.023584602
0.015384957 0.11129594 0.07331868 0.03368865 0.022967188 -0.01901806 -0.06805771 0.08223044
0.032832704 -0.057932295 0.11156247 0.159938 0.046615448 -0.028707385 0.0142024765 -0.009790017
0.06350678 0.040936258 0.06750809 0.038701247 -0.056175962 0.028333012 0.058222357 -0.08533796
-0.06528299 -0.025187114 0.13909891 -0.036122356 -0.015168524 -0.080050476 0.03190647 0.034522925
-0.030162275 0.115646094 -0.05580281 -0.019675465 -0.048396166 -0.059958316 -0.0009887373 -0.007892941
0.03113022 0.5175713 0.13665344 -0.040037062 0.0120687485 -0.056626566 -0.059391957 -0.062182985
0.021251366 0.034242555 -0.011214605 -0.05497112 0.11282655 0.03675777 -0.052984815 -0.038051978
0.029115275 -0.03142034 0.066071115 0.10735995 -0.03019826 -0.021786718 0.01787627 -0.03639497
0.10291415 -0.009304167 0.023238307 0.029106475 0.047555204 0.027442213 0.04220372 0.12881684
-0.06077276 0.037940454 -0.08590553 -0.018987982 0.09916975 -0.019090246 0.049316887 0.11649531
0.05365157 0.077090696 -0.019736782 -0.014379977 -0.0659493 -0.08489975 0.07506061 -0.06698261
0.047057368 -0.008229067 0.116461575 0.029821835 -0.054364987 0.04106761 -0.04196823 -0.04333011
0.002797834 -0.0704458 0.0133111905 -0.07698986 0.017740097 0.13115813 0.06255612 -0.0016215014
0.01628414 0.14309952 0.543429 0.045485966 0.055949498 0.046127893 0.05550338 0.019832531
-0.009962395 0.04279235 0.0086317165 -0.021529252 -0.027436772 0.0012681249 -0.039896995 0.056766767
0.08371617 -0.05594544 -0.051235493 -0.011573704 -0.07131696 0.02361478 0.08455269 0.059790853
0.04840929 -0.07929875 -0.029990222 -0.038935352 0.029240951 -0.044015024 -0.07753454 0.10406941
-0.011312391 -0.08299056 -0.0037782437 -0.02674208 0.009131968 -0.017852562 0.05002569 -0.027259896
0.0862163 -0.048608445 0.04205288 0.049184307 0.004418943 0.19237705 -0.047827672 -0.021848438
0.04682617 -0.03060746 -0.062157 0.1436287 0.06455129 0.054334488 0.04323127 0.09055475
0.03441724 0.061988078 -0.013627277 0.031211821 -0.077122755 -0.046795942 0.05007346 0.003828177
-0.081092946 0.039952926 0.0804993 0.4978223 -0.0064086914 -0.08043832 0.03890587 0.0070297252
0.072784305 -0.07002797 -0.060999397 -0.05383834 0.09046425 0.07840629 0.0015584619 0.04211661
0.04897429 -0.0154369045 -0.046403527 -0.087070204 -0.012428906 -0.071871884 -0.020279504 -0.07935294
0.1404449 -0.06404265 -0.0037945593 -0.032454073 0.0925618 -0.07994892 -0.022665275 0.012278535
-0.087501384 -0.05393984 -0.010615883 0.0350819 -0.081000544 -0.049568318 -0.0824077 -0.07719157
0.020418083 -0.0624915 0.055997927 0.046466943 -0.03929537 0.073742874 0.09461495 -0.04337585
-0.0062756655 0.03976944 0.02256401 0.10240531 -0.027890613 -0.01354697 -0.03837956 -0.0018421083
0.0696204 0.05108544 0.05561207 -0.036651794 -0.06344561 0.06332942 0.056601603 0.06514162

node_layers.mlp_0.weight f4 [64, 121]
00000000: 9a54 7a3b 9d2a 02bd abb5 a4bd 99cb b9bd
00000010: 9728 5d3d 25fa 09bd f989 74ba 9782 14bd
00000020: 060d a03d 77b1 2fbd b066 acbd 5180 8f3c
00000030: c3ad 803c bff8 c13b 9029 6ebd c203 2dbc
00000040: 4e66 a43d 6e4f d43d b82c a63d baad 743d
00000050: 0e4f bebc 04bf 3fbd 43bc 66bd a6e5 cabd
00000060: c832 493d d255 263c bbd2 f23c cc0e 903d
00000070: dc05 b1bd 458b 99bc 95de d1bc 51b1 803d
00000080: a68c 243d d12d 1b3c 4a25 933d e7c3 84bd
00000090: 62e7 343d 7042 293d 247d 84bd 0681 0ebd
000000a0: 69fe feba cee1 16bd 2043 993d ca95 12bc
000000b0: a7ff 1bbc 7945 613d 1be6 6ebd 7f4c 5abb
000000c0: dcb7 22bd 6741 593c 3123 d83b a801 95bc
000000d0: 0c99 8a3c b8a2 643d 6231 743d b1df 0d3c
000000e0: 4e4b 19bd a172 aebd 2d79 bb3c 3142 393d
000000f0: aec3 863d 6987 243d d0db 3abd ae49 b5bc
00000100: b468 553d dc5a da3b 750f 70bd 743a 5a3d
00000110: ebfc 653d 7f2f 943d 18b0 92bd 1cf5 a2bc
00000120: 8916 0d3c e480 ae3d 76df 9d3d 3807 82bd
00000130: 8441 40bd dcc8 863d 6185 77bc ad5a d13d
00000140: 051e 643d 8c88 8ebd 6e41 29bd 15a6 89bc
00000150: ad6f 39bc 4311 92ba dd4a 843d c989 7bbd
00000160: 1444 b23b 0507 a03d 09d8 0d3e 52f9 f9bc
00000170: ee15 7b3d 14d6 873d 4e53 113b 31c4 78bd
00000180: 933d 773d 271b 583d ccc2 a5bc b60e dc3b
00000190: 6347 6ebd a125 11bd 4855 df3b 4977 353d
000001a0: 2fa6 913d 6796 87bd 82d0 debd 2274 48bc
000001b0: ab26 42bb bcfd 6c3d 1175 74bd 2eb5 923d
000001c0: a41d 8d3d 82b7 7e3d ea63 a33d 7977 543d
000001d0: b361 583c 55fd 7fbc 9ba6 443d f83d b1bd
000001e0: 8496 a63d a9b6 cabd 8063 823d 5076 9a3d
000001f0: e38e 593d c79f 53bc ac15 a63d 6e79 44bd
00000200: 330c 69bd b62c 7b3d 905e 8ebd 76cd 9ebd
00000210: fc11 4c3d 0f89 11bd 9759 3d3d 8bf3 8bbb
00000220: 937a 5abc 9b8f 79bc e7fc c63d 52a1 8cbd
00000230: b39c 97bd 479a f6bc d71e 7c3d d8a6 723b
00000240: c0d7 afbc 4875 483d 0c46 66bd 4075 b43d
00000250: 7e8f 633d 3474 1e3c c99c 80bd f6c0 78bd
00000260: 0659 3cbd 681e 9ebd 6d8f 9f3d 804d d33c
00000270: a9a0 97bd 693b 813d a5ca a23d ece6 afbd
00000280: 26e3 4b3d 0af7 ab3b 1c3a 763d be29 3e3c
00000290: ff30 f0bc 7f0d 22bd 41ff 6dbd f6f3 5d3d
000002a0: 249a a9bc 33a2 7abd 508f 60bd 389b d03d
000002b0: e597 a23d e6ee 8ebb d262 653d e691 993b
000002c0: 6b45 603c 2a69 b93d a63f a23d 15eb 2a3d
000002d0: 764c 06bd 916d acbd 8858 1bbd 5b28 19bd
000002e0: 266e d4bc e1be c73d e8f9 1039 b6f1 5ebd
000002f0: 5c6d 1cbd 30a1 8f3d fa2a 64bc 1a32 2c3d
00000300: c393 3c3d f3e9 673d 469f b9bb 60b8 3d3d
00000310: d526 c8bd 69f3 f4bc 960d ffbc 947f 9d3d
00000320: 0e34 113e 96f6 dcbd 9237 6dbb 6c87 243c
00000330: fe48 a23d f80b c23d ac67 4cbd ffc4 a23c
00000340: 4af7 d93b 8572 473d 88ca 893d 2980 5dbc
00000350: 3bfb 08be 8224 07bd 5de0 98bd f45c 033c
00000360: 03be f5bb f5fc 963d ef2d a13d 9395 97bd
00000370: 2520 773b 5ed8 02bb 4e38 b5bd 3285 b33a
00000380: d4ec 02bc 9d4b 9c3d 9efe 22bd 3bf7 a1bd
00000390: 8d26 8ebd 2253 41bd 2cfb 733b 93c8 15bd
000003a0: 94f7 07bd 7ac8 aa3d 0c49 c33d fc6a 543c
000003b0: 4153 043d 0929 643d 2df6 b43c 71d2 913d
000003c0: a632 d63c 8381 bc3d 1d40 e73d 9cef dfbc
000003d0: f86e 5e3d 42e0 44bd a392 e23c d8fd 213d
000003e0: e516 453d 73c4 123c 7b25 40bd 8562 a2bd
000003f0: 095d a8bd 25e1 e8bb f085 b6bd 9fdb 8f3d
0.00381974 -0.03177892 -0.08042463 -0.09072036 0.053993788 -0.033685822 -0.0009328421 -0.036257353
0.07814984 -0.042893853 -0.084180236 0.01751724 0.015707856 0.0059195454 -0.058145106 -0.010559978
0.080273256 0.103667125 0.08113998 0.05973599 -0.023231056 -0.046813026 -0.056331884 -0.09907083
0.049120694 0.010152297 0.0296415 0.07034072 -0.08643696 -0.018743167 -0.02561883 0.062838204
0.040173195 0.009471373 0.07184847 -0.06482678 0.044165976 0.041323125 -0.06469181 -0.034791015
-0.0019454482 -0.036836438 0.07483506 -0.008946845 -0.0095214015 0.054997895 -0.058324914 -0.0033309755
-0.039726123 0.013260222 0.006595992 -0.018189266 0.016918682 0.055819243 0.059617408 0.008659289
-0.03742533 -0.085179575 0.02288493 0.04522914 0.06580292 0.0401682 -0.045619786 -0.02212986
0.052101806 0.0066636633 -0.05860849 0.0532784 0.056149404 0.07235622 -0.071624935 -0.019892268
0.00861133 0.08520678 0.077086374 -0.06349033 -0.04693748 0.0658128 -0.015107484 0.10222373
0.05569269 -0.06959638 -0.041322164 -0.016802827 -0.0113181295 -0.001114406 0.064595915 -0.0614107
0.0054402445 0.07813839 0.13851942 -0.030514393 0.06130021 0.06632629 0.0022174898 -0.060733978
0.060361456 0.05276027 -0.020234488 0.006715621 -0.05817355 -0.035436276 0.0068155862 0.044303212
0.07111775 -0.06620484 -0.108796135 -0.0122347195 -0.0029625099 0.057859167 -0.059681956 0.071634635
0.06890419 0.062186725 0.079780415 0.05187175 0.013206887 -0.015624364 0.04801045 -0.08654398
0.08134177 -0.09898121 0.06366634 0.075420976 0.053114783 -0.012916512 0.08109602 -0.047967367
-0.0568964 0.061321937 -0.0695163 -0.07754032 0.04982184 -0.0355311 0.046228018 -0.004270976
-0.013334888 -0.015231992 0.09716206 -0.06866707 -0.07402935 -0.030102862 0.06155285 0.0037025716
-0.021465182 0.048939973 -0.056219146 0.08811426 0.055556767 0.00967126 -0.062799044 -0.060730897
-0.045983337 -0.07720643 0.07791028 0.02579379 -0.0740369 0.0631016 0.079488076 -0.08588967
0.049777173 0.005247955 0.06011401 0.011606632 -0.029320238 -0.039563652 -0.058104757 0.054187737
-0.020703383 -0.06118984 -0.054824173 0.101858556 0.07939128 -0.004361975 0.056002446 0.004686582
0.0136884255 0.090532616 0.07922296 0.041728098 -0.032787763 -0.08419336 -0.037926227 -0.037392
-0.02593143 0.09753204 0.00013826007 -0.054429732 -0.03819023 0.07013166 -0.013926262 0.042039968
0.046039354 0.056619596 -0.005664739 0.04631841 -0.097730316 -0.029901223 -0.031134408 0.07690349
0.14180014 -0.1078922 -0.0036196453 0.010042053 0.079240784 0.09474939 -0.049903557 0.019869326
0.0066517936 0.0486932 0.06728083 -0.013519325 -0.13377087 -0.0329938 -0.07464669 0.008017767
-0.007499458 0.073724665 0.07870089 -0.07401576 0.0037708369 -0.001996539 -0.0884863 0.0013696312
-0.007991035 0.076316096 -0.039793603 -0.079084836 -0.06940947 -0.047198422 0.0037228568 -0.036568236
-0.033195093 0.08339019 0.09535417 0.01296496 0.03230596 0.055703197 0.022090042 0.07120217
0.026147198 0.0920439 0.112915255 -0.027335934 0.054305047 -0.04806543 0.027657812 0.039548725
0.048117537 0.00895797 -0.046910744 -0.07928947 -0.0822087 -0.0071069174 -0.08912265 0.07024311

node_layers.mlp_0.bias f4 [64]
00000000: 1364 1a3c 150e 7fbb d646 87bd 985b 9cbd
00000010: 6f23 753d 34f3 b4bd 7c69 083d 7ff6 1dbd
00000020: 18b4 353d 0662 06bd c404 163d 572a 7a3d
00000030: a515 58bd aaa6 b23d e038 09bd 7c31 83bc
00000040: 0bae 093d 75d3 fcbc baa3 b43d 662a ac3d
00000050: fea4 b13d d800 7c3d 1b42 7c3d c8ca c53c
00000060: 124b 5bbc e9db 8bbd 1b2d 81bd 1fa3 60bc
00000070: 2386 5bbc 4cf4 a23d 2064 c0ba 5f31 383d
00000080: 0191 8fbb 477a 113c b1b5 cebb 4528 b4bc
00000090: e987 a03b 82fc bd3d 7b5b e33c c3aa b53d
000000a0: 07f2 113d 850b 773d eaf5 733d b133 943d
000000b0: 5b73 5e3d 0392 4cbd c84d 233d 6cb5 f5bc
000000c0: c5b3 b1bb 4c2d e9bc 046f 5c3b 0201 b33d
000000d0: c647 5cbc 00ed 3b3d 3147 af3d 552e 9abd
000000e0: a615 b3bd 962a 96bd 3be7 0f3d a8d0 4dbc
000000f0: eb87 193d c096 8ebd 83d5 b13d b036 b4bd
0.009423274 -0.0038918306 -0.06605308 -0.076346576 0.059848245 -0.0883545 0.033303723 -0.038565155
0.044361204 -0.032808326 0.03662564 0.061075535 -0.052755017 0.08723195 -0.033501506 -0.016014807
0.033613246 -0.03086255 0.08820291 0.08406524 0.08674048 0.061524242 0.06158648 0.024144545
-0.013384597 -0.06829054 -0.06307431 -0.013710766 -0.01339868 0.07956752 -0.0014678277 0.04496896
-0.0043812995 0.008879251 -0.0063082804 -0.021991858 0.0048990143 0.09276678 0.027753582 0.08870461
0.035631206 0.06031372 0.059560694 0.07236422 0.05430923 -0.049943935 0.0398691 -0.029993735
-0.0054230415 -0.028463982 0.0033635506 0.087404266 -0.0134448465 0.045880318 0.085585006 -0.075283684
-0.087443635 -0.073323414 0.035132628 -0.012561955 0.037483137 -0.06962347 0.08683302 -0.08799493

edge_layers.mlp_0.weight f4 [64, 121]
00000000: 2c65 983d 33cb dbbb 7b18 5abd bb9d 933d
00000010: f708 4d3d 32f3 9cbd 073b 2bbd d43c e43c
00000020: 78ef 85bb 23d6 f9bb d5a5 a2bc 4169 98bd
00000030: 6c73 1d3c 0b59 5e3d f7a7 6abd 94f9 9fbd
00000040: dcff c13d 1beb d0bd 0fdd aa3c 038f debc
00000050: bdba 92bc 35eb eabd cddc b83a f1ab 5b3d
00000060: cf05 7e3c adce 103d 8e7e 9e3d 4974 02bd
00000070: c071 093d ec34 d03a ba90 2a3d 6add 5f3d
00000080: ef89 90bd 48d4 41bc 7a61 a63c 8a5b 32bd
00000090: d243 953d db99 a5bd 4a4a 743d 2ba1 4e3b
000000a0: 2908 a3bd 9dc2 a0bc 82b0 8a3c 4f64 883d
000000b0: eab7 64bd 71d9 d23d f2eb 7a3d ded6 19bd
000000c0: 0cde 46bd 08fa 953d 68c1 ac3b 987d 3d3d
000000d0: 18b7 4f3d dc96 1cbd c5da 50bd 989f c53c
000000e0: b628 a63d 258b 52bd 08ec d03c c622 ad3d
000000f0: 5036 7f3d cc36 bcbb f2d1 2ebc 0e3f 973d
00000100: 0c4e d33c e367 91bd 88b8 7b3c 2d23 60bd
00000110: 9bf2 65bb 23cc b43c 93e0 43bd 6dca 703d
00000120: fa68 25bd a2b1 abbd 9e47 673d 12eb be3d
00000130: 620a b13c 014b 4abc 8681 463d b3d0 c83d
00000140: 5899 a0bc 89a6 503d c666 113c 3dec db3d
00000150: 6296 a5bd f143 8fbd 2d14 e1bd 9dfc c93d
00000160: b965 5fbc d0fd 81bc fdb0 a23d 942d 9e3d
00000170: 7249 00bb c308 f5bb 5de4 78bb d2c3 bb3d
00000180: 2652 0a3d 8743 3a3d bdd5 40bd 81ec c1bc
00000190: 8098 31bd 21d6 63bd d441 723d c58d 483b
000001a0: 8672 edbc 2ed5 d3bd 836d 3b3d 90d7 2e3c
000001b0: 2fcf 90bd 22c4 533d ca63 333d 00ed 53bc
000001c0: 2891 1cbd 85a8 f43c 954e b23d 8b18 bbbc
000001d0: 1386 a13d 6db0 173d 96d5 a6bd d087 eabc
000001e0: eb05 30bd 5a63 813d 4e6a 30bd 937d 6cbc
000001f0: 679e 80bc c8ca f8bd a8e1 fe3c f529 59bd
00000200: 4031 b43b 0f83 d23c 535b 5abd eec8 a1bd
00000210: 6346 55bd a2e0 5a3d 7e62 93bd 0b72 263c
00000220: 664c c9bc e3c1 3b3c 8c99 92bd cade 01bc
00000230: ddca bfbd 68be 813d 997f 9bbc 8699 913c
00000240: d3ca 803d a3b9 b0bc bf8f 71bd 9f00 943c
00000250: 2a2d 9d3d 8dc7 e739 b3ab 633d 50ff 703d
00000260: 0d07 67bc 067a 283d b94f f5ba c286 1fbc
00000270: 334f af3d e820 943d 0b25 7dbc 9779 313c
00000280: 1094 86bc e0cb f5bc 842f b13b 0f43 8ebd
00000290: 30ad 9239 e153 b73d 3ab8 49bc ac73 923d
000002a0: 8bd6 403d 4c11 83bc 08af 32bd 4587 cdbd
000002b0: 9187 f2bc 8930 683d 0f7e ee3c eebc 26bd
000002c0: 0544 343d 9efb 273d 13b1 a23d 95f3 43bd
000002d0: 505e d03c 5f68 d6bd 2173 06bd cd1d 93bc
000002e0: ba8b 1dbd fc99 113a 87e0 0fbd 23b2 76bd
000002f0: 6816 08bc 7984 3fbd 5842 c13d 19e0 413d
00000300: 0bc7 45bd 898a 0f3d 55ed 84bd fbbd 9abd
00000310: f4da 063c 2088 4a3d b553 4a3d 2cde d2bd
00000320: 7a71 55bd 0122 04be 6ee1 d43c f026 2cbd
00000330: 0759 213d 0ce9 1a3c faa1 1d3d 06b0 393d
00000340: c9cb 9f3d 2748 8abc 0db4 f23b 7820 8b3d
00000350: 631d 273d 5afd 813d cea7 883d fea5 a53c
00000360: 9463 d7bd c50f 42bd 8e23 be3b 8748 3cbd
00000370: 3d20 8c3d f6d6 f2bc 6ddc 863d bbe5 d0bc
00000380: db65 cabc 9fae 04bc 7b76 633d c67a 05bd
00000390: 94be af3d d3e3 823d 50d4 1a3c 0412 323d
000003a0: 6ad3 34bd 41eb ac3d 6f22 323d 113c 80bd
000003b0: 1a65 ce3c e439 efbd b698 923d b666 d9bc
000003c0: 964e 8cbd 7c5c 713d cbf7 3b3d e8c3 5ebc
000003d0: e222 333d e1e8 01bd 49d9 babc bd90 3e3c
000003e0: 9738 62bb de2d 63bd 7d33 773d 07ef a83d
000003f0: 065d 4fbd 6765 073d f76d 33bc a27f 7a3c
0.07441172 -0.006707573 -0.053246003 0.07207819 0.050057378 -0.07663573 -0.04180434 0.027861036
-0.004087385 -0.007624404 -0.019854465 -0.074419506 0.009610038 0.054284137 -0.05728909 -0.07811275
0.094726294 -0.10201093 0.020857362 -0.027167803 -0.01791131 -0.114706434 0.001410389 0.053630773
0.015504315 0.03535335 0.07738982 -0.03184918 0.033555746 0.0015884913 0.04164193 0.054654516
-0.07057559 -0.011830397 0.020310152 -0.04354433 0.07288326 -0.08085986 0.05964116 0.003152917
-0.07960541 -0.019624049 0.016929869 0.06659757 -0.055839457 0.1029538 0.06126017 -0.03755843
-0.048551604 0.0732308 0.0052720793 0.046262354 0.05071172 -0.03822981 -0.050989885 0.024123952
0.08113234 -0.05140223 0.025503173 0.08453898 0.062307656 -0.005743837 -0.010670172 0.073850736
0.025794052 -0.07099893 0.01536382 -0.054721046 -0.003508723 0.022069996 -0.047821593 0.0587868
-0.040383317 -0.0838349 0.056464784 0.0932218 0.021611396 -0.012346984 0.048463367 0.09805431
-0.01960437 0.05094007 0.008874601 0.10738418 -0.08085324 -0.06995381 -0.10990176 0.09862635
-0.013635092 -0.015868098 0.07943914 0.07723537 -0.0019575027 -0.007477851 -0.0037977912 0.09168209
0.03376975 0.045474555 -0.047078837 -0.023672344 -0.043358326 -0.05562413 0.05914481 0.003060208
-0.028985273 -0.10343395 0.045758735 0.010671511 -0.07070767 0.05170072 0.04379634 -0.012934923
-0.03822437 0.029865513 0.087063946 -0.022838851 0.07886901 0.037033487 -0.08146207 -0.028629214
-0.042974394 0.06317778 -0.04307013 -0.014434236 -0.015700532 -0.121480525 0.03111346 -0.05301853
0.005499035 0.02569726 -0.05330975 -0.078996524 -0.05206908 0.053436883 -0.0719652 0.010159026
-0.024572562 0.0114598 -0.07158193 -0.007926652 -0.09364865 0.06335145 -0.018981742 0.017773401
0.06288686 -0.021572893 -0.058974978 0.018066702 0.0767463 0.0004420843 0.055583667 0.058837235
-0.014100802 0.041131996 -0.0018715776 -0.009736719 0.08560028 0.07232839 -0.015450726 0.010832212
-0.016428024 -0.030004442 0.0054072756 -0.06946384 0.00027976325 0.089515455 -0.012311989 0.07150969
0.047079604 -0.015999459 -0.043623954 -0.10035566 -0.029605659 0.05668691 0.029112844 -0.04070752
0.04401018 0.041011445 0.079439305 -0.04783972 0.025435597 -0.10469126 -0.03282464 -0.017958546
-0.03846333 0.00055542565 -0.035126235 -0.06022848 -0.008306123 -0.046757195 0.09436482 0.047332857
-0.048285525 0.035044227 -0.0649058 -0.07555767 0.008230913 0.049446225 0.049396235 -0.10296282
-0.052110173 -0.12903596 0.0259864 -0.04202932 0.039391544 0.009454977 0.03848455 0.045333885
0.07802541 -0.016880108 0.0074067176 0.06793302 0.04079951 0.06347151 0.06672631 0.020220753
-0.1051704 -0.04737832 0.0058025783 -0.045967605 0.068420865 -0.029643517 0.06585012 -0.025500169
-0.024706772 -0.008098274 0.055532914 -0.03258779 0.08581272 0.0639111 0.009450033 0.043474212
-0.044146933 0.084433086 0.04348987 -0.06261457 0.025194693 -0.11680964 0.071580335 -0.026538234
-0.068509266 0.05892609 0.04589061 -0.013596512 0.04373444 -0.03171623 -0.022808688 0.011631188
-0.0034518593 -0.055463664 0.060351837 0.08248716 -0.050625823 0.03305569 -0.010951511 0.015289219

edge_layers.mlp_0.bias f4 [64]
00000000: f952 ed3b 3b97 27bc 3450 953d b68a 143d
00000010: 255f ba3c 89bc 9c3d f357 d13d 515d 7dbd
00000020: 346b b5bd 7baf afbc 312f 3fbd f361 95bc
00000030: 6099 2b3d a8e6 28bc 1c94 be3d 0e9c eebb
00000040: 8b2a b63d 6b46 2cbc 396c f0bc 52ea 90bd
00000050: 82f7 2abd 3a03 a6bd c1c2 81bd ba11 f2bb
00000060: 0198 b83d 06da cc3d a3aa df3d 6389 f43d
00000070: 40a7 fcba bab0 87bc 73ab 80bc 6a22 ec3d
00000080: cd5c 963d ca32 ca3b 9591 49bb 64a4 9e3c
00000090: d441 9b3d 05a4 443d 5e8a 133d 4a1e 963c
000000a0: ac0a ae3c c15f 413d 3519 79bd 82e2 cc3d
000000b0: ea8a a83d e90e 193d b6c2 813d b2b4 25bd
000000c0: aa97 2f3d 864a b33d 4747 263b bcac b3bd
000000d0: 6483 5f3d dabc af3d 3fe3 b73c a717 3cbd
000000e0: 9817 513d c2b7 d63d 0ed2 223d 2672 6e3d
000000f0: 3316 503d f696 71bd 3bca 90bc 2ca8 093d
0.007242557 -0.010228927 0.07290688 0.036265098 0.022750447 0.07653148 0.10221853 -0.06185657
-0.08858338 -0.02144598 -0.046675865 -0.018235182 0.041894317 -0.010308899 0.09305593 -0.0072817868
0.08894833 -0.010514836 -0.02934848 -0.07075943 -0.041739948 -0.08106084 -0.063359745 -0.007387367
0.090133674 0.10002522 0.10921218 0.11940267 -0.0019275919 -0.016563762 -0.015706753 0.115300015
0.07341919 0.0061706053 -0.003075694 0.019365497 0.07580915 0.048007984 0.03602063 0.01832499
0.021245323 0.04721046 -0.060815055 0.100041404 0.08229621 0.037367735 0.06335966 -0.040455528
0.042869247 0.087544486 0.0025372074 -0.08773181 0.054568663 0.085809425 0.022447227 -0.045920994
0.05104789 0.10484268 0.039751105 0.05821433 0.05080242 -0.05898186 -0.017674556 0.033607647

gnn_layer_0.classifier.weight f4 [1, 64]
00000000: 0dc9 823d 0503 683d 56d1 f2bd 2dd7 b73d
00000010: 8193 4c3c 1bbc aa3d 8923 8cbd 7d07 df3d
00000020: 3432 c73d 3942 473d de0f b83d 4640 a13d
00000030: b4fd 133b f5b1 26be 3897 a8bd 50ed 06bc
00000040: df09 cfbd 748e d23d 6068 f3bd 00ef e03d
00000050: de02 d23d f9de a83c 8109 e9bd dd51 993d
00000060: 38cb a53d 6ff6 c6bd 0ef7 9bbd c696 aebd
00000070: 8f29 ca3c e90f b3bd 726b 523d fb4d 5b3d
00000080: 6312 f43d a1cb 533d 5b0b e13d 7cf3 a3bc
00000090: d41e 303d 582c 2ebd 9a1a b3bd 002a 96bd
000000a0: d7b3 343b b81e a2bd 9523 5e3d 9fa2 133c
000000b0: a3f5 3a3d ac23 0e3d 11c4 2a3d 7023 5bbc
000000c0: 3097 c2bc 6231 993d da03 4d3d e0cf 6abc
000000d0: 7e8b c63d 38a8 7e3d 2284 88bd 2cd0 f5bd
000000e0: 179d 4d3e 26bf dd3d 060b 923d 48f7 7dbd
000000f0: bee4 0cbe 9261 26bc ccbd 123d cb71 63bd
0.06386004 0.056643505 -0.11856334 0.089765884 0.01248634 0.083366595 -0.06842715 0.108901
0.09726372 0.04864714 0.089874014 0.07873587 0.0022581639 -0.16278823 -0.08231968 -0.008235291
-0.10109305 0.10281077 -0.11885142 0.10983086 0.10254453 0.020614134 -0.11378766 0.07486317
0.080954015 -0.09714972 -0.07615481 -0.085248515 0.02467802 -0.08743269 0.051372 0.053541165
0.119175695 0.051707868 0.10988494 -0.020013563 0.04299815 -0.04252276 -0.08745308 -0.073322296
0.0027573013 -0.079160154 0.054233152 0.00901094 0.045644414 0.034701988 0.04169089 -0.013375148
-0.023753732 0.07480122 0.0500525 -0.014331788 0.09694575 0.062172145 -0.06665827 -0.12002596
0.20079456 0.10827474 0.07131009 -0.062003404 -0.13759133 -0.0101550985 0.035825536 -0.055528443

gnn_layer_0.n_func.0.weight f4 [64, 1]
00000000: 0027 2b3f 1cb4 cabe 06cc 343f bc92 4cbf
00000010: 9ae7 05bd 15d9 773f 4040 103f 1423 073f
00000020: e80f b7be f8bd 6fbe c0f2 e4bd e4fe 75bf
00000030: 0314 163f 3ad5 13bf c83f c8be 20e5 5ebf
00000040: b162 01bf 8a76 64bf 769d b33e 7aef 3abf
00000050: d29b 6e3f 7b2e d03e ad89 673f f872 443f
00000060: 783d 773e 6153 223f 38fe 59be e5da 8bbe
00000070: 8a2e 43bf 6f1f f03e 0921 343f 2c51 68bf
00000080: a113 7a3f 907e 31be 3a0b f23d ac25 5c3d
00000090: 4a04 70bf 0bcf 873e 0cf5 55bf 301e d53e
000000a0: 288d 83be a67f 2cbf b1aa 343f 908f 17bf
000000b0: f194 6a3e 526d 45bf 6880 04be 5cb4 54bf
000000c0: e167 79bf d897 e4be d218 903d 6ce5 a53e
000000d0: 1a73 e93e 305b dfbd e0a5 bf3e ef40 0c3f
000000e0: 7c17 74bf 4e01 14bf 60f4 f63e c614 b33e
000000f0: dc25 20bd 64bf 643e e336 12bf 4231 14bd
0.66856384 -0.39590538 0.70623815 -0.799114 -0.032691576 0.96815616 0.5634804 0.527879
-0.35754323 -0.23412311 -0.111791134 -0.9609206 0.58624285 -0.5774723 -0.3911116 -0.87068367
-0.50541216 -0.89243376 0.3508107 -0.7302166 0.9320651 0.40660462 0.9044445 0.7673793
0.24144542 0.63408476 -0.21288383 -0.2731544 -0.7624289 0.46898982 0.7036291 -0.9074886
0.976862 -0.17333436 0.118185475 0.053746864 -0.93756545 0.2652515 -0.83577037 0.41624594
-0.2569363 -0.67382276 0.70572954 -0.59203434 0.22908379 -0.77119935 -0.12939608 -0.83087707
-0.9742413 -0.44647098 0.07035984 0.32401597 0.45595628 -0.109060645 0.3743124 0.5478658
-0.95348334 -0.5781449 0.48233318 0.34976786 -0.039098606 0.22338635 -0.57115 -0.03617979

gnn_layer_0.n_func.0.bias f4 [64]
00000000: 5d41 4ebe 0852 efbe d0bd 9e3e 2c1c 2fbf
00000010: 9867 2d3f 1e32 e03e 5642 c5be 3510 f43e
00000020: 384e 5e3e e610 19bf 20a5 41bd 20c3 5fbe
00000030: 8f1e 4bbf 4656 19bf 2458 4cbf e81e 19bf
00000040: c354 1c3f 8825 96be cc0a 37be a019 cb3d
00000050: 8ff7 0b3f 568d 66bf e89f 043e b5ad 093e
00000060: ecb8 80bc cd55 d23e 403b 323d 456d 4d3f
00000070: 8a6b 3cbf 54b4 c5bd cfa9 653f 7abc 2abf
00000080: d4ab 71bf 6056 17bd 3ae8 3f3f 9d3b 6a3f
00000090: b48e 63bf 9990 40be 0869 2e3e b867 123e
000000a0: 7041 c9be b008 96be b5dd 96bc 3cdf e93e
000000b0: 9231 3c3f d4d7 c53e 0a99 30bf 5a8f 823f
000000c0: b5fe 783f b797 453f 5f2d 323f 4d41 793f
000000d0: 3f68 b2bd 60a3 57bf 6767 cabd 67da f53e
000000e0: 80ae 5dbd 7075 e8be 827d b83e a91b 97be
000000f0: 8ae0 8e3d 3d32 073f e2f5 543f 6bc9 f33d
-0.20142122 -0.46742272 0.3100419 -0.6840236 0.67736197 0.43788236 -0.38527173 0.47668615
0.21709526 -0.5979141 -0.047276616 -0.21851778 -0.79343504 -0.5989727 -0.7982199 -0.59812784
0.61066836 -0.2932551 -0.17875212 0.09916997 0.5467462 -0.9005941 0.12951624 0.1344517
-0.015713178 0.41081086 0.043513536 0.8024486 -0.7360159 -0.096535355 0.8971223 -0.6669384
-0.94402814 -0.036947608 0.74963725 0.9149721 -0.8888962 -0.1880516 0.17032254 0.14297378
-0.39307737 -0.29303503 -0.018416265 0.45678127 0.7351314 0.38641226 -0.6898352 1.0199997
0.9726365 0.77184623 0.6960048 0.97365266 -0.087112896 -0.84233665 -0.09883004 0.4801819
-0.054121494 -0.45402098 0.36033255 -0.2951329 0.06976421 0.5281103 0.8318769 0.11903652

gnn_layer_0.n_func.2.weight f4 [64, 64]
00000000: 1833 bbbc 766c fb3d f62a e4bd 40fd 23bc
00000010: 4205 9ebd 56ab bfbd 5086 94bd a0ec 903d
00000020: a03a e7bd a21a bc3d 2cbd 0d3d f036 69bd
00000030: 7058 d33d dc59 fdbd 4a8a a13d a06f 92bb
00000040: b2b9 91bd 78c7 fbbd 6eb8 8f3d 9a69 b33d
00000050: c404 8bbd e411 b43d eecd 97bd 88da fc3d
00000060: aa9e fbbd 646f 23bd 8836 6ebd 6a86 d23d
00000070: 4a83 8bbd cc28 67bd 30b8 9e3d 58d0 e13d
00000080: d0ec 98bd 5c1d ce3d 8a6d b13d 6ccb 463d
00000090: 5418 63bd e857 92bc 9c1b 94bd 60cd 543d
000000a0: f42f 383d 4601 e7bd 60ba 333c 5879 c43d
000000b0: 5436 6bbd 101a 323d 504d bcbd a81a 78bd
000000c0: 32fe bebd aa55 fcbd bc40 5c3d fac0 fbbd
000000d0: b05e 2b3d 0ce0 aebd 90b4 c3bc e0d2 33bd
000000e0: 80d6 97bc f401 97bd c02a a23c 082a 50bd
000000f0: 28db 0a3d 6caa 9bbd 2608 f93d d403 4dbd
00000100: 0099 53bb 1081 db3d 26a3 0c3d 70ef 2fbd
00000110: 9c68 d1bc 2b1d 673d 7936 cdbd 44b7 883d
00000120: 466e debd 4cec 45bd dcfb 7c3d 7abd e63d
00000130: e14d 8a3b e0d3 dd3c 646d aebd ec08 79bd
00000140: 10fc 863c 60a6 933c c9ac d23c b2e3 b33d
00000150: f7d8 46bd 79f7 1abd ecfe c3bb 1b60 3e3d
00000160: f8b5 0b3d ecdc 813d a88a d73c 093d f7bc
00000170: 4498 05bd 75bf 31bc 9667 ec3d de9a 8abd
00000180: 299f 9a3a 4eaf ebbd 2dfa 493d 3abc 9c3d
00000190: 388a bbbc 6a9c f43d 0091 8cba ea7d cbbd
000001a0: 607b f03c a69c e1bd d45d 413d d842 9b3d
000001b0: 8946 f6bd e023 e7bd 506c 75bc 3087 22bd
000001c0: d212 3bbd c9f8 01bd 6282 3f3d 5fa9 833c
000001d0: 19bd 8e3d 5e4b a63d 6a2f 6bbd cf20 c43c
000001e0: ecab 933d 8840 39bd 06b2 9e3b 5792 e23c
000001f0: f74e bebd 6a39 a6bd 2624 ee3d 45c2 cfbc
00000200: 0d27 7b3c 288a e2bd 9297 1abd 00be 333d
00000210: 06dc 913b 832f 57bd bdf0 e0bc 34e8 f53d
00000220: 60d9 313d 1a82 c43d 90cd 9a3c 6ef7 b83d
00000230: b4b7 74bd c694 8cbd 38bf 9e3c 30f2 f1bd
00000240: 4bd8 bf3d bc6b e3bd 85b9 a43d d0b4 3fbc
00000250: 1394 7dbd c0e6 a5bb 562d 7dbb d93b d33d
00000260: d025 e8bd 6cd8 f8bc 488b 11bd b046 f73d
00000270: aa25 943d 40ef 06bd 8a53 debd 847e 113d
00000280: b3ec fcbd 985b a7bd 3d20 ebbd 162b 0d3d
00000290: e0c7 49bc 37be aebb f4e6 febd 8b01 5e3d
000002a0: 68fa fcbd 005a a13d af58 513d 44a7 d7bd
000002b0: 705d e43d 2868 a13c f018 60bc 2d93 60bd
000002c0: 055f 6d3c fa5c a03c 7bf4 92bd 6b0d c43d
000002d0: 0693 843d 1087 36bc 6f33 733d c8b5 87bc
000002e0: 8c64 2dbd d0c7 9b3c b0e3 be3d bb14 b6bd
000002f0: e36d 213d da8b fdbd 511d 3bbd 0fce fcbc
00000300: de43 903d 4032 de3d 4039 8dbc 0cf4 b5bd
00000310: 6266 97bd ec2b 13bd c05a 683b ec67 a4bd
00000320: ac1a d7bd 7efd c1bd d0e8 ed3d 80a9 283c
00000330: 3048 f93d 2cae 7e3d 8cc0 f13d f417 ae3d
00000340: 5c93 d23d b87f 46bd c0ff af3c c050 9abd
00000350: f811 2fbd 2852 423d 325b c53d f020 c5bd
00000360: 9a82 a5bd e056 ddbd 7071 7abc b0e3 703c
00000370: 28c8 56bd 8cda bfbd e2cd 853d 0cb7 b9bd
00000380: eabd a8bd ba09 f9bd 1c02 2fbd 94e9 1d3d
00000390: f067 ce3c 0022 c4bd 84f7 f2bd 0c3f 11bd
000003a0: f4cb febd 203d e5bc 200e 68bc d8a5 46bd
000003b0: 78ca 97bc b095 50bc b6a9 90bd deda fdbd
000003c0: dcad 643d 68dd 4cbd 32cb d9bd 5ad7 8c3d
000003d0: a040 8dbd 3014 1a3d c4bb 723d 08db 91bd
000003e0: 1a73 bc3d 30f7 57bd 5ed7 dcbd 5e6f b2bd
000003f0: 0ac6 fa3d f09e 08bc a09f f73c 7808 cebd
-0.022851512 0.12276547 -0.11141007 -0.01000911 -0.077158466 -0.093588516 -0.072521806 0.07076383
-0.11290479 0.09184767 0.034604236 -0.056937158 0.103196025 -0.12370655 0.07887705 -0.004468873
-0.07115497 -0.12293905 0.07017599 0.08760376 -0.06788018 0.08792475 -0.07412325 0.12346369
-0.12286122 -0.039901152 -0.058157474 0.10279544 -0.06812151 -0.05643539 0.07749975 0.110260665
-0.074670434 0.100641936 0.08663471 0.048533842 -0.055443123 -0.017864183 -0.072318286 0.051953673
0.044967607 -0.1127954 0.010969728 0.09593457 -0.05742486 0.043481886 -0.09194434 -0.060572296
-0.09325828 -0.123210266 0.053772673 -0.12292667 0.041838348 -0.08538827 -0.02388981 -0.043902278
-0.018534899 -0.073734194 0.019795775 -0.050821334 0.03390041 -0.07600865 0.12159757 -0.05005248
-0.003228724 0.10717976 0.034335278 -0.042952955 -0.025562577 0.0564243 -0.100201555 0.0667558
-0.10860877 -0.048321053 0.06176363 0.112666085 0.0042207097 0.027078569 -0.08516958 -0.060799524
0.016477615 0.01802367 0.025717156 0.08783664 -0.048546758 -0.037833665 -0.005981317 0.046478372
0.034109086 0.06340966 0.026311234 -0.030180471 -0.032615915 -0.01084887 0.11543195 -0.0676782
0.0011796701 -0.11508046 0.04931085 0.07653089 -0.022893056 0.11943896 -0.0010724366 -0.099361256
0.029355705 -0.110162064 0.047208622 0.07581109 -0.12025172 -0.112861395 -0.014979437 -0.039679706
-0.045672245 -0.0317314 0.046755202 0.016071973 0.06969661 0.08119844 -0.057418264 0.023941426
0.07210526 -0.045227557 0.0048429994 0.02765767 -0.09292405 -0.081164196 0.116279885 -0.02536119
0.015329135 -0.110615075 -0.037742205 0.04388237 0.0044512777 -0.052535545 -0.027458543 0.1200718
0.043420196 0.095951274 0.018896848 0.090315685 -0.059745505 -0.06864314 0.01937829 -0.11813772
0.093674265 -0.11104533 0.080431975 -0.011700824 -0.061908793 -0.005062908 -0.0038631759 0.103141494
-0.11335337 -0.030376635 -0.03553322 0.120740294 0.07233746 -0.03294301 -0.108557776 0.035521045
-0.12349834 -0.08171767 -0.11480758 0.034464918 -0.01231572 -0.005332734 -0.124463946 0.05420069
-0.12352449 0.07878494 0.051109966 -0.1052995 0.11150634 0.019702986 -0.013677821 -0.054827858
0.014487986 0.019575585 -0.07175537 0.09572872 0.06473355 -0.0111406 0.059375223 -0.016566172
-0.042332217 0.019016176 0.09320772 -0.08890673 0.039411437 -0.1238019 -0.045682255 -0.030859975
0.07044195 0.10849428 -0.017239213 -0.08884439 -0.07392575 -0.03593056 0.0035454482 -0.08027634
-0.10503134 -0.09472178 0.11616671 0.010294318 0.12171972 0.062177822 0.118043035 0.085006624
0.10282013 -0.048461646 0.021484256 -0.07534933 -0.042741746 0.04744163 0.09636535 -0.09625423
-0.08081551 -0.10807586 -0.015285835 0.014702722 -0.052436978 -0.093678564 0.0653341 -0.090681165
-0.08239348 -0.12160058 -0.04272662 0.038552836 0.025196046 -0.095767975 -0.11863616 -0.035460517
-0.12441245 -0.027983248 -0.014163524 -0.048498005 -0.018529162 -0.012731001 -0.0706362 -0.12395261
0.055829868 -0.050015837 -0.106344596 0.068770126 -0.06897092 0.03761691 0.0592611 -0.07121855
0.092016414 -0.05272597 -0.107832655 -0.08712648 0.12244804 -0.008338675 0.030227482 -0.10060209

gnn_layer_0.n_func.2.bias f4 [64]
00000000: e8d8 52bd 53db dcbd dcf7 f53b 3045 1b3c
00000010: b4ef 54bd 690e 9b3d c4ea f9bd bc82 993d
00000020: bcb7 e83d b4c0 5fbd 2081 933c 4c07 063d
00000030: 12cd fabd f8e9 a13d c015 fa3c 80bf 6ebd
00000040: 4b1a afbd 7a91 d0bd 72bb fa3d c866 62bd
00000050: 42d4 a4bd d060 933d 94ef f23d 6b96 053e
00000060: d49b dabd 2f2b c4bc 38ed 953c d4f6 35bd
00000070: 6341 ff3d 9830 e0bc 7039 23bd 00ec 323a
00000080: b7be e1bd 759b 6bbd 8c42 ee3d 0044 7e39
00000090: e26c bdbd 4664 c6bd b201 a3bd 403d 0b3d
000000a0: 707e 433c 0095 c3ba 0006 4239 2de8 ad3d
000000b0: d234 e03d 2bac e6bd 9eaf 353d 6ab7 bfbd
000000c0: 989e c8bc 3e0c d0bd 7b62 933c c07a ffbc
000000d0: dd6e 033d 80bb 983a 9dfb 2e3d 88c8 b7bc
000000e0: a729 9f3d a0e7 95bd 1037 debd 2bf8 80bd
000000f0: c0fb 7e3c 0232 6bbd cbf5 883d d0bf a6bd
-0.05147639 -0.1078402 0.007506354 0.009476945 -0.05198641 0.07571108 -0.12202981 0.07495639
0.113631696 -0.054627135 0.018005908 0.032721803 -0.12246145 0.07905954 0.03052795 -0.058288097
-0.08549937 -0.101839975 0.122427836 -0.0552738 -0.080482975 0.071962 0.11862102 0.13045661
-0.10674253 -0.023946373 0.018301591 -0.044424847 0.124636434 -0.027366921 -0.0398497 0.0006825328
-0.11022704 -0.057521302 0.116337866 0.0002424866 -0.092492834 -0.096870944 -0.07959308 0.03399396
0.0119320005 -0.0014921725 0.00018503517 0.0849155 0.10947575 -0.11263307 0.044356935 -0.09361155
-0.024489686 -0.10158585 0.017991295 -0.031186461 0.03208815 0.0011652559 0.042720426 -0.022434488
0.077716164 -0.073195696 -0.10850346 -0.06297334 0.015562952 -0.057420738 0.06687506 -0.08142054

gnn_layer_0.n_self_func.0.weight f4 [64, 1]
00000000: 3020 733e 71ee 39bf 8d57 323e 1071 ebbe
00000010: d17e 12be d8ed 88be 0508 603f 6014 efbd
00000020: 834d d43e 741b eb3c 71e2 82be 4077 383e
00000030: 08ab 4fbf 29aa 1f3e 005e b8bd 391d 1f3f
00000040: abd8 193f d0e7 40bf c43e d3be 18c5 24be
00000050: 5b8d 693f b60f a13e 19bc a03e bc30 e8be
00000060: f352 d83e d406 fa3e 08ef 1abf 4a4d 443f
00000070: ba21 78bf a0d1 5bbd 1b1f 233f 8cda 4c3f
00000080: b33c 783f b245 33bf 85d6 633f 00c7 293c
00000090: 1b6c 393f ecf7 023f a151 853e 58fd 7b3f
000000a0: 1bbc 723f 28f5 4ebe 20ff 3ebf f0ca f7be
000000b0: f7e6 173f 3b9e 96be 5141 32bf 5a0b 14bf
000000c0: fde1 3b3e 833b d53e 28f3 3e3f f38e 133f
000000d0: 80b2 f13c 04e3 5abf ea4f 793e 12bd 0cbf
000000e0: ba2d b83e 187d a33e d8ab 623e 4d73 4c3f
000000f0: 88c8 12bf 6453 453f 78aa 703e c9c8 cc3e
0.23742747 -0.7262946 0.1741621 -0.45984697 -0.14306189 -0.2674396 0.87512237 -0.11673808
0.41465387 0.028699614 -0.25563386 0.1801424 -0.8112035 0.15592255 -0.09002304 0.62153965
0.60096234 -0.7535372 -0.41258824 -0.1609081 0.91231316 0.314573 0.31393507 -0.4534968
0.42250785 0.48833334 -0.6052098 0.76680434 -0.9692646 -0.05366671 0.6371934 0.80020976
0.9696762 -0.7002822 0.88999206 0.010362387 0.7243058 0.5115955 0.2603884 0.98433447
0.94818276 -0.20210707 -0.7460804 -0.48397017 0.593368 -0.29417595 -0.69630915 -0.5782982
0.18347926 0.41646966 0.74589777 0.5764 0.02950406 -0.8550265 0.24346891 -0.54976
0.35972387 0.31931376 0.22135866 0.79863435 -0.57337236 0.7708037 0.23502529 0.39996937

gnn_layer_0.n_self_func.0.bias f4 [64]
00000000: 88c0 b9bd 30e5 393f d2d3 dcbe 007a 0abe
00000010: 962b 6f3f b84b 043e a7bd 1b3f d88d 89be
00000020: 596e b83d 1abf 2e3f dc62 503f e04b 403e
00000030: 50c0 07bf 2192 6b3e e0d8 aabd d269 1dbf
00000040: b099 febe 003a 70be 2cc1 5cbf 80f5 49bf
00000050: 46b9 e3bd 1254 0e3f 171d 713f 3cd3 2fbf
00000060: a6e9 803e 9d3c 2d3f 8c56 f1be 0e12 5fbe
00000070: e064 443f d0dc 06be 4c2c 3c3f 752d 3e3d
00000080: c583 78bf 1cc8 9d3e a744 eb3e be2e 27bf
00000090: 7565 34bf 38f0 543f 3829 273f 0945 33be
000000a0: 5b17 003e 7c09 27bf 60b9 263e 38ea 06bf
000000b0: af32 a7be eb0b 773f 0007 813f 88f0 e5be
000000c0: 80b8 4f3f 7797 63bf b4d5 d3bc f842 733e
000000d0: b051 dcbe a0c0 803f bf3b fabe a68f 083f
000000e0: 4d49 80bf 5fb6 903b 60b0 7ebf 903a 0dbf
000000f0: 9080 a43d ee17 2e3e 7f0c 1bbe 7a0c d13e
-0.090699255 0.7261534 -0.43130356 -0.13523102 0.9342588 0.1291951 0.6083626 -0.2686603
0.09005422 0.6826035 0.8140085 0.18778944 -0.5302782 0.23004963 -0.08342147 -0.61489594
-0.4972663 -0.23459625 -0.86232257 -0.7889023 -0.111193225 0.5559703 0.9418501 -0.68681693
0.2517826 0.67670614 -0.47136343 -0.21784231 0.76716423 -0.13170171 0.7350509 0.04643007
-0.97076064 0.30816734 0.45950815 -0.653057 -0.7046731 0.83179045 0.6529727 -0.17506804
0.1250891 -0.65248847 0.16281652 -0.5270114 -0.32655856 0.9650256 1.0080261 -0.44910073
0.811409 -0.8890299 -0.025858738 0.23756015 -0.43031073 1.0058784 -0.48873708 0.5334419
-1.002237 0.0044162716 -0.99487877 -0.55167484 0.08032334 0.17001316 -0.15141486 0.4082983
