ThinkMatch/exp/pca/CV3/saved_models/model.pt (torch, 216498 bytes, 17 tensors)

gnn_layer_0.gconv.a_fc.weight f4 [64, 121]
-0.045184184 0.04597938 0.0121488245 0.07190424 0.0025220343 -0.01835353 0.030631807 -0.024988689
-0.021907791 -0.08416359 -0.08556412 -0.027615227 0.031239985 -0.045651227 -0.08306955 -0.005036578
0.07264155 8.020097e-06 0.0075173136 -0.043498408 -0.07380579 0.007762088 0.048740458 0.02559529
0.056343213 0.017252518 0.054804076 -0.0005517561 0.089456625 -0.07164257 -0.024678914 -0.08488442
0.08128665 -0.048607536 0.069925815 0.07189392 0.07153899 0.08856962 0.045903895 -0.079205684
-0.070678286 -0.058792483 0.0060492046 -0.05986558 -0.08675163 -0.05758152 -0.041577462 0.089173146
-0.020419259 -0.05782858 0.034496184 -0.04302923 -0.071055785 0.044785578 0.056937795 0.039023127
-0.0787434 0.061092027 0.048671395 -0.039406944 -0.034263656 0.045599114 0.046254486 0.07132609
-0.061285105 0.023598308 -0.0541894 -0.029949399 -0.084873185 -0.050213736 0.05173055 0.005866964
0.07689131 -0.022162603 -0.064069785 0.0024004579 0.032902006 0.01957293 -0.007046396 0.064653255
-0.010541258 -0.03697449 0.093405046 0.062339123 0.097504176 0.068793595 -0.02759002 0.020401092
-0.07172681 -0.024165386 -0.045686107 0.062775835 -0.025744045 -0.015332516 0.009072286 -0.031289127
0.020368962 0.0699185 -0.05351615 -0.027155802 0.0812909 0.056828823 -0.038750708 0.07965082
-0.05621868 -0.0125375325 0.052829467 0.01711593 -0.008943364 0.008577478 -0.029639587 -0.077803254
-0.00047863252 0.015904676 -0.05301986 -0.018303035 0.082699835 -0.023981368 0.05851911 -0.022268416
0.059181266 0.06684789 -0.063687086 0.09274672 -0.017225387 0.06932812 -0.083093345 -0.05985896
0.08414546 -0.032820757 0.007999113 -0.059971668 0.017742975 -0.06548275 -0.046389885 0.05615402
-0.08294537 0.07293297 0.05219236 0.028619815 0.08398609 0.025339905 -0.009935145 0.0757292
-0.05146422 -0.04731699 0.08257473 -0.060799304 -0.063755974 -0.07866484 -0.0017664569 0.0042004655
0.028786853 0.006202913 -0.035907023 -0.04375898 0.013911884 -0.04018095 0.032433778 -0.084483914
0.035583865 0.091310956 0.0850751 -0.05049621 0.082022645 -0.016403656 0.027601954 -0.07193837
0.014154569 0.0719905 0.061821386 -0.05991455 -0.031440746 -0.0020509362 0.029305475 0.09500914
-0.0478729 -0.03577208 0.06843348 -0.06561296 -0.048442017 -0.057490762 -0.08195384 -0.008343235
0.026777312 0.016167464 -0.07636029 -0.06504347 -0.020942964 0.06358285 -0.08552238 -0.051025264
-0.03929234 -0.036548343 -0.03560627 -0.00735733 -0.08110243 0.06854075 0.014627651 -0.0100826025
-0.054017358 -0.032445177 0.053009883 -0.06427231 -0.09015218 0.06887547 -0.032459065 0.0065085078
-0.053418353 -0.0893669 -0.041689493 -0.024838649 0.07297054 -0.056947194 0.033917997 -0.027947282
0.025248505 -0.024595752 -0.0138151515 -0.012740111 -0.026703624 -0.062067512 0.090094365 -0.047291026
0.050923746 -0.014876161 -0.0073896907 0.06260253 0.098152675 -0.0018014321 -0.032353885 0.013045846
0.044575877 0.08826075 0.0005935124 -0.0025852553 -0.03995359 0.08096448 -0.03998092 0.012340266
0.09808657 -0.0034690027 0.078023456 -0.07638496 0.04993401 -0.05239469 0.013926785 0.08353904
-0.047758404 -0.0064202216 0.06064327 -0.07451155 0.017803146 -0.024670644 0.04014073 0.05964503
00000000: 0d13 39bd e054 3c3d dd0b 473c 8842 933d
00000010: b748 253b 245a 96bc 8eef fa3c 14b5 ccbc
00000020: f877 b3bc f65d acbd 3e3c afbd 5439 e2bc
00000030: ffea ff3c c8fc 3abd 5e20 aabd e109 a5bb
00000040: 18c5 943d 0e8e 0637 cc53 f63b 632b 32bd
00000050: 7d27 97bd 1d59 fe3b 13a4 473d 37ad d13c
00000060: 24c8 663d 2755 8d3c 3d7a 603d baa3 10ba
00000070: 0935 b73d 57b9 92bd 6f2b cabc e2d7 adbd
00000080: 9d79 a63d b218 47bd 4435 8f3d 1f3d 933d
00000090: 0983 923d fd63 b53d b905 3c3d 9736 a2bd
000000a0: c7bf 90bd 63d0 70bd 6838 c63b 9c35 75bd
000000b0: d7aa b1bd 9ada 6bbd 214d 2abd 69a0 b63d
000000c0: 4a46 a7bc a9dd 6cbd df4b 0d3d 6b3f 30bd
000000d0: b285 91bd 1571 373d 9b37 693d b7d6 1f3d
000000e0: 3844 a1bd a23b 7a3d a85b 473d 2d69 21bd
000000f0: 0c58 0cbd 23c6 3a3d 5875 3d3d 6a13 923d
00000100: 1706 7bbd 3d51 c13c b4f5 5dbd 7158 f5bc
00000110: fed1 adbd ebac 4dbd 6ae3 533d a93f c03b
00000120: 3179 9d3d 598e b5bc 0537 83bd 0051 1d3b
00000130: 41c4 063d 6957 a03c 74e5 e6bb ed68 843d
00000140: 3eb5 2cbc 9072 17bd 254b bf3d 4f57 7f3d
00000150: 45b0 c73d a8e3 8c3d 7704 e2bc 3120 a73c
00000160: 81e5 92bd 7df6 c5bc 5b21 3bbd 9e90 803d
00000170: 2de5 d2bc 3c35 7bbc eda3 143c 0729 00bd
00000180: cfdc a63c 6e31 8f3d c033 5bbd d875 debc
00000190: d87b a63d 57c5 683d 10b9 1ebd f81f a33d
000001a0: 8f45 66bd 396a 4dbc b663 583d b536 8c3c
000001b0: 3087 12bc 8d88 0c3c b8ce f2bc 5057 9fbd
000001c0: f8f0 fab9 864a 823c 5a2b 59bd 3ff0 95bc
000001d0: 885e a93d 9374 c4bc bcb1 6f3d 416c b6bc
000001e0: 0e68 723d 8ce7 883d 606e 82bd fef1 bd3d
000001f0: 411c 8dbc e7fb 8d3d d82c aabd ab2e 75bd
00000200: 7454 ac3d 0f6f 06bd b60e 033c daa4 75bd
00000210: b759 913c d21b 86bd 5203 3ebd c201 663d
00000220: 43df a9bd e25d 953d a8c7 553d 1a74 ea3c
00000230: e600 ac3d a295 cf3c 05c7 22bc e917 9b3d
00000240: 25cc 52bd 76cf 41bd f11c a93d b108 79bd
00000250: 7e92 82bd 081b a1bd 7588 e7ba 0fa4 893b
00000260: 68d2 eb3c ce41 cb3b 3e13 13bd 9e3c 33bd
00000270: acee 633c c894 24bd 48d9 043d e705 adbd
00000280: 63c0 113d 3d01 bb3d db3b ae3d 1dd5 4ebd
00000290: 7dfb a73d f660 86bc 7e1d e23c 6d54 93bd
000002a0: 91e8 673c c16f 933d 6c38 7d3d f668 75bd
000002b0: 03c8 00bd 0069 06bb 0912 f03c 2794 c23d
000002c0: 6016 44bd bf85 12bd da26 8c3d 1660 86bd
000002d0: 236b 46bd 6f7b 6bbd 6ad7 a7bd 10b2 08bc
000002e0: 185c db3c a171 843c c962 9cbd 8335 85bd
000002f0: 9490 abbc ba37 823d 5c26 afbd deff 50bd
00000300: 01f1 20bd b7b3 15bd e1d7 11bd c215 f1bb
00000310: 0819 a6bd 185f 8c3d d1a8 6f3c 8031 25bc
00000320: 4e41 5dbd 3ce5 04bd e420 593d 33a1 83bd
00000330: b5a1 b8bd 950e 8d3d ccf3 04bd 5245 d53b
00000340: 34cd 5abd fe05 b7bd 9ac2 2abd 6c7a cbbc
00000350: 9471 953d 7641 69bd 99ed 0a3d b3f1 e4bc
00000360: f4d5 ce3c 087d c9bc f258 62bc e6bb 50bc
00000370: 8fc1 dabc 813a 7ebd 6583 b83d 3cb4 41bd
00000380: 6b95 503d 24bb 73bc 3825 f2bb c135 803d
00000390: 4504 c93d 081e ecba 8285 04bd 3ebe 553c
000003a0: 3295 363d 0dc2 b43d f195 1b3a 636d 29bb
000003b0: 60a6 23bd b5d0 a53d 08c3 23bd d42e 4a3c
000003c0: 9de1 c83d 3558 63bb c3ca 9f3d b86f 9cbd
000003d0: 9b87 4c3d d19b 56bd 2c2d 643c 8416 ab3d
000003e0: 519e 43bd b960 d2bb 1465 783d 8399 98bd
000003f0: e7d7 913c 171a cabc 9b6a 243d 594e 743d

gnn_layer_0.gconv.a_fc.bias f4 [64]
-0.016769938 -0.03231846 -0.00066346466 0.06541409 -0.008634882 0.084278926 0.06274257 -0.056336205
0.07572694 -0.062986605 -0.08792975 0.08071145 -0.027562436 0.048105754 0.021546654 -0.04564919
-0.049645852 -0.09052588 -0.03296241 0.014233267 0.08917946 -0.054100577 -0.016392294 0.06297347
0.08277788 -0.07183446 -0.008679235 0.09396262 -0.037732553 -0.0024029592 -0.0056611695 -0.07207544
-0.010605423 -0.028252995 0.050051562 -0.04488446 0.04341882 -0.027655005 -0.008448829 -0.059318066
-0.02988549 -0.06255302 0.035513625 0.02881374 -0.05200556 -0.05516603 -0.038166285 -0.010129502
0.043651883 -0.020475738 0.07567338 -0.030548977 -0.030606927 -0.030934533 0.09306149 -0.06286017
0.009210144 0.024452798 0.05350322 -0.042982478 0.041500445 -0.032347355 0.07879556 0.04836048
00000000: 1c61 89bc 5d60 04bd 5cec 2dba d3f7 853d
00000010: 5279 0dbc 6e9a ac3d 2d7f 803d cbc0 66bd
00000020: ba16 9b3d 1fff 80bd 8314 b4bd 0b4c a53d
00000030: 9eca e1bc 8a0a 453d 9c82 b03c a5fa 3abd
00000040: 7359 4bbd a265 b9bd 9803 07bd a632 693c
00000050: b9a3 b63d 9198 5dbd 2249 86bc 3cf8 803d
00000060: 7387 a93d f21d 93bd 5a33 0ebc 796f c03d
00000070: 738d 1abd f77a 1dbb 5581 b9bb 4a9c 93bd
00000080: 5ec2 2dbc d372 e7bc de02 4d3d c4d8 37bd
00000090: efd7 313d c08c e2bc f56c 0abc 80f7 72bd
000000a0: 6ad2 f4bc cc1b 80bd bc76 113d cb0a ec3c
000000b0: c803 55bd c6f5 61bd 4054 1cbd 36f6 25bc
000000c0: 51cc 323d bcbc a7bc a5fa 9a3d d941 fabc
000000d0: 61bb fabc 6b6a fdbc 0697 be3d d5bc 80bd
000000e0: 25e6 163c 3c51 c83c 3126 5b3d 650e 30bd
000000f0: 5ffc 293d a97e 04bd 915f a13d a415 463d

gnn_layer_0.gconv.u_fc.weight f4 [64, 121]
0.00013322472 0.06366727 0.07835501 -0.012379067 -0.033880375 0.014672867 -0.033867568 0.0074180886
-0.046313394 0.02987067 -0.03497311 -0.014488491 -0.03457019 -0.07347722 0.0049557886 0.039326914
-0.06591298 0.04519376 -0.080525294 -0.06181721 0.0673096 -0.06130872 0.03149411 0.08918965
0.03387453 -0.03820794 -0.013960241 0.02144438 0.017548067 0.054742016 -0.074234284 0.05575464
0.03354405 0.07389265 0.05490073 -0.073249206 -0.027255636 -0.034094024 -0.027446372 -0.026428184
-0.05505449 -0.042064555 0.07618956 0.039382305 -0.015914222 0.0600023 0.0067630815 -0.025449328
-0.08857586 -0.04118253 -0.043313563 0.091354296 -0.023858633 0.025006786 -0.0691944 0.0067613046
-0.07492982 0.00333774 0.05190298 0.020377152 -0.08526835 0.045311056 -0.016551849 0.08677747
0.043009527 -0.06801549 0.018408697 -0.08607414 -0.04708521 -0.038005438 -0.08156431 0.086651936
-0.060939457 0.02555963 0.006691563 -0.03289419 0.034858588 -0.08779886 0.031404167 -0.039996903
-0.08339906 -0.043335255 -0.0539349 -0.016622277 -0.059543252 0.0071229422 0.05659275 -0.026907092
0.0137570705 -0.085732415 -0.041659757 -0.039704844 -0.00821717 0.069723144 -0.0008111404 -0.089837
0.08048299 -0.0027536687 0.06483544 -0.038805254 0.009287971 -0.06147456 0.028763888 -0.059579734
0.010895992 -0.013477545 -0.01774221 -0.048185997 -0.046072714 0.0826641 0.022770023 0.013461058
-0.022347966 -0.077578664 -0.056338627 -0.0034779322 -0.019810166 -0.009702321 0.061805263 0.07916257
-0.045899734 0.020313544 -0.007024615 0.05925833 0.0099089835 0.015870009 -0.038200658 0.012799673
0.02226168 0.032593504 -0.05269556 -0.08017094 -0.021133803 -0.015351797 0.07397463 -0.017416047
0.07858827 0.04946663 -0.083575144 -0.054041587 0.0696 -0.019326245 0.0027621787 -0.06957273
-0.08441656 0.034976065 0.08709891 -0.030399146 0.032792438 -0.06992998 0.084758736 0.047291644
-0.04847186 0.026740337 0.0069592115 -0.058444925 0.039816495 -0.061500106 0.08065413 -0.0361309
0.03406273 0.02501344 0.008415701 -0.061918356 -0.003626295 -0.041712157 0.013226804 0.016181285
0.08795327 -0.011090322 0.08573302 0.039270878 -0.021853302 0.009275295 -0.0099795405 0.010072239
0.03457871 -0.093317136 0.036287434 -0.08935664 -0.001005315 -0.07187582 0.04941844 -0.063114464
-0.07552337 -0.051949393 -0.015908355 0.021120688 -0.024616487 0.07772465 0.06045693 -0.06183572
0.07509492 -0.051844984 -0.0014009697 0.063661195 0.08592933 0.05045773 -0.06951956 -0.08785942
0.000879707 -0.063163094 -0.07643122 -0.017459873 0.06326712 -0.007491662 -0.07182946 -0.04262409
0.02590471 0.0020544638 0.02448404 0.07254855 0.019931145 -0.022039015 0.08576805 -0.02867434
0.0529734 0.036022536 -0.041168485 -0.0603984 0.024432812 0.04391678 0.0853662 -0.053902972
-0.005834365 0.011263148 0.058919236 -0.065448545 0.021611104 -0.09908018 0.08259853 0.10053755
0.08389029 -0.002024041 0.024120724 -0.078954816 -0.053954836 0.02718897 0.08199944 0.052331857
0.09114979 -0.09534199 -0.06488886 0.01081367 0.0019466094 -0.03120217 -0.011113742 0.062405024
-0.033947 -0.06446779 -0.08255872 0.011566096 0.054530278 0.01402627 -0.083771154 0.078931175
00000000: 3db2 0b39 fc63 823d 9778 a03d 92d1 4abc
00000010: 26c6 0abd 7766 703c b8b8 0abd 7013 f33b
00000020: 1db3 3dbd 56b3 f43c f73f 0fbd 2361 6dbc
00000030: 7999 0dbd 3a7b 96bd 2b64 a23b 4215 213d
00000040: 62fd 86bd 181d 393d 72ea a4bd 0b34 7dbd
00000050: 9ed9 893d da1e 7bbd f8ff 003d 10a9 b63d
00000060: 05c0 0a3d ee7f 1cbd 7fb9 64bc 20ac af3c
00000070: f7c0 8f3c 2a39 603d 2508 98bd fa5e 643d
00000080: 7c65 093d 0855 973d 96df 603d ae03 96bd
00000090: 3647 dfbc 2da6 0bbd 37d7 e0bc eb7f d8bc
000000a0: d180 61bd e24b 2cbd 4609 9c3d 574f 213d
000000b0: 8b5e 82bc f9c4 753d d79c dd3b 1c7b d0bc
000000c0: 4367 b5bd 03af 28bd 9069 31bd f617 bb3d
000000d0: 2e73 c3bc 08db cc3c cbb5 8dbd ef8d dd3b
000000e0: ce74 99bd fcbd 5a3b 3898 543d fced a63c
000000f0: 2ca1 aebd 1698 393d be97 87bc 63b8 b13d
00000100: c22a 303d b54b 8bbd d6cd 963c a447 b0bd
00000110: 6cdc 40bd 97ab 1bbd 300b a7bd 9276 b13d
00000120: a79b 79bd 6e62 d13c e644 db3b 0fbc 06bd
00000130: e1c7 0e3d e4cf b3bd a8a1 003d cbd3 23bd
00000140: 20cd aabd 4f80 31bd d7ea 5cbd 712b 88bc
00000150: a0e3 73bd 9267 e93b cdcd 673d 436c dcbc
00000160: 5665 613c 7a94 afbd 6ca3 2abd 8ca1 22bd
00000170: 4fa1 06bc 02cb 8e3d b6a2 54ba 76fc b7bd
00000180: 44d4 a43d e576 34bb 71c8 843d 42f2 1ebd
00000190: 932c 183c c0cc 7bbd 3fa2 eb3c e109 74bd
000001a0: 1a85 323c ecd0 5cbc 1c58 91bc ae5e 45bd
000001b0: beb6 3cbd cc4b a93d 3388 ba3c c58b 5c3c
000001c0: 1513 b7bc 90e1 9ebd 55c3 66bd 05ee 63bb
000001d0: ee48 a2bc 7cf6 1ebc 8427 7d3d fc1f a23d
000001e0: 5c01 3cbd 9768 a63c be2e e6bb ddb8 723d
000001f0: 4a59 223c d201 823c 4b78 1cbd b8b5 513c
00000200: 205e b63c c480 053d 4dd7 57bd a930 a4bd
00000210: cc20 adbc 1b86 7bbc 0380 973d 19ac 8ebc
00000220: e3f2 a03d 859d 4a3d 7229 abbd b65a 5dbd
00000230: 728a 8e3d 1352 9ebc ab05 353b 267c 8ebd
00000240: 97e2 acbd 1043 0f3d ea60 b23d a107 f9bc
00000250: 5d51 063d 7337 8fbd fd95 ad3d e2b4 413d
00000260: 6e8a 46bd 8d0e db3c 190a e43b f263 6fbd
00000270: 9f16 233d 89e7 7bbd fe2d a53d fffd 13bd
00000280: 5c85 0b3d fce8 cc3c 02e2 093c 1a9e 7dbd
00000290: 22a7 6dbb 5eda 2abd 3db5 583c 9d8e 843c
000002a0: d820 b43d 2fb4 35bc cb94 af3d 80da 203d
000002b0: b205 b3bc 68f7 173c 3a81 23bc 0806 253c
000002c0: 68a2 0d3d 0e1d bfbd 22a2 143d 9d00 b7bd
000002d0: c6c4 83ba a133 93bd fd6a 4a3d 2842 81bd
000002e0: ffab 9abd e3c8 54bd 3d52 82bc 4b05 ad3c
000002f0: 84a8 c9bc 1a2e 9f3d b0a1 773d 7447 7dbd
00000300: 5ecb 993d 685b 54bd bea0 b7ba cd60 823d
00000310: b7fb af3d c4ac 4e3d 4560 8ebd a4ef b3bd
00000320: 239c 663a a75b 81bd f987 9cbd 0208 8fbc
00000330: 3192 813d 9e7c f5bb 531b 93bd 9996 2ebd
00000340: 1d36 d43c 2fa4 063b c192 c83c 5694 943d
00000350: a446 a33c 2a8b b4bc 29a7 af3d 73e6 eabc
00000360: a3fa 583d 5e8c 133d 49a0 28bd 5064 77bd
00000370: 5227 c83c 15e2 333d 79d4 ae3d 5dc9 5cbd
00000380: 332e bfbb 1189 383c 4c55 713d e309 86bd
00000390: c509 b13c 8dea cabd 6b29 a93d a2e6 cd3d
000003a0: acce ab3d c6a5 04bb d398 c53c 10b3 a1bd
000003b0: bfff 5cbd 67bb de3c 53ef a73d ee59 563d
000003c0: beac ba3d a942 c3bd 73e4 84bd d22b 313c
000003d0: 5f25 ff3a b19b ffbc 6a16 36bc 699c 7f3d
000003e0: 020c 0bbd b007 84bd 8c14 a9bd b97f 3d3c
000003f0: 245b 5f3d 71ce 653c 3690 abbd aba6 a13d

gnn_layer_0.gconv.u_fc.bias f4 [64]
0.027492212 0.06753799 -0.01349862 -0.016287362 0.06545513 0.050122492 0.0455512 0.101528265
0.058713127 0.06634369 -0.085441865 -0.0015330944 0.075584576 0.004774754 -0.014023071 -0.06607571
0.032653462 -0.0116648665 -0.06608939 -0.02437005 0.10262469 0.061554443 -0.08463224 0.06645937
-0.030218996 0.022150109 -0.018595845 0.011770198 0.03139524 -0.029250298 0.0148356045 -0.013678383
-0.06187002 0.03835029 0.052868333 -0.0751772 0.07826773 0.018728513 -0.013749489 0.0026868237
0.033063132 0.032377243 0.01981015 -0.044075716 -0.055495128 0.10791127 0.07565145 0.06954835
0.09047389 0.08767488 0.0957462 0.0099791 0.027370578 -0.002770303 -0.016403941 -0.03861861
-0.008739833 -0.07349427 -0.012447077 0.009540738 -0.06424229 0.046818547 0.050499626 0.09152527
00000000: 5937 e13c 5c51 8a3d 5129 5dbc 136d 85bc
00000010: 570d 863d 3e4d 4d3d e593 3a3d 0dee cf3d
00000020: 2d7d 703d 33df 873d 25fc aebd 1df2 c8ba
00000030: 16cc 9a3d 8a75 9c3b 06c1 65bc b452 87bd
00000040: a3bf 053d ff1d 3fbc e059 87bd b3a3 c7bc
00000050: e52c d23d 8320 7c3d ab53 adbd da1b 883d
00000060: d48d f7bc 2574 b53c 5056 98bc cad7 403c
00000070: 4c98 003d 529e efbc 0911 733c 4c1b 60bc
00000080: 6b6b 7dbd 3215 1d3d 778c 583d 81f6 99bd
00000090: d54a a03d 8a6c 993c 8945 61bc 6c15 303b
000000a0: 356d 073d 009e 043d e548 a23c bd88 34bd
000000b0: dc4e 63bd 9500 dd3d 26ef 9a3d 5e6f 8e3d
000000c0: 604a b93d e38e b33d 9516 c43d 617f 233c
000000d0: 4338 e03c f98d 35bb 8f61 86bc 8c2e 1ebd
000000e0: 8431 0fbc 2a84 96bd d3ee 4bbc c150 1c3c
000000f0: 7691 83bd cec4 3f3d b2d8 4e3d 9a71 bb3d

affinity_0.A f4 [64, 64]
1.0562897 0.039225206 0.07111217 -0.07300857 0.09889655 0.034949437 0.011212453 -0.09391409
-0.079656616 -0.050435677 0.046780452 -0.11627187 -0.03012006 0.038229734 -0.0065480173 0.055498943
0.0048410147 0.11503592 0.10238117 -0.039657593 -0.029044718 -0.026172146 0.043461367 -0.051254928
0.08296065 0.02581361 -0.05881034 -0.101450205 0.013752922 0.04573293 0.06854886 0.09394914
-0.052435875 0.0436576 -0.1058225 -0.07097483 -0.072478175 0.117916286 -0.016048864 0.032983765
-0.006592989 0.105398536 -0.0024189055 -0.065173656 0.07453132 0.028422356 0.021352217 0.047298983
0.002660945 0.06185387 0.027133942 -0.12019655 0.0066552907 0.11795661 0.052824065 -0.09803216
-0.07596035 -0.017859772 -0.11288755 -0.042841583 0.0012181103 0.056503907 -0.098001495 -0.027846053
0.09569396 1.1186607 -0.084224254 -0.008952737 0.053587273 -0.00457263 -0.042310163 0.12058504
-0.11218324 0.05665624 -0.017110482 0.080717504 -0.06943545 -0.093623266 -0.020828009 0.03173779
-0.012915164 -0.00699535 0.007989705 -0.079101086 -0.026886255 -0.10794461 6.315112e-05 -0.03763762
-0.11727187 0.03558989 -0.0152861625 0.07640256 0.08785306 0.00022010505 0.00087943673 -0.020816445
-0.04477665 -0.047299907 -0.09691855 -0.07848939 0.016972631 -0.10024734 -0.015537381 -0.115620255
0.0047383755 0.036520034 0.06888485 0.025010496 -0.083366364 -0.053522825 0.009999767 -0.08354379
0.09964916 0.05784847 -0.09996109 -0.08803411 -0.06599808 0.03845814 0.114423275 -0.040353402
-0.06920408 -0.058506235 0.12219307 -0.00890699 -0.02079761 0.10856503 -0.0126966685 -0.028152049
-0.01364027 0.071354195 1.0396252 -0.09456091 -0.06081389 -0.12230672 -0.05181831 -0.11125913
0.0032055974 -0.05040802 0.033559933 0.11688167 0.09730907 0.12088774 0.10558359 -0.11398183
-0.024737388 -0.118229374 -0.019797504 -0.06449057 -0.048658818 -0.05172211 -0.029266521 -0.11611982
0.11560145 0.10884005 -0.058177724 -0.11098105 -0.0841109 0.005518824 -0.059680864 0.09486878
0.0593459 0.08232626 -0.011227161 -0.010459989 0.0732743 0.0007728189 0.0071462095 0.00016640127
0.032398194 0.019052893 0.056298494 -0.02516149 0.025148824 0.05627346 -0.04507035 -0.0054667443
0.109560505 -0.00014154613 -0.08319636 -0.039554313 -0.028597414 0.0760452 0.061855778 0.05564922
0.09410307 0.05232513 0.111874 0.02889432 0.074318424 -0.017524421 -0.029999852 0.081040606
0.022391215 -0.1073073 -0.021916494 0.95468116 -0.03971404 0.11388768 0.115577385 0.041943774
0.057937637 0.010931149 0.10380402 -0.114048496 0.030735657 0.09272379 -0.066451415 0.10854249
-0.0028883964 -0.07961571 0.014620274 -0.009281546 0.12130371 0.09373537 -0.03912705 -0.024415925
-0.0007160604 -0.08646269 -0.045041084 0.11768088 0.1208522 0.06280598 0.015838787 -0.075831324
0.09037863 -0.046888635 -0.060998023 -0.11762343 0.118895665 0.046858475 -0.025939554 0.10320832
-0.018394515 0.054845527 -0.1029565 0.06603345 -0.104192674 -0.09750421 -0.08988421 -0.08841616
-0.12249978 -0.03193131 0.0848175 -0.11124708 -0.04391545 0.07740764 0.03158976 -0.0020715296
0.045272544 0.021085918 -0.009140909 0.10232204 0.08222014 -0.047485217 -0.05950539 -0.09634806
00000000: 8034 873f 9caa 203d 42a3 913d 8485 95bd
00000010: 468a ca3d 2427 0f3d 70b4 373c 0856 c0bd
00000020: 0223 a3bd a495 4ebd dc9c 3f3d f21f eebd
00000030: 58be f6bc c896 1c3d c090 d6bb dc52 633d
00000040: 60a1 9e3b f497 eb3d 38ad d13d 0070 22bd
00000050: 30ef edbc f866 d6bc 8c04 323d b0f0 51bd
00000060: 46e7 a93d 1077 d33c 1ce3 70bd 20c5 cfbd
00000070: f053 613c 7452 3b3d 5863 8c3d 6868 c03d
00000080: 00c7 56bd 50d2 323d 78b9 d8bd 405b 91bd
00000090: 706f 94bd 187e f13d e878 83bc fc19 073d
000000a0: 000a d8bb 30db d73d 8086 1ebb c479 85bd
000000b0: e0a3 983d 00d6 e83c d8ea ae3c 94bc 413d
000000c0: 4063 2e3b 7c5a 7d3d 0048 de3c 9c29 f6bd
000000d0: a014 da3b 3c93 f13d 0c5e 583d 16c5 c8bd
000000e0: 1a91 9bbd a84e 92bc 9631 e7bd a87a 2fbd
000000f0: 00a9 9f3a a470 673d 02b5 c8bd 681d e4bc
00000100: 32fb c33d 4630 8f3f c47d acbd 80ae 12bc
00000110: 547e 5b3d 00d6 95bb 6c4d 2dbd 4af5 f63d
00000120: 54c0 e5bd 6010 683d 482b 8cbc 384f a53d
00000130: 2c34 8ebd 8ebd bfbd 809f aabc 7cff 013d
00000140: 209a 53bc 4039 e5bb 40e7 023c c0ff a1bd
00000150: 9040 dcbc 1012 ddbd 0070 8438 e829 1abd
00000160: 3c2c f0bd b4c6 113d d072 7abc f278 9c3d
00000170: 4eec b33d 00cc 6639 008a 663a 4087 aabc
00000180: b867 37bd 8cbd 41bd 3c7d c6bd 0cbf a0bd
00000190: 300a 8b3c 7a4e cdbd 8090 7ebc 50ca ecbd
000001a0: 6044 9b3b 0896 153d 8013 8d3d d0e2 cc3c
000001b0: fcbb aabd c03a 5bbd 10d6 233c 0219 abbd
000001c0: dc14 cc3d 84f2 6c3d 66b8 ccbd 3a4b b4bd
000001d0: 002a 87bd 4886 1d3d c056 ea3d 9c49 25bd
000001e0: deba 8dbd 3ca4 6fbd 5c40 fa3d a0ee 11bc
000001f0: c05f aabc 5857 de3d b005 50bc 209f e6bc
00000200: 707b 5fbc 2622 923d 7012 853f 26a9 c1bd
00000210: fc17 79bd f27b fabd 703f 54bd d4db e3bd
00000220: 0015 523b a478 4ebd 2476 093d a85f ef3d
00000230: fa49 c73d fe93 f73d 363c d83d 4e6f e9bd
00000240: 10a6 cabc 3e22 f2bd 602e a2bc a213 84bd
00000250: 784e 47bd 90da 53bd 58c0 efbc 3ad0 edbd
00000260: 74c0 ec3d 88e7 de3d c44b 6ebd 084a e3bd
00000270: 5642 acbd 40d7 b43b ec73 74bd 904a c23d
00000280: b014 733d ac9a a83d 20f2 37bc 6060 2bbc
00000290: d610 963d 0097 4a3a c02a ea3b 007c 2e39
000002a0: f8b3 043d d014 9c3c 4099 663d 781f cebc
000002b0: e804 ce3c 007f 663d b09b 38bd 6022 b3bb
000002c0: 4261 e03d 006c 14b9 da62 aabd b403 22bd
000002d0: 2045 eabc 96bd 9b3d 7c5c 7d3d 70f0 633d
000002e0: 1cb9 c03d e052 563d 321e e53d c8b3 ec3c
000002f0: 4234 983d 608f 8fbc 40c2 f5bc 9ef8 a53d
00000300: c86d b73c eec3 dbbd 388a b3bc fc65 743f
00000310: 30ab 22bd f23d e93d d6b3 ec3d 3ccd 2b3d
00000320: 0450 6d3d 9018 333c 3497 d43d 4292 e9bd
00000330: 58c9 fb3c f8e5 bd3d ae17 88bd 864b de3d
00000340: 404b 3dbb 900d a3bd e089 6f3c a011 18bc
00000350: 146e f83d 54f8 bf3d b043 20bd e803 c8bc
00000360: 00b6 3bba 5a13 b1bd 007d 38bd ac02 f13d
00000370: 5c81 f73d 6ca0 803d 58c0 813c 744d 9bbd
00000380: 6e18 b93d 4c0e 40bd 10d9 79bd 8ee4 f0bd
00000390: 927f f33d acee 3f3d 307f d4bc e25e d33d
000003a0: 18b0 96bc b4a5 603d dcda d2bd 8c3c 873d
000003b0: f862 d5bd 4ab0 c7bd 3615 b8bd 8813 b5bd
000003c0: 2ae1 fabd 68ca 02bd ccb4 ad3d 82d5 e3bd
000003d0: b0e0 33bd e687 9e3d 4464 013d 80c2 07bb
000003e0: b46f 393d 60bc ac3c c0c3 15bc 388e d13d
000003f0: 0863 a83d dc7f 42bd ecbb 73bd 2252 c5bd

gnn_layer_1.gconv.a_fc.weight f4 [64, 64]
-0.04328979 -0.039817758 -0.033202764 0.055691496 -0.015438378 -0.0035596348 -0.058980066 0.08140962
0.006453693 -0.094802834 -0.10115206 0.07568294 0.103905305 0.05207578 0.095419444 -0.039745912
-0.03804291 -0.10632134 -0.090775505 -0.09298912 0.12297003 -0.123277664 0.09789877 -0.100432776
0.12255314 0.09889233 -0.095718324 0.114993036 -0.015214884 0.05712757 -0.065372944 0.066979215
0.092910595 0.024254568 0.11529849 0.112110704 -0.008407225 -0.11098745 0.076039076 -0.11050053
-0.11837092 0.024281446 0.06405824 -0.07785958 -0.037480783 0.01925696 -0.038158894 -0.019926218
-0.030107 0.03342811 0.064585656 0.0020874143 -0.06281572 0.04295015 0.060981072 0.096132964
-0.11666832 -0.01118961 -0.12390467 0.10800018 0.019367384 0.06999424 0.031814426 -0.016751364
-0.07901412 -0.030379687 -0.111491814 0.0076592704 0.05362908 0.020405382 -0.059127696 0.062479395
-0.088360265 -0.033049725 0.03946051 -0.0899331 -0.04897604 0.045189653 -0.012768204 -0.11826592
0.043719143 -0.08350816 -0.04471433 0.11676687 0.109558485 0.099697694 -0.028060459 0.031353272
0.090001404 0.12136539 -0.041360773 0.0010213675 0.08717459 -0.12157368 0.02518886 0.063586034
0.023768378 -0.008820125 -0.033637095 -0.10880065 -0.030881062 0.056420736 0.07642521 -0.09675694
-0.095021814 0.042873934 0.070860736 -0.104914375 0.095369376 0.048314873 -0.056312032 0.07975886
0.10318675 -0.005477227 -0.06398598 -0.06821093 -0.042488646 0.004046071 -0.07158964 -0.061525285
-0.06758392 -0.12529166 0.021055736 -0.11824206 -0.007187848 -0.11621683 -0.08166668 -0.01579287
0.057859585 -0.11765172 0.06353082 -0.06551267 -0.03385465 0.06755867 -0.11329285 -0.014246558
0.016382325 -0.12045821 0.07582788 -0.0847199 0.088843316 0.012853824 0.054323792 -0.043684814
-0.10103168 -0.07017113 -0.038196564 0.055433005 0.018713098 -0.056753896 -0.04048066 0.1320532
0.08600065 0.06644048 -0.042735927 0.0840745 -0.07915833 -0.048468757 -0.031053536 -0.0091610635
-0.028957019 0.074982055 0.064078666 0.04411661 -0.104212925 0.0663089 0.050291024 -0.06396582
0.09065136 0.040081985 0.028988507 -0.036152497 0.09399945 0.07399819 0.07498625 0.043139137
-0.043650266 0.017180022 0.008708871 0.06624017 0.07766266 0.058547452 0.119940035 -0.07255037
-0.032158945 -0.08295151 -0.059986003 0.047850937 -0.051226728 0.054731365 0.08578846 0.06511575
-0.11251074 -0.035007454 0.103779025 -0.11909811 0.03937356 -0.039925035 -0.0021087332 0.030337244
0.11719249 -0.032187197 -0.015171409 0.039045617 0.120430246 -0.09979862 -0.0819237 -0.09615657
-0.0989621 -0.016609568 0.10151549 -0.04806491 0.027446544 -0.06731225 0.062392503 0.0051292097
-0.048250407 0.017498458 -0.07663572 0.10164328 -0.12037559 -0.08310923 0.03157741 0.102741495
0.0935758 -0.009446098 0.08926606 -0.12050502 0.12359478 0.10638361 0.030381769 -0.10381463
0.04210698 -0.0038692798 -0.038805235 -0.075715765 0.08310778 -0.024093587 0.0066564195 0.042362418
-0.011968066 -0.122562855 0.047929127 -0.044203024 -0.0692516 0.09471663 -0.017513325 -0.07882908
0.03915441 0.005946532 0.033871494 -0.034020294 -0.07854235 0.018944414 -0.09744968 0.10466787
00000000: a350 31bd f217 23bd 9fff 07bd c41c 643d
00000010: 40f1 7cbc c348 69bb 1595 71bd 16ba a63d
00000020: 8079 d33b fd27 c2bd d028 cfbd a8ff 9a3d
00000030: 4ecc d43d 6a4d 553d 456b c33d 9ccc 22bd
00000040: e2d2 1bbd 01bf d9bd 82e8 b9bd 1471 bebd
00000050: b6d7 fb3d 0079 fcbd 267f c83d b3af cdbd
00000060: 24fd fa3d 1088 ca3d f807 c4bd 7881 eb3d
00000070: d947 79bc 99fe 693d 40e2 85bd 662c 893d
00000080: e947 be3d 84b1 c63c 9d21 ec3d 4c9a e53d
00000090: 75be 09bc 634d e3bd 60ba 9b3d 1a4e e2bd
000000a0: 746c f2bd e2e9 c63c f730 833d d874 9fbd
000000b0: 7385 19bd c6c0 9d3c 804c 1cbd 4f3c a3bc
000000c0: f5a2 f6bc eaeb 083d 7c45 843d 00cd 083b
000000d0: 87a5 80bd 7fec 2f3d 4ac7 793d 5ce1 c43d
000000e0: cdef eebd a054 37bc bbc1 fdbd 332f dd3d
000000f0: 59a8 9e3c 2459 8f3d d84f 023d 283a 89bc
00000100: 28d2 a1bd d2de f8bc d255 e4bd 9efa fa3b
00000110: 2baa 5b3d 3029 a73c e22f 72bd 65ea 7f3d
00000120: 3af6 b4bd 265f 07bd 58a1 213d d82e b8bd
00000130: 1a9b 48bd c918 393d bb31 51bc 6735 f2bd
00000140: d812 333d 5406 abbd 6026 37bd 7823 ef3d
00000150: 3360 e03d 4e2e cc3d 0cdf e5bc 4a6c 003d
00000160: a852 b83d 6b8e f83d ea69 29bd 68df 853a
00000170: 9788 b23d 9ffb f8bd de58 ce3c 6539 823d
00000180: e7b5 c23c 4982 10bc 0dc7 09bd e0d2 debd
00000190: 48fa fcbc 6e19 673d d284 9c3d 8128 c6bd
000001a0: cc9a c2bd 949c 2f3d 6f1f 913d 59dd d6bd
000001b0: 0551 c33d d1e5 453d 72a7 66bd 9d58 a33d
000001c0: 9353 d33d 4f7a b3bb 150b 83bd 2cb2 8bbd
000001d0: 9308 2ebd e794 843b 979d 92bd f001 7cbd
000001e0: 7069 8abd 754c 00be 147d ac3c e528 f2bd
000001f0: 0a88 ebbb 1703 eebd dc40 a7bd 0d60 81bc
00000200: 2cfe 6c3d 63f3 f0bd 721c 823d 822b 86bd
00000210: 2cab 0abd 335c 8a3d 1506 e8bd 656a 69bc
00000220: 3a34 863c cbb2 f6bd a64b 9b3d a081 adbd
00000230: 7cf3 b53d d898 523c a082 5e3d d9ee 32bd
00000240: b3e9 cebd e2b5 8fbd 0074 1cbd b80d 633d
00000250: 364c 993c c676 68bd 0ccf 25bd f438 073e
00000260: 1c21 b03d f211 883d de0b 2fbd 402f ac3d
00000270: c31d a2bd 2d87 46bd fc63 febc 4918 16bc
00000280: 4537 edbc 3190 993d ad3b 833d 9eb3 343d
00000290: 966d d5bd f6cc 873d f6fd 4d3d 8300 83bd
000002a0: 6ca7 b93d 022d 243d 4e79 ed3c a414 14bd
000002b0: c982 c03d 5d8c 973d 6492 993d aab2 303d
000002c0: 9fca 32bd 1ebd 8c3c a7af 0e3c eda8 873d
000002d0: 9a0d 9f3d 74cf 6f3d 1fa3 f53d 4a95 94bd
000002e0: 19b9 03bd 7be2 a9bd e2b3 75bd 58ff 433d
000002f0: 1ed3 51bd ff2d 603d dcb1 af3d 685b 853d
00000300: 086c e6bd fa63 0fbd 198a d43d b6e9 f3bd
00000310: 2c46 213d 6f88 23bd ac32 0abb d085 f83c
00000320: 9e02 f03d b9d6 03bd 8091 78bc 4cee 1f3d
00000330: 22a4 f63d 3863 ccbd 9dc7 a7bd bced c4bd
00000340: a4ac cabd ca10 88bc 5ae7 cf3d b6df 44bd
00000350: 93d7 e03c 01db 89bd 488f 7f3d ee12 a83b
00000360: 38a2 45bd ed58 8f3c 30f3 9cbd 5a2a d03d
00000370: 7a87 f6bd 2c35 aabd 5057 013d 226a d23d
00000380: aba4 bf3d cec3 1abc 20d1 b63d 56cb f6bd
00000390: 431f fd3d a6df d93d 30e3 f83c c49c d4bd
000003a0: 5e78 2c3d be93 7dbb 3df2 1ebd de10 9bbd
000003b0: 6934 aa3d ea5f c5bc 181e da3b 3784 2d3d
000003c0: b515 44bc 3c02 fbbd 5551 443d 3b0e 35bd
000003d0: c8d3 8dbd cbfa c13d 1b78 8fbc 2471 a1bd
000003e0: 6060 203d 20db c23b d6bc 0a3d dd58 0bbd
000003f0: d0da a0bd 5131 9b3c b393 c7bd 1c5c d63d

gnn_layer_1.gconv.a_fc.bias f4 [64]
-0.07385523 0.02692456 -0.061720524 -0.048734628 0.038446307 0.12472541 -0.046000127 0.029100413
-0.046207104 0.015111625 0.022872988 -0.11994739 -0.034741692 0.14235936 -0.10400052 -0.04973328
-0.028293075 0.112212814 -0.027695518 0.005007219 -0.12185097 -0.02878045 -0.08049646 -0.115544245
-0.114220805 0.10077104 -0.044120714 -0.11525704 0.05040364 -0.102805346 -0.057226583 0.12878388
0.049241323 0.105829015 0.12815529 -0.065222114 0.078583494 -0.036520466 -0.011815055 -0.00035095107
0.10211563 0.089940414 -0.014983923 0.11551808 0.0016364127 0.037447814 0.120706014 0.09731858
0.0865108 -0.021109661 -0.10851812 0.0810746 -0.06980458 -0.022197658 -0.104969166 -0.08906246
-0.1036993 -0.070920974 -0.10869727 0.08709651 0.033247255 -0.08165705 -0.041828364 -0.04278411
00000000: 6941 97bd e590 dc3c a9ce 7cbd f69d 47bd
00000010: e079 1d3d 0970 ff3d a16a 3cbd fd63 ee3c
00000020: a943 3dbd c096 773c 2260 bb3c faa6 f5bd
00000030: 4e4d 0ebd a7c6 113e 3afe d4bd 20b5 4bbd
00000040: e1c6 e7bc d5cf e53d b6e1 e2bc 9913 a43b
00000050: 008d f9bd fac4 ebbc 54db a4bd 76a2 ecbd
00000060: 99ec e9bd 0c61 ce3d ecb7 34bd e20b ecbd
00000070: 0c74 4e3d 9c8b d2bd 6c66 6abd ecdf 033e
00000080: 45b1 493d e2bc d83d 243b 033e 2c93 85bd
00000090: 62f0 a03d 7c96 15bd ef93 41bc dbff b7b9
000000a0: 0022 d13d ae32 b83d 217f 75bc be94 ec3d
000000b0: e67c d63a e162 193d b734 f73d f74e c73d
000000c0: 932c b13d 2bee acbc c03e debd 710a a63d
000000d0: b4f5 8ebd ddd7 b5bc 13fa d6bd 6166 b6bd
000000e0: 4c60 d4bd 043f 91bd ad9c debd a85f b23d
000000f0: 462e 083d d03b a7bd 3854 2bbd 643e 2fbd

gnn_layer_1.gconv.u_fc.weight f4 [64, 64]
0.017797578 0.01712939 -0.02969693 0.051465027 0.09858614 -0.0196116 0.085063115 -0.08960655
-0.11934833 -0.11852013 -0.0618688 -0.10148601 0.07635408 -0.09045107 0.08777654 -0.035893336
-0.038108736 -0.10066355 0.0055225343 0.07858805 0.13546188 -0.07413002 -0.09563641 0.054771226
-0.116669506 0.09992336 -0.1070393 -0.068104416 -0.07814736 -0.082462534 -0.043439478 -0.04213614
0.10948813 -0.0645752 -0.015935028 0.019566579 -0.08444774 0.07945072 -0.0742102 0.07869275
-0.11491991 -0.08046457 0.059264924 0.04165609 -0.027158193 -0.11601018 -0.09539954 0.089670196
-0.09725235 0.119468376 -0.055873513 0.109535225 0.10873449 0.012622472 -0.09675025 0.042182073
-0.091380246 0.08399454 0.08172246 0.04117336 0.023246538 0.11037048 -0.03350973 -0.058722127
-0.00901175 0.119833656 0.116075255 -0.040351164 -0.034869466 0.11036824 0.083722204 0.07503701
0.036587596 0.12041005 0.024281561 0.0610458 -0.055831548 -0.048424657 0.0219362 -0.047232002
0.08993876 -0.07205822 0.012485668 -0.060624734 0.026033865 -0.058257177 0.08779713 -0.11735381
-0.018584505 -0.021841276 0.0056171003 -0.029243557 -0.0035095091 0.115678325 -0.021085596 0.10469646
-0.02712783 0.10562109 0.11859608 -0.09983863 -0.00081395963 0.05606287 0.008427169 0.012487481
0.036772575 0.060400896 -0.1173901 -0.014309604 -0.046015818 0.022714928 -0.08622993 -0.0268606
0.1384505 -0.022478744 -0.03691564 -0.089121215 0.017132487 -0.028212199 -0.008738303 -0.05758524
0.020624958 0.11181661 0.09069173 0.05271857 0.007124485 -0.00016017978 -0.062943615 -0.06478781
0.07313705 0.08065456 -0.13244979 -0.111149974 0.093028106 -0.10781119 -0.045567594 -0.074754275
0.071059175 0.027360572 0.06376964 -0.13883321 0.118787974 -0.07015879 0.10425745 -0.04393583
0.0005741008 0.047247436 -0.006929308 0.12909083 0.15405603 0.046957817 0.06556278 0.13586514
-0.08312768 -0.06506064 -0.110290185 0.013913393 -0.08070949 -0.0484811 0.059726715 -0.012648717
-0.012341791 -0.06474599 -0.05446968 -0.105432086 0.040588684 0.08335185 -0.09936938 -0.032697167
-0.09534051 -0.104053244 0.102697425 -0.10236069 0.12312866 0.12997098 0.030822955 -0.030565144
-0.104696736 0.111473896 0.02779492 -0.09809925 0.1011173 -0.122643724 0.14603522 -0.059427634
0.033310305 0.015876079 -0.004074315 -0.009069068 -0.056211386 0.10381665 0.059492275 -0.10639292
-0.0026118807 0.062386293 0.03461663 -0.118932754 -0.021594746 0.012610458 -0.024623338 0.11605428
0.06104414 0.114565045 -0.021149501 -0.0967777 -0.06318637 0.073522136 0.06881188 0.06700813
0.083271034 0.026110735 -0.02612488 0.05835805 0.12018111 -0.05842177 0.08222073 -0.037460264
0.011504561 -6.406332e-05 0.06379071 0.03087114 0.024271488 -0.1209194 0.037532747 0.010526681
0.05375227 0.06854471 0.022882637 -0.08507865 -0.033768293 0.05272403 0.12137416 0.07392767
-0.037408575 -0.07833377 -0.068064846 0.0446598 -0.017869605 -0.025706403 0.03952771 -0.012201613
0.040260978 -0.034412242 0.08802065 -0.018881794 -0.006575943 0.12155419 0.072696045 0.09837785
-0.09005097 -0.01961788 0.027009102 -0.026259558 -0.047296043 -0.046870753 0.08544845 0.02484641
00000000: 3acc 913c ef52 8c3c fa46 f3bc fecc 523d
00000010: 88e7 c93d 82a8 a0bc 9235 ae3d a483 b7bd
00000020: e66c f4bd afba f2bd 246a 7dbd e6d7 cfbd
00000030: 875f 9c3d 693e b9bd 30c4 b33d e404 13bd
00000040: e817 1cbd b128 cebd 60f6 b43b c6f2 a03d
00000050: 85b6 0a3e 7bd1 97bd 06dd c3bd cb57 603d
00000060: 6cf0 eebd 9ea4 cc3d 6c37 dbbd 547a 8bbd
00000070: b90b a0bd 1ee2 a8bd 98ed 31bd f296 2cbd
00000080: 503b e03d 0140 84bd 2d8a 82bc 174a a03c
00000090: f0f2 acbd 0fb7 a23d 84fb 97bd aa29 a13d
000000a0: 215b ebbd 9cca a4bd c7bf 723d 949f 2a3d
000000b0: dc7a debc bf96 edbd d660 c3bd 02a5 b73d
000000c0: 3d2c c7bd d6ab f43d a0db 64bd 0154 e03d
000000d0: 30b0 de3d 7cce 4e3c ff24 c6bd 1cc7 2c3d
000000e0: 9125 bbbd 5405 ac3d 1b5e a73d 66a5 283d
000000f0: 866f be3c eb09 e23d 8041 09bd 9d86 70bd
00000100: 05a6 13bc 596b f53d ddb8 ed3d 4347 25bd
00000110: 49d3 0ebd be08 e23d 8c76 ab3d 01ad 993d
00000120: e0dc 153d 8b99 f63d 20ea c63c 290b 7a3d
00000130: 9faf 64bd ef58 46bd 8cb3 b33c 5876 41bd
00000140: d031 b83d 4393 93bd b090 4c3c a451 78bd
00000150: f944 d53c 149f 6ebd fbce b33d 3257 f0bd
00000160: 883e 98bc 7aec b2bc a70f b83b 2f90 efbc
00000170: cbff 65bb c2e8 ec3d b3bb acbc 196b d63d
00000180: 2f3b debc df4f d83d 80e2 f23d 3278 ccbd
00000190: e85f 55ba 2ea2 653d 1c12 0a3c 4b98 4c3c
000001a0: d79e 163d ee66 773d 396a f0bd d472 6abc
000001b0: 157b 3cbd a814 ba3c 5199 b0bd c30a dcbc
000001c0: f8c5 0d3e 5825 b8bc db34 17bd 2f85 b6bd
000001d0: 6e59 8c3c 451d e7bc 192b 0fbc 80de 6bbd
000001e0: acf5 a83c 1b00 e53d 96bc b93d 6def 573d
000001f0: 8374 e93b eff5 27b9 95e8 80bd 79af 84bd
00000200: e1c8 953d 382e a53d eba0 07be 99a2 e3bd
00000210: 8585 be3d 1dcc dcbd 16a5 3abd c518 99bd
00000220: 7987 913d 4723 e03c a899 823d 4b2a 0ebe
00000230: 1c47 f33d 69af 8fbd ee84 d53d 0ff6 33bd
00000240: 417f 163a 8786 413d 400f e3bb 6330 043e
00000250: ddc0 1d3e d756 403d c745 863d 3b20 0b3e
00000260: d83e aabd 833e 85bd d2df e1bd 00f5 633c
00000270: 044b a5bd 1e94 46bd 00a4 743d 903c 4fbc
00000280: 3935 4abc 8c99 84bd 991b 5fbd c7ec d7bd
00000290: 5240 263d 60b4 aa3d 2c82 cbbd 77ed 05bd
000002a0: e341 c3bd de19 d5bd 0753 d23d 7ba2 d1bd
000002b0: e12a fc3d 1d17 053e 6c80 fc3c c163 fabc
000002c0: 3e6b d6bd 6d4c e43d 2cb2 e33c 42e8 c8bd
000002d0: 9616 cf3d a22c fbbd 428a 153e 646a 73bd
000002e0: 6370 083d 8d0e 823c d581 85bb 6e96 14bc
000002f0: e93d 66bd d39d d43d 2cae 733d 88e4 d9bd
00000300: 162c 2bbb c588 7f3d 2bca 0d3d 0493 f3bd
00000310: 77e7 b0bc 189c 4e3c e2b6 c9bc dead ed3d
00000320: 6c09 7a3d 14a1 ea3d b841 adbc 6333 c6bd
00000330: db67 81bd c692 963d 3eed 8c3d 8f3b 893d
00000340: 018a aa3d 2ee6 d53c d803 d6bc da08 6f3d
00000350: 8421 f63d aa4b 6fbd 5863 a83d ef6f 19bd
00000360: a07d 3c3c bc59 86b8 b4a4 823d 79e5 fc3c
00000370: 00d5 c63c 97a4 f7bd f0bb 193d 1a78 2c3c
00000380: 572b 5c3d 2b61 8c3d 5e74 bb3c b73d aebd
00000390: 9f50 0abd 27f5 573d 0493 f83d 6467 973d
000003a0: bc39 19bd 756d a0bd 9565 8bbd 32ed 363d
000003b0: 4763 92bc 3c96 d2bc cfe7 213d 46e9 47bc
000003c0: b2e8 243d daf3 0cbd 2c44 b43d fead 9abc
000003d0: 027b d7bb 67f1 f83d aae1 943d 547a c93d
000003e0: a56c b8bd adb5 a0bc 3142 dd3c 491e d7bc
000003f0: 7fb9 41bd 8cfb 3fbd 99ff ae3d b38a cb3c

gnn_layer_1.gconv.u_fc.bias f4 [64]
0.012932647 0.14401978 0.006600367 -0.025614979 -0.118936814 -0.06214492 -0.04497909 0.11082023
0.04020733 -0.13124608 0.122667976 -0.04488393 0.12275311 -0.048072375 -0.08746307 -0.08598858
-0.100655966 -0.1000699 -0.109996796 0.07293859 0.034999456 0.09942793 0.070607066 0.10980384
-0.089755125 -0.080870524 -0.069642626 -0.08733482 0.067332245 -0.013472252 0.041166853 -0.0360435
0.045219705 0.12629479 -0.009947672 0.0439935 -0.07498646 -0.06264031 -0.017587679 -0.055649012
-0.020249948 0.061687283 0.034426063 -0.0525576 0.086255774 -0.0810056 -0.06368816 0.070615284
0.08731863 0.020213801 0.0957506 -0.16221866 -0.103858106 -0.11808909 0.07356026 0.012189395
0.025301455 0.07113051 0.05908379 -0.031119235 -0.112453535 0.06153781 0.0506339 0.051449634
00000000: 74e3 533c ec79 133e e447 d83b 81d6 d1bc
00000010: 2595 f3bd ac8b 7ebd ff3b 38bd b7f5 e23d
00000020: 71b0 243d 5f65 06be 5939 fb3d 36d8 37bd
00000030: fc65 fb3d 8ae7 44bd d71f b3bd c81a b0bd
00000040: b724 cebd 73f1 ccbd 0046 e1bd d460 953d
00000050: 975b 0f3d dfa0 cb3d 709a 903d d6e0 e03d
00000060: 89d1 b7bd 729f a5bd cba0 8ebd 99dc b2bd
00000070: 7de5 893d b8ba 5cbc 939e 283d 59a2 13bd
00000080: 4c38 393d 6c53 013e 8ffb 22bc 8732 343d
00000090: 8092 99bd 9049 80bd 0914 90bc 38f0 63bd
000000a0: 38e3 a5bc ceab 7c3d 5802 0d3d a346 57bd
000000b0: dea6 b03d 44e6 a5bd f06e 82bd bf9e 903d
000000c0: 1cd4 b23d 6a97 a53c e418 c43d a61c 26be
000000d0: 8fb3 d4bd b1d8 f1bd c3a6 963d 07b6 473c
000000e0: ff44 cf3c dfac 913d d801 723d c4ed febc
000000f0: 0a4e e6bd 120f 7c3d 7e65 4f3d dabc 523d

affinity_1.A f4 [64, 64]
0.9184814 -0.07265054 0.047295168 -0.051614746 -0.10903807 0.010645315 0.044539973 -0.07161011
-0.020039931 -0.07501179 -0.01372391 -0.013698712 -0.113093495 -0.0018519312 0.031287804 0.03834413
-0.07572326 -0.06129153 -0.081203684 -0.113441974 -0.10465647 0.080169916 -0.02274242 0.057567462
-0.11811362 0.065913275 -0.10810608 0.08475213 0.0039297193 0.07128142 0.06310421 -0.052239522
0.05934088 0.09014508 0.12255572 0.10987322 -0.089882255 0.04829283 0.096760646 0.0422574
-0.121099114 0.06998302 0.080574915 -0.07769808 0.025237784 0.11304404 -0.0146166235 -0.009704739
0.062333196 -0.086276785 0.03229624 -0.042635664 -0.07846701 -0.06494959 0.09750904 -0.113623604
-0.008227542 0.08091578 -0.0777809 0.09020297 0.026794553 -0.019551918 0.08564402 -0.07383227
-0.051772907 1.0919609 -0.0019413531 0.1215778 -0.08093789 -0.042881772 0.09197782 -0.07626961
0.019088313 0.05056727 0.11732608 0.059205085 -0.019885302 0.04551141 -0.116980925 0.058772042
-0.100149974 0.011603117 -0.066030204 0.027148694 -0.005669132 0.037956685 0.008522093 -0.060253263
0.07315031 -0.10068977 0.09899674 0.120912194 0.006565258 0.018452466 0.06492728 -0.0099850595
0.043286398 0.08411713 0.12369338 0.12171756 0.033583283 0.10248381 -0.023520023 0.107712
0.07960723 0.12102291 -0.04454276 0.0090369135 -0.03570056 0.061928123 0.11201982 0.041223034
-0.07549435 0.100785434 -0.010286048 0.013508558 0.022875547 -0.038271397 0.11923483 -0.0768287
-0.027794287 0.10778293 -0.11206238 0.08454001 0.0736825 -0.0063444674 -0.0066334605 -0.054886907
-0.005520493 -0.04102306 1.1137946 -0.124265194 -0.06826651 0.068920225 0.037166536 0.017338946
-0.0721782 0.02626361 -0.028266892 0.102976725 0.02115877 0.04456915 0.10657647 0.117073014
0.09062064 -0.11254726 -0.07423249 -0.12218334 0.03211263 -0.071826786 -0.097963125 -0.07421051
-0.009421259 0.031160355 -0.049310118 -0.084735796 -0.1158292 0.12324382 0.08228576 -0.09052691
0.08345519 -0.09706831 0.06800784 0.029358089 0.0559676 -0.022779167 -0.07775952 -0.026060984
-0.057141334 -0.078379825 -0.03033118 -0.12166965 -0.07201895 -0.013397917 0.08850619 -0.122888476
-0.09541573 0.012692213 0.020002723 0.12148827 -0.07657163 0.090045735 -0.04841073 0.09231831
0.018823713 0.056959882 0.089789316 0.0603382 0.014725938 0.064468 0.080641806 0.0070236623
-0.019362107 0.06744072 0.11202891 0.96773297 0.019777462 -0.0030829906 0.083727896 0.07189573
-0.06314215 0.05060509 0.017162055 0.11198619 0.008123785 0.12355752 -0.09051283 0.051591426
0.054302335 0.034683153 0.018604934 -0.03484258 -0.10672234 0.08491796 0.009587988 0.04140018
0.0056447536 0.08950685 -0.064880654 -0.10331026 0.046823606 0.09334692 -0.015725777 -0.07572065
-0.033488795 0.096064225 -0.014426634 -0.0401278 -0.091640845 0.047282264 0.11139482 0.031806782
0.04328622 0.09081967 0.09544407 0.011460543 0.0653926 -0.10237348 0.041542843 0.09821759
0.06475033 0.0148664415 0.035725504 0.111146376 0.054164127 -0.07074684 0.0934978 -0.035171837
-0.026593953 0.09818798 -0.059919402 0.08667791 -0.12355788 -0.102723956 -0.023669004 0.10971372
00000000: 9921 6b3f cec9 94bd 94b8 413d fc69 53bd
00000010: 5a4f dfbd b069 2e3c 8c6f 363d 52a8 92bd
00000020: c82a a4bc c89f 99bd 40da 60bc 9070 60bc
00000030: 909d e7bd 80bc f2ba a427 003d bc0e 1d3d
00000040: cc14 9bbd d40c 7bbd 1e4e a6bd 4454 e8bd
00000050: 2256 d6bd 2030 a43d 504e babc dccb 6b3d
00000060: 8ee5 f1bd 8afd 863d b866 ddbd 8692 ad3d
00000070: e0c4 803b fefb 913d c83c 813d 1cf9 55bd
00000080: 6c0f 733d fc9d b83d 7efe fa3d 3605 e13d
00000090: 3014 b8bd b4ce 453d 722a c63d 1816 2d3d
000000a0: d002 f8bd 4253 8f3d 7604 a53d 2c20 9fbd
000000b0: 78bf ce3c a283 e73d 907a 6fbc a000 1fbc
000000c0: 1851 7f3d e2b1 b0bd 1049 043d bca2 2ebd
000000d0: 50b3 a0bd 4a04 85bd d2b2 c73d 7eb3 e8bd
000000e0: d0cc 06bc 2cb7 a53d 984b 9fbd 56bc b83d
000000f0: 4080 db3c 582b a0bc 2266 af3d 6035 97bd
00000100: d40f 54bd 60c5 8b3f 0075 feba c8fd f83d
00000110: c4c2 a5bd cca4 2fbd de5e bc3d 3e33 9cbd
00000120: 185f 9c3c a01f 4f3d a848 f03d 0881 723d
00000130: 80e6 a2bc 2c6a 3a3d b293 efbd f4ba 703d
00000140: 6e1b cdbd 001b 3e3c d83a 87bd f066 de3c
00000150: 20c4 b9bb 7878 1b3d 40a0 0b3c 20cc 76bd
00000160: d4cf 953d 7036 cebd cebe ca3d d0a0 f73d
00000170: 6021 d73b a029 973c 98f8 843d 6098 23bc
00000180: 144d 313d 9a45 ac3d f452 fd3d 0e47 f93d
00000190: a08e 093d 08e3 d13d 10ad c0bc 1c98 dc3d
000001a0: 1e09 a33d dcda f73d 7872 36bd 900f 143c
000001b0: c03a 12bd 58a8 7d3d a66a e53d 7cd9 283d
000001c0: c89c 9abd 9868 ce3d d086 28bc 0053 5d3c
000001d0: 8065 bb3c 78c2 1cbd 6431 f43d 5e58 9dbd
000001e0: d8b0 e3bc 4cbd dc3d f680 e5bd 5023 ad3d
000001f0: dae6 963d 40e5 cfbb 805d d9bb 18d1 60bd
00000200: 40e5 b4bb cc07 28bd d290 8e3f c07e febd
00000210: 50cf 8bbd 0c26 8d3d f03b 183d 680a 8e3c
00000220: 2ad2 93bd c826 d73c f88f e7bc 76e5 d23d
00000230: 2855 ad3c 248e 363d c444 da3d fac3 ef3d
00000240: 5097 b93d 2e7f e6bd 3407 98bd 423b fabd
00000250: 8888 033d ec19 93bd e4a0 c8bd aefb 97bd
00000260: a05b 1abc 0044 ff3c 68f9 49bd f689 adbd
00000270: dc37 edbd 4267 fc3d 7085 a83d 2c66 b9bd
00000280: 8eea aa3d c0cb c6bd b247 8b3d 6080 f03c
00000290: 483e 653d 609b babc 6240 9fbd d87d d5bc
000002a0: 080d 6abd 9a85 a0bd 1879 f8bc f02d f9bd
000002b0: ac7e 93bd f082 5bbc bc42 b53d f4ac fbbd
000002c0: 5269 c3bd 00f3 4f3c c0dc a33c d8ce f83d
000002d0: 96d1 9cbd e669 b83d 544a 46bd 6211 bd3d
000002e0: 3034 9a3c c44e 693d 76e3 b73d 3025 773d
000002f0: 1045 713c cc07 843d 8827 a53d c026 e63b
00000300: 489d 9ebc 5c1e 8a3d 6a6f e53d 59bd 773f
00000310: 5804 a23c 000c 4abb 8879 ab3d 123e 933d
00000320: ac50 81bd 4847 4f3d 7097 8c3c 0459 e53d
00000330: a019 053c ba0b fd3d ca5e b9bd 8851 533d
00000340: 206c 5e3d ec0f 0e3d 6069 983c 18b7 0ebd
00000350: 3e91 dabd 78e9 ad3d f016 1d3c 3c93 293d
00000360: a0f7 b83b 5e4f b73d 26e0 84bd 5494 d3bd
00000370: 1cca 3f3d ac2c bf3d 58d3 80bc 6e13 9bbd
00000380: 8c2b 09bd 52bd c43d b05d 6cbc 0c5d 24bd
00000390: 32ae bbbd 0cab 413d f822 e43d d447 023d
000003a0: e44c 313d aaff b93d 2e78 c33d 00c5 3b3c
000003b0: 8eec 853d 30a9 d1bd d428 2a3d 4e26 c93d
000003c0: d29b 843d 6092 733c e854 123d b6a0 e33d
000003d0: 34db 5d3d b8e3 90bd c67b bf3d 5810 10bd
000003e0: 90db d9bc c816 c93d 0c6e 75bd 3084 b13d
000003f0: ea0b fdbd f060 d2bd 80e5 c1bc 96b1 e03d
