ThinkMatch/exp/pca/CV4/saved_models/model.pt (torch, 216498 bytes, 17 tensors)

gnn_layer_0.gconv.a_fc.weight f4 [64, 121]
-0.020682996 -0.0019318566 0.011122573 0.08960172 0.019293828 -0.008835211 -0.045877088 -0.0524973
0.0809759 0.04574608 -0.051282085 -0.055987228 0.05297942 0.08580322 0.062169805 0.012491281
-0.05092256 0.07656494 0.0145020755 0.049226835 -0.07692954 -0.046029955 0.020103686 0.0016565761
-0.021871394 0.07283649 -0.088411406 0.020778392 -0.040325966 0.06677306 0.022932727 -0.060554203
0.04539447 0.045563247 0.033443235 0.031081835 0.03303781 -0.015169204 -0.010200851 -0.0437664
0.021394175 -0.008257923 -0.017558733 0.0776787 -0.021204852 0.08227566 -0.07463168 0.0807745
-0.057758708 0.070246905 0.0016321602 -0.05970365 -0.039453585 -0.00086497737 -0.08082755 -0.061849706
-0.027884707 0.036857262 0.048710328 0.058410395 0.012136778 0.014604128 0.03705927 0.009043896
-0.019908879 -0.009401073 -0.035385504 -0.08156225 -0.062794805 0.0822989 0.0004634502 -0.010692719
0.017732361 0.032454345 -0.08101147 0.036395814 0.068136245 -0.010188608 0.06635388 0.003013889
0.0013798528 -0.0023335 0.034420684 -0.0044481666 0.018255202 0.0425032 -0.00461895 -0.03662197
0.07592665 -0.07541336 -0.08028184 -0.0038599123 0.05583806 0.040123843 -0.05422522 0.04467002
-0.005093866 0.07784171 -0.002704149 -0.0037632608 -0.017358957 0.09127272 0.08096243 -0.08271786
0.067867406 0.08757749 -0.004669071 -0.06901529 -0.005865274 0.013515567 0.024251522 -0.0111706685
0.02361426 0.046452414 0.0434276 0.0056587355 -0.09213877 0.05779919 0.026836913 0.0075760297
0.076707795 0.029715048 -0.053142257 -0.0049679065 -0.08168302 -0.07849631 0.078662604 -0.054278746
0.011623399 -0.08498288 0.038045112 0.053445768 -0.08328966 -0.043839205 0.059276942 0.09068012
0.07043021 0.043996286 -0.01670899 0.054487128 -0.05394672 0.041631173 -0.0064904136 0.065243535
0.0359211 0.02323537 0.08088377 -0.04871118 -0.08915504 -0.067727335 -0.027399205 -0.00025693985
0.018945266 -0.029926518 -0.06985793 0.07533142 -0.05707867 -0.019139346 0.025777489 0.011956049
0.011101579 -0.06516451 -0.08807592 0.045234945 0.0300841 0.04129253 0.055904284 -0.052398562
-0.08918212 0.07743367 -0.04229022 0.08123578 -0.014508997 -0.08416047 0.0016953972 0.072657235
0.074992105 0.028877808 0.0363557 0.05579214 0.07084664 0.054790307 0.04729609 -0.085296504
-0.08233258 -0.018671682 -0.036849547 0.015194293 -0.046707485 0.021589898 0.02324786 0.0059627257
0.015315814 -0.04816547 0.015167171 -0.06412884 0.010751893 -0.044646215 -0.030627506 -0.057385005
0.065755144 -0.041017283 0.08257081 -0.03586374 -0.03396451 0.05035345 0.041352816 0.06476979
-0.003485038 0.029760297 -0.007904684 -0.0795357 -0.00492582 -0.0049576787 -0.015781252 -0.011865547
-0.023484714 -0.038429473 0.0069529223 -0.0056904573 0.040061735 -0.0043946686 0.049208175 -0.032301627
0.04964563 -0.06392827 -0.034387838 0.059611596 0.041579913 -0.05351472 0.05941677 0.07900958
0.047596253 -0.065602586 0.017896222 -0.057860844 -0.0049744165 0.008789841 0.03530703 0.023187209
-0.011012447 0.012543635 0.028240284 0.06666025 0.02620947 0.086429544 -0.08666156 -0.055732567
-0.05067173 0.08138565 -0.027690722 -0.031426847 0.06589716 -0.06573828 0.051284343 -0.071447425
00000000: 636f a9bc 5a36 fdba 743b 363c 1b81 b73d
00000010: 170e 9e3c 90c1 10bc 9de9 3bbd 6907 57bd
00000020: b1d6 a53d 3e60 3b3d 2a0d 52bd dd52 65bd
00000030: f300 593d 99b9 af3d c4a5 7e3d 3ba8 4c3c
00000040: 2d94 50bd 14ce 9c3d 1d9a 6d3c 14a2 493d
00000050: 3c8d 9dbd e889 3cbd 7cb0 a43c 7821 d93a
00000060: a32b b3bc 4c2b 953d 0a11 b5bd 7237 aa3c
00000070: d72c 25bd 50c0 883d 6add bb3c af07 78bd
00000080: 8def 393d 87a0 3a3d c6fb 083d 559f fe3c
00000090: a852 073d 4188 78bc 7821 27bc 6644 33bd
000000a0: d642 af3c 3d4c 07bc 55d7 8fbc 0316 9f3d
000000b0: ccb5 adbc 2480 a83d 7fd8 98bd 1a6d a53d
000000c0: 6594 6cbd 9cdd 8f3d 35ee d53a d18b 74bd
000000d0: 159a 21bd a6bf 62ba ea88 a5bd 1e56 7dbd
000000e0: 786e e4bc a4f7 163d 7b84 473d bd3f 6f3d
000000f0: 56d9 463c 2746 6f3c 76cb 173d d92c 143c
00000100: f217 a3bc f506 1abc 64f0 10bd 1c0a a7bd
00000110: 909a 80bd 538c a83d 3cfb f239 8430 2fbc
00000120: 7543 913c d9ee 043d 57e9 a5bd c713 153d
00000130: 048b 8b3d 1fee 26bc 8be4 873d ab84 453b
00000140: 2ddc b43a a2ed 18bb b4fc 0c3d edc1 91bb
00000150: ef8b 953c d617 2e3d 905a 97bb eb00 16bd
00000160: 6e7f 9b3d 5272 9abd ce6a a4bd 95f6 7cbb
00000170: 73b6 643d e658 243d 441b 5ebd e9f7 363d
00000180: 72ea a6bb 796b 9f3d 1838 31bb 0aa1 76bb
00000190: 5f34 8ebc 31ed ba3d a1cf a53d fb67 a9bd
000001a0: 11fe 8a3d d45b b33d 02ff 98bb e357 8dbd
000001b0: 7c31 c0bb 6670 5d3c 21ab c63c 2e05 37bc
000001c0: b172 c13c e344 3e3d 24e1 313d ea6c b93b
000001d0: 40b3 bcbd d8be 6c3d 16d9 db3c 5840 f83b
000001e0: fa18 9d3d f96c f33c b2ab 59bd d2c9 a2bb
000001f0: 6d49 a7bd acc2 a0bd dc19 a13d 6453 5ebd
00000200: 1270 3e3c 810b aebd 31d5 1b3d f3e9 5a3d
00000210: c593 aabd bd90 33bd 61cc 723d 80b6 b93d
00000220: b73d 903d 7335 343d 4be1 88bc e52d 5f3d
00000230: 3cf7 5cbd 7385 2a3d 89ad d4bb 679e 853d
00000240: 0122 133d 1a58 be3c 64a6 a53d 6085 47bd
00000250: eb96 b6bd a1b4 8abd 4c74 e0bc e2b5 86b9
00000260: 1a33 9b3c 7528 f5bc ad11 8fbd 5c47 9a3d
00000270: 53cb 69bd 1eca 9cbc 502b d33c 4ee3 433c
00000280: 66e3 353c f874 85bd 2661 b4bd 4748 393d
00000290: ee72 f63c 5b22 293d e4fb 643d e09f 56bd
000002a0: 1ea5 b6bd 8b95 9e3d 8238 2dbd f25e a63d
000002b0: 25b7 6dbc 535c acbd 1738 de3a 51cd 943d
000002c0: 7695 993d 2791 ec3c b7e9 143d 4d86 643d
000002d0: 0b18 913d cd6b 603d 8bb9 413d efaf aebd
000002e0: fc9d a8bd 5bf5 98bc 8def 16bd 7cf1 783c
000002f0: 5950 3fbd 4cdd b03c 4c72 be3c f862 c33b
00000300: 2eef 7a3c 2849 45bd ba7f 783c fb55 83bd
00000310: b528 303c f3de 36bd 89e6 fabc 8a0c 6bbd
00000320: a2aa 863d bd01 28bd e31a a93d dbe5 12bd
00000330: 5f1e 0bbd 6b3f 4e3d 9261 293d 06a6 843d
00000340: 3c65 64bb decb f33c a682 01bc 9de3 a2bd
00000350: c668 a1bb 0674 a2bb af47 81bc b667 42bc
00000360: 0463 c0bc 3968 1dbd 57d5 e33b 0477 babb
00000370: c617 243d 2701 90bb 838e 493d b64e 04bd
00000380: 3759 4b3d d3ec 82bd 43da 0cbd 4a2b 743d
00000390: b34f 2a3d 4032 5bbd 005f 733d c6cf a13d
000003a0: 4af4 423d a65a 86bd 199b 923c 7eff 6cbd
000003b0: 6e00 a3bb 4403 103c 1b9e 103d 1af3 bd3c
000003c0: 8d6d 34bc d283 4d3c 2b58 e73c 2b85 883d
000003d0: 3eb5 d63c f901 b13d 9e7b b1bd d547 64bd
000003e0: 298d 4fbd 85ad a63d a7d7 e2bc 70b9 00bd
000003f0: 17f5 863d cba1 86bd 880f 523d 0753 92bd

gnn_layer_0.gconv.a_fc.bias f4 [64]
0.08001786 0.031244645 0.010187337 0.060732055 0.08672064 0.069049805 0.08356699 -0.05060662
0.03984568 0.052514546 -0.046411674 -0.019331075 0.04592965 0.0722065 -0.010277137 -0.07414663
0.033697877 0.0018948348 0.069931485 -0.04066808 0.07267142 -0.047419958 -0.018507047 0.07532317
-0.08722283 -0.007770142 -0.06793525 -0.028277889 0.035902925 -0.02535243 0.043843336 -0.014708735
-0.08954298 0.04197824 0.07052842 0.08310468 -0.0014718971 0.03397063 -0.022056505 0.041375045
0.044903688 -0.01734051 0.05058994 -0.068703935 -0.028885376 -0.073138736 -0.04396644 0.005791615
0.010959571 0.07603063 -0.027358582 -0.021538155 0.08875827 0.028635144 0.009123023 0.009458456
-0.0787843 -0.07715811 -0.0029559238 -0.032481186 -0.04212344 -0.08452645 -0.046331983 -0.016026214
00000000: 67e0 a33d c5f4 ff3c cae8 263c 2dc2 783d
00000010: 979a b13d fc69 8d3d 2c25 ab3d e348 4fbd
00000020: 3935 233d 7e19 573d 2b1a 3ebd 345c 9ebc
00000030: bb20 3c3d 00e1 933d 7061 28bc 30da 97bd
00000040: c906 0a3d 1b5c f83a 3d38 8f3d 9393 26bd
00000050: c1d4 943d 6e3b 42bd 179c 97bc 0943 9a3d
00000060: e2a1 b2bd ad9c febb a321 8bbd 08a7 e7bc
00000070: f20e 133d e6af cfbc 1295 333d e8fc 70bc
00000080: 4f62 b7bd 60f1 2b3d 3471 903d c932 aa3d
00000090: acec c0ba ca24 0b3d d8af b4bc e178 293d
000000a0: eeec 373d af0d 8ebc 6637 4f3d a6b4 8cbd
000000b0: 06a1 ecbc c3c9 95bd 2716 34bd 97c7 bd3b
000000c0: c68f 333c f2b5 9b3d 1b1f e0bc c970 b0bc
000000d0: e5c6 b53d 4094 ea3c bb78 153c a4f7 1a3c
000000e0: aa59 a1bd 1205 9ebd 2cb8 41bb fe0a 05bd
000000f0: a189 2cbd 341c adbd 9bc6 3dbd 6849 83bc

gnn_layer_0.gconv.u_fc.weight f4 [64, 121]
-0.03716044 -0.045543883 0.06282416 -0.04308053 0.015804324 -0.041540913 -0.015572926 -0.06108799
0.056966856 0.066987544 0.032446418 -0.072663404 0.0074707572 0.02325828 -0.038912963 -0.0050885393
-0.06471348 0.049596976 0.02001411 -0.031840727 0.039877914 0.059479646 0.035510514 -0.055557348
-0.0030108476 -0.01692627 0.07084162 0.07301934 0.029564286 -0.053000193 0.042690814 0.004127337
0.06154275 0.04632124 0.0103738075 0.081161685 0.06599218 -0.09214471 -0.049012512 -0.09330561
-0.056928806 -0.014552376 0.062361162 0.059455063 -0.027240774 -0.057268124 -0.07740766 0.07510763
-0.06633696 -0.008947195 -0.01003107 0.013802633 -0.086344674 0.0771017 -0.043938432 0.08443267
-0.014791422 -0.084515505 0.08708527 -0.0491935 -0.061789278 0.0061088605 -0.05623611 -0.06693108
0.015580556 0.0009095287 -0.06717524 -0.006177573 -0.05412354 -0.055536628 0.013815941 0.055310648
0.055523228 -0.061655417 -0.024341 -0.037877876 0.048337787 0.068464026 0.021719852 0.002948575
-0.00227567 0.00541707 0.070139095 -0.052647468 0.068017624 -0.0042587495 -0.014072954 0.055857837
-0.052459445 0.07829202 0.036372494 -0.08905778 0.0009980102 -0.045045175 0.045648813 -0.054068044
-0.025072113 -0.020777274 -0.034992512 0.089743845 -0.012747716 -0.0033219059 0.05872931 0.030230239
0.0037232873 0.064920515 -0.059217237 0.068564005 -0.038157925 0.075035565 0.002613587 0.088634096
0.08236854 -0.029191576 -0.001945608 -0.0070986827 0.026770478 -0.005659094 0.067060694 0.07374052
0.0031542976 0.028420804 -0.07015951 -0.013862138 -0.05969884 -0.07888329 -0.07902341 0.006439054
-0.008400402 -0.0168297 0.028584586 -0.07236143 0.031190107 0.048170757 0.0076217204 0.07832767
0.021682596 0.045308597 -0.09086412 0.022465242 -0.007691107 0.08015853 -0.05063387 -0.025144
-0.048627973 0.0003965546 0.08949168 0.022731798 -0.013870416 -0.055262767 0.076132424 -0.08291725
-0.033951845 -0.07497506 -0.07003669 0.059098832 -0.0717654 0.045406226 -0.032414634 0.08528892
-0.008253934 -0.05276828 0.04182884 -0.06441446 -0.042881213 0.027866397 -0.082907766 -0.004403896
-0.088156804 -0.021271471 -0.007692209 0.08572413 0.08008884 -0.07162512 0.02778514 0.025389448
-0.069709755 0.051091656 0.053169463 -0.048645277 -0.06710055 -0.027401218 0.019207524 0.08212822
0.07629361 0.026894983 0.041215386 -0.024884207 0.04715414 0.06697896 -0.02679051 0.052729797
-0.079176486 -0.08570239 0.01982292 0.052641623 -0.052448757 -0.08842197 -0.023564776 0.01846485
-0.047992613 -0.00031291056 -0.076352805 -0.08837044 -0.002776992 0.06521383 -0.0015819935 0.09056107
0.044466045 -0.028113652 0.07090453 -0.027741166 0.0691714 -0.06283318 -0.053152654 0.08589124
-0.058735576 0.076043345 0.033479538 0.06273321 -0.03155738 -0.025089776 0.07699166 -0.078233615
0.010599789 -0.023718808 0.07713207 -0.025362201 0.03195229 0.0884281 -0.010634246 -0.0042539514
-0.027603667 0.07846975 -0.051491193 -0.07531265 0.060567386 -0.0070338496 0.04518831 -0.0044017616
0.07524652 0.021009857 -0.068888925 0.05433702 0.040645014 0.071198344 0.054911118 -0.00236759
0.04059916 0.0662836 -0.0812079 0.0035533253 -0.09007889 -0.017102791 -0.059316184 -0.01700883
00000000: 8c35 18bd 398c 3abd f4a9 803d 3675 30bd
00000010: 1278 813c ce26 2abd 9625 7fbc 6637 7abd
00000020: 1456 693d c430 893d 89e6 043d 8dd0 94bd
00000030: 41cd f43b 2688 be3c 3363 1fbd c3bd a6bb
00000040: 8088 84bd 3326 4b3d a1f4 a33c 6c6b 02bd
00000050: 0657 233d eea0 733d 7973 113d 1a90 63bd
00000060: a451 45bb f6a8 8abc 6915 913d 2a8b 953d
00000070: cd30 f23c bb16 59bd 90dc 2e3d 9d3e 873b
00000080: 4014 7c3d 57bb 3d3d e7f6 293c 1938 a63d
00000090: e826 873d 5eb6 bcbd 58c1 48bd 0317 bfbd
000000a0: 2e2e 69bd 176d 6ebc 6b6e 7f3d 2787 733d
000000b0: 0b28 dfbc fb91 6abd e887 9ebd 07d2 993d
000000c0: acdb 87bd 4197 12bc 5b59 24bc 7024 623c
000000d0: 7ad5 b0bd 7fe7 9d3d c9f8 33bd 09eb ac3d
000000e0: b857 72bc 7716 adbd c359 b23d 207f 49bd
000000f0: c116 7dbd d62c c83b d657 66bd 2913 89bd
00000100: 9745 7f3c 706d 6e3a 2c93 89bd 3d6d cabb
00000110: a5b0 5dbd 607a 63bd 425c 623c 6b8d 623d
00000120: 536c 633d 648a 7cbd c766 c7bc d525 1bbd
00000130: d8fd 453d de36 8c3d d5ed b13c e13c 413b
00000140: 6823 15bb ad81 b13b 16a5 8f3d dfa4 57bd
00000150: d34c 8b3d fb8c 8bbb 3f92 66bc 30cb 643d
00000160: b7df 56bd 9157 a03d 53fb 143d ed63 b6bd
00000170: aacf 823a 4a81 38bd 40fa 3a3d 7476 5dbd
00000180: 0864 cdbc 1a35 aabc 4f54 0fbd 9fcb b73d
00000190: ccdb 50bc 55b4 59bb 258e 703d 68a5 f73c
000001a0: 6502 743b 0cf5 843d c68d 72bd 496b 8c3d
000001b0: 7c4b 1cbd 3fac 993d b748 2b3b cb85 b53d
000001c0: d6b0 a83d 2c23 efbc c503 ffba 119c e8bb
000001d0: c34d db3c ec6f b9bb 1e57 893d 4505 973d
000001e0: 55b8 4e3b bfd2 e83c caaf 8fbd 051e 63bc
000001f0: c586 74bd 908d a1bd 07d7 a1bd b3fe d23b
00000200: d7a1 09bc 70de 89bc 392a ea3c 3b32 94bd
00000210: 6582 ff3c b34e 453d a0bf f93b 426a a03d
00000220: b39f b13c 8295 393d f816 babd 0709 b83c
00000230: af05 fcbb 282a a43d 7665 4fbd cafa cdbc
00000240: 202e 47bd a8e8 cf39 6a47 b73d 0938 ba3c
00000250: be40 63bc 365b 62bd 51eb 9b3d 85d0 a9bd
00000260: 1711 0bbd 868c 99bd 656f 8fbd 9e11 723d
00000270: bdf9 92bd e1fb 393d 35c5 04bd f5ab ae3d
00000280: 823b 07bc 8d23 58bd b854 2b3d baeb 83bd
00000290: 36a4 2fbd 1248 e43c 8ccb a9bd 8f4e 90bb
000002a0: 8e8b b4bd 8241 aebc ed0e fcbb 2290 af3d
000002b0: 9e05 a43d 31b0 92bd a99d e33c 88fd cf3c
000002c0: fdc3 8ebd 7c45 513d 39c8 593d 4540 47bd
000002d0: 036c 89bd 8578 e0bc 1959 9d3c d732 a83d
000002e0: d33f 9c3d de52 dc3c 77d1 283d f7d9 cbbc
000002f0: b324 413d 442c 893d c677 dbbc 33fb 573d
00000300: 4827 a2bd bc84 afbd ad63 a23c be9e 573d
00000310: 82d4 56bd 9416 b5bd eb0a c1bc 9943 973c
00000320: e793 44bd 250e a4b9 dc5e 9cbd 90fb b4bd
00000330: 32fe 35bb d48e 853d e55a cfba 1578 b93d
00000340: 0722 363d 9a4e e6bc 6536 913d 7141 e3bc
00000350: bca9 8d3d afae 80bd 99b6 59bd bfe7 af3d
00000360: b794 70bd 9dbc 9b3d d721 093d 457a 803d
00000370: 5042 01bd 1389 cdbc cead 9d3d f238 a0bd
00000380: bdaa 2d3c f24d c2bc 6bf7 9d3d 64c4 cfbc
00000390: 68e0 023d cb19 b53d 433b 2ebc bb64 8bbb
000003a0: 1621 e2bc c0b4 a03d 6ee8 52bd 853d 9abd
000003b0: 8215 783d 357c e6bb 6117 393d a73c 90bb
000003c0: d91a 9a3d dd1c ac3c a315 8dbd 7f90 5e3d
000003d0: 637b 263d 70d0 913d 7bea 603d 9229 1bbb
000003e0: 4e4b 263d b2bf 873d 5450 a6bd e8de 683b
000003f0: 487b b8bd 271b 8cbc 87f5 72bd 1a56 8bbc

gnn_layer_0.gconv.u_fc.bias f4 [64]
0.019247433 -0.028842798 0.057374083 0.05174516 0.08563586 -0.039141197 -0.087436736 0.059463456
-0.091515176 0.023151778 0.029846767 -0.07501817 0.10137239 0.06035824 -0.084290706 0.01791502
0.07442946 0.054711007 0.069626875 0.023835529 -0.0032728596 -0.036538348 0.092991106 0.038421694
0.050614476 -0.08691253 0.07864906 -0.07121275 -0.027292788 -0.08781154 0.08173018 -0.08430514
0.06826539 -0.034344785 0.06715659 0.03956372 0.0061555845 0.02423913 -0.053345572 0.0049428833
0.03181271 0.060463913 0.02615344 -0.0015380884 0.085594945 0.07523298 -0.05550222 0.0006041265
-0.047585804 0.02586711 -0.039954413 -0.08834063 -0.030514225 -0.04887485 0.05444509 -0.009448414
0.056467384 -0.08179989 -0.026380789 -0.0038501984 0.021055153 -0.02315466 -0.08558025 -0.074112125
00000000: cbac 9d3c bb47 ecbc 1601 6b3d bcf2 533d
00000010: db61 af3d 8552 20bd 0812 b3bd f48f 733d
00000020: 4f6c bbbd cca8 bd3c 3581 f43c 20a3 99bd
00000030: 549c cf3d 343a 773d 9ba0 acbd 85c2 923c
00000040: 796e 983d a618 603d 8998 8e3d ba42 c33c
00000050: 797d 56bb 3ca9 15bd 1f72 be3d 1160 1d3d
00000060: 2051 4f3d 32ff b1bd c212 a13d fed7 91bd
00000070: 2095 dfbc 89d6 b3bd 2762 a73d 2ca8 acbd
00000080: bace 8b3d 1ead 0cbd 6589 893d 910d 223d
00000090: c9b4 c93b 2491 c63c e380 5abd e9f7 a13b
000000a0: 0b4e 023d 02a9 773d bd3f d63c af99 c9ba
000000b0: 674c af3d c013 9a3d 4c56 63bd 3e5e 1e3a
000000c0: 55e9 42bd 43e7 d33c 3da7 23bd efeb b4bd
000000d0: f8f8 f9bc ff30 48bd d101 5f3d 85cd 1abc
000000e0: 584a 673d b386 a7bd 861c d8bc 9c53 7cbb
000000f0: db7b ac3c d7ae bdbc b344 afbd 19c8 97bd

affinity_0.A f4 [64, 64]
0.97461367 0.085291356 0.0834333 -0.007706791 -0.023320109 0.0857276 -0.11991878 -0.02148515
0.012675926 0.080975994 0.030952841 -0.05381091 0.066596046 -0.07658073 -0.07951935 0.06745908
-0.032755807 0.12443815 -0.09514649 -0.103153616 0.06011565 0.024065748 0.017043114 -0.056325763
-0.02405639 0.11547038 -0.02604787 0.11733954 -0.092666715 0.077574104 -0.044452295 -0.050302
-0.014758766 0.015905604 -0.10572234 0.10664168 0.04327798 0.115302876 0.019481257 -0.048968866
0.121693626 0.03309539 0.08503577 -0.017884925 0.055528954 -0.028707385 0.07257715 0.06604104
0.081307724 0.08211173 -0.12024611 0.043855026 0.090128556 0.00080245733 -0.096885175 0.12311211
-0.102993354 -0.08736381 0.038725182 0.124911144 0.09822871 -0.0020082742 -0.037049666 0.036229923
0.06407966 0.9686957 0.043394655 -0.109657764 -0.02336523 -0.11037937 -0.016030788 -0.028965473
-0.02248317 0.019136474 -0.07254769 0.07916242 0.1097759 -0.08520152 -0.110005856 -0.037643358
-0.023227647 0.077271014 -0.08813675 -0.004591018 -0.10706863 -0.05805278 -0.043205276 -0.09258334
-0.08547816 -0.105421916 0.011573747 -0.107271835 -0.10021977 -0.11268997 0.089671925 -0.09147233
0.086307004 -0.05063477 0.12081061 -0.0022571236 0.09624028 0.047666565 0.045518547 0.0270361
0.054281592 0.031342268 0.086105436 -0.08525945 0.062500656 0.09217745 0.121487096 -0.06920299
0.10902795 -0.096128374 -0.090990454 0.09870076 0.11927608 0.11999737 0.036544427 -0.006646931
-0.08626172 -0.02643779 0.00449121 -0.09616563 -0.122810766 -0.0070249587 0.06317504 0.04527621
-0.015964448 -0.06706154 0.95930517 -0.0051002204 -0.042023778 -0.10332364 0.0648624 0.048963428
0.08585042 -0.088736504 0.122816145 -0.021998793 0.05301301 0.009300619 -0.033454552 -0.060431883
-0.08485189 -0.07279639 0.09285438 -0.05066639 -0.08132599 0.059485197 -0.07461396 -0.014085159
-0.025235444 -0.012706459 0.10418239 -0.027049154 -0.12491153 0.05043976 0.03913717 0.07861622
0.006641537 0.019934192 0.040663496 0.006201431 -0.04733038 0.11566371 0.0658133 -0.0037568063
0.09406707 0.112277254 -0.10953574 -0.04884936 -0.01642251 -0.0015363693 -0.11183533 -0.092877775
-0.05033736 -0.03106305 0.081249714 0.08103034 -0.11235286 0.03780043 0.07114899 -0.032000303
-0.1214927 0.12134552 -0.10400079 -0.05283399 -0.037323236 -0.11804667 0.044240996 -0.08400574
0.06360711 0.027596071 0.06654781 0.9454676 0.021108627 -0.059265316 -0.03641002 0.03255613
0.054852515 0.020121917 0.04598929 0.053535536 0.079717785 -0.018169582 -0.071476966 -0.06830755
-0.113613024 -0.026030585 -0.05367489 0.06826565 -0.0728012 -0.029554993 0.08335467 0.0080010295
-0.11636278 -0.06656353 0.07304911 -0.12419176 0.11874558 -0.08258422 -0.034264177 0.045848668
-0.03591536 -0.10308725 0.122903645 0.011103034 0.079638034 0.07139136 -0.05137986 -0.04948081
-0.051249504 0.06336525 0.08793597 -0.019731835 -0.10790132 0.009383097 0.05598679 -0.11045641
0.06644511 -0.08373964 -0.0728458 -0.060023516 -0.07402472 -0.08375025 0.071357444 0.058494568
0.12082909 0.048988044 0.012361556 -0.04359941 0.045926377 0.11640452 -0.01128763 -0.02117832
00000000: 4880 793f 3cad ae3d 14df aa3d 4089 fcbb
00000010: d009 bfbc f491 af3d fa97 f5bd a001 b0bc
00000020: b0ae 4f3c bed6 a53d d090 fd3c d468 5cbd
00000030: 8263 883d 5cd6 9cbd 0adb a2bd fc27 8a3d
00000040: f42a 06bd 6ed9 fe3d 2adc c2bd 3442 d3bd
00000050: d43b 763d 8825 c53c 009e 8b3c d8b5 66bd
00000060: e811 c5bc bc7b ec3d 5862 d5bc b64f f03d
00000070: 0cc8 bdbd 2cdf 9e3d 9c13 36bd 7809 4ebd
00000080: c0ce 71bc 784c 823c f484 d8bd f466 da3d
00000090: 4044 313d ea23 ec3d 2897 9f3c 9493 48bd
000000a0: 823a f93d 088f 073d 3c27 ae3d 6883 92bc
000000b0: 5472 633d c02b ebbc 54a3 943d 8640 873d
000000c0: aa84 a63d 322a a83d 9843 f6bd 54a1 333d
000000d0: 5295 b83d 005c 523a bc6b c6bd 3422 fc3d
000000e0: 2eee d2bd cceb b2bd 4c9e 1e3d 6ad1 ff3d
000000f0: 222c c93d 409d 03bb 64c1 17bd d465 143d
00000100: 323c 833d 71fc 773f 98be 313d 4094 e0bd
00000110: 7068 bfbc 940e e2bd 0053 83bc 0049 edbc
00000120: a02e b8bc 18c4 9c3c e293 94bd e81f a23d
00000130: 30d2 e03d 227e aebd c04a e1bd ec2f 1abd
00000140: e847 bebc 4440 9e3d 0a81 b4bd 4070 96bb
00000150: cc46 dbbd c0c8 6dbd 04f8 30bd 569c bdbd
00000160: 2c0f afbd 72e7 d7bd d09f 3d3c 56b1 dbbd
00000170: 0640 cdbd 00ca e6bd eaa5 b73d d855 bbbd
00000180: bac1 b03d 6866 4fbd 8e6b f73d 40ec 13bb
00000190: a019 c53d 043e 433d a871 3a3d d07a dd3c
000001a0: 6056 5e3d c060 003d 0c58 b03d 829c aebd
000001b0: 5800 803d 88c7 bc3d 3ace f83d 4cba 8dbd
000001c0: 0c4a df3d f4de c4bd 3459 babd a023 ca3d
000001d0: 0447 f43d 2ec1 f53d 9caf 153d 80ce d9bb
000001e0: fca9 b0bd 1094 d8bc 002b 933b 7cf2 c4bd
000001f0: 3684 fbbd a031 e6bb ea61 813d 8c73 393d
00000200: e0c7 82bc 9057 89bd 0695 753f c01f a7bb
00000210: 2021 2cbd 589b d3bd 94d6 843d e08d 483d
00000220: 58d2 af3d 7cbb b5bd 0887 fb3d d036 b4bc
00000230: 2c24 593d a061 183c a407 09bd 6c87 77bd
00000240: d4c6 adbd 4616 95bd 702a be3d 9087 4fbd
00000250: 3e8e a6bd c0a6 733d 34cf 98bd 70c5 66bc
00000260: 90ba cebc c02e 50bc 945d d53d 3096 ddbc
00000270: 9ed1 ffbd ec99 4e3d 4c4e 203d 8a01 a13d
00000280: 40a1 d93b 084d a33c c48e 263d 6035 cb3b
00000290: 80dd 41bd 18e1 ec3d 20c9 863d c034 76bb
000002a0: 3ca6 c03d 9ef1 e53d 4654 e0bd 4416 48bd
000002b0: 8088 86bc 0060 c9ba ec09 e5bd b436 bebd
000002c0: 8c2e 4ebd f077 febc 4066 a63d 3cf3 a53d
000002d0: 4219 e6bd a0d4 1a3d 90b6 913d c012 03bd
000002e0: 2ad1 f8bd 0084 f83d 5efe d4bd 7468 58bd
000002f0: 40e0 18bd 74c2 f1bd 0c36 353d 340b acbd
00000300: 7244 823d 2811 e23c 384a 883d 2a0a 723f
00000310: 00ec ac3c 30c0 72bd ac22 15bd 9459 053d
00000320: 08ad 603d b8d6 a43c 445f 3c3d 1448 5b3d
00000330: 1443 a33d 60d8 94bc 8462 92bd d4e4 8bbd
00000340: f2ad e8bd 183e d5bc 34da 5bbd dcce 8b3d
00000350: cc18 95bd 501d f2bc dab5 aa3d c016 033c
00000360: 9c4f eebd 7652 88bd c69a 953d 4058 febd
00000370: e230 f33d ea21 a9bd 9858 0cbd d0cb 3b3d
00000380: fc1b 13bd 681f d3bd e8b4 fb3d 80e9 353c
00000390: 4419 a33d a235 923d b073 52bd 64ac 4abd
000003a0: 00eb 51bd a4c5 813d c617 b43d a8a4 a1bc
000003b0: 5efb dcbd 90bb 193c 6852 653d f836 e2bd
000003c0: 6014 883d b07f abbd 2e30 95bd 38db 75bd
000003d0: 469a 97bd 4085 abbd da23 923d 0098 6f3d
000003e0: 3e75 f73d b0a7 483d 2088 4a3c 4c95 32bd
000003f0: 4c1d 3c3d 7e65 ee3d c0ef 38bc 287e adbc

gnn_layer_1.gconv.a_fc.weight f4 [64, 64]
0.033132978 0.029227152 0.094678834 -0.12079843 0.025336597 0.05722008 -0.09074322 -0.036002215
0.053004302 0.06027046 -0.060081426 0.08031623 0.051088214 0.053390127 -0.039509196 -0.0053993836
0.080590814 0.053616732 -0.107369184 0.051800128 -0.11478303 -0.055647507 -0.020014236 0.10396287
-0.06419536 -0.055085517 0.07597281 0.10703762 0.09423916 0.06358149 -0.05664535 0.055534836
0.06195739 -0.113843665 0.10712854 0.07090692 -0.049035877 0.0015722655 -0.052273054 -0.10331561
-0.10902802 0.021115689 0.034972135 -0.046541866 0.012615796 0.079911076 -0.026397767 0.123541765
-0.09606857 -0.0981472 -0.07680073 0.054134946 -0.10053725 0.052635066 0.009432252 0.058046058
-0.111472905 0.10021795 -0.111771785 0.10465812 -0.07361321 -0.057680186 -0.112645015 -0.03267667
-0.122064315 -0.08512423 0.091545135 0.04178746 0.051138118 0.054359246 0.00068787613 -0.04083301
-0.03568245 0.11397606 0.09890686 -0.026317114 0.020229138 0.07064382 -0.10069047 -0.028667364
0.01677826 0.10169923 0.08366561 -0.08334258 0.04059593 -0.07416802 -0.12330534 -0.036696937
-0.08859218 -0.04878811 0.08868946 0.015109274 -0.09210634 -0.04269024 -0.0027129138 0.014723241
-0.090190575 -0.0060222503 -0.0818103 -0.12271455 0.074805886 0.09503378 0.116324335 0.044193495
0.00017636077 0.09115672 0.05868059 -0.04617296 -0.008995405 -0.114050806 -0.030208787 0.098471776
0.029119 0.05244003 -0.09164743 0.044409417 -0.089279875 0.018578753 -0.070179656 0.07505714
-0.020259855 -0.057782535 0.10701308 -0.00089472823 -0.03196014 0.044037733 0.11306116 0.081699185
0.08393035 -0.026180588 -0.041469507 -0.034216937 -0.08335851 0.006954967 -0.07761025 0.029153606
-0.024386313 -0.066480905 -0.071434215 -0.034600962 -0.07519024 0.08259512 0.05517429 0.10179189
0.02248109 0.070926115 0.020323895 0.012913616 -0.024788791 0.07939783 0.10778706 0.08667692
-0.114100106 -0.11861563 0.06891517 -0.12382007 0.0118557615 -0.09250472 -0.02156047 0.027964352
0.032943964 -0.10783686 0.09957881 0.05297846 0.09372883 0.0008621165 -0.05146871 0.08806945
0.093205385 0.116714165 0.06392307 0.05832782 -0.09668333 0.12114956 -0.008385199 0.038323794
0.055272307 0.01074717 -0.08457652 -0.11697083 -0.03235994 0.013287007 0.07455955 0.0026060054
0.03238386 -0.013313012 -0.11733789 -0.07677873 0.11905378 0.047888305 0.07133979 -0.0058893836
-0.029339716 -0.08396527 0.0027862191 -0.07684077 -0.06630543 -0.10960205 -0.027430862 0.054658413
0.051894546 -0.080914974 0.07757723 -0.058071777 0.124084234 0.02907741 0.041795626 -0.10559499
-0.0025430173 -0.09652205 -0.06613207 -0.117178604 0.09171319 0.11290614 0.064702064 0.041674882
-0.05354549 -0.024721906 0.07999802 0.021449506 -0.056024417 0.056407824 -0.06225516 0.025296867
0.04651372 -0.020825684 -0.025412247 0.023789063 -0.030063868 -0.101426706 0.07202646 0.09122431
0.012924761 0.08666271 -0.085809946 -0.0671372 -0.03316489 -0.084796235 0.060003266 -0.05103399
0.06467806 0.01634878 0.08779763 -0.0021675527 -0.031788766 -0.021414474 0.081532076 -0.030029535
0.02097921 0.099512726 0.0032788813 -0.12134038 0.067169815 0.016710594 -0.073070034 -0.08615543
00000000: 72b6 073d c86d ef3c fae6 c13d 2b65 f7bd
00000010: b28e cf3c 9a5f 6a3d 95d7 b9bd 0f77 13bd
00000020: 0a1b 593d 28de 763d f117 76bd d67c a43d
00000030: e041 513d 9baf 5a3d 65d4 21bd 50ed b0bb
00000040: cc0c a53d 389d 5b3d 60e4 dbbd 5f2c 543d
00000050: 5d13 ebbd a4ee 63bd e5f4 a3bc 7cea d43d
00000060: db78 83bd 5aa1 61bd a297 9b3d 8a36 db3d
00000070: 7600 c13d 0337 823d f404 68bd 7f78 633d
00000080: 08c7 7d3d de26 e9bd 3566 db3d a637 913d
00000090: d8d9 48bd 7a14 ce3a 451c 56bd 2297 d3bd
000000a0: 154a dfbd cffa ac3c f13e 0f3d afa2 3ebd
000000b0: 7cb2 4e3c 6ba8 a33d 2140 d8bc 7703 fd3d
000000c0: 99bf c4bd 6601 c9bd b349 9dbd 9bbc 5d3d
000000d0: 79e6 cdbd de97 573d bb89 1a3c b4c1 6d3d
000000e0: e84b e4bd 123f cd3d 9be8 e4bd ff56 d63d
000000f0: 86c2 96bd 0f42 6cbd 6eb2 e6bd f9d7 05bd
00000100: dbfc f9bd 9d55 aebd 047c bb3d 5429 2b3d
00000110: 3476 513d cda7 5e3d 9652 343a 8440 27bd
00000120: c327 12bd 486c e93d ae8f ca3d fd96 d7bc
00000130: 94b7 a53c b5ad 903d ce36 cebd d2d7 eabc
00000140: 9072 893c b047 d03d e058 ab3d 84af aabd
00000150: eb47 263d 67e5 97bd 8387 fcbd 874f 16bd
00000160: d16f b5bd 0bd6 47bd d2a2 b53d e38c 773c
00000170: 40a2 bcbd f6db 2ebd 24cb 31bb c039 713c
00000180: d6b5 b8bd 4c56 c5bb 298c a7bd c451 fbbd
00000190: d433 993d 12a1 c23d 743b ee3d 3d04 353d
000001a0: 7ced 3839 60b0 ba3d 0f5b 703d dc1f 3dbd
000001b0: 7761 13bc 7893 e9bd 6b78 f7bc 92ab c93d
000001c0: f88a ee3c 5bcb 563d a6b1 bbbd a6e6 353d
000001d0: 5ed8 b6bd 7832 983c 5aba 8fbd 8fb7 993d
000001e0: fff7 a5bc 61ad 6cbd ac29 db3d 328c 6aba
000001f0: a3e8 02bd e960 343d 9c8c e73d e751 a73d
00000200: ade3 ab3d ac78 d6bc eedb 29bd 0f27 0cbd
00000210: deb7 aabd 7ee6 e33b 1ff2 9ebd 8bd3 ee3c
00000220: cec5 c7bc 2427 88bd 1a4c 92bd bdb9 0dbd
00000230: 57fd 99bd a127 a93d 70fe 613d 4478 d03d
00000240: 432a b83c b641 913d 4c7e a63c a293 533c
00000250: dd11 cbbc 549b a23d 76bf dc3d ab83 b13d
00000260: 51ad e9bd c0ec f2bd 6623 8d3d 6095 fdbd
00000270: ab3e 423c 1d73 bdbd 959f b0bc 7f15 e53c
00000280: 40f0 063d 92d9 dcbd faef cb3d f1ff 583d
00000290: e7f4 bf3d a9ff 613a dbd0 52bd c15d b43d
000002a0: 77e2 be3d d607 ef3d 19ea 823d 27e9 6e3d
000002b0: e901 c6bd 431d f83d 1362 09bc 69f9 1c3d
000002c0: 3765 623d e614 303c 7436 adbd 678e efbd
000002d0: db8b 04bd bfb1 593c adb2 983d 84c9 2a3b
000002e0: f0a4 043d d21e 5abc d94e f0bd 2b3e 9dbd
000002f0: 78d2 f33d 8726 443d 991a 923d bbfb c0bb
00000300: d859 f0bc fcf5 abbd 0099 363b b25e 9dbd
00000310: 24cb 87bd 0a77 e0bd b0b6 e0bc 80e1 5f3d
00000320: 608f 543d c0b6 a5bd d0e0 9e3d acdc 6dbd
00000330: e01f fe3d c033 ee3c e431 2b3d 3042 d8bd
00000340: c0a8 26bb 5aad c5bd 4070 87bd 56fb efbd
00000350: 20d4 bb3d 563b e73d 8482 843d 48b3 2a3d
00000360: 8452 5bbd 9885 cabc 00d6 a33d e0b6 af3c
00000370: dc79 65bd e40b 673d 44ff 7ebd 603b cf3c
00000380: 2c85 3e3d a09a aabc 582d d0bc 48e1 c23c
00000390: 8048 f6bc ceb8 cfbd 9c82 933d d0d3 ba3d
000003a0: 60c2 533c 387c b13d 20bd afbd 3a7f 89bd
000003b0: e8d7 07bd a6a9 adbd fcc5 753d 0409 51bd
000003c0: ee75 843d e0ed 853c 3ecf b33d 800d 0ebb
000003d0: f034 02bd 686d afbc 4afa a63d 8000 f6bc
000003e0: 98dc ab3c 54cd cb3d 80e2 563b 4e81 f8bd
000003f0: 5490 893d a8e4 883c bea5 95bd 4272 b0bd

gnn_layer_1.gconv.a_fc.bias f4 [64]
-0.0906914 -0.09505941 0.12714997 -0.10105947 0.08382213 -0.04165864 -0.008453982 0.0031615463
-0.05789227 -0.027962102 0.018298864 0.04509499 0.07266826 0.08252091 -0.030147878 -0.007217282
-0.07911965 0.12920035 0.13272981 0.040575594 0.035755485 -0.06823774 0.11812591 -0.08810725
0.045020025 -0.050738763 0.020171067 0.018224306 0.12803034 -0.10233024 0.10513 -0.066371486
0.052767582 0.044453308 0.087767534 -0.11033581 0.10851142 -0.11265794 0.15418229 0.13137113
-0.091531396 -0.04533779 0.10073401 0.038368966 0.09067991 0.03665086 -0.06710766 -0.020570552
0.010266796 0.11402324 0.017145634 0.13020742 -0.046516523 -0.11886653 0.12526366 -0.10093565
0.059879195 -0.03530066 0.051909264 0.0100474 -0.018882534 0.084984645 -0.06541504 -0.03755109
00000000: 6abc b9bd 82ae c2bd 9a33 023e 44f8 cebd
00000010: f0aa ab3d 40a2 2abd 9282 0abc f231 4f3b
00000020: 7220 6dbd c710 e5bc 80e7 953c 86b5 383d
00000030: 19d3 943d b900 a93d aff8 f6bc f37e ecbb
00000040: 7c09 a2bd 194d 043e 53ea 073e 9832 263d
00000050: 5874 123d 3ac0 8bbd ffeb f13d 9371 b4bd
00000060: eb66 383d 73d3 4fbd cb3d a53c 244b 953c
00000070: 631a 033e 8492 d1bd 664e d73d c6ed 87bd
00000080: d222 583d ac14 363d 77bf b33d bef7 e1bd
00000090: 3c3b de3d 35b9 e6bd f6e1 1d3e 2786 063e
000000a0: d074 bbbd 1eb4 39bd a24d ce3d c728 1d3d
000000b0: 63b6 b93d 361f 163d be6f 89bd 9383 a8bc
000000c0: 1036 283c 0485 e93d 0075 8c3c 1855 053e
000000d0: 1c88 3ebd 4c70 f3bd 1e45 003e 5ab7 cebd
000000e0: e343 753d 6d97 10bd cf9e 543d da9d 243c
000000f0: 8baf 9abc 6e0c ae3d 52f8 85bd 2ccf 19bd

gnn_layer_1.gconv.u_fc.weight f4 [64, 64]
-0.06696703 0.075806 0.04847941 0.098009944 0.00193947 -0.019008748 0.117537625 0.10172595
-0.013815241 -0.11073 -0.10252061 0.008308003 -0.096515216 -0.11388725 0.018177751 0.01476683
-0.054489136 -0.002770474 -0.061740916 -0.02166665 -0.09683038 0.020988362 -0.004177646 -0.081030644
0.02356655 0.08205598 -0.12150889 -0.11322049 -0.052209962 -0.057951365 -0.02726269 -0.11787477
0.092931405 -0.019802386 0.011138518 0.054336544 -0.0009751347 0.039552536 0.08572513 -0.066196375
-0.11964479 -0.071496345 -0.011616584 0.023771033 0.11842354 0.07356584 -0.11756029 0.108289324
-0.118749276 -0.10033319 0.08178477 0.0007607481 -0.118149474 0.066945784 -0.11084676 0.10110221
-0.12189529 -0.09126924 0.014050368 -0.10317323 -0.038553275 0.05203021 0.12115071 -0.050431
-0.014154923 0.07729589 -0.011942635 0.04976397 -0.09972994 0.051095255 -0.1282066 0.05808101
0.049568772 0.003296231 0.042493515 0.061574146 -0.053322278 0.03887087 -0.027061412 0.038120303
0.00957516 0.09611506 0.1067418 0.08636896 -0.0559332 -0.022740208 0.030274417 -0.021106433
0.06811996 0.0624477 0.013236581 0.080713384 -0.036710374 0.05631504 -0.08188229 0.07894939
-0.022708014 -0.005527372 -0.111853875 -0.020116877 0.06880984 -0.10592827 0.06878129 -0.1001858
0.021583216 0.039528314 0.11960599 -0.048626322 -0.047976457 -0.057711873 -0.092339315 0.05662179
0.0043377485 -0.09130212 -0.0074529015 0.11496717 -0.0916526 -0.110648185 0.07478398 0.01914996
-0.061862975 -0.08848891 0.10344183 0.035229243 0.12423384 -0.09991689 0.01646948 0.050675206
-0.028418234 0.015159589 -0.12185234 0.029262332 0.11244515 0.11692903 -0.028744362 0.043976933
0.015018563 0.108922146 -0.09765107 0.04114681 0.09978783 0.016942674 -0.070525266 -0.0008504606
-0.023906171 -0.032740027 -0.07802324 0.08755107 0.09662906 0.109475285 0.0606598 0.039916836
-0.112561315 -0.07722238 0.1216403 0.10830511 -0.08102908 -0.11686411 0.036205463 0.10334472
-0.00804235 0.05762022 -0.11555213 0.030735373 -0.09928516 0.040265348 -0.018860012 -0.016088942
-0.03754186 -0.07162859 -0.004321472 0.10109413 0.0776428 -0.11667297 0.09470562 -0.07084396
0.07324323 -0.03042692 0.0204329 -0.0654733 0.0077902027 0.022795768 0.013104679 -0.0883119
-0.026464036 -0.124246374 -0.07477148 -0.1025403 -0.0860985 -0.10392692 -0.03419484 -0.002659192
0.11061601 0.0075080115 0.011168181 -0.05691629 0.09012342 -0.046944268 0.1128562 0.11284499
-0.10771762 -0.046661504 0.09334649 0.0906658 -0.026017524 0.018423084 0.105840206 -0.10913071
0.11780502 -0.05805028 -0.018308107 0.08098555 0.008166483 0.08985013 -0.07179431 -0.08214714
0.10951278 -0.011496204 0.011006068 0.11654239 -0.1224902 -0.041736495 -0.10909932 -0.03817619
0.046129853 -0.06981068 -0.018175744 0.119010806 -0.024207648 -0.07975322 0.061579138 -0.069492534
-0.11462904 -0.0631337 0.07580044 -0.005121931 0.09732238 -0.07716856 0.010542543 0.077932656
0.07183568 0.026839748 0.063400164 -0.05398802 0.008479949 0.05028764 0.04858027 -0.12123289
-0.044470318 -0.07946324 0.12439054 0.0035901512 -0.11660808 -0.08168241 -0.111501545 0.046780158
00000000: 0326 89bd 2d40 9b3d 5992 463d 70b9 c83d
00000010: d035 fe3a 3cb8 9bbc 91b7 f03d b255 d03d
00000020: 5259 62bc 69c6 e2bd 53f6 d1bd 4a1e 083c
00000030: c5a9 c5bd b83d e9bd 82e9 943c 93f0 713c
00000040: 0030 5fbd d790 35bb 0be4 7cbd 427e b1bc
00000050: 024f c6bd c9ef ab3c a2e4 88bb 65f3 a5bd
00000060: a30e c13c f70c a83d a7d9 f8bd 25e0 e7bd
00000070: 1dda 55bd 695e 6dbd 0156 dfbc 5468 f1bd
00000080: d252 be3d 9d38 a2bc 557e 363c ff8f 5e3d
00000090: 2fa0 7fba d701 223d a890 af3d f791 87bd
000000a0: 5408 f5bd ad6c 92bd 7c53 3ebc 78bb c23c
000000b0: 0a88 f23d b0a9 963d 73c3 f0bd cbc6 dd3d
000000c0: d232 f3bd 7d7b cdbd c67e a73d f16c 473a
000000d0: 5af8 f1bd df1a 893d a003 e3bd ad0e cf3d
000000e0: 3da4 f9bd 5eeb babd 8433 663c 7d4c d3bd
000000f0: 0aea 1dbd a11d 553d dd1d f83d bc90 4ebd
00000100: 0dea 67bc 4f4d 9e3d 0bab 43bc 4ed5 4b3d
00000110: 363f ccbd 4249 513d 9748 03be 5ae6 6d3d
00000120: a008 4b3d 9405 583b ae0d 2e3d 2c35 7c3d
00000130: 7668 5abd 1037 1f3d e5af ddbc 0924 1c3d
00000140: 22e1 1c3c f9d7 c43d 729b da3d 36e2 b03d
00000150: 361a 65bd ac49 babc 0e02 f83c 66e7 acbc
00000160: 7a82 8b3d 29c9 7f3d 3fde 583c 0f4d a53d
00000170: 9e5d 16bd 99aa 663d e7b1 a7bd 38b0 a13d
00000180: 2806 babc f51e b5bb a513 e5bd 26cc a4bc
00000190: 2cec 8c3d ecf0 d8bd 34dd 8c3d 362e cdbd
000001a0: 49cf b03c 71e8 213d fcf3 f43d 652c 47bd
000001b0: f682 44bd 4963 6cbd 651c bdbd 40ec 673d
000001c0: ac23 8e3b 9bfc babd 7837 f4bb e873 eb3d
000001d0: 5cb4 bbbd 849b e2bd 5828 993d 60e0 9c3c
000001e0: 0864 7dbd ac39 b5bd 4fd9 d33d 8a4c 103d
000001f0: 506e fe3d 3aa1 ccbd 01eb 863c ce90 4f3d
00000200: 5bcd e8bc ed5f 783c b88d f9bd 8fb7 ef3c
00000210: a549 e63d 7d78 ef3d 4c79 ebbc 2821 343d
00000220: 6b10 763c 9312 df3d 49fd c7bd 8f89 283d
00000230: 905d cc3d 5dcb 8a3c 8d6f 90bd 72f1 5eba
00000240: e0d6 c3bc 681a 06bd a6ca 9fbd fa4d b33d
00000250: 75e5 c53d 9434 e03d 6976 783d d67f 233d
00000260: 8c86 e6bd c426 9ebd 8d1e f93d 12cf dd3d
00000270: 93f2 a5bd 7356 efbd 2e4c 143d 66a6 d33d
00000280: 10c4 03bc 2e03 6c3d 98a6 ecbd c0c8 fb3c
00000290: 0556 cbbd 47ed 243d 5080 9abc f5cc 83bc
000002a0: 7ec5 19bd 03b2 92bd 229b 8dbb 700a cf3d
000002b0: 3003 9f3d 3df2 eebd 05f5 c13d a316 91bd
000002c0: 8c00 963d e041 f9bc e662 a73c de16 86bd
000002d0: f544 ff3b 31be ba3c 02b5 563c dfdc b4bd
000002e0: 1bcb d8bc e274 febd ca21 99bd a600 d2bd
000002f0: 6954 b0bd a3d7 d4bd e30f 0cbd d745 2ebb
00000300: a68a e23d c405 f63b bffa 363c 0e21 69bd
00000310: a192 b83d a248 40bd 2721 e73d 461b e73d
00000320: 0e9b dcbd 2220 3fbd 722c bf3d feae b93d
00000330: b422 d5bc 02ec 963c c0c2 d83d ec7f dfbd
00000340: c243 f13d 21c6 6dbd e2fa 95bc c1db a53d
00000350: b6cc 053c 5803 b83d e508 93bd c23c a8bd
00000360: 3d48 e03d 935a 3cbc cc52 343c c7ad ee3d
00000370: 24dc fabd e3f3 2abd 776f dfbd a35e 1cbd
00000380: a8f2 3c3d e7f8 8ebd 4ce5 94bc f0bb f33d
00000390: 1e4f c6bc a855 a3bd 683a 7c3d 1a52 8ebd
000003a0: a1c2 eabd 3e4c 81bd 433d 9b3d dfd5 a7bb
000003b0: f550 c73d 8d0a 9ebd a1ba 2c3c 289b 9f3d
000003c0: 961e 933d 08df db3c f2d7 813d 8b22 5dbd
000003d0: 7cef 0a3c 6afa 4d3d 1bfc 463d f348 f8bd
000003e0: 8226 36bd a0bd a2bd 78c0 fe3d be48 6b3b
000003f0: 38d0 eebd 1b49 a7bd ec5a e4bd 8d9c 3f3d

gnn_layer_1.gconv.u_fc.bias f4 [64]
0.1016435 0.014068694 -0.08116004 -0.07882448 -0.066289306 -0.061414503 -0.10963304 0.057265967
0.08868615 0.053555496 0.04708436 0.03089061 -0.03973766 -0.0010822099 0.0029409742 -0.004753867
0.14801514 -0.03855323 0.004072323 -0.10255931 0.0028894246 -0.052558333 0.054529242 -0.05458457
-0.005178258 -0.06391223 -0.009644296 -0.10327737 -0.015167904 0.006277064 -0.10113913 -0.039740447
0.08307652 0.009399707 -0.030055521 0.07044035 -0.025059229 -0.021609139 -0.061347395 -0.059050925
-0.0129111335 0.03177215 0.050411038 0.12304874 0.05996613 0.013736546 0.09332467 0.0867298
-0.078713685 -0.10897439 0.02390935 0.032058585 -0.1165213 -0.025598258 0.112901315 -0.02346984
-0.007472879 0.073845096 0.09602858 -0.055747613 -0.07780262 0.09933793 0.05999644 0.092565656
00000000: 782a d03d 6180 663c 3c37 a6bd bb6e a1bd
00000010: b0c2 87bd c68d 7bbd 4a87 e0bd b88f 6a3d
00000020: 16a1 b53d 025d 5b3d 88db 403d 4e0e fd3c
00000030: f5c3 22bd f0d8 8dba 5cbd 403b 54c6 9bbb
00000040: 4891 173e fee9 1dbd 1f71 853b 9e0a d2bd
00000050: 805c 3d3b 6847 57bd 0e5a 5f3d 1294 5fbd
00000060: 60ae a9bb 6ae4 82bd 1c03 1ebc 1683 d3bd
00000070: cd82 78bc d4af cd3b 0822 cfbd e1c6 22bd
00000080: 0624 aa3d 3b01 1a3c ff36 f6bc 0843 903d
00000090: 0349 cdbc a605 b1bc 6847 7bbd 62df 71bd
000000a0: 3889 53bc 8423 023d ce7b 4e3d fa00 fc3d
000000b0: 0b9f 753d 400f 613c 0121 bf3d 659f b13d
000000c0: a434 a1bd f72d dfbd 8bdd c33c dd4f 033d
000000d0: b8a2 eebd 70b3 d1bc ce38 e73d d243 c0bc
000000e0: 0ddf f4bb 193c 973d a2aa c43d 9c57 64bd
000000f0: fb56 9fbd af71 cb3d d4be 753d 1093 bd3d

affinity_1.A f4 [64, 64]
0.9752937 -0.087889865 -0.12170251 -0.022905067 -0.1000675 -0.035018966 0.11535765 -0.043197513
0.074698076 0.030363604 -0.06635347 -0.07651195 -0.023606703 0.11094773 0.10996197 0.035093337
-0.1180713 0.07490079 0.10229306 0.013446569 0.03915699 -0.085195675 0.07388562 0.1093117
0.08636688 0.096682444 -0.008834064 -0.022950307 0.061140627 -0.05334975 -0.037560567 -0.028302744
-0.10039234 -0.06595734 -0.10315591 -0.11105712 0.08582029 0.02215238 -0.12373875 0.004785776
0.03913051 -0.07160868 0.065982565 0.090512216 0.09095316 0.09385638 -0.06847964 0.063719034
-0.11982036 -0.12071502 -0.07727073 -0.06900594 -0.020342082 -0.123043865 -0.021570385 -0.07886627
0.10360567 -0.002373457 0.08632119 -0.05652246 0.056799814 0.042690277 0.012452871 0.12380554
-0.03960949 1.0532339 0.03424935 -0.10189031 0.118415356 -0.024684802 -0.033975676 -0.051073402
0.08805773 0.033790022 0.088681325 -0.0016881824 0.046758592 -0.0143969655 0.113934636 -0.09996627
0.0065175295 0.08153303 -0.11645758 -0.035615012 -0.07775338 0.038506225 -0.12364951 -0.121754095
-0.09255296 -0.08953299 -0.07393478 -0.11495897 -0.029522702 0.07495676 -0.057160646 -0.12289454
0.065773174 -0.07063852 0.10085654 -0.038162008 0.115626246 -0.0992244 0.045015454 0.03476861
0.046252295 0.00739263 -0.06622192 0.07758486 0.105378866 -0.028210118 -0.11368531 0.10193147
-0.10451411 -0.09882955 -0.04391539 0.015168071 -0.028536499 0.07271634 -0.037271053 0.08107197
-0.07060018 -0.09546982 -0.058878347 0.07265596 -0.08698709 -0.04759501 -0.03475359 0.051083922
0.074735746 -0.07042585 1.09114 -0.0013969541 -0.084017664 -0.10404767 0.052035168 0.09074272
-0.113385886 0.10467845 0.069989204 0.100802615 0.003939301 0.119584665 0.079590276 -0.05426383
-0.109733805 0.08252305 0.017184272 0.053089708 0.03818299 -0.07891126 0.026667938 0.013824895
0.0008376986 0.10284078 -0.06208113 -0.06415622 0.037294358 -0.09587425 -0.06541805 0.02382432
0.05905728 0.02254416 0.039798707 -0.10654476 0.008394808 -0.030630946 0.02453874 -0.08175893
0.03190124 0.116574034 0.09776446 0.12368408 -0.06045115 0.015834272 0.11160192 0.095911264
0.015998468 -0.116758555 0.047370374 0.007879317 -0.1178789 -0.053236082 -0.04523529 0.0182129
-0.057086542 0.100645125 0.035198405 -0.117667675 0.011013687 -0.12112044 0.0050154924 -0.09269276
0.08208001 -0.092353925 0.048751548 0.9513649 -0.09994969 0.06510274 -0.067402765 0.008730158
-0.036177635 0.11960232 -0.017963216 -0.014134586 0.10138564 0.03484294 -0.0737195 0.09628251
0.04395181 -0.05167912 -0.06531964 -0.04389642 -0.104713514 -0.020005032 0.09898427 0.02397804
0.12400989 0.0074916184 0.09896794 -0.003249243 0.080327764 0.059217006 -0.04082641 -0.09538533
0.0931852 -0.062238976 0.02790901 0.04653035 0.02426301 -0.00065742433 -0.08013165 0.021932453
0.0048879534 -0.11824468 -0.11402488 -0.09575416 -0.046694636 -0.030131757 -0.12244029 -0.0646196
0.053454205 -0.060867786 -0.03191285 0.022497073 -0.113643244 -0.117763475 0.045667917 0.08375186
-0.008758485 -0.0053054392 -0.082598925 0.015806675 0.066831276 -0.06599116 -0.029653639 -0.01206255
00000000: d9ac 793f 9aff b3bd 2a3f f9bd 68a3 bbbc
00000010: 30f0 ccbd 0c70 0fbd a240 ec3d e0ef 30bd
00000020: 4efb 983d 18bd f83c 54e4 87bd 4cb2 9cbd
00000030: d862 c1bc 9038 e33d be33 e13d 08be 0f3d
00000040: 5ecf f1bd 9665 993d 067f d13d 004f 5c3c
00000050: 1463 203d 127b aebd 5851 973d d0de df3d
00000060: 1ee1 b03d 7201 c63d c0bc 10bc 4802 bcbc
00000070: 986e 7a3d 4485 5abd 1cd9 19bd 28db e7bc
00000080: 809a cdbd a414 87bd 6843 d3bd ea71 e3bd
00000090: 8cc2 af3d e878 b53c be6a fdbd 00d2 9c3b
000000a0: 5047 203d 92a7 92bd de21 873d 785e b93d
000000b0: a645 ba3d c637 c03d 0e3f 8cbd 207f 823d
000000c0: 6064 f5bd 7039 f7bd 1e40 9ebd fc52 8dbd
000000d0: 70a4 a6bc 6cfe fbbd 60b4 b0bc a484 a1bd
000000e0: 362f d43d 008c 1bbb 2ac9 b03d 1884 67bd
000000f0: eca6 683d 00dc 2e3d 2007 4c3c c28d fd3d
00000100: 903d 22bd 5ed0 863f 0c49 0c3d deab d0bd
00000110: c083 f23d c837 cabc 142a 0bbd 5832 51bd
00000120: 9c57 b43d 6867 0a3d 8e9e b53d 0046 ddba
00000130: f085 3f3d 40e1 6bbc 9056 e93d 1ebb ccbd
00000140: 0091 d53b cafa a63d 5081 eebd 0ce1 11bd
00000150: 2a3d 9fbd b4b8 1d3d f43b fdbd 365a f9bd
00000160: 688c bdbd 125d b7bd 1e6b 97bd 9c6f ebbd
00000170: 98d9 f1bc ee82 993d 4821 6abd 22b0 fbbd
00000180: 16b4 863d eeaa 90bd e08d ce3d c44f 1cbd
00000190: 74cd ec3d 2a36 cbbd 2062 383d 8869 0e3d
000001a0: 0c73 3d3d e03d f23b 5c9f 87bd d0e4 9e3d
000001b0: e0d0 d73d e818 e7bc d8d3 e8bd 72c1 d03d
000001c0: 7e0b d6bd 2667 cabd a0e0 33bd 8083 783c
000001d0: 60c5 e9bc 4eec 943d 88a9 18bd 1009 a63d
000001e0: d496 90bd ae85 c3bd 6c2a 71bd a6cc 943d
000001f0: 4a26 b2bd fcf2 42bd c859 0ebd 603d 513d
00000200: 0e0f 993d 6e3b 90bd 7aaa 8b3f 001a b7ba
00000210: 7411 acbd f216 d5bd d422 553d 52d7 b93d
00000220: dc36 e8bd a861 d63d 8056 8f3d 9a71 ce3d
00000230: 4015 813b cee8 f43d 3a00 a33d c043 5ebd
00000240: 1ebc e0bd d801 a93d 08c6 8c3c 9874 593d
00000250: c465 1c3d 3a9c a1bd b876 da3c d081 623c
00000260: 0099 5b3a 309e d23d c848 7ebd 5664 83bd
00000270: f8c1 183d b859 c4bd e6f9 85bd 382b c33c
00000280: 0ce6 713d 88ae b83c f803 233d 2434 dabd
00000290: 608a 093c c0ed fabc 7805 c93c 3a71 a7bd
000002a0: e0aa 023d 5ebe ee3d bc38 c83d 144e fd3d
000002b0: a09b 77bd e0b6 813c 8c8f e43d 206d c43d
000002c0: 380f 833c 1c1f efbd 7007 423d 4018 013c
000002d0: 7e6a f1bd 140e 5abd a448 39bd 3833 953c
000002e0: 94d3 69bd 081f ce3d 342c 103d c0fb f0bd
000002f0: c072 343c fe0d f8bd 0059 a43b b4d5 bdbd
00000300: 9019 a83d 0e24 bdbd b4af 473d a68c 733f
00000310: 6cb2 ccbd 9654 853d 760a 8abd f008 0f3c
00000320: 002f 14bd 10f2 f43d 9827 93bc c094 67bc
00000330: 46a3 cf3d 78b7 0e3d 40fa 96bd c42f c53d
00000340: d006 343d 7cad 53bd 4ec6 85bd bccc 33bd
00000350: 0a74 d6bd 98e1 a3bc 44b8 ca3d 986d c43c
00000360: e6f8 fd3d 407c f53b b4af ca3d 40f1 54bb
00000370: e282 a43d 888d 723d 9839 27bd 6259 c3bd
00000380: e2d7 be3d 4cee 7ebd 70a1 e43c 9c96 3e3d
00000390: 38c3 c63c 0057 2cba 101c a4bd b0ab b33c
000003a0: 202b a03b 442a f2bd e085 e9bd c21a c4bd
000003b0: e042 3fbd e0d6 f6bc fac1 fabd 4857 84bd
000003c0: ccf2 5a3d 8050 79bd 0cb7 02bd c84b b83c
000003d0: cabd e8bd fa2d f1bd 480e 3b3d 1886 ab3d
000003e0: c07f 0fbc 40d9 adbb a029 a9bd 007d 813c
000003f0: d6de 883d 6026 87bd 30ec f2bc 00a2 45bc
